data/amass/ACCAD/Male2Walking_c3d/B10 -  Walk turn left 45_poses.npz (npz, 960776 bytes, 5 tensors)

trans f8 [718, 3]
00000000: bad4 29b8 d8b9 dabf e308 1600 867a 04c0
00000010: acb2 4eec 633c ec3f a45b e751 f5a9 dabf
00000020: 977b 8f5d d97b 04c0 eb7d 06f4 f539 ec3f
00000030: 3298 e295 40a2 dabf 0815 fd96 937c 04c0
00000040: e12b 4838 d23c ec3f 56ae 9045 02a2 dabf
00000050: 5981 b8f4 3e7b 04c0 a998 be97 e241 ec3f
00000060: 68d3 a5bb 4ba3 dabf d5ed cb67 7b7d 04c0
00000070: dd95 742e 0248 ec3f c375 9aa5 c4c9 dabf
00000080: 69eb f8d7 077c 04c0 00d6 822c aa42 ec3f
00000090: 9ff1 d721 9aca dabf 1068 4359 387c 04c0
000000a0: 7802 0d7c e540 ec3f a888 3f32 51ca dabf
000000b0: 9753 7d2e 517c 04c0 30f3 f966 1f43 ec3f
000000c0: 627e cec9 eac9 dabf c96b 8b3a d07e 04c0
000000d0: a67a 87de 6e48 ec3f 7541 f0b8 59ca dabf
000000e0: 8642 a7d6 1d7f 04c0 c48b a08c cd49 ec3f
000000f0: 2c89 f3fc d8ce dabf 14be 74e1 797d 04c0
00000100: e4c4 f995 1b4d ec3f 9abe 50db 5acb dabf
00000110: 493b bba8 b67c 04c0 4133 d38f 164c ec3f
00000120: 4594 b2ce eec7 dabf 6823 bfab a07c 04c0
00000130: 1b79 81e1 114c ec3f 7989 fec5 0fc7 dabf
00000140: ecb4 8a5a c87c 04c0 dbd3 1211 414c ec3f
00000150: 530e e5da 0bc8 dabf c4e7 fdd8 7b7c 04c0
00000160: 4c57 2e05 714c ec3f e9b1 a029 8acb dabf
00000170: e902 55a8 227c 04c0 e9fa cc51 8c4c ec3f
00000180: a109 e826 d4cf dabf 3885 da70 5f7b 04c0
00000190: ca20 f88c 3b4c ec3f 8ced 9cf2 e5d1 dabf
000001a0: ca1b 3d4f e37a 04c0 aaeb 8cf6 ab4c ec3f
000001b0: 87d7 576e 3cd2 dabf ea88 7594 c37a 04c0
000001c0: 9097 6953 7b4d ec3f de38 fade 2fd2 dabf
000001d0: d7b5 d67f b27a 04c0 9e65 2092 854e ec3f
000001e0: 71a3 f233 77d1 dabf 4737 80a6 597a 04c0
000001f0: 9b63 3ec6 e54c ec3f 5930 724a 62d2 dabf
00000200: 4e1e 3d81 0e7a 04c0 0abe 01e0 024b ec3f
00000210: cec8 49d4 68d6 dabf 3040 3c90 2c79 04c0
00000220: 5223 5fab 6b4a ec3f eb76 4f7a e8da dabf
00000230: 122e fa0d c177 04c0 b279 62a3 b84a ec3f
00000240: 334e a70d 3ee0 dabf f728 a8d6 0077 04c0
00000250: e728 5bdd 184b ec3f fd82 c184 37e2 dabf
00000260: 073f 5968 9176 04c0 3b17 b34e f04a ec3f
00000270: cdb1 3e02 d7e0 dabf 7032 874b c975 04c0
00000280: cd04 99e0 9e4a ec3f 0c1e 2643 4fe2 dabf
00000290: 6c39 bac8 e074 04c0 1de7 d768 774a ec3f
000002a0: 2a17 7a2d 47e7 dabf 6376 b1e6 4774 04c0
000002b0: ed46 cf82 eb49 ec3f 5008 8a87 d7e8 dabf
000002c0: 87e0 f796 8f73 04c0 e896 290a b64a ec3f
000002d0: c0f1 1889 46e7 dabf 34d3 47b8 6b72 04c0
000002e0: 5fee aa5d 2e4b ec3f fe01 3a52 41eb dabf
000002f0: a551 b50a aa71 04c0 8855 a6e8 f94a ec3f
00000300: 80ca 39c4 13ef dabf 1d64 a3d5 dd70 04c0
00000310: a891 24f0 1d4b ec3f b1d3 48b8 94f4 dabf
00000320: d552 19ad 976f 04c0 2f0d 64ac 3949 ec3f
00000330: dd6e 8763 9dfc dabf 2e3a ceec 9c6e 04c0
00000340: b4ee 721b 4448 ec3f 4c91 3ac0 4aff dabf
00000350: 7f12 84c3 396d 04c0 6acf 8064 ef46 ec3f
00000360: 2431 a5de 7600 dbbf 5d92 ff90 f66b 04c0
00000370: 144a fa58 1646 ec3f c91d ce6b 3d03 dbbf
00000380: a07e 2347 416b 04c0 8981 5e4b 3246 ec3f
00000390: 64e5 8a44 4005 dbbf f74f d0ac ea69 04c0
000003a0: 9561 22d4 7246 ec3f cc27 f78a 2406 dbbf
000003b0: bd71 36e7 5468 04c0 fc01 5ba2 d545 ec3f
000003c0: e9ec b329 cd08 dbbf e9ee 62dc a966 04c0
000003d0: 6917 1c86 c344 ec3f 07c3 76dd 5210 dbbf
000003e0: 7ff7 a845 9e64 04c0 94ed 5c3c fd45 ec3f
000003f0: 0ff0 22de 0015 dbbf 6ba5 2373 a762 04c0
00000400: 4d24 bf20 5e46 ec3f 3e26 93fb 6017 dbbf
00000410: b25d 2836 1561 04c0 eec3 b2f3 f144 ec3f
00000420: 0f3b aa8b 0e1d dbbf cf1f 946d ea5f 04c0
00000430: 6cb5 399e 2444 ec3f b7bb 89e9 d222 dbbf
00000440: d6b4 7485 805e 04c0 368b e834 e342 ec3f
00000450: df34 fb58 f028 dbbf 48af 839c 415c 04c0
00000460: 0508 3641 a241 ec3f c7c7 918c ac31 dbbf
00000470: a2d6 bfe2 7e59 04c0 997b b2a5 1141 ec3f
00000480: c75f 0c04 fc38 dbbf db46 a216 1257 04c0
00000490: e9b9 1bb5 1841 ec3f 853b 7ac3 313e dbbf
000004a0: b083 221b 5f55 04c0 b5e4 3ab9 c940 ec3f
000004b0: de83 c1e7 6247 dbbf 2630 f446 7f54 04c0
000004c0: 4fa7 a079 d63f ec3f 9576 bc4b 7b50 dbbf
000004d0: 245e 66c2 4253 04c0 0331 7a85 053f ec3f
000004e0: 37a6 fdfe e256 dbbf 6bb3 4f71 3451 04c0
000004f0: 3fd4 7b2d ab3c ec3f 545d b80e c760 dbbf
00000500: 3f68 a5cd 574e 04c0 9a28 c3d2 7c3b ec3f
00000510: 1e4c 42b9 7d6c dbbf 7f2f 7513 774b 04c0
00000520: aa91 0b7a fa3a ec3f 343c 18ac 0c78 dbbf
00000530: 93b3 1f2d 8549 04c0 2730 3719 0e3a ec3f
00000540: b677 8810 fe82 dbbf 7b16 2ae3 b647 04c0
00000550: e21c cb06 5839 ec3f 4328 3e6a 968b dbbf
00000560: ed05 a326 9045 04c0 4baa d19f f639 ec3f
00000570: b431 ac97 7c96 dbbf 0da7 a9ce 1f45 04c0
00000580: c1d0 db9b 223b ec3f 70ab f2c8 00a2 dbbf
00000590: 8151 6d70 e945 04c0 ee73 5e92 253c ec3f
000005a0: 0240 6350 fba3 dbbf 4584 388c 7b45 04c0
000005b0: 9a77 57cc e53b ec3f 8381 ce8d d5ba dbbf
000005c0: e0ae 27f6 f93e 04c0 5141 c842 e938 ec3f
000005d0: 233c 37a8 3dc2 dbbf f4e2 0b9d 873d 04c0
000005e0: 3899 3685 d038 ec3f 30b1 4c81 95c7 dbbf
000005f0: 2464 e29c 823b 04c0 25b4 7406 1838 ec3f
00000600: 6a35 db28 e6e0 dbbf 5320 08b9 9035 04c0
00000610: 6200 060d e234 ec3f 216e 83ea a7e7 dbbf
00000620: bd2a 0116 c832 04c0 e9ab 63bc d732 ec3f
00000630: 4919 d357 bbea dbbf 606a 8ca3 8d31 04c0
00000640: 6df7 91d5 0632 ec3f 504c bdc1 f3fb dbbf
00000650: 0f96 160d 432b 04c0 db0b bc6e 442d ec3f
00000660: 0354 d4c0 9d0c dcbf f81b 4fa0 0928 04c0
00000670: d106 0047 c52c ec3f 2a9f 3615 0e1a dcbf
00000680: f8d3 453f d824 04c0 decf da5c a929 ec3f
00000690: 3856 6ca9 a122 dcbf 085a 7a6c 2721 04c0
000006a0: 1723 6f70 f224 ec3f 6e29 7141 972e dcbf
000006b0: 8b0a 66cc 901d 04c0 6e67 2f96 a221 ec3f
000006c0: 97c5 a1e9 413e dcbf 7cd8 a2d0 851a 04c0
000006d0: a834 8035 861e ec3f 39d2 5325 474a dcbf
000006e0: 004c 5582 fa18 04c0 bda2 ca93 3b1e ec3f
000006f0: 63d9 ecde cf52 dcbf 4de5 4b79 e812 04c0
00000700: c1c7 11c0 7c19 ec3f 8299 8999 ee60 dcbf
00000710: d4c5 1e83 3a0e 04c0 e5d0 02c1 a416 ec3f
00000720: 2bd4 1a69 186e dcbf 003a a3d2 0b0b 04c0
00000730: 410f f3ba b615 ec3f 60c3 a51c e07c dcbf
00000740: 0206 aaa6 df08 04c0 b766 0a86 1515 ec3f
00000750: 5bc3 15b3 f983 dcbf 612c ae09 e603 04c0
00000760: c0b3 483d b811 ec3f 28d3 abea 1e8c dcbf
00000770: 9f62 458c 9afd 03c0 7187 5b86 4511 ec3f
00000780: 1949 672a ae94 dcbf de93 04bc ebf7 03c0
00000790: e1f4 df10 c211 ec3f 5b53 e8c0 ada2 dcbf
000007a0: 76b8 d674 0bf2 03c0 7d8a 4e25 f612 ec3f
000007b0: 8d35 8266 7bab dcbf 17e0 1bdf afea 03c0
000007c0: 3bcc c3b4 7e13 ec3f 8de4 3b5a 3fb5 dcbf
000007d0: f98b 7c7e 00e4 03c0 9a76 506c b813 ec3f
000007e0: cd93 e3d5 8abc dcbf e175 085b 4ede 03c0
000007f0: 186b a578 fe13 ec3f 8a0b f7df 30c5 dcbf
-0.4175931738348698 -2.5598258978580914 0.8823718657855202 -0.4166234302369338 -2.560473185483214 0.8820752874489107 -0.41615309369297215 -2.560828380201773
0.8824244593864671 -0.41613823693726226 -2.56017867267671 0.8830426181564422 -0.41621678662277484 -2.5612705334767534 0.8837901027042637 -0.41856495067790095
-2.560561835559771 0.8831377858502378 -0.4186158495429257 -2.560654351586898 0.8829219267718846 -0.4185984602646706 -2.560701716613447 0.8831936846978348
-0.4185740443008169 -2.561920602206986 0.8838419290803656 -0.4186004930534389 -2.562068631152502 0.8840091463683781 -0.4188749761798529 -2.5612676252128583
0.8844125680172081 -0.4186617986442599 -2.5608952695978684 0.8842881020624206 -0.4184529322176938 -2.560853330393389 0.8842858700188886 -0.41839975676898394
-2.5609290193157133 0.8843083699672393 -0.4184598577159921 -2.5607830955968627 0.8843312359992779 -0.41867307725149644 -2.5606129790252123 0.8843442533178322
-0.4189348583169253 -2.5602406326949243 0.8843057397180243 -0.41906117146182775 -2.5600038710140085 0.8843593421400915 -0.4190817906922963 -2.5599433515900403
0.8844582204007896 -0.41907879614963217 -2.559910773029269 0.8845851758989516 -0.4190347678473279 -2.559741307056274 0.8843869087169084 -0.4190908171665391
-2.5595979782845353 0.884156644357007 -0.41933651667853844 -2.559167029226977 0.8840845439054681 -0.4196110910832959 -2.5584736911748758 0.8841212454897713
-0.4199366696677515 -2.5581070680683484 0.8841671298371495 -0.4200571819729218 -2.557894530509546 0.884147790632347 -0.4199731370852334 -2.5575128460534913
0.8841089617418675 -0.4200628429175317 -2.55706936662971 0.8840901420328212 -0.42036609116654466 -2.556777765551304 0.8840234331966862 -0.4204615424752136
-2.5564262194057537 0.8841200064168477 -0.4203659380762268 -2.5558695218009237 0.8841773824164639 -0.4206088355058738 -2.5555001103004593 0.8841523689213071
-0.42084211504622004 -2.5551106157768246 0.884169549015998 -0.42117803570300355 -2.5544885180810106 0.8839386336334537 -0.42166838378555643 -2.554010248225743
0.8838215385544204 -0.4218317868456054 -2.553332831829095 0.8836590731575431 -0.4219033407469104 -2.552716381835394 0.8835555780263484 -0.4220727494034376
-2.552370601435385 0.883568904118918 -0.4221954984055485 -2.5517171383926285 0.8835996764419628 -0.42224992342800927 -2.5509431899538115 0.88352472028788
-0.4224121958975063 -2.550128671426013 0.8833940142946918 -0.4228713190778283 -2.549130005091626 0.8835436037983748 -0.4231569451619643 -2.5481709475758882
0.8835898055632555 -0.4233019310746363 -2.5474037390774464 0.8834161529285873 -0.42364848746449096 -2.5468338547543463 0.8833182421055148 -0.4240004807133419
-2.5461435724488224 0.8831649812094386 -0.42437370957925497 -2.545047018784235 0.8830119393971932 -0.42490686156736185 -2.543699046592182 0.8829429851792724
-0.4253530540022407 -2.5425149696610396 0.8829463517448036 -0.42567104425045726 -2.5416853065402947 0.8829086892866572 -0.42623207695402054 -2.5412583869238174
0.8827926993883269 -0.42678720852004776 -2.5406546771516947 0.8826930624941557 -0.4271781435150816 -2.5396508076141138 0.8824058426240596 -0.42778183400647163
-2.5382534090140605 0.8822616688205642 -0.4284967717332523 -2.536848213208884 0.8821995147414345 -0.4292022400485991 -2.535898544816925 0.8820868008128898
-0.4298701440292193 -2.535016798707884 0.8819999821361331 -0.430394748451935 -2.5339663523197857 0.8820756074395119 -0.43105997859745604 -2.533752073814759
0.8822186512102449 -0.43176288245984207 -2.5341366561280556 0.8823421343582802 -0.43188364839897997 -2.5339270548579713 0.8823117247627466 -0.43327845428759576
-2.5307502013073275 0.8819471649494891 -0.43373052050896116 -2.530043818402527 0.8819353677579675 -0.43405664088165263 -2.529057717951689 0.8818473936167989
-0.43560174932357276 -2.526154943047041 0.8814554457058075 -0.43601415540408267 -2.5247956961732982 0.8812063865165075 -0.43620189262982884 -2.5241959359384936
0.8811067744534121 -0.43725294036739104 -2.52112398362329 0.8805257952484412 -0.43827003317829866 -2.519549610532973 0.8804651629181653 -0.4390902716790942
-2.5179905837235275 0.8800856412476568 -0.4396137384913774 -2.516188476070287 0.8795101352671705 -0.44034367934059204 -2.514436337341356 0.879105847673811
-0.441299894481824 -2.51295054432836 0.8787261052072113 -0.44203356404549116 -2.5121965582161465 0.8786905180505397 -0.44255444307363784 -2.5092324711119205
0.8781112433773545 -0.44341626161476466 -2.5069475406423667 0.8777641076799482 -0.4442196871198713 -2.5053936439574045 0.877650609145782 -0.4451217918167938
-2.5043328304898305 0.8775737398129512 -0.44555513848086087 -2.501903606059884 0.8771630474999412 -0.4460522929869506 -2.498829933040113 0.8771083473368276
-0.4465747274490624 -2.496055096521089 0.8771677331530122 -0.44742912138581453 -2.4931859138515007 0.8773146370552493 -0.44796643267258035 -2.489593260801495
0.8773797541201768 -0.44856246768865377 -2.4863290673979432 0.877407275725733 -0.449007710338546 -2.4835478889424256 0.8774406772966783 -0.44953557845672576

mocap_framerate f8 []
00000000: 0000 0000 0000 5e40
120.0

betas f8 [16]
00000000: e01b 2de2 eb0d babf f9f4 c004 aee8 e8bf
00000010: 89c1 e0e5 f41f e93f cd4c d0b7 bbfa f03f
00000020: 9b4d f3ce 4592 e73f e5c7 22b4 317e e2bf
00000030: 02ec f27f f3b0 e03f 8e26 f10e 9ce3 d3bf
00000040: 8328 e612 a659 c93f c920 725a a5fd b03f
00000050: 2308 8452 b515 c1bf b9fd 94d5 6b35 a5bf
00000060: 68e5 eefd 862a f0bf 242b eba8 4aa8 d7bf
00000070: e687 abaa aecb df3f 1528 5832 51a2 c33f
-0.10177492401008648 -0.7784032910200543 0.7851509561351558 1.0612141781064566 0.7366055528640801 -0.5779045599249427 0.5216004847528668 -0.3107671876829067
0.19804836199574902 0.06637032945775724 -0.13347498444642367 -0.04142319662286859 -1.01038264458324 -0.36964670654258414 0.49680678050037697 0.15339102705212385

dmpls f8 [718, 8]
00000000: 001b fcaf 5f0d f2bf e484 657d 06e3 cfbf
00000010: caff 41b1 31ed f9bf f77a 31dc 60cc bc3f
00000020: 56cb cf18 0a08 cabf 0ccd bada a121 c1bf
00000030: 6615 525f 1b1b 03c0 f63a 382c bb85 fabf
00000040: 8e49 6205 f17e f2bf 9384 99c0 49d0 d5bf
00000050: fc63 1ea5 4ef7 f9bf 7e79 35e3 448f bc3f
00000060: ced5 eda5 0bc6 c7bf a03a 8ff4 fcd8 c0bf
00000070: 77bf 90c3 e4b8 03c0 274a be4b 7268 fbbf
00000080: ae55 a008 772e f4bf 4623 6c90 87a2 d4bf
00000090: 97a2 aa28 e8ef f8bf f26c 92b5 c076 ba3f
000000a0: e7be 0d28 3436 b1bf 8481 5347 03d8 b7bf
000000b0: 4ce5 48c8 88be 03c0 91a1 84d0 54b7 fcbf
000000c0: d5dc 92e1 c42a f5bf 46ff c418 f947 cbbf
000000d0: 696c 3141 882f f7bf cc07 7c0e 94de 963f
000000e0: 07ad 182c 503d b13f c032 e8d0 ead9 a2bf
000000f0: 1651 01c1 a573 03c0 91b0 b825 ca02 fdbf
00000100: 764c 75d4 af2d f6bf 2db7 a21f a2b6 cabf
00000110: 53c3 1627 1164 f4bf 38ce fed8 461a 84bf
00000120: b087 c22e a6c7 c23f 7888 e5c5 bb04 9bbf
00000130: abfa 8200 3b7a 03c0 7ea8 49cf 6ab5 fdbf
00000140: bf87 2ee9 bc7d f5bf 2d93 43f2 776b c7bf
00000150: 5b0d 831c b059 f1bf 2afe b389 7516 87bf
00000160: 3e2f be3e c8a3 c93f bb08 97df 8447 b1bf
00000170: 8b30 20ef fc0e 04c0 7cc2 17e9 d7f4 fcbf
00000180: 088a a8ac 488a f5bf c297 025a ec08 b9bf
00000190: 10cb 0cb8 c580 edbf 1ee9 1d93 06a4 aebf
000001a0: ac03 6ca9 22ab ce3f 294d 2b9c 90f6 b2bf
000001b0: 92ca 8ea2 69d9 03c0 8057 62cf ecd3 fbbf
000001c0: 25b7 d7f7 52b2 f5bf 873b 28b7 bb2c a8bf
000001d0: 6434 bf28 6e78 eabf cc7f ba58 3d7c b6bf
000001e0: 4790 ee00 0851 d23f dac4 3b27 cfae a8bf
000001f0: e17c d68f d9cf 03c0 6d5a 2a80 be43 fbbf
00000200: a0cc ba5f d948 f6bf 6c6a 790c 0931 acbf
00000210: e8dd 9015 3a4b e6bf 35f3 04e0 39a8 c1bf
00000220: aaa6 9880 9791 d03f 220b 0e2c bfb1 a5bf
00000230: c700 fa6f 595e 03c0 6418 dfa8 e954 fbbf
00000240: 131b 9b8c 9f85 f6bf 4768 d3df d0e5 a9bf
00000250: e833 a34a f3cb e3bf aaf4 65e4 c516 c6bf
00000260: a703 4db0 b8ef cf3f 9c66 342a bf59 98bf
00000270: 7c7c b55d 0618 03c0 0d63 4047 df73 fbbf
00000280: c42b c637 f43c f7bf 9760 4947 4ab3 b9bf
00000290: 602c 84f3 522a ddbf 136f 8127 02ea c7bf
000002a0: e3b4 8bb8 b1dc c73f 2505 32d3 1114 a4bf
000002b0: e5ab dd31 9b92 02c0 a78d 610a adfd fbbf
000002c0: b9d5 d391 a269 f7bf ba8b 629b 2b94 bebf
000002d0: 13da 1ee6 8ed3 d6bf a9d9 2375 8c41 c7bf
000002e0: 79d5 dd72 aaf3 c43f 1251 bebc 9fee 9cbf
000002f0: a815 d05e 8342 02c0 ad90 5ec7 5abc fcbf
00000300: 7309 43f8 983c f7bf b139 1f4b 41ff c0bf
00000310: 2506 fef2 a3ea d1bf a67a dcdb cc9a c6bf
00000320: 0e99 b7b3 e797 c43f 700d 9add 9da4 653f
00000330: 81f5 e9af d612 02c0 c527 28e3 00a8 fdbf
00000340: 0272 44c2 9ace f6bf fa9d d014 2c4f c2bf
00000350: ef3c c2d3 b6a9 cabf af91 2bb4 62c4 c6bf
00000360: 0be7 3fab 6dfa c53f 8db5 49e2 4ffc a73f
00000370: 5d82 78c5 ce01 02c0 b050 f7e8 89b9 febf
00000380: 68e5 e01d 716a f6bf 1cb4 3549 4d85 c3bf
00000390: e6f3 2bac e8ed c1bf a4fe f906 dea8 c7bf
000003a0: e407 9685 78cb c83f c566 308e 589c b93f
000003b0: 8b6f 73f3 08f8 01c0 61b4 ace6 f3f5 ffbf
000003c0: 27cc 11d4 0901 f6bf a4fd 2a57 b807 c5bf
000003d0: 9a25 8ce8 dcee b3bf b5ce e303 a18c c8bf
000003e0: 0523 080b 78f8 ca3f 6a7f eec4 eca7 c23f
000003f0: 681e 3079 36f5 01c0 c14c ab55 6b90 00c0
00000400: 9705 73dd 9c83 f5bf 8d54 9d08 dbc3 c5bf
00000410: fe34 f0ef 37bf 92bf 55e8 04f5 f81d cabf
00000420: ab84 9ccd 2fdd ca3f 5cec ef6b e06a c63f
00000430: a057 aaeb 98e9 01c0 f76c c631 1906 01c0
00000440: 877d 477f b8e8 f4bf c3c2 6c88 676e c6bf
00000450: 4fc7 4a5d 89c6 ab3f b625 d13a 2a60 cdbf
00000460: 905e a809 090f cb3f 2a4d c15c 0ebd ca3f
00000470: d8bb 7881 c7c0 01c0 91de 6eb9 1464 01c0
00000480: 5bf0 3172 aac0 f3bf b0b7 176a 275e cabf
00000490: 6110 ec7f 37fb c03f f4ce c6e7 8d37 d0bf
000004a0: 0354 0efb 65c0 cd3f 84cc 273e f100 d03f
000004b0: 1f80 372a c9a5 01c0 01aa 7eda fad1 01c0
000004c0: 5b5d 4a5e 49d2 f1bf e8ac 1575 7fcd d1bf
000004d0: 6072 8d7c 2f9e cc3f 72e4 1214 4d8a d2bf
000004e0: 5fcf 9ee3 dbdf d03f 50af 08e8 2329 d33f
000004f0: 0cc1 c339 90b3 01c0 440c 403c 5e79 02c0
00000500: f4b3 bfc7 4399 efbf 6986 c823 147d d5bf
00000510: 685f 674f 9608 cd3f 1bbf 3589 82fe d5bf
00000520: b09d d382 737c cf3f c506 c93f dbc7 d53f
00000530: 190e 9873 0110 02c0 76e3 78a1 98ef 02c0
00000540: 57f0 19e2 7104 efbf 52a8 c0d7 90ca d6bf
00000550: f441 c782 810c c73f 13d7 5840 7b8f d7bf
00000560: c66b f19c ddc3 c73f 92d0 96cb 626d d73f
00000570: cf7b 3efa 7f49 02c0 4d24 216f 4717 03c0
00000580: 34de a538 dfdf eebf dd35 203b 1bd7 d6bf
00000590: 8683 d9e0 beb4 c23f 91c0 85d8 6c09 d9bf
000005a0: 9cb7 2ead 80c8 bd3f 3c6f e10a bcf8 d83f
000005b0: 6041 2dc0 8d67 02c0 e3f0 5e18 4435 03c0
000005c0: d460 cb51 dfd1 eebf d3d6 8416 db47 d6bf
000005d0: 9693 12f3 855c bd3f 07ee 5805 3c30 dabf
000005e0: 4683 3207 cb8b a93f f2fb eb2b 414e da3f
000005f0: c5ee 0849 827f 02c0 a8b3 b266 6d51 03c0
00000600: ec24 d2a9 ffd4 eebf 2b97 513f 5670 d6bf
00000610: 9a0b 74d4 810f b63f 1e25 70c3 771b dbbf
00000620: 2039 b540 7ac1 8bbf defa b395 5d87 db3f
00000630: 7207 30d6 979c 02c0 da04 484a 1866 03c0
00000640: d3e2 6313 bdcd eebf 48d8 fe3e 24e2 d7bf
00000650: 3204 0d83 6dc8 b13f 1197 bffb 10b7 dbbf
00000660: 77c5 eec0 986a b5bf 982b eed5 ee9c dc3f
00000670: 28e0 b93a ddc1 02c0 8c1c 2dc7 7177 03c0
00000680: a5dc 5002 5ab0 eebf fcbe fc69 06db d8bf
00000690: 7be1 07e5 f0ff ab3f ea24 fc8d d903 dcbf
000006a0: 1326 49fa f0a1 c2bf 0c35 cb9a bbf1 dd3f
000006b0: cae8 dd5c f8df 02c0 9f07 5e26 de70 03c0
000006c0: a879 5e2e 8199 eebf 3d7b 2227 9a43 d8bf
000006d0: a69d df1f 83eb a33f 30be 2ebc 6559 dcbf
000006e0: a83c 7026 a1c0 c7bf d2c5 1512 04b5 df3f
000006f0: 1fa9 4844 31e8 02c0 6080 1b85 a65a 03c0
00000700: 1b01 6d91 bc7b eebf ecff 82f3 9b7a d6bf
00000710: 2edd 6fb0 df73 8b3f 24af e4c4 c229 ddbf
00000720: ebad 6b59 52f3 c9bf 1273 f64d 5317 e13f
00000730: 7cda f926 24e4 02c0 132d da17 0d49 03c0
00000740: e407 4a0e b655 eebf f28a 8946 6e53 d5bf
00000750: 58b0 92ed f773 6bbf 47c1 7ad4 ced5 ddbf
00000760: 14fa 4d21 b719 cdbf ea31 32d4 52eb e13f
00000770: 4ff8 ebff 5fde 02c0 d4a9 f09c 1141 03c0
00000780: 6bfe 5fc9 2c3c eebf 31a1 fec8 d941 d4bf
00000790: ccea b1ba d963 86bf 50d4 d69d c117 debf
000007a0: d03b 1ac8 b72d d0bf ed91 d535 0467 e23f
000007b0: dab1 652b b8da 02c0 75f4 99e0 cb2e 03c0
000007c0: 0945 acec 321e eebf 8707 9461 f663 d3bf
000007d0: 02ad 0956 e397 96bf fffa b48d b9a5 ddbf
000007e0: fa9d 551e 0591 d1bf 7393 0ecf 9dec e23f
000007f0: 79fa bc9f 40ec 02c0 b28c ed6a 1526 03c0
-1.1282650827794782 -0.2491157638824354 -1.6204087185033011 0.11249356628239214 -0.203370344271742 -0.13383887462769228 -2.3882358023571895 -1.6576492049532
-1.1559915743169742 -0.3408378964287035 -1.6228777360868198 0.11156111285297318 -0.18573136903766713 -0.13162195149785294 -2.4652800825642163 -1.7129996260379217
-1.2613439881291515 -0.32242001632453243 -1.558571013311086 0.10337452347669165 -0.06723333337663072 -0.09313984385835822 -2.4680343291517257 -1.794758619807997
-1.3229416667434652 -0.2131339426941798 -1.449104551945107 0.022333444007933953 0.06734181477138544 -0.036818826676698446 -2.4314684942747915 -1.8131810639852441
-1.3861540125988348 -0.20869852585513496 -1.2744304205809456 -0.009815743920490325 0.1467178085632077 -0.02638524432530473 -2.4346828498813315 -1.8567913148094983
-1.3431977375662283 -0.1829671795777811 -1.084396468519876 -0.011273306145539303 0.20031073630922863 -0.0674975438951461 -2.5073183709810727 -1.809776220816416
-1.3462607140032805 -0.09779240796578306 -0.9219692797399563 -0.05984516664371341 0.23959763786845423 -0.07407478153918547 -2.4811585140062755 -1.7392395115798251
-1.3560361558297214 -0.04721628771596103 -0.8272009654844052 -0.08783324638579798 0.2861957558727721 -0.048208688296549077 -2.4764891850787625 -1.704039097448596
-1.3927854289475263 -0.055061610005130074 -0.6966829701622688 -0.1379463523716368 0.2588862186263251 -0.0423717252042677 -2.4210690258188126 -1.7082306477109563
-1.4076228611390362 -0.05058148128746658 -0.6186462838901408 -0.17256997730502138 0.24950321777762705 -0.023779856635064975 -2.386730892277738 -1.7157891066801227
-1.4523813418079365 -0.10039200058361285 -0.45570825367821577 -0.18682887009605817 0.18642255316755216 -0.039215619116485 -2.321585073068024 -1.749432602454229
-1.463289804113954 -0.119448399959352 -0.35666248772341297 -0.18168788642624392 0.16368609055249886 -0.028254028220161827 -2.2824771315815333 -1.7959850108973499
-1.4522943208436032 -0.13278976600709094 -0.27994631509509055 -0.17659912810718942 0.16088577533009424 0.0026419719040988096 -2.2591985457681294 -1.853516471225235
-1.4254405582970553 -0.14304114357331327 -0.20830426540167177 -0.17786821172115938 0.17170496808812916 0.046846863148725416 -2.250882666340017 -1.9202975368726065
-1.4009867827538418 -0.15250555109688058 -0.14007290274449175 -0.1848409208359857 0.19370943567997678 0.10004189940846249 -2.246110822639769 -1.9975470553138381
-1.3752535137143782 -0.16429809814688412 -0.07786350896289776 -0.19179165544448087 0.210707669626821 0.1457496606426461 -2.2447328059968648 -2.0705172245885426
-1.3446320200313033 -0.17003953858025903 -0.018307565707847744 -0.20403968776537576 0.2098750833475028 0.17513661642428502 -2.2390612040862408 -2.127977742069216
-1.306816575226408 -0.17524427567834353 0.05424908889598489 -0.22949722167895253 0.21139634105269467 0.20889453438813038 -2.2191305270166417 -2.173867653556791
-1.2345375500435896 -0.20599835090928087 0.13266652818868166 -0.25339076647217884 0.23243403204529053 0.2500575167643506 -2.2059500978648567 -2.227529246321183
-1.113839500734534 -0.27816759523439183 0.2235774381796487 -0.28969122848827233 0.26366326550054525 0.29938600215495104 -2.212677432333413 -2.30926177092036
-0.9874590779633068 -0.335759196228628 0.22682455899370813 -0.3436590518895046 0.2459854496766929 0.3403232691672254 -2.2578152685907864 -2.3669903388039826
-0.9692925849954105 -0.3561136347731281 0.18006914983426692 -0.3681324127568228 0.18566484606966877 0.3660513866591454 -2.2858886289900293 -2.3863667184819293
-0.964828119888756 -0.3568790509605984 0.14614091853129824 -0.3912002672650568 0.11634067752922167 0.3901815515762228 -2.300563336735806 -2.4010087875341113
-0.9631191823528078 -0.3481357307349359 0.11469304260624677 -0.4091939975948837 0.04989466154916626 0.4110262803005177 -2.312260218224625 -2.414759447411104
-0.9635008160413725 -0.35060650046794944 0.08617412030075258 -0.42355150304554623 -0.013552622890213473 0.4301370584434333 -2.3264614804656327 -2.424851017306179
-0.9626145724024248 -0.37317758705046744 0.06946453523143317 -0.4330484827499826 -0.08365778646727572 0.447078427234993 -2.3446602428412184 -2.4333224831239644
-0.9590272946578763 -0.38836822843857965 0.05468704982553426 -0.4377349745341933 -0.14556705685599577 0.467879201093482 -2.359360433122764 -2.4301112172551735
-0.9562383561749828 -0.37912610837695465 0.038906190529640214 -0.44295638444143304 -0.1855660855949044 0.4954233337985815 -2.363375218837191 -2.4192629241006642
-0.9526045646998996 -0.3512334707302205 0.013404605457238174 -0.4556738779817684 -0.20273808828584036 0.5340973398884634 -2.3613970799445365 -2.4106695044953397
-0.9479627875409702 -0.333217209705409 -0.0033511965126163216 -0.4661748003955108 -0.22734727026177437 0.5599760193304608 -2.358581542385799 -2.4067718754715575
-0.9448455746750829 -0.31651920917876725 -0.010932637224177276 -0.4701999703787054 -0.25279039899117794 0.5750752498102522 -2.3567965879831094 -2.3978498026831923
-0.9411863920705922 -0.30297622231602656 -0.022063781858759242 -0.46324004019326986 -0.2744763180002959 0.591383842857438 -2.3653576354548105 -2.3935955384964354

poses f8 [718, 156]
00000000: 2317 88ba b1fd 8dbf de84 536e f9ea 0140
00000010: 732b f3ec 9bfa 0140 2d3a 20cd ab82 ad3f
00000020: 0470 8609 c20d 903f c36f f138 ac02 b0bf
00000030: fa49 cb1b 7386 9f3f 4ce8 6a8b 06e9 a6bf
00000040: f627 c59f 4b2f 9dbf 2496 9ca6 df75 8a3f
00000050: 0f87 c19b 9da1 a13f 407f c996 01ca 95bf
00000060: 28b9 1a62 5b4f 83bf c3db 2f72 1320 bdbf
00000070: 1ed7 66e5 009a b0bf 6e16 84d9 b675 a23f
00000080: fedd 6ff8 76bd ad3f c43f 2cc6 26c7 b43f
00000090: ebdd 330a 3598 cf3f 378a e2a8 f10c b3bf
000000a0: 753c 2871 9249 aa3f 5c78 8b71 1ea0 d2bf
000000b0: e072 b612 e9cc d13f b840 508c 26ce c13f
000000c0: d4c4 b88f ca3e c4bf e17c 72af 5040 c1bf
000000d0: 9893 bf20 834e a03f 9934 de34 02d2 bbbf
000000e0: ce6f ad98 ec03 62bf ee46 3c57 1196 85bf
000000f0: 0000 0000 0000 0000 0000 0000 0000 0000
00000100: 0000 0000 0000 0000 0000 0000 0000 0000
00000110: 0000 0000 0000 0000 0000 0000 0000 0000
00000120: d0a2 6d16 4802 acbf 0427 6f9d 5511 933f
00000130: c203 bcd4 e8ee 7a3f 8583 463e 6708 a73f
00000140: b09c dfb8 13f6 6dbf a520 ea80 13d4 dfbf
00000150: deb8 2f42 3d06 aa3f 0021 34f3 139b ae3f
00000160: 600a 25cc 1aa3 de3f a4e0 c85e f2aa 90bf
00000170: e390 42cc 5bc8 a73f ae28 85eb d54e 9f3f
00000180: 4d37 36c4 b63b ce3f d6f6 b2f1 d31e d0bf
00000190: 951a 7c3f c107 f0bf bddc 9852 8733 cc3f
000001a0: 56c8 4ed5 35a3 ba3f b6bc 108b 61fa f03f
000001b0: a7de 71be 1a85 c13f 1437 5be7 e15e d5bf
000001c0: 326c 5a4f cfec bd3f 6423 95da 0db9 6e3f
000001d0: 3f47 015a a83c db3f fc52 4213 bf1e c6bf
000001e0: 35f9 a92f 2664 d43f 3b80 008f 90f4 c4bf
000001f0: dce8 b8b0 a8ff c5bf d1e5 bd99 4f14 b13f
00000200: 8a00 e225 8857 c33f 91e7 7175 4bed bd3f
00000210: 80bb 8cef f996 bc3f d6a9 6490 f6f5 a53f
00000220: 83eb 72a9 fba6 dabf 2df8 e51a 0fdb bb3f
00000230: b14d c9fc 6fe4 b0bf dbff 704e f432 e8bf
00000240: 9f58 d798 35ad b8bf 2fc4 0ba7 3f46 b7bf
00000250: aee4 151d 6f1f c8bf e63e cdfb 793b bebf
00000260: 0054 c209 5015 aa3f 95b4 7b31 5bf2 e0bf
00000270: ae20 e99e b564 c2bf 17d3 e1dd a348 ac3f
00000280: fcef f38f 308e e6bf ba5e e0c1 afa4 93bf
00000290: 57a7 4d3f 63a3 b7bf 6a31 250c 60a0 d5bf
000002a0: a932 2545 0740 ddbf 6c44 9b12 d51f c9bf
000002b0: c54b 1384 bf03 e4bf e528 80a9 ba79 cbbf
000002c0: b6e1 1282 43e5 b0bf c9a1 3333 7a38 e0bf
000002d0: 751e db59 90a9 d7bf f662 6ba9 7de5 aebf
000002e0: ac9b 14b9 7859 b4bf 1454 2741 c928 c2bf
000002f0: 0170 5f2c 70fa b5bf da53 c55a 3f56 e4bf
00000300: e5f6 70d5 f269 d3bf 0b20 553f 93a2 adbf
00000310: 325f f524 5734 e4bf 67f4 a510 218b c6bf
00000320: c6b2 4e09 6de8 c0bf 368c ee97 0ae5 d7bf
00000330: 4ec7 8770 193b eb3f ae0b 2c2a 1ab9 d13f
00000340: 9c33 babd b16f b7bf 3f7e 758d 5efd dfbf
00000350: 5989 b4ad 9e31 9b3f 9140 4dc8 3313 ab3f
00000360: 3bce 19f0 4c23 e13f 72d3 959f 3488 a73f
00000370: 3af5 a5db 3bc0 d1bf 80bb 8cef f996 bc3f
00000380: d4a9 6490 f6f5 a5bf 84eb 72a9 fba6 da3f
00000390: 2df8 e51a 0fdb bb3f b04d c9fc 6fe4 b03f
000003a0: dbff 704e f432 e83f 9f58 d798 35ad b8bf
000003b0: 2fc4 0ba7 3f46 b73f afe4 151d 6f1f c83f
000003c0: e53e cdfb 793b bebf 0154 c209 5015 aabf
000003d0: 95b4 7b31 5bf2 e03f af20 e99e b564 c2bf
000003e0: 18d3 e1dd a348 acbf fcef f38f 308e e63f
000003f0: bb5e e0c1 afa4 93bf 57a7 4d3f 63a3 b73f
00000400: 6a31 250c 60a0 d53f a932 2545 0740 ddbf
00000410: 6d44 9b12 d51f c93f c54b 1384 bf03 e43f
00000420: e728 80a9 ba79 cbbf b6e1 1282 43e5 b03f
00000430: c9a1 3333 7a38 e03f 751e db59 90a9 d7bf
00000440: f462 6ba9 7de5 ae3f ad9b 14b9 7859 b43f
00000450: 1654 2741 c928 c2bf 0170 5f2c 70fa b53f
00000460: da53 c55a 3f56 e43f e5f6 70d5 f269 d3bf
00000470: 0c20 553f 93a2 ad3f 325f f524 5734 e43f
00000480: 68f4 a510 218b c6bf c6b2 4e09 6de8 c03f
00000490: 368c ee97 0ae5 d73f 4ec7 8770 193b eb3f
000004a0: ae0b 2c2a 1ab9 d1bf 9d33 babd b16f b73f
000004b0: 3f7e 758d 5efd dfbf 5989 b4ad 9e31 9bbf
000004c0: 9040 4dc8 3313 abbf 3ace 19f0 4c23 e13f
000004d0: 74d3 959f 3488 a7bf 3cf5 a5db 3bc0 d13f
000004e0: fc12 d7fb 21f8 8fbf 9415 b725 84e4 0140
000004f0: 83a4 9b48 76ed 0140 d49c e3d6 803b a93f
00000500: 686f 956e cbeb 923f c8f1 db0c 013d acbf
00000510: 2c45 53c1 01ea a53f ea58 a5bb 8a09 a9bf
00000520: 815c 6048 2e37 a0bf b95b e495 ccc0 823f
00000530: 9afb 5d2d b052 a33f c07e 7dd7 eda6 93bf
00000540: daf0 eea9 481f 643f 05f2 f088 ac05 bbbf
00000550: 6239 2cda b19c b1bf 4968 b244 042c 7e3f
00000560: 4999 45bb 7858 af3f 239c f97c 48fd b83f
00000570: c9d2 738e 4ee0 cf3f 4542 bfab 7b58 b3bf
00000580: 29af e701 adab ab3f 5f90 98a0 6eb7 d2bf
00000590: e2e8 f8d3 d0c8 d13f 891a c1cd c6d5 c13f
000005a0: 2fa1 c4e6 c494 c1bf 4b43 1dbf 0155 c0bf
000005b0: 4167 8f9f 9fef a53f e053 baac e508 bbbf
000005c0: bc5c a3d4 31b3 57bf 1c90 4d5b d617 82bf
000005d0: 0000 0000 0000 0000 0000 0000 0000 0000
000005e0: 0000 0000 0000 0000 0000 0000 0000 0000
000005f0: 0000 0000 0000 0000 0000 0000 0000 0000
00000600: c03d fddb abf9 adbf 8fee e902 e298 943f
00000610: 2ca2 33e9 20f9 833f b7d5 fe69 6624 a83f
00000620: c427 4871 fe68 86bf f6ec 9e8b 17a6 dfbf
00000630: f56d 9ae8 f4b7 a83f 5065 da93 f287 b03f
00000640: 3287 3ec5 6118 de3f 1574 6027 cea2 8bbf
00000650: 3f70 c18d ebf1 a73f 0b56 5b1c a360 9a3f
00000660: 0104 7b99 e4ab cd3f cb40 b2a7 f462 d0bf
00000670: 3ed1 9c58 f421 f0bf 5818 eedd a285 cb3f
00000680: 2ca4 5bfd baa5 ba3f 5d47 0f10 fd09 f13f
00000690: 7972 bbce 52d6 c03f bd93 4182 7f07 d5bf
000006a0: bf0f 97a2 28cd be3f d166 0f50 4b15 573f
000006b0: 7d61 e24e d178 db3f d7b1 b951 0f03 c6bf
000006c0: 6f6e 90c3 afe7 d33f 2a27 9928 7178 c4bf
000006d0: f216 f4d6 58e2 c5bf 9a93 2bb3 8965 ae3f
000006e0: 4cfa 00e5 88e9 c23f 5551 758c 0b2c be3f
000006f0: 80bb 8cef f996 bc3f d6a9 6490 f6f5 a53f
00000700: 83eb 72a9 fba6 dabf 2df8 e51a 0fdb bb3f
00000710: b14d c9fc 6fe4 b0bf dbff 704e f432 e8bf
00000720: 9f58 d798 35ad b8bf 2fc4 0ba7 3f46 b7bf
00000730: aee4 151d 6f1f c8bf e63e cdfb 793b bebf
00000740: 0054 c209 5015 aa3f 95b4 7b31 5bf2 e0bf
00000750: ae20 e99e b564 c2bf 17d3 e1dd a348 ac3f
00000760: fcef f38f 308e e6bf ba5e e0c1 afa4 93bf
00000770: 57a7 4d3f 63a3 b7bf 6a31 250c 60a0 d5bf
00000780: a932 2545 0740 ddbf 6c44 9b12 d51f c9bf
00000790: c54b 1384 bf03 e4bf e528 80a9 ba79 cbbf
000007a0: b6e1 1282 43e5 b0bf c9a1 3333 7a38 e0bf
000007b0: 751e db59 90a9 d7bf f662 6ba9 7de5 aebf
000007c0: ac9b 14b9 7859 b4bf 1454 2741 c928 c2bf
000007d0: 0170 5f2c 70fa b5bf da53 c55a 3f56 e4bf
000007e0: e5f6 70d5 f269 d3bf 0b20 553f 93a2 adbf
000007f0: 325f f524 5734 e4bf 67f4 a510 218b c6bf
-0.014644039635651368 2.239733564304159 2.247367716952277 0.05763756636598703 0.015677482444161242 -0.06254078283512769 0.030786322184960448 -0.04474659397006117
-0.028500730158420105 0.012920138618549855 0.03443615461652715 -0.02127840502578171 -0.009428705150039976 -0.11377069032447111 -0.0648499069273751 0.03605433850502214
0.058086126162319104 0.08116381014065072 0.24683249471830435 -0.07441625950972584 0.05134256011307851 -0.29102288330421344 0.2781317408314816 0.13910371638531216
-0.15816623704589594 -0.13477524344214145 0.03184900069007951 -0.10867322722170271 -0.0021991368316047538 -0.010540137743677982 0.0 0.0
0.0 0.0 0.0 0.0 -0.05470490716726817 0.018620813116092996 0.006575498100347356 0.044985987045271826
-0.003657377738807442 -0.49731910313904343 0.050828852013965906 0.0597769007090978 0.4787051194763645 -0.016277110133359543 0.04645048969658363 0.030574171543130184
0.23619732456830392 -0.2518815861074989 -1.0018932800173037 0.22032252820074474 0.10405289132794002 1.0611281807176005 0.13687452601492575 -0.33391616433515137
0.11689468085607826 0.003750350054052042 0.4255772475199712 -0.1728133052862616 0.31861261992152673 -0.16371352179067053 -0.1718645918752547 0.0667161703439867
0.15110875940081697 0.11690208070095155 0.1116787156904433 0.04289217484104639 -0.416441836812446 0.10881132513711185 -0.06598567887822672 -0.7562200100001023
-0.09639296514009964 -0.09091565922041477 -0.1884592906970161 -0.11809503934386675 0.05094385260705536 -0.529584499976084 -0.14369840869244882 0.05524170001527844
-0.7048571406917286 -0.019182916839865817 -0.09233684821597642 -0.3379135244947721 -0.4570329833266365 -0.196283945164882 -0.6254575328442732 -0.21465237881086022
-0.06599828649166892 -0.5068942070038754 -0.36972435736649994 -0.06034462636097786 -0.07949022787634757 -0.14186969453172138 -0.08585263331718808 -0.6355282566897771
-0.3033415874850632 -0.05788097522832921 -0.6313892099233043 -0.1761208850183806 -0.13209307627166406 -0.37335457646458126 0.8509642789706306 0.2769227420650918
-0.09154806978240376 -0.49983943762160615 0.026556472160458842 0.05288087673273013 0.5355591477841196 0.04596104095518329 -0.2773580212595622 0.1116787156904433
-0.04289217484104638 0.41644183681244606 0.10881132513711185 0.0659856788782267 0.7562200100001023 -0.09639296514009964 0.09091565922041477 0.18845929069701614
-0.11809503934386674 -0.05094385260705537 0.529584499976084 -0.14369840869244885 -0.05524170001527845 0.7048571406917286 -0.01918291683986582 0.09233684821597642
0.3379135244947721 -0.4570329833266365 0.19628394516488204 0.6254575328442732 -0.21465237881086027 0.06599828649166892 0.5068942070038754 -0.36972435736649994
0.06034462636097784 0.07949022787634759 -0.14186969453172144 0.08585263331718808 0.6355282566897771 -0.3033415874850632 0.05788097522832922 0.6313892099233043
-0.17612088501838064 0.13209307627166406 0.37335457646458126 0.8509642789706306 -0.2769227420650918 0.09154806978240378 -0.49983943762160615 -0.026556472160458842
-0.05288087673273012 0.5355591477841195 -0.0459610409551833 0.2773580212595623 -0.015609994409609744 2.2365801760194675 2.2409482643602714 0.04928209899099448
0.018477610229964553 -0.05515292436573166 0.042800955628658904 -0.04890092411612719 -0.03167099603177182 0.009156797718373843 0.037740235841730654 -0.019191471364478074
0.002456323548782985 -0.10555532782831996 -0.06879722191317719 0.007366196320754589 0.06122185979875156 0.09761479426525503 0.24903280215916926 -0.07556889479679636
0.05404415748838993 -0.2924458092040875 0.2778818197290446 0.13933644339177345 -0.13735257404301524 -0.12759420234444926 0.04284380743747685 -0.10560450999248827
-0.00144653192778836 -0.008834528600068885 0.0 0.0 0.0 0.0 0.0 0.0
-0.058545466045525796 0.02011445181641008 0.009752518765211958 0.0471527103795028 -0.010942447502220072 -0.4945124495968253 0.048278478044462426 0.06457439527220754
0.470238154050196 -0.013494120194133466 0.046767579130318364 0.02575926647735653 0.23180825704733368 -0.25603977562515173 -1.0082896672657422 0.21501575313976917
0.10409134564874084 1.0649386050540308 0.13154063314768275 -0.3285826465637987 0.12031797379955743 0.0014088855243614038 0.42924912169976165 -0.1719683789300592
0.3110160264784331 -0.1599255989297544 -0.1709700631692424 0.0593684226239823 0.14775191480471717 0.11785957507283247 0.1116787156904433 0.04289217484104639
-0.416441836812446 0.10881132513711185 -0.06598567887822672 -0.7562200100001023 -0.09639296514009964 -0.09091565922041477 -0.1884592906970161 -0.11809503934386675
0.05094385260705536 -0.529584499976084 -0.14369840869244882 0.05524170001527844 -0.7048571406917286 -0.019182916839865817 -0.09233684821597642 -0.3379135244947721
-0.4570329833266365 -0.196283945164882 -0.6254575328442732 -0.21465237881086022 -0.06599828649166892 -0.5068942070038754 -0.36972435736649994 -0.06034462636097786
-0.07949022787634757 -0.14186969453172138 -0.08585263331718808 -0.6355282566897771 -0.3033415874850632 -0.05788097522832921 -0.6313892099233043 -0.1761208850183806
