data/amass/ACCAD/Male2Walking_c3d/B13 -  Walk turn right 90_poses.npz (npz, 901992 bytes, 5 tensors)

trans f8 [674, 3]
0	0xbfdba03dbad790c1	-0.4316553425435466
1	0xc004429b6db6d1dc	-2.5325230189721264
2	0x3fec5173c48df891	0.8849428976971173
3	0xbfdbb204f725de81	-0.4327404416612595
4	0xc0044214866e2312	-2.5322657110558646
5	0x3fec506404d1ff0d	0.884813317694325
6	0xbfdbc07800ac2ae5	-0.4336223608558341
7	0xc00440e2f2ccebb8	-2.5316828697954996
8	0x3fec4f25abead597	0.8846615178833187
9	0xbfdbcb008cf0f7c4	-0.4342652679805463
10	0xc0044017f6456275	-2.531295703880739
11	0x3fec4de07b7c679c	0.8845064555964544
12	0xbfdbd204298b330a	-0.43469337517744633
13	0xc0043f857ed951e6	-2.5310163412161613
14	0x3fec4b7c17747da1	0.8842144449335373
15	0xbfdbf768144d716c	-0.43697549803416424
16	0xc004448e7ba95f01	-2.533474889856621
17	0x3fec4a5fdf38133d	0.884078918432898
18	0xbfdbf582677f2e8a	-0.43685970408544306
19	0xc0043eb723180152	-2.5306227437687676
20	0x3fec459a95abc37a	0.883496563268735
21	0xbfdc063fc36c1588	-0.43788141330909314
22	0xc0043e6429a63a50	-2.530464482674951
23	0x3fec45fe1bda2ac8	0.8835440200794773
24	0xbfdc0f4e0d57ec29	-0.4384341364199736
25	0xc004398ecc8702c0	-2.528104398603631
26	0x3fec43cddfde7516	0.8832768795433903
27	0xbfdc1d789295ec4f	-0.43929876627925507
28	0xc0043748e6d9efa6	-2.526994517827876
29	0x3fec426505788174	0.8831048113679985
30	0xbfdc2cfbeeb14c5b	-0.4402456122381346
31	0xc004354e07c0656f	-2.5260277371968907
32	0x3fec408e3e4837dc	0.8828803268859207
33	0xbfdc3b992259fbf0	-0.44113758425368044
34	0xc0043363ca9a8faa	-2.5250926807802516
35	0x3fec3e90d62285df	0.8826374227830306
36	0xbfdc452074217f9c	-0.44171916333106664
37	0xc0043086ceb569cb	-2.5236946248162204
38	0x3fec3bf22b38add4	0.8823176235359207
39	0xbfdc51821bbc58a2	-0.4424748679024423
40	0xc0042e06db8b69f1	-2.522474017326424
41	0x3fec3a934b9483f7	0.8821503139662344
42	0xbfdc5fe13dccb73b	-0.44335204157947644
43	0xc0042b422e1a3915	-2.521122322249662
44	0x3fec39fc51b983d0	0.8820783230004228
45	0xbfdc6aa7f4ac87c7	-0.44400977033558003
46	0xc004288093eceee3	-2.51977649275601
47	0x3fec3833be04cbf1	0.8818606101325469
48	0xbfdc7713a27a7221	-0.4447678648664653
49	0xc00426192456c423	-2.5186026419619494
50	0x3fec3550900eeceb	0.8815081418646548
51	0xbfdc84b33610feeb	-0.44559936790390847
52	0xc004239ee2eaa478	-2.5173928954941935
53	0x3fec3341a3302b36	0.8812568843144166
54	0xbfdc951a2e327381	-0.4466004801886854
55	0xc00421177ecaaab2	-2.5161580949400895
56	0x3fec325479600767	0.8811437960250544
57	0xbfdca894b3715170	-0.4477893593186968
58	0xc0041e2f85be56fb	-2.514739079352578
59	0x3fec30901d6cef68	0.8809280943600983
60	0xbfdcb9e0443c8690	-0.4488449732180948
61	0xc0041b8b5ac74c65	-2.513449391562562
62	0x3fec2e02de8d5d4f	0.8806166025851015
63	0xbfdcc8fa15e13998	-0.44976665627191315
64	0xc00418be75347588	-2.512082019484925
65	0x3fec2ad4ded06434	0.8802284576260093
66	0xbfdcd5a649fcb41c	-0.450540134671259
67	0xc00415937c6ee510	-2.51053521359848
68	0x3fec27ca1281b12d	0.8798570977647039
69	0xbfdce1f23c321e8e	-0.4512906635140802
70	0xc00412a36097e406	-2.5091006800034874
71	0x3fec236f27792f4a	0.8793254633869563
72	0xbfdce83462eb8308	-0.4516726461425127
73	0xc0040eea94160bfc	-2.507283360407653
74	0x3fec22697f538569	0.8792006956902415
75	0xbfdcf28411d2d965	-0.4523019956644901
76	0xc0040bb332aaea9f	-2.505712886658628
77	0x3fec237b133ad7b6	0.8793311477263532
78	0xbfdcfc51f2904246	-0.45290039718478103
79	0xc0040775411f0004	-2.5036416137299984
80	0x3fec20ed0aa1098b	0.879019280204646
81	0xbfdd08d1f8d5c75e	-0.4536633424787534
82	0xc004042baf86079d	-2.502036448743594
83	0x3fec20e3fe88b1c0	0.8790149661413622
84	0xbfdd1cfe79f60c4b	-0.4548946562792408
85	0xc0040167876797b6	-2.5006857470025023
86	0x3fec206185072693	0.8789527509881786
87	0xbfdd2c7d774cf77e	-0.45584046030477754
88	0xc003fde160b7f0ac	-2.4989650303014823
89	0x3fec1e2d60e33861	0.8786837475142982
90	0xbfdd35ff1f47db4e	-0.4564206891513337
91	0xc003fa31d6cdc8f3	-2.497165372996386
92	0x3fec1c679c2e314c	0.8784673738860334
93	0xbfdd415fb1f8fc2d	-0.45711510067116273
94	0xc003f6b9d065fbee	-2.4954715996859624
95	0x3fec1b533905d536	0.878335582134844
96	0xbfdd4f39bd49708f	-0.4579605434898974
97	0xc003f3c6ba170ec3	-2.494031385258354
98	0x3fec1b8bba852bf6	0.8783625262234398
99	0xbfdd59f6ae61f5fd	-0.4586159422832166
100	0xc003f09d5c5bd75c	-2.4924876418616986
101	0x3fec1c666dcd325f	0.8784668106614609
102	0xbfdd682a76a86c13	-0.45948278033910234
103	0xc003ebfb5c6e7fb8	-2.490225526926192
104	0x3fec1f56629970bd	0.8788253713387558
105	0xbfdd7458053e5179	-0.4602260638432863
106	0xc003e6accf4a81f2	-2.487634295903484
107	0x3fec20d807fc175f	0.8790092616988935
108	0xbfdd7be223b62e3d	-0.4606862400766863
109	0xc003e1b3ccba4408	-2.485206221994762
110	0x3fec22b3bab9722f	0.8792360922776136
111	0xbfdd868f0aa3b0de	-0.46133781470304125
112	0xc003dc843eeeca9b	-2.4826741139052735
113	0x3fec2547bc76082f	0.8795508080368161
114	0xbfdd8d9043b92e10	-0.4617653523789338
115	0xc003d6c80588853c	-2.4798736984527334
116	0x3fec25d1808f297c	0.8796164999887846
117	0xbfdd928a3d6fa178	-0.4620690917932033
118	0xc003cf1de9882a5d	-2.4761312718085677
119	0x3fec2469ce1d4f5b	0.8794449830697703
120	0xbfdd9c09f1d20809	-0.46264885535504213
121	0xc003c91659108fda	-2.4731871565036103
122	0x3fec2478356acf14	0.8794518512063143
123	0xbfddab9598edd0b3	-0.46359767851323425
124	0xc003c30a1af4edd9	-2.4702341180797984
125	0x3fec2583f754a88c	0.8795795279195473
126	0xbfddbaae548ed348	-0.4645191026459554
127	0xc003bcb611c14da3	-2.4671441447369076
128	0x3fec2616bf9e0760	0.8796495192075149
129	0xbfddc16f48f15bb1	-0.46493131755181155
130	0xc003b69c1334fd16	-2.464164876989922
131	0x3fec2498ef4aea12	0.8794674562153111
132	0xbfddc53b1eb32547	-0.4651630210688222
133	0xc003b035cd625708	-2.461040119708631
134	0x3fec22b05dc5cd64	0.8792344886300438
135	0xbfddcbda08f4cc01	-0.46556712031014064
136	0xc003a93b166ffea5	-2.457632231991584
137	0x3fec2038cd773697	0.8789333355905055
138	0xbfddd0e717c0b09f	-0.46587540931319354
139	0xc003a219fa4623ec	-2.4541511109023215
140	0x3fec1cb9b15e8aba	0.8785065140003419
141	0xbfddd47693a7b890	-0.4660927240319177
142	0xc0039c2f05741eb0	-2.4512615610181783
143	0x3fec1764f6efa3ef	0.8778557608576402
144	0xbfdddad99fe569fa	-0.46648254980905757
145	0xc0039695c74f9e6b	-2.4485278674290405
146	0x3fec113853db336a	0.8771020543878028
147	0xbfdde412080b0470	-0.46704531465008525
148	0xc0038ecf860a9596	-2.4447317573528364
149	0x3fec0da36ac84e04	0.8766648374170818
150	0xbfddee346adf18e7	-0.46766386448542935
151	0xc003862080ed98c6	-2.4404916832455426
152	0x3fec0a1800b62600	0.8762321485421012
153	0xbfddfaa8f949c8ce	-0.4684240755515362
154	0xc0037f37c286b4e7	-2.43711807225792
155	0x3fec04117fff4ba1	0.8754966258951421
156	0xbfde0bf792cf941f	-0.4694804128360505
157	0xc0037a30dbcee434	-2.4346635029328585
158	0x3febfd54d17a4434	0.8746742335662305
159	0xbfde1d027d4fc5f4	-0.47052061307394344
160	0xc003753c1424c15c	-2.432243497249301
161	0x3febf69ebb8b7f31	0.8738549864756121
162	0xbfde1ae430481f06	-0.4703913184643941
163	0xc003692f350aad90	-2.426359571827284
164	0x3febebc7b61cf9cf	0.8725317532442264
165	0xbfde10af1fe61be2	-0.46976831545947395
166	0xc0035cb34289a0a1	-2.420263786149079
167	0x3febe4ad36247a28	0.8716646249266136
168	0xbfde1c37ff9158e0	-0.47047233541287703
169	0xc003564fbc8fc509	-2.4171442729353925
170	0x3febdcb94f847324	0.8706938317369333
171	0xbfde257f3e8ef510	-0.47103863820287106
172	0xc0034ddceb9d8be8	-2.413019028420866
173	0x3febd8d1a5803263	0.8702171547352687
174	0xbfde29170abd2520	-0.47125793503490065
175	0xc00341f7ad683c25	-2.407210688346384
176	0x3febcec8f31d3d51	0.8689923046421574
177	0xbfde2e9667e40461	-0.4715934767301118
178	0xc00337fb93497830	-2.402335310630427
179	0x3febc55321a892d4	0.8678374917404548
180	0xbfde36ec0b2d7e97	-0.4721021756322243
181	0xc0032e3d8798c550	-2.397578296041196
182	0x3febba3060f6ffbd	0.8664781469196822
183	0xbfde3fafc6f37fd3	-0.4726371233828079
184	0xc003238157cf2863	-2.392336545953229
185	0x3febb03724c829f1	0.8652606695553101
186	0xbfde464e6c8eb883	-0.47304115868872304
187	0xc00319495b9217b8	-2.3873469499548854
188	0x3feba6d8c40fe393	0.8641170338952285
189	0xbfde4cdf6b2c3f73	-0.47344193903062787
190	0xc0030fb5514f442b	-2.38267005465652
191	0x3feb9bf31a98ce6b	0.8627868194075295
192	0xbfde554d87f6f519	-0.4739564731388142
193	0xc0030485510bed0d	-2.377207406212284
194	0x3feb913b6395457c	0.8614785141927963
195	0xbfde61b6ae38a284	-0.47471396459381077
196	0xc002f87a984d5a90	-2.3713275812727446
197	0x3feb86b23cbde1ca	0.8601924120294424
198	0xbfde69c3d1b84e6a	-0.47520537834609533
199	0xc002ed3f159e5018	-2.3658429802835705
200	0x3feb79a3eef13df6	0.8585986773340994
201	0xbfde6b25bd7cd079	-0.4752897596802153
202	0xc002e1f4b7a19e2d	-2.3603300424763547
203	0x3feb6de7d89779c0	0.8571662168795271
204	0xbfde6e377da0be60	-0.4754770972094544
205	0xc002d624613cfc37	-2.3545615765320025
206	0x3feb62e083886c62	0.8558199471475627
207	0xbfde738f6becdd5c	-0.4758032373387857
208	0xc002c86a4c994959	-2.347858999660428
209	0x3feb54affc66e533	0.8540878228879251
210	0xbfde79daad0099cc	-0.47618739027748513
211	0xc002bd88cef53fd8	-2.342546097621362
212	0x3feb4b89c4b39659	0.8529709665132926
213	0xbfde8cb0b13c097d	-0.47733704860743115
214	0xc002af42472c661d	-2.3355756340431655
215	0x3feb3f55b9411c3f	0.8514813059090399
216	0xbfde9553d9fc97ab	-0.4778642300392401
217	0xc002a23b1cb4604f	-2.329214309935231
218	0x3feb35d0ea8d2e9e	0.8503193455776061
219	0xbfde94c491cedec5	-0.4778300689608666
220	0xc0029613555ecf04	-2.323279063182669
221	0x3feb2d2ad08c7c9a	0.849263579675511
222	0xbfde998a2a1460c9	-0.4781213198598491
223	0xc0028600b902bfa3	-2.3154310659374047
224	0x3feb2210d12905e2	0.8479084096108489
225	0xbfde930aa85334c6	-0.47772470891943575
226	0xc002766a18393f26	-2.30781954693511
227	0x3feb18c1fa8368ad	0.846772183688946
228	0xbfde88d04fd620be	-0.4771004466679293
229	0xc00267345fab3cba	-2.3003928636677218
230	0x3feb0d4e3df56c2a	0.8453742227678778
231	0xbfde924892df0e2a	-0.47767843573476176
232	0xc002574d2df94f4d	-2.2926276771267227
233	0x3feb0579df38d256	0.8444184646419426
234	0xbfde93dacaa85655	-0.4777743319585615
235	0xc002478159e392eb	-2.284914686448578
236	0x3feafe8b335ab0d8	0.8435722353947552
237	0xbfde8c85f07e317e	-0.47732685552252707
238	0xc0023adcb9bbb246	-2.278741313019313
239	0x3feaf91b92054bb1	0.8429086544004943
240	0xbfde948f9a86e7a2	-0.4778174408962689
241	0xc00226b0cf961e07	-2.268891927498547
242	0x3feaf19117463215	0.8419881300520183
243	0xbfde8e7a4b5de0e7	-0.47744614944487157
244	0xc002162e240fa534	-2.2608301942133497
245	0x3feae9fa83011b29	0.8410618361166132
246	0xbfde88ee8965d763	-0.4771076528335156
247	0xc002062d6a702623	-2.2530163112139845
248	0x3feae4d401ebd9e8	0.8404331243062275
249	0xbfde873e4da79dce	-0.47700460036727754
250	0xc001f6158938ccd3	-2.245158264203931
251	0x3feaea8fcce5afd2	0.8411330224894249
252	0xbfde84f961614f82	-0.47686609754349985
253	0xc001e56152a318b6	-2.2370020347617254
254	0x3feaee5c41935452	0.8415967255374517
255	0xbfde78430b15ddc3	-0.4760902031188971

mocap_framerate f8 []
0	0x405e000000000000	120.0

betas f8 [16]
0	0xbfba0debe22d1be0	-0.10177492401008648
1	0xbfe8e8ae04c0f4f9	-0.7784032910200543
2	0x3fe91ff4e5e0c189	0.7851509561351558
3	0x3ff0fabbb7d04ccd	1.0612141781064566
4	0x3fe79245cef34d9b	0.7366055528640801
5	0xbfe27e31b422c7e5	-0.5779045599249427
6	0x3fe0b0f37ff2ec02	0.5216004847528668
7	0xbfd3e39c0ef1268e	-0.3107671876829067
8	0x3fc959a612e62883	0.19804836199574902
9	0x3fb0fda55a7220c9	0.06637032945775724
10	0xbfc115b552840823	-0.13347498444642367
11	0xbfa5356bd594fdb9	-0.04142319662286859
12	0xbff02a86fdeee568	-1.01038264458324
13	0xbfd7a84aa8eb2b24	-0.36964670654258414
14	0x3fdfcbaeaaab87e6	0.49680678050037697
15	0x3fc3a25132582815	0.15339102705212385

dmpls f8 [674, 8]
0	0xbfefc354eaecddce	-0.992594202841184
1	0xbfe182dd2ca316d8	-0.5472246047799798
2	0x3fbc3b443819ecd0	0.11027933473262697
3	0xbfeb352f84eaa5d9	-0.850242385485383
4	0x3fef0efa13583d1e	0.9705782296968299
5	0xbfd01616591e7a28	-0.2513481016448247
6	0xbff9d785155173b1	-1.6151171524754597
7	0xbff15cbd283a10be	-1.0851413318023755
8	0xbff0267b17e254aa	-1.0093947346661403
9	0xbfe0f76436bd4fff	-0.530199152863588
10	0x3fbb4c087cbc11bf	0.10662892384795607
11	0xbfeb8e09ab5c3c45	-0.8610885950928454
12	0x3fef238dc2c5729e	0.9730900577665869
13	0xbfce7708efec1f61	-0.23800765719374353
14	0xbffa35e6bc7f6a12	-1.6381595004264722
15	0xbff1372c04609673	-1.075969712351619
16	0xbff07b4c3c037095	-1.03010199969052
17	0xbfe0475830fb12ba	-0.5087090450911866
18	0x3fbcd1f743522f97	0.11257882493572278
19	0xbfec31749779a612	-0.88103704056738
20	0x3feef7fa0e43aa4f	0.9677706030464125
21	0xbfcc2b1d7479ac17	-0.2200657671668018
22	0xbffa960554b3ab4a	-1.6616261776604966
23	0xbff0fef8e7a29bd3	-1.0622490928887955
24	0xbff0c088330bf47d	-1.047004889870805
25	0xbfdf25916d7a1f8f	-0.48666797343366225
26	0x3fbcab936273e4bd	0.11199303773527709
27	0xbfec6d3ce058efee	-0.8883346921716091
28	0x3fee57c139acb19b	0.9482122541863193
29	0xbfcaa33a081bb6ee	-0.20810628314887175
30	0xbffadcb22b781f57	-1.6788808534638144
31	0xbff0e39a145dc2d8	-1.0555668635899362
32	0xbff12b35c92cb354	-1.0730493410475974
33	0xbfde736ec7ce524f	-0.47579545509623683
34	0x3fb77e7adb407ebb	0.09177368023710646
35	0xbfeca6be9402000e	-0.8953545466210941
36	0x3fede057cbe56f6d	0.9336356146190902
37	0xbfc857beac3b2aeb	-0.1901777592632564
38	0xbffb3852e2b5dc50	-1.7012509208559727
39	0xbff0fc244a735e82	-1.061558047125715
40	0xbff05adf74fd890e	-1.0221857614456584
41	0xbfdab7fec4dd6a56	-0.41748017525757086
42	0x3f960417ea8c79ec	0.021499990168303215
43	0xbfee61285652ce46	-0.9493600545888021
44	0x3feda650edcce3b1	0.9265522617853234
45	0xbfb000d5d0f17ec4	-0.06251274443774962
46	0xbffddb941c0b26bf	-1.86610804514423
47	0xbff3b725c33d153c	-1.232213747645189
48	0xbfef4fbdfb4c97e0	-0.9784841449916222
49	0xbfd7785051a1c58c	-0.36671836826197857
50	0x3f8c57d54a64efae	0.013839403469880409
51	0xbfefc50eba413d85	-0.9928048742093983
52	0x3feb1239bda7ce3e	0.8459747986038975
53	0xbfa86ce79c010dd0	-0.047705877107116046
54	0xbffeb90b42107005	-1.9201767521508384
55	0xbff46b90ec4e1b40	-1.2762612562816713
56	0xbfeeb335c088729a	-0.9593762169275408
57	0xbfd5b822707b8a92	-0.3393636797392584
58	0xbf80fb29dde8a352	-0.008291556439034817
59	0xbff08234cdd2b45d	-1.031788639065119
60	0x3fe9815b5b7a5da3	0.7970406328849332
61	0x3f845e79d02c45a0	0.009945823350366478
62	0xbfffe7aaa38f7459	-1.9940592183186452
63	0xbff56e97e1530149	-1.3395003129699765
64	0xbfee1b3492c3da1d	-0.9408209673409292
65	0xbfd43a57105dd655	-0.3160607967214209
66	0xbf9901b23818067e	-0.024420532869049875
67	0xbff1007d4284eaa1	-1.0626194570929004
68	0x3fe7281f575433b2	0.723647757114682
69	0x3f95e1d7b894fef4	0.021369333878509658
70	0xc0000fd7bf186b72	-2.0077357224776557
71	0xbff59bbc0f5c7a59	-1.3505211448715697
72	0xbfee0132e8f0f530	-0.9376463460572833
73	0xbfd2fe5d7c709e97	-0.296775218509063
74	0xbfa3a4bfc41c6f12	-0.038366310777034354
75	0xbff172251f747a8c	-1.0903674343786944
76	0x3fe56e2c6b624710	0.6696989152280555
77	0x3fa891d9e20c8517	0.047987755626545496
78	0xc0002c6f388a243b	-2.021696511951203
79	0xbff5f029d10524fb	-1.3711336293075067
80	0xbfee66bb2dc8cd4d	-0.9500404257036422
81	0xbfd1d379c69f7095	-0.2785324515987296
82	0xbfaa1f14766523b0	-0.051018371059917356
83	0xbff1d43a9050ecfd	-1.114313663229779
84	0x3fe3fecefffa189e	0.624854564623792
85	0x3fb4a7aa147b0ab0	0.08068335533156801
86	0xc0003e50cb368016	-2.0304275394446547
87	0xbff6435dce261459	-1.3914468815503567
88	0xbfeec666a475429c	-0.9617188655921214
89	0xbfd0afc45e122426	-0.26072796999557324
90	0xbfae1e9196846c85	-0.05882697069520141
91	0xbff231eeb13c0169	-1.1371905253618826
92	0x3fe2a60760783aba	0.5827671894238258
93	0x3fbc2c298b7a47a6	0.11004886298385816
94	0xc00040df9e2df0e9	-2.031676517273912
95	0xbff674f962417adb	-1.4035581434360924
96	0xbfeeeea77c3a0840	-0.9666325975706584
97	0xbfd06b4eecd9bd83	-0.25654957895218206
98	0xbfaa3942d29ea74d	-0.05121811696092369
99	0xbff2841a7f4092a0	-1.1572518320837517
100	0x3fe131113520f38f	0.5372396505041354
101	0x3fbe70812b5e40fd	0.11890418347161709
102	0xc000245bcc52e9a7	-2.017753216057105
103	0xbff674f0cd301fa1	-1.4035499587207385
104	0xbfef1fc17a8a22b2	-0.9726264375068097
105	0xbfd07b408f3bb62f	-0.2575227164041704
106	0xbfa7924b0f5961a2	-0.04603800356261735
107	0xbff2b1359b35a174	-1.1682640135641948
108	0x3fe065b49f1071ad	0.5124152285312015
109	0x3fbfce6f88a40672	0.12424370847659263
110	0xc0000bed7eebca8c	-2.005824081011559
111	0xbff676897974c274	-1.4039396995905493
112	0xbfefa058baf28920	-0.9883235598865987
113	0xbfcff1fe5bd992f6	-0.24957255825861296
114	0xbfa6d7f91ed7e5a0	-0.04461649419313152
115	0xbff2f51de3c78ac6	-1.184842958224793
116	0x3fddfdd2a974cb4d	0.46861712025127106
117	0x3fc20f44a22bce15	0.14109094542037384
118	0xbfffd4aac32e2481	-1.9894206642368604
119	0xbff6943805e059dd	-1.4111862401529074
120	0xbfefce004d8728ee	-0.9938966287820941
121	0xbfce69ae96b5418b	-0.23760015829840272
122	0xbfad6ebee81f9940	-0.05748554786241522
123	0xbff2fd77d48fd24b	-1.1868818572230733
124	0x3fdbadd609d6efe3	0.43248511277101737
125	0x3fc43c3b0bad2f2c	0.158088093472878
126	0xbfffa109b05315fd	-1.976815880553999
127	0xbff6b214b9e4da6d	-1.418476797245286
128	0xbfefa55572afe3c8	-0.9889323463422608
129	0xbfccb51fa333b4e0	-0.22427745312544456
130	0xbfb2fe45c16982f2	-0.07419239017464088
131	0xbff2e5844a3de8d4	-1.1810343647071493
132	0x3fd97b442667cfa4	0.3981485724500493
133	0x3fc556f20f85aef5	0.16671586759490933
134	0xbfff46c3d1812e94	-1.9547765907072163
135	0xbff6be5fdc34d97a	-1.421478138142986
136	0xbfef814fafda11dc	-0.9845350679975655
137	0xbfc7a772b639ee30	-0.1847976102616129
138	0xbfb5a4eeeeb931b8	-0.08454793289383289
139	0xbff2fbaf84fd4e35	-1.1864466853047706
140	0x3fd738c339b91354	0.3628395141316123
141	0x3fc60c64731b2b26	0.17225318546692242
142	0xbffec0c59f16343e	-1.9220634664846012
143	0xbff6add1e55ba8ee	-1.417436500482434
144	0xbfef8ae420097f89	-0.9857044816708235
145	0xbfbc106682e99bd3	-0.10962525077921663
146	0xbfb348c346eefea8	-0.07532902223374072
147	0xbff34777561ad73c	-1.2049477923842025
148	0x3fd51f8ed5db3167	0.3300511444511102
149	0x3fc70df0d5413910	0.18011293804961115
150	0xbffdf908d738543c	-1.8732994467766408
151	0xbff6909e4b7445ce	-1.4103072116307547
152	0xbfef89a6bf8691f4	-0.9855531445251118
153	0xbfa7d731fb82d3fc	-0.04656368441775524
154	0xbfb2b2c17d9898e1	-0.07304009739218344
155	0xbff390209fd6bd41	-1.2226873630241502
156	0x3fd2b389d4509731	0.2922081540476596
157	0x3fc84cc8b2d9b812	0.1898432610791479
158	0xbffd34cfed4a725a	-1.8253936070606387
159	0xbff665a8005a3ff9	-1.399818421723465
160	0xbfef59345e41c6d3	-0.9796392289119588
161	0xbf8e9f19a4389e80	-0.014951896976597157
162	0xbfb795b649654372	-0.09212817470439719
163	0xbff3c3939c6aa7ec	-1.2352481946968465
164	0x3fceb5f1b112a5d7	0.23992749353537476
165	0x3fc916e015854594	0.19601059962091638
166	0xbffcc4967e78dc55	-1.7979950847927928
167	0xbff62efc9330f83a	-1.3864713430080102
168	0xbfeef47f98fb15e7	-0.9673459995180423
169	0x3f7301e7f1ff1974	0.0046404896128876445
170	0xbfbeef677da21eb8	-0.1208405191156271
171	0xbff3d0201738b1b2	-1.23831185408481
172	0x3fc7a833aaded519	0.18482061236651573
173	0x3fc8a219370f0b16	0.19244685352722318
174	0xbffc82498ac6fc76	-1.7818084164607888
175	0xbff5c920f79033be	-1.3616037054482457
176	0xbfee45702eb9d994	-0.9459763443581317
177	0x3f921adcb2141e60	0.01768059574990699
178	0xbfc63b35e46f7302	-0.1736819615752197
179	0xbff36bc4ce8fd81b	-1.2138107365440252
180	0x3fc2d4c9f232f98f	0.14711880041245393
181	0x3fc84001973a2141	0.1894533146298816
182	0xbffc7f83b4f88b9a	-1.7811314648795133
183	0xbff51d293fae36a6	-1.3196194160004011
184	0xbfedbd4af2dc55b8	-0.9293570273754801
185	0x3facdb5b2a16ecb8	0.056361054313549486
186	0xbfca027297dbaf0d	-0.20319969572971566
187	0xbff34d58a21f1084	-1.2063833554139203
188	0x3fbffa71b6b22240	0.1249152251276735
189	0x3fc9364e4d3fdffb	0.1969697835154419
190	0xbffbf3494dd29928	-1.7468960800120588
191	0xbff440ae234d97e4	-1.2657910708453466
192	0xbfed6c4fdbfb334d	-0.9194716736325091
193	0x3fb1263b573d9b44	0.06698962097071354
194	0xbfcc68866ee7ff7a	-0.22193985381454323
195	0xbff38978810f6034	-1.2210621873291645
196	0x3fbd0c2fa7b7af21	0.11346719593683165
197	0x3fc9990786adeb44	0.19998258663312118
198	0xbffbe74778c7b120	-1.7439646451922002
199	0xbff4309a01e94efb	-1.2618656229651026
200	0xbfec0b943d2939b8	-0.8764134592582229
201	0x3fbfd9cdcb4e8c02	0.12441717351480011
202	0xbfd3500d95718077	-0.30176105112150914
203	0xbff43dc2471cad9d	-1.2650778558553164
204	0x3fb4254f40b4f392	0.07869429902798533
205	0x3fcc3e2e3860f215	0.2206475997244445
206	0xbffb9c81f74a3d2f	-1.7257098827138397
207	0xbff433a59070c88a	-1.2626090662202238
208	0xbfec87ed6598f9e9	-0.8915926918342026
209	0x3fc7b25bd168a380	0.1851305744651448
210	0xbfd3c52ff021f6ed	-0.308910355095448
211	0xbff502f1e1c6e406	-1.313218957844812
212	0x3f8f681681ed9960	0.015335250701991654
213	0x3fc862f63026aa90	0.1905200705635548
214	0xbffab4c950d242e4	-1.669137302120526
215	0xbff4186b829fb5d3	-1.2559619047636843
216	0xbfecc965010abc05	-0.8995842953062271
217	0x3fc8b4ff313189e1	0.1930235853388487
218	0xbfd4a6435d618b4f	-0.3226478969501629
219	0xbff52cca0d60b334	-1.3234348795478583
220	0xbf6cdc5310b50110	-0.003523027645911843
221	0x3fc6e68294212201	0.17890960915453039
222	0xbffa95dc6c250c3a	-1.6615871643450775
223	0xbff420b204e1e091	-1.2579822722164276
224	0xbfecd8477e83dcc3	-0.9014012785909461
225	0x3fc8d9ebc6688c23	0.19415042102727495
226	0xbfd4f761958d4cc2	-0.3275989494770323
227	0xbff53313b9eefdd9	-1.3249699843435023
228	0xbf80965ce2148466	-0.008099294328135009
229	0x3fc694bf6112c699	0.176414415740102
230	0xbffa908e74fa3c36	-1.6602921075280057
231	0xbff42306ab0641ee	-1.2585512810365986
232	0xbfed017dcffc6b81	-0.906432062361418
233	0x3fc9cd235457bf3e	0.20157281511591835
234	0xbfd63dee2604bf83	-0.34752992356060747
235	0xbff5405be91d7ea4	-1.3282126527846367
236	0xbf9b1678feb58679	-0.026452913805206955
237	0x3fc53b343851af9f	0.16586926221804973
238	0xbffa7982d837df95	-1.6546657987619018
239	0xbff42546311122be	-1.2591001431157305
240	0xbfed2ca3541bdad7	-0.9116989748716503
241	0x3fcba267bf58335e	0.21589371531481566
242	0xbfd74b113e83db6e	-0.36395674805628786
243	0xbff556234a7255a5	-1.333529749686343
244	0xbfa655d18416e95a	-0.04362349259777672
245	0x3fc403ea9d758aae	0.15636952103075913
246	0xbffa5cbf114238df	-1.6476431535880278
247	0xbff4260ab42f8c3c	-1.2592875517373292
248	0xbfed39c8ec2adfbf	-0.9133038151403453
249	0x3fcc2f70e4f12e0b	0.2201977842217818
250	0xbfd7834d2f60e02d	-0.3673890078239335
251	0xbff55e9911ca5e36	-1.3355951971951874
252	0xbfa852622a8663dc	-0.04750353592971354
253	0x3fc3cfe6137857c3	0.15478206587493845
254	0xbffa52fdaf18651e	-1.6452614631328468
255	0xbff425b54eef4f03	-1.2592061122313118

poses f8 [674, 156]
0	0xbfb46bdd9681f160	-0.07977089809896176
1	0x40018e32ee6c67d4	2.1944330813248403
2	0x40022c1ba7b60aae	2.271537122958157
3	0x3fa9ca64a618ece8	0.05037226226382946
4	0x3fa3c5b3ba4261cc	0.038617722021800555
5	0xbf98b3c1e5c0f3b5	-0.024123220108083838
6	0x3fb4c48ac77cb49b	0.08112399454394607
7	0xbfa965d7bce66c16	-0.049605123337834
8	0x3f90b62c4d36cd50	0.016319935047886702
9	0x3fc1f5f2dc58c4e6	0.1403182578956496
10	0x3f8c721ca20a5b35	0.013889526076395245
11	0x3f9bc6f4813f9cfa	0.02712614096517727
12	0x3fbc842030aea479	0.11139107883959011
13	0xbfad29ccf4a84172	-0.056959538331400675
14	0xbfa73406bd53c095	-0.045318804370141276
15	0x3f873a18bb69dd4c	0.01134127923908914
16	0x3fa103f942adb4a5	0.03323344172427171
17	0x3fb1c6daa455589a	0.06944052230878342
18	0x3f7e85adaf6d0828	0.007451704462086574
19	0xbfa855c966b58c6d	-0.04752950075887772
20	0x3f932486b295b2fb	0.018694023752163762
21	0xbfd3c4eede4269f2	-0.3088948412420499
22	0x3fc7b5119a6c11c7	0.18521328010696278
23	0x3fc2e886c5baffc3	0.14772114424522273
24	0xbfcbd39ab34956c9	-0.21739515070173912
25	0xbfb59a84ec27797b	-0.08438902631266913
26	0x3f9bf80a54fa6f47	0.027313386379872708
27	0x3f838355b9d63446	0.009527845128810008
28	0xbf90e3331e4ab810	-0.01649169800173672
29	0x3f8e17ebb1c9259c	0.014694062579240712
30	0x0000000000000000	0.0
31	0x0000000000000000	0.0
32	0x0000000000000000	0.0
33	0x0000000000000000	0.0
34	0x0000000000000000	0.0
35	0x0000000000000000	0.0
36	0xbfb58d81920eb5ac	-0.08419046226364085
37	0x3fa8ea6571736f71	0.04866330156229893
38	0x3fa67742bd97d1c5	0.04387863697403164
39	0x3fa58b31abe13d21	0.04207759116308752
40	0xbf9f6e120e171f85	-0.03069332324028508
41	0xbfdef53dab472569	-0.4837183163295636
42	0x3fa9ae8313819b0d	0.05015954602349924
43	0x3fbe751001c1f3d4	0.11897373240385828
44	0x3fdda015145be591	0.46289565075093103
45	0x3fc08a537d30be66	0.12922137844860798
46	0xbf9843bd6278d0c4	-0.023695906768083544
47	0xbf9009f721fb0725	-0.015663014840135454
48	0x3fc1e63658430afa	0.1398380213705293
49	0xbfc9aecc1d5d78d0	-0.20064689096302013
50	0xbfefcf9459daed32	-0.9940892939552326
51	0x3fc742f5fd489734	0.18173098437653723
52	0x3fd06a7ae1ecb34c	0.25649902403784064
53	0x3fef3359718aa784	0.9750182359323252
54	0x3fd3339e7ba49f94	0.300025578255821
55	0xbfdc9c45c7b5a8bb	-0.4470381212510223
56	0x3fb2a6671c0afc28	0.07285160479203567
57	0x3fb5c957365d3a22	0.08510346486330225
58	0x3fdb56ef2d240d9a	0.42718104751858166
59	0xbfbdb6a9ae5c587c	-0.11606846339086191
60	0xbfb25ecc434228d4	-0.071759001179234
61	0xbfc05ec027711ade	-0.12789155889387066
62	0xbfc1289d897e10c9	-0.13405198300836776
63	0xbfb6ebbcb7055dba	-0.08953456371579352
64	0x3fad5ef5bc5a3e92	0.0573651115820414
65	0x3fbfdbb7f88ade6b	0.12444639032298148
66	0x3fbc96f9ef8cbb80	0.1116787156904433
67	0x3fa5f5f69064a9d6	0.04289217484104639
68	0xbfdaa6fba972eb83	-0.416441836812446
69	0x3fbbdb0f1ae5f82d	0.10881132513711185
70	0xbfb0e46ffcc94db1	-0.06598567887822672
71	0xbfe832f44e70ffdb	-0.7562200100001023
72	0xbfb8ad3598d7589f	-0.09639296514009964
73	0xbfb7463fa70bc42f	-0.09091565922041477
74	0xbfc81f6f1d15e4ae	-0.1884592906970161
75	0xbfbe3b79fbcd3ee6	-0.11809503934386675
76	0x3faa155009c25400	0.05094385260705536
77	0xbfe0f25b317bb495	-0.529584499976084
78	0xbfc264b59ee920ae	-0.14369840869244882
79	0x3fac48a3dde1d317	0.05524170001527844
80	0xbfe68e308ff3effc	-0.7048571406917286
81	0xbf93a4afc1e05eba	-0.019182916839865817
82	0xbfb7a3633f4da757	-0.09233684821597642
83	0xbfd5a0600c25316a	-0.3379135244947721
84	0xbfdd4007452532a9	-0.4570329833266365
85	0xbfc91fd5129b446c	-0.196283945164882
86	0xbfe403bf84134bc5	-0.6254575328442732
87	0xbfcb79baa98028e5	-0.21465237881086022
88	0xbfb0e5438212e1b6	-0.06599828649166892
89	0xbfe0387a3333a1c9	-0.5068942070038754
90	0xbfd7a99059db1e75	-0.36972435736649994
91	0xbfaee57da96b62f6	-0.06034462636097786
92	0xbfb45978b9149bac	-0.07949022787634757
93	0xbfc228c941275414	-0.14186969453172138
94	0xbfb5fa702c5f7001	-0.08585263331718808
95	0xbfe4563f5ac553da	-0.6355282566897771
96	0xbfd369f2d570f6e5	-0.3033415874850632
97	0xbfada2933f55200b	-0.05788097522832921
98	0xbfe4345724f55f32	-0.6313892099233043
99	0xbfc68b2110a5f467	-0.1761208850183806
100	0xbfc0e86d094eb2c6	-0.13209307627166406
101	0xbfd7e50a97ee8c36	-0.37335457646458126
102	0x3feb3b197087c74e	0.8509642789706306
103	0x3fd1b91a2a2c0bae	0.2769227420650918
104	0xbfb76fb1bdba339c	-0.09154806978240376
105	0xbfdffd5e8d757e3f	-0.49983943762160615
106	0x3f9b319eadb48959	0.026556472160458842
107	0x3fab1333c84d4091	0.05288087673273013
108	0x3fe1234cf019ce3b	0.5355591477841196
109	0x3fa788349f95d372	0.04596104095518329
110	0xbfd1c03bdba5f53a	-0.2773580212595622
111	0x3fbc96f9ef8cbb80	0.1116787156904433
112	0xbfa5f5f69064a9d4	-0.04289217484104638
113	0x3fdaa6fba972eb84	0.41644183681244606
114	0x3fbbdb0f1ae5f82d	0.10881132513711185
115	0x3fb0e46ffcc94db0	0.0659856788782267
116	0x3fe832f44e70ffdb	0.7562200100001023
117	0xbfb8ad3598d7589f	-0.09639296514009964
118	0x3fb7463fa70bc42f	0.09091565922041477
119	0x3fc81f6f1d15e4af	0.18845929069701614
120	0xbfbe3b79fbcd3ee5	-0.11809503934386674
121	0xbfaa155009c25401	-0.05094385260705537
122	0x3fe0f25b317bb495	0.529584499976084
123	0xbfc264b59ee920af	-0.14369840869244885
124	0xbfac48a3dde1d318	-0.05524170001527845
125	0x3fe68e308ff3effc	0.7048571406917286
126	0xbf93a4afc1e05ebb	-0.01918291683986582
127	0x3fb7a3633f4da757	0.09233684821597642
128	0x3fd5a0600c25316a	0.3379135244947721
129	0xbfdd4007452532a9	-0.4570329833266365
130	0x3fc91fd5129b446d	0.19628394516488204
131	0x3fe403bf84134bc5	0.6254575328442732
132	0xbfcb79baa98028e7	-0.21465237881086027
133	0x3fb0e5438212e1b6	0.06599828649166892
134	0x3fe0387a3333a1c9	0.5068942070038754
135	0xbfd7a99059db1e75	-0.36972435736649994
136	0x3faee57da96b62f4	0.06034462636097784
137	0x3fb45978b9149bad	0.07949022787634759
138	0xbfc228c941275416	-0.14186969453172144
139	0x3fb5fa702c5f7001	0.08585263331718808
140	0x3fe4563f5ac553da	0.6355282566897771
141	0xbfd369f2d570f6e5	-0.3033415874850632
142	0x3fada2933f55200c	0.05788097522832922
143	0x3fe4345724f55f32	0.6313892099233043
144	0xbfc68b2110a5f468	-0.17612088501838064
145	0x3fc0e86d094eb2c6	0.13209307627166406
146	0x3fd7e50a97ee8c36	0.37335457646458126
147	0x3feb3b197087c74e	0.8509642789706306
148	0xbfd1b91a2a2c0bae	-0.2769227420650918
149	0x3fb76fb1bdba339d	0.09154806978240378
150	0xbfdffd5e8d757e3f	-0.49983943762160615
151	0xbf9b319eadb48959	-0.026556472160458842
152	0xbfab1333c84d4090	-0.05288087673273012
153	0x3fe1234cf019ce3a	0.5355591477841195
154	0xbfa788349f95d374	-0.0459610409551833
155	0x3fd1c03bdba5f53c	0.2773580212595623
156	0xbfb488cf0c0a04a6	-0.08021253627704769
157	0x40018d5730a83849	2.1940139581047657
158	0x40022c7e89b38a43	2.2717257268825803
159	0x3fa8ea2f7a06ffa4	0.04866169323531658
160	0x3fa2317c57eac5a6	0.0355337960549023
161	0xbf9ab6edbe18fcb6	-0.026088442542683686
162	0x3fb3e12a06886c80	0.07765448245520368
163	0xbfa93228f681512c	-0.049210815516433776
164	0x3f8c38339d9b61fe	0.013779071090014302
165	0x3fc20d1794fe2b5d	0.1410245397094866
166	0x3f8e241ca073de3a	0.014717315336823512
167	0x3f9dec0e48cfb081	0.029220793909118917
168	0x3fbd9e3579596e0d	0.11569532597189199
169	0xbfabef9e365d84ac	-0.05456251538886056
170	0xbfa682937548320c	-0.043964965883876855
171	0x3f93c667011a4275	0.01931153244237512
172	0x3fa07d0b7df80a63	0.03220401680666354
173	0x3fb25e1e5f7e14ff	0.07174863654480033
174	0x3f7a9216709f08ca	0.006486976295436439
175	0xbfa7a47e4ca4ba61	-0.04617685971821995
176	0x3f9204a0c05199bd	0.017595779169278226
177	0xbfd438f8f9cd8e7d	-0.3159773292047488
178	0x3fc85d0676e16425	0.1903389053793784
179	0x3fc2e7089bd2fe0a	0.14767558678248377
180	0xbfcc6d4a422ecb22	-0.22208526832181358
181	0xbfb519121c1bb33a	-0.08241379915461958
182	0x3fa03148aabc08f5	0.03162600597535629
183	0x3f885cb20f7a1920	0.011895552728003411
184	0xbf9106fb94ea8f22	-0.01662819954311979
185	0x3f8c744b600e8a08	0.013893689030571657
186	0x0000000000000000	0.0
187	0x0000000000000000	0.0
188	0x0000000000000000	0.0
189	0x0000000000000000	0.0
190	0x0000000000000000	0.0
191	0x0000000000000000	0.0
192	0xbfb6433582c9f9a2	-0.08696302836503958
193	0x3fa89afe80b5eb7b	0.048057511531587736
194	0x3fa76a1b22d875fe	0.045731399539572934
195	0x3fa4aa58206e1095	0.04036212345002458
196	0xbfa0689e64955d2c	-0.0320481775076423
197	0xbfded5f241616bb9	-0.4818082464677747
198	0x3fa933a7abbd8b0c	0.049222221102146774
199	0x3fbe93fa21affb49	0.1194454509968469
200	0x3fdd6e5b52245cf4	0.45986063977893754
201	0x3fc0dedcb00e3b90	0.1318012103697268
202	0xbf997bc34703e6b6	-0.024886180123735634
203	0xbf8bbd4b842a892f	-0.013544645281687721
204	0x3fc2240bbe5842e9	0.14172503275087614
205	0xbfc9d1aa2c05b7e2	-0.2017109599068468
206	0xbfefe76bde8ac217	-0.9969996782802494
207	0x3fc720726e835c58	0.18067770382069415
208	0x3fd07bf6b7b34a96	0.2575661462734983
209	0x3fef43d518352914	0.9770303223424741
210	0x3fd34b23255c9020	0.301461016164696
211	0xbfdc9df146536b01	-0.44714004390486656
212	0x3fb34479825814b3	0.07526359016636057
213	0x3fb5a383b7757172	0.08452628354047478
214	0x3fdb337cc5212a66	0.4250175404637616
215	0xbfbdafb4af775b45	-0.11596230777591383
216	0xbfb2c56f3bf74e3f	-0.07332511152281372
217	0xbfc0b11acaa5b977	-0.13040480513468442
218	0xbfc12bfc6a57432d	-0.13415484611916764
219	0xbfb78073b51bf1b0	-0.09180377170191067
220	0x3fad382fcd6b6fb4	0.05706929571689959
221	0x3fbfd983eecb1655	0.12441277103342803
222	0x3fbc96f9ef8cbb80	0.1116787156904433
223	0x3fa5f5f69064a9d6	0.04289217484104639
224	0xbfdaa6fba972eb83	-0.416441836812446
225	0x3fbbdb0f1ae5f82d	0.10881132513711185
226	0xbfb0e46ffcc94db1	-0.06598567887822672
227	0xbfe832f44e70ffdb	-0.7562200100001023
228	0xbfb8ad3598d7589f	-0.09639296514009964
229	0xbfb7463fa70bc42f	-0.09091565922041477
230	0xbfc81f6f1d15e4ae	-0.1884592906970161
231	0xbfbe3b79fbcd3ee6	-0.11809503934386675
232	0x3faa155009c25400	0.05094385260705536
233	0xbfe0f25b317bb495	-0.529584499976084
234	0xbfc264b59ee920ae	-0.14369840869244882
235	0x3fac48a3dde1d317	0.05524170001527844
236	0xbfe68e308ff3effc	-0.7048571406917286
237	0xbf93a4afc1e05eba	-0.019182916839865817
238	0xbfb7a3633f4da757	-0.09233684821597642
239	0xbfd5a0600c25316a	-0.3379135244947721
240	0xbfdd4007452532a9	-0.4570329833266365
241	0xbfc91fd5129b446c	-0.196283945164882
242	0xbfe403bf84134bc5	-0.6254575328442732
243	0xbfcb79baa98028e5	-0.21465237881086022
244	0xbfb0e5438212e1b6	-0.06599828649166892
245	0xbfe0387a3333a1c9	-0.5068942070038754
246	0xbfd7a99059db1e75	-0.36972435736649994
247	0xbfaee57da96b62f6	-0.06034462636097786
248	0xbfb45978b9149bac	-0.07949022787634757
249	0xbfc228c941275414	-0.14186969453172138
250	0xbfb5fa702c5f7001	-0.08585263331718808
251	0xbfe4563f5ac553da	-0.6355282566897771
252	0xbfd369f2d570f6e5	-0.3033415874850632
253	0xbfada2933f55200b	-0.05788097522832921
254	0xbfe4345724f55f32	-0.6313892099233043
255	0xbfc68b2110a5f467	-0.1761208850183806
