data/amass/ACCAD/Male2Walking_c3d/B14 -  Walk turn right 45 t2_poses.npz (npz, 931384 bytes, 5 tensors)

trans f8 [696, 3]
000000 9f a0 7a 78 e2 46 07 c0 29 18 d8 37 12 ef 02 c0
       -2.909611645929615 -2.3667339670964975
000010 e6 30 4a d6 5a d6 ec 3f 3f 77 08 b9 16 47 07 c0
       0.9011663613651109 -2.9097113090237197
000020 d0 da 93 30 92 ef 02 c0 45 00 bd f4 6a d7 ec 3f
       -2.3669780535813985 0.9012961177868496
000030 8f d0 84 5d e4 46 07 c0 5c bc 31 50 4b ef 02 c0
       -2.9096152597576928 -2.3668428673914104
000040 02 44 1d 9c 3d d8 ec 3f 13 97 ed f3 6c 46 07 c0
       0.9013965653522293 -2.9093874985582118
000050 16 17 08 bd d1 ee 02 c0 49 b8 90 09 59 d7 ec 3f
       -2.366610981759446 0.901287573511362
000060 87 a0 d3 d6 03 46 07 c0 77 a0 40 d5 e9 ee 02 c0
       -2.9091870101293043 -2.3666569385860003
000070 0c 31 92 9f 3a d6 ec 3f 04 03 2a e1 11 45 07 c0
       0.9011510006544383 -2.908725508780096
000080 16 dc f7 20 d5 ed 02 c0 20 9c b2 93 8b ce ec 3f
       -2.366129167141035 0.900213039848385
000090 ff 1a ea 44 25 46 07 c0 69 16 48 82 9b ee 02 c0
       -2.90925077285226 -2.366507547211587
0000a0 35 d2 5f 96 79 cf ec 3f 29 15 b3 f9 59 45 07 c0
       0.9003265320776054 -2.9088630206848802
0000b0 1d cc 8f 8e 8e ee 02 c0 58 1b 84 ed 77 cf ec 3f
       -2.366482843173357 0.9003257407174301
0000c0 d1 97 9e 22 b2 44 07 c0 98 b9 5b 0f 08 ef 02 c0
       -2.9085428909920457 -2.3667145919673196
0000d0 aa 91 64 24 bf cf ec 3f 22 d3 84 d5 bf 44 07 c0
       0.900359698371678 -2.908569019428243
0000e0 4f 09 1a 4e 38 ef 02 c0 a3 c2 98 fa f6 cf ec 3f
       -2.366806612176482 0.9003863234011827
0000f0 ad 7f 05 34 d4 44 07 c0 61 c2 36 34 0b ef 02 c0
       -2.9086078705003815 -2.366720588608857
000100 04 0c 9c b1 f4 cf ec 3f 75 f3 af 5a fb 44 07 c0
       0.9003852337776839 -2.908682545179938
000110 b3 f6 28 f1 8d ee 02 c0 2b e1 9c 4e 55 d0 ec 3f
       -2.36648167043935 0.900431302586218
000120 cf fb e2 fd 67 45 07 c0 e1 ee b0 2a 78 ee 02 c0
       -2.9088897547621637 -2.366440137409754
000130 57 ef 8b 09 a6 cf ec 3f bf ce 72 5a 4b 45 07 c0
       0.9003477274377286 -2.9088351312910556
000140 4e 5e ae 9d 88 ee 02 c0 db dc 8e c5 df cd ec 3f
       -2.366471511730004 0.9001311167293368
000150 fe 08 75 36 fb 44 07 c0 ca 45 1a b1 bf ee 02 c0
       -2.9086822752443586 -2.3665765606062665
000160 06 46 c0 b5 d7 cc ec 3f e3 e6 da 14 46 40 07 c0
       0.9000052022767597 -2.9063836697867926
000170 69 91 4b bb 6a ed 02 c0 e3 81 e9 5d 2d cc ec 3f
       -2.3659262306629683 0.8999239763471077
000180 79 8a 28 b5 4b 40 07 c0 fa c5 16 11 50 ed 02 c0
       -2.9063944008824447 -2.3658753714632867
000190 ee b2 55 b8 8f cd ec 3f 03 d4 e2 e2 1b 40 07 c0
       0.9000929451263724 -2.9063031888458695
0001a0 fa 4e 17 0a ef ec 02 c0 aa a1 ca 62 21 ce ec 3f
       -2.365690306507415 0.9001624040147835
0001b0 5f 74 77 b9 f4 3f 07 c0 e5 3f ae cf e4 ec 02 c0
       -2.9062284936504024 -2.3656707978297953
0001c0 5b 0b cf ba 2d cf ec 3f e2 4e 49 b2 52 3f 07 c0
       0.9002903603180629 -2.9059194496747844
0001d0 1d 0f d1 3c b3 ec 02 c0 86 8e 71 44 50 cf ec 3f
       -2.365576243524528 0.9003068291462604
0001e0 91 88 d8 9e 68 3e 07 c0 15 65 8e 18 39 ec 02 c0
       -2.9054729852515 -2.3653432768302403
0001f0 9b a4 b4 95 56 ce ec 3f 4b f3 4f 34 30 3f 07 c0
       0.9001877712190834 -2.905853661241428
000200 b9 82 02 e9 1c ec 02 c0 97 cd 8c 9c 02 cd ec 3f
       -2.365289516820067 0.900025659333937
000210 5d 29 34 5b 61 3f 07 c0 78 32 86 e5 87 eb 02 c0
       -2.9059474110883188 -2.3650052959040373
000220 e8 58 f5 ae fa cc ec 3f 66 e6 e2 bb d1 3f 07 c0
       0.9000218789249432 -2.9061617544764884
000230 76 dd f5 26 68 eb 02 c0 ec c2 fd 4e c9 cd ec 3f
       -2.364944748285491 0.9001204054639778
000240 de a4 2a 46 2a 40 07 c0 3e 34 b6 a0 24 eb 02 c0
       -2.906330631424324 -2.364815955696513
000250 a3 61 e8 9f 17 ce ec 3f 4c 1c a9 6c 87 3f 07 c0
       0.9001577494810146 -2.9060200203998985
000260 36 5e 97 ff e6 ea 02 c0 41 b1 81 48 4a cd ec 3f
       -2.364698406988988 0.9000598350662942
000270 b1 93 41 bc 6d 40 07 c0 67 10 54 22 0e eb 02 c0
       -2.9064593036186683 -2.364773052397186
000280 c3 96 17 4e 55 cd ec 3f 3b 9c a4 d2 85 40 07 c0
       0.9000650906789008 -2.906505246780879
000290 1a dd 9f d6 e1 ea 02 c0 14 ae 1a b4 3d cd ec 3f
       -2.364688565019276 0.9000538365993997
0002a0 c7 03 85 f1 cd 40 07 c0 4d 5b b8 1b 87 ea 02 c0
       -2.9066428059308893 -2.3645155110965903
0002b0 8b 0a 2b 93 f9 cc ec 3f 6e f9 b5 e1 52 40 07 c0
       0.9000213503243953 -2.906408084264675
0002c0 0f d1 c7 e0 79 e9 02 c0 9b a5 71 aa 67 cb ec 3f
       -2.3640019951800535 0.8998297051413603
0002d0 df d6 03 57 10 40 07 c0 70 3a de 6d a9 e8 02 c0
       -2.9062811658903764 -2.3636044104999243
0002e0 2f 4d 4c ea cf ca ec 3f e5 e3 e0 86 eb 3f 07 c0
       0.8997573448308794 -2.9062109506016776
0002f0 c3 1a 78 f3 16 e8 02 c0 9c 61 1b be af cb ec 3f
       -2.363325025656509 0.899864074041989
000300 f5 15 38 0a d8 3f 07 c0 db 04 4f 06 3b e7 02 c0
       -2.906173782192804 -2.362905549322574
000310 b5 48 fb 7a a3 cc ec 3f f3 09 6c 0c 55 3f 07 c0
       0.8999802972778271 -2.905923935935101
000320 93 02 9d dc 67 e6 02 c0 fa 7d c6 53 cc cc ec 3f
       -2.362502788106505 0.8999997745740409
000330 ce 52 df 4c 1d 3e 07 c0 5e 0d 6d e6 36 e5 02 c0
       -2.905329323354045 -2.3619211198835464
000340 3f 8f 88 97 0e cc ec 3f 9d ab 1a fe 68 3d 07 c0
       0.8999093017232339 -2.904985413731494
000350 ba 87 c7 7c 02 e4 02 c0 83 a9 72 c3 77 cb ec 3f
       -2.3613328693763522 0.8998373811094073
000360 62 ab e4 72 ab 3d 07 c0 6d cf c1 7b 33 e3 02 c0
       -2.9051121688875563 -2.3609380405923077
000370 8f 47 c5 13 c2 cb ec 3f 24 45 7f 46 a1 3d 07 c0
       0.8998728166718467 -2.9050927646245714
000380 28 55 48 8b 79 e2 02 c0 98 5d 19 d7 31 cd ec 3f
       -2.3605833894204302 0.9000481797365181
000390 4b 53 5a 5c c2 3c 07 c0 91 fd 67 b4 6c e2 02 c0
       -2.9046675887169946 -2.360558900283373
0003a0 dd 7c e3 c1 89 cf ec 3f 44 a6 05 7d 07 3c 07 c0
       0.9003342425238788 -2.9043111579274257
0003b0 d9 ea 8f 9c c4 e1 02 c0 f5 a8 6e 47 cf ce ec 3f
       -2.360238288061151 0.900245322719711
0003c0 39 2a 68 cd 40 3b 07 c0 ca 5d 22 71 e1 df 02 c0
       -2.903932194463121 -2.359316715108183
0003d0 9a 62 d5 b8 7c cb ec 3f 2f 59 b0 9c 41 3c 07 c0
       0.899839745524406 -2.904422020084119
0003e0 44 9d 77 19 54 de 02 c0 80 b5 17 7b c0 ca ec 3f
       -2.358558844530906 0.8997499851372339
0003f0 a6 d9 89 f8 20 3c 07 c0 c3 22 64 90 95 dc 02 c0
       -2.9043597619122066 -2.35770714574423
000400 74 62 a4 bc 41 ca ec 3f 05 51 6f 6d 73 3b 07 c0
       0.8996895489136265 -2.9040287541957945
000410 9e 4e 37 31 7c da 02 c0 4b b7 99 1d d9 c8 ec 3f
       -2.3566821904185664 0.8995175912984704
000420 43 43 20 39 f2 3a 07 c0 af 7c 85 1b 68 d8 02 c0
       -2.903782316491204 -2.355667319308473
000430 db 10 3f f0 40 c6 ec 3f 43 d3 4f a6 61 3a 07 c0
       0.8992008869468252 -2.903506564436982
000440 b4 2a a4 e4 ae d6 02 c0 a8 f7 5a d1 be c4 ec 3f
       -2.3548257696723685 0.8990167702647698
000450 83 d3 28 48 f8 39 07 c0 11 b1 9d dd 6e d5 02 c0
       -2.90330559134094 -2.354215365767353
000460 60 5b ac 96 57 c4 ec 3f a4 d4 3b f1 2f 3d 07 c0
       0.8989675467335978 -2.9048765989669665
000470 f8 b0 ab 02 11 d6 02 c0 63 40 53 44 18 c5 ec 3f
       -2.354524632324793 0.8990594229199015
000480 cd 28 be a6 74 3d 07 c0 e7 ef 75 0f 6b d3 02 c0
       -2.9050076510221516 -2.353231545244842
000490 fb fa 07 77 92 c2 ec 3f ad 88 8f 73 7b 3d 07 c0
       0.8987514805629354 -2.9050206211259906
0004a0 50 79 9e b1 bb d0 02 c0 4b 3c b7 dc 69 c0 ec 3f
       -2.3519204975592984 0.898487979016758
0004b0 23 a9 1e ff 3e 3d 07 c0 1d 48 73 63 09 ce 02 c0
       -2.90490531265563 -2.3506038446003132
0004c0 71 46 b0 8b a7 be ec 3f 1b dd dc 41 db 3c 07 c0
       0.8982732513706663 -2.904715075066304
0004d0 a1 10 06 af a8 cb 02 c0 f3 8a 7c b9 17 bc ec 3f
       -2.3494428323484304 0.8979605315001592
0004e0 4b 61 4e 61 ed 3b 07 c0 4e da b4 6e 37 c9 02 c0
       -2.904261360363454 -2.348250260252178
0004f0 c6 68 e6 8f 29 ba ec 3f 8a 00 06 88 eb 39 07 c0
       0.8977248964831908 -2.9032812716323564
000500 c4 9c b5 8c 95 c5 02 c0 05 19 32 ec e0 b6 ec 3f
       -2.346476649563188 0.8973240483472017
000510 ce 07 32 be 46 39 07 c0 ba 97 59 99 70 c2 02 c0
       -2.902966962720689 -2.3449413280931966
000520 9a 80 19 c5 98 b4 ec 3f 12 46 77 5e 97 39 07 c0
       0.8970455026246953 -2.9031207447194527
000530 1c 1c 10 5c fb bf 02 c0 91 d0 26 0c 47 b3 ec 3f
       -2.343741149179108 0.8968844640098884
000540 cb 24 4d 40 f9 3a 07 c0 e3 95 a0 82 2f bd 02 c0
       -2.9037957213919063 -2.342375774884873
000550 bf 1d 67 5f 2c b3 ec 3f c2 e0 f1 b8 7f 39 07 c0
       0.8968717444740192 -2.903075642472772
000560 c2 80 a3 45 9e b9 02 c0 0e 4a 6a a0 16 b1 ec 3f
       -2.340633911182608 0.8966172345265606
000570 a3 ee 69 0a a8 37 07 c0 9a d2 02 22 13 b6 02 c0
       -2.9021759809091505 -2.338903680525914
000580 2c 4d 20 52 97 af ec 3f 27 a7 93 fe 62 35 07 c0
       0.8964344600703149 -2.9010677231607533
000590 b2 c0 d0 03 c9 b2 02 c0 7b 85 fe 32 2c ae ec 3f
       -2.3372974680024408 0.8962613101941054
0005a0 21 dd 89 93 29 35 07 c0 ef 05 25 e3 69 af 02 c0
       -2.9009582067916573 -2.335651182715757
0005b0 95 6a 5f 70 94 ad ec 3f 41 6b 76 73 ea 35 07 c0
       0.896188945272416 -2.901326086093292
0005c0 49 86 1c cb 2c ab 02 c0 9d 65 b3 b5 5a ac ec 3f
       -2.3335815303878786 0.8960393475382947
0005d0 ed 69 92 09 2a 35 07 c0 22 18 2c 14 32 a7 02 c0
       -2.900959086209005 -2.3316384864765647
0005e0 20 34 68 dd d5 aa ec 3f 3b a3 1a f5 43 34 07 c0
       0.8958539318424563 -2.9005202435259014
0005f0 4e 7e 57 68 3a a3 02 c0 b8 89 0f 4a 3c a8 ec 3f
       -2.3297012473774776 0.8955365606782868
000600 58 75 6e 6b c7 30 07 c0 f5 d5 2b 88 f8 9d 02 c0
       -2.8988178628048153 -2.3271341932656875
000610 63 c6 95 2e 9f a3 ec 3f 84 11 d4 e7 9a 31 07 c0
       0.8949733648170873 -2.8992212401955744
000620 67 ab 4f b3 0f 9b 02 c0 e7 09 1f 83 e9 a2 ec 3f
       -2.325713539952108 0.894886737915212
000630 3e a7 d2 c6 ce 30 07 c0 50 18 ef 93 8f 97 02 c0
       -2.898831895164135 -2.3240043217984194
000640 64 8d 5d d6 d9 a1 ec 3f 86 73 8f 73 14 30 07 c0
       0.8947571932625746 -2.898476507964406
000650 57 00 f7 97 5f 93 02 c0 89 26 71 2f f3 9e ec 3f
       -2.321959674096472 0.8944030691720438
000660 99 fa 4d f1 68 2f 07 c0 43 b9 d2 5a d7 8e 02 c0
       -2.898149380867221 -2.3197466941411746
000670 9b 84 dc 42 e7 9a ec 3f 3c b5 49 3a 45 31 07 c0
       0.8939091020476043 -2.8990578225845223
000680 c7 02 ac 0c 62 8b 02 c0 de 38 30 51 3b 97 ec 3f
       -2.3180581083291574 0.8934609018049533
000690 ae d4 25 15 bc 2f 07 c0 bf e2 e7 0c 9a 86 02 c0
       -2.898307957856182 -2.315723515345183
0006a0 1c 48 e7 60 72 91 ec 3f c3 ab 00 69 69 2d 07 c0
       0.8927547352452652 -2.897173710186935
0006b0 fe 3e fe 44 bb 81 02 c0 e1 e2 dd 89 13 8b ec 3f
       -2.313345469483351 0.8919770901403262
0006c0 fd 54 7c 6f 9b 2c 07 c0 66 3c a0 94 8a 7d 02 c0
       -2.896780844671069 -2.311299477710736
0006d0 3f 47 9a 58 25 84 ec 3f 14 ce aa ca c1 2a 07 c0
       0.8911310892601491 -2.895877440774493
0006e0 96 67 3b b7 1b 77 02 c0 c6 62 88 66 aa 78 ec 3f
       -2.3081583323482375 0.8897296907990373
0006f0 ae ec d7 e1 88 2b 07 c0 23 0e 55 85 1c 73 02 c0
       -2.8962571758289277 -2.306206742914371
000700 4e 39 1a 0e ab 74 ec 3f b9 04 46 60 7e 2c 07 c0
       0.8892417216718884 -2.8967254182212767
000710 b1 a7 5c 34 18 6e 02 c0 86 94 f9 dd 4a 6e ec 3f
       -2.3037571039939952 0.8884634337852197
000720 f9 93 be 10 99 27 07 c0 06 54 bc 3b de 67 02 c0
       -2.89433491784666 -2.300716845211812
000730 59 03 97 7d 99 68 ec 3f 8f a0 01 a3 3b 26 07 c0
       0.8877685025146135 -2.8936684355613305
000740 52 0e 91 38 10 63 02 c0 19 e3 fd e2 cd 62 ec 3f
       -2.298370782782322 0.8870610650475071
000750 0e 94 96 c4 9b 25 07 c0 d0 4e f2 0d 69 5e 02 c0
       -2.8933635099842894 -2.29609881301608
000760 ea 3a 30 82 4e 5e ec 3f 7e 61 1a e6 51 23 07 c0
       0.8865120451681296 -2.8922460533905783
000770 2d 94 54 45 4b 58 02 c0 d0 e0 74 7b 83 5b ec 3f
       -2.2931123176990895 0.8861710940609786
000780 22 3c e6 86 2a 21 07 c0 c4 a1 54 09 a3 51 02 c0
       -2.8911943949710954 -2.289861748595486
000790 fc 43 3c 46 b9 59 ec 3f e6 39 6c 09 09 20 07 c0
       0.8859526035104177 -2.8906422363427167
0007a0 ab 5d 52 57 4c 4c 02 c0 5e c0 73 88 92 58 ec 3f
       -2.2872549840937686 0.8858120598870405
0007b0 37 77 81 22 3e 1e 07 c0 7a 4a 48 85 ae 46 02 c0
       -2.889766950202922 -2.2845125591932716
0007c0 3a 30 8f 5e 56 58 ec 3f d9 61 9d 57 42 1c 07 c0
       0.8857833716260821 -2.888798412790703
0007d0 79 18 14 c2 eb 40 02 c0 f6 6c dc f5 37 55 ec 3f
       -2.2816996729262056 0.8854026605580703
0007e0 77 88 b7 a7 c9 18 07 c0 b1 7a 66 7f 85 3a 02 c0
       -2.8871033766636702 -2.278574939074439
0007f0 b2 c5 ab a8 a8 54 ec 3f 85 80 a6 74 0d 15 07 c0
       0.8853343290667708 -2.8852795708954226

mocap_framerate f8 []
000000 00 00 00 00 00 00 5e 40
       120.0

betas f8 [16]
000000 e0 1b 2d e2 eb 0d ba bf f9 f4 c0 04 ae e8 e8 bf
       -0.10177492401008648 -0.7784032910200543
000010 89 c1 e0 e5 f4 1f e9 3f cd 4c d0 b7 bb fa f0 3f
       0.7851509561351558 1.0612141781064566
000020 9b 4d f3 ce 45 92 e7 3f e5 c7 22 b4 31 7e e2 bf
       0.7366055528640801 -0.5779045599249427
000030 02 ec f2 7f f3 b0 e0 3f 8e 26 f1 0e 9c e3 d3 bf
       0.5216004847528668 -0.3107671876829067
000040 83 28 e6 12 a6 59 c9 3f c9 20 72 5a a5 fd b0 3f
       0.19804836199574902 0.06637032945775724
000050 23 08 84 52 b5 15 c1 bf b9 fd 94 d5 6b 35 a5 bf
       -0.13347498444642367 -0.04142319662286859
000060 68 e5 ee fd 86 2a f0 bf 24 2b eb a8 4a a8 d7 bf
       -1.01038264458324 -0.36964670654258414
000070 e6 87 ab aa ae cb df 3f 15 28 58 32 51 a2 c3 3f
       0.49680678050037697 0.15339102705212385

dmpls f8 [696, 8]
000000 ce d6 91 6e 48 b4 a2 3f 70 c7 f0 87 15 92 e8 bf
       0.03653169965484225 -0.7678325324143156
000010 24 c7 87 6d 7d 08 c1 bf a1 80 df b2 1f 8f ef 3f
       -0.1330715927902527 0.9862211698164353
000020 e8 9a 96 b5 e1 f8 e1 bf 71 ea 46 12 23 b5 f2 3f
       -0.5616310640951641 1.16922289981326
000030 7b 43 30 4b 5a d8 f2 bf 0d 61 42 a2 e8 0f ff bf
       -1.1778204857875767 -1.9413839662793777
000040 d0 f1 92 a2 2d d2 9c 3f 71 23 e2 58 1f b7 e8 bf
       0.02814551644108737 -0.7723538146975512
000050 7d 7e bb dd 01 4a c2 bf 61 f1 a0 f2 0d c9 ef 3f
       -0.14288352324273382 0.9932927836266964
000060 03 3e 87 a4 61 22 e2 bf e6 6f 9f eb 73 06 f3 3f
       -0.5666969502871669 1.189075394059722
000070 bf 57 52 f1 ca ff f2 bf ec f2 ee d8 8f 67 ff bf
       -1.1874494005801208 -1.962783667942115
000080 10 b6 6d 45 cc 87 72 bf 37 52 22 cd f7 53 ea bf
       -0.004524038252254239 -0.822749996807551
000090 f2 dc b5 89 9f b4 b5 bf ee aa 4d a4 fb 9f ef 3f
       -0.08478734123297096 0.9882791718531203
0000a0 0a ce 0e 95 3c 26 e4 bf d0 d0 1a d6 b2 ae f2 3f
       -0.6296675597463388 1.1676510203806636
0000b0 71 b1 ea 2d 63 c7 f2 bf 40 4c e7 64 5a e6 ff bf
       -1.1736785691856222 -1.9937385503333331
0000c0 23 58 7a 66 86 df 77 bf eb 12 71 e6 d5 a5 ea bf
       -0.005828404427708408 -0.8327435971083025
0000d0 54 92 75 98 d0 c3 b2 bf 22 5e c7 f8 0a 9c ef 3f
       -0.07330039713048936 0.98779820050817
0000e0 93 71 15 72 37 d4 e4 bf 38 28 c8 23 ca 96 f2 3f
       -0.6509053447912713 1.1618138692597437
0000f0 29 5e cd a8 d3 ac f2 bf c1 69 21 b5 17 11 00 c0
       -1.1671940416180269 -2.008345999796092
000100 23 58 7a 66 86 df 77 bf eb 12 71 e6 d5 a5 ea bf
       -0.005828404427708408 -0.8327435971083025
000110 54 92 75 98 d0 c3 b2 bf 22 5e c7 f8 0a 9c ef 3f
       -0.07330039713048936 0.98779820050817
000120 93 71 15 72 37 d4 e4 bf 38 28 c8 23 ca 96 f2 3f
       -0.6509053447912713 1.1618138692597437
000130 29 5e cd a8 d3 ac f2 bf c1 69 21 b5 17 11 00 c0
       -1.1671940416180269 -2.008345999796092
000140 83 e4 cd 2e 67 47 97 3f 48 5c 4c ed 85 8b eb bf
       0.022733318549829306 -0.860781634782037
000150 30 16 6e ec e1 a5 91 bf 10 ce 12 bf 44 1d ef 3f
       -0.017234354072135527 0.9723228198913052
000160 d7 db 51 f1 7e e2 e2 bf b6 67 f4 e0 71 af f2 3f
       -0.5901484216000153 1.1678332125943434
000170 e4 97 c0 20 cb 65 f3 bf e7 91 24 0b ad ae ff bf
       -1.2123519210231217 -1.980145495917094
000180 fb 15 a5 38 34 7e 98 3f 28 6b 59 59 78 e1 eb bf
       0.02391893001301602 -0.8712732071975084
000190 e4 b5 49 bc ff 8f 7d bf 75 bb 0c 3f c1 28 ef 3f
       -0.007217406241222222 0.973724959510817
0001a0 64 02 c2 9f ee 6a e1 bf a2 7b 37 93 91 c1 f2 3f
       -0.5443032379408348 1.1722579718259358
0001b0 38 48 e5 dd 4c 14 f4 bf 2f ca 1b f6 12 12 ff bf
       -1.2549561183736966 -1.9419126142135033
0001c0 7a f4 97 28 24 60 9c 3f b5 f3 e2 5a 77 39 ec bf
       0.02771049974215998 -0.8820149207236826
0001d0 b2 b2 08 6c 92 54 7a bf c3 df 5c 4c d0 7a ef 3f
       -0.006428310357062971 0.9837419024906854
0001e0 f0 0c 15 a2 3c 30 e0 bf e1 5e 57 0d 6d c9 f2 3f
       -0.5058882871311692 1.174176265825672
0001f0 35 e2 2d 90 0a ba f4 bf f4 f6 42 46 f1 a3 fe bf
       -1.2954202301026616 -1.9150250191300389
000200 e0 a0 cb 98 1b ee 98 3f 7a 1b 7f 1a de 51 ec bf
       0.024345809174435185 -0.8849936025152225
000210 d8 f4 b2 e7 c2 ca 73 3f cc 2f c3 89 b8 b6 ef 3f
       0.004832040164896877 0.991054791514665
000220 eb 80 03 cc 18 fd dd bf d7 2e 0b 73 1d ad f2 3f
       -0.46857280657969963 1.1672644132512937
000230 70 d1 72 03 c5 27 f5 bf ab bf d8 c5 66 3c fe bf
       -1.3222093710620264 -1.889746449316571
000240 2e c3 d0 e6 50 ba 96 3f 7e 07 20 ba 1b f9 eb bf
       0.022195114219530847 -0.8741587291008128
000250 b0 15 30 00 24 73 93 3f 06 5f 7d c7 b6 9a ef 3f
       0.018993914138283052 0.9876359840663731
000260 e3 af da 67 dd e4 dc bf 85 0a b2 ff 9d 97 f2 3f
       -0.4514688028527855 1.1620159137825408
000270 3c 8e dd 7c 77 41 f5 bf b3 b8 6d 59 c7 f8 fd bf
       -1.3284830930287077 -1.873236989336459
000280 02 0f 9d 2c 0d 46 a2 3f 50 ee 22 a6 34 46 eb bf
       0.035690700241074694 -0.8523200268604771
000290 a4 83 27 ea 3d c5 98 3f 53 08 b9 25 b5 a2 ef 3f
       0.024189917961738097 0.988611768414794
0002a0 b1 f2 06 96 e3 7c db bf cc 09 88 26 fc 39 f2 3f
       -0.42949762011611897 1.139156485093383
0002b0 19 1d 65 4e 60 6c f5 bf 8b 17 2a b2 e8 50 fd bf
       -1.3389590322784157 -1.832253166155598
0002c0 49 5c ab 43 87 5f a8 3f 89 a7 0c 11 bd fd ea bf
       0.04760382367174338 -0.843473943042441
0002d0 8d af 25 63 a0 14 96 3f 08 c7 16 f1 68 e7 ef 3f
       0.021563058902230692 0.996998282315162
0002e0 12 cf 7b 81 0c b8 da bf 5c 51 8b cf 17 e2 f1 3f
       -0.4174834503639754 1.11769848892171
0002f0 58 4f d6 ea 74 a5 f5 bf 7e ef 57 6d b9 c2 fc bf
       -1.352894704182253 -1.7975401183348079
000300 71 f5 75 d5 28 e6 ac 3f d9 07 71 cb 00 e0 ea bf
       0.05644347768518799 -0.8398441289393715
000310 cf 7b f7 d5 0d 1e a2 3f 88 90 32 85 d2 23 f0 3f
       0.03538554417513461 1.0087456896808664
000320 80 47 2e 25 2a cb d9 bf 0f 37 4f 9e 0d 94 f1 3f
       -0.4030251849263706 1.0986458000147115
000330 56 f1 e3 ec 9b c2 f5 bf 81 58 0d e3 da 24 fc bf
       -1.3600119832545565 -1.75899780933608
000340 31 a2 60 4d 4f 5d ab 3f 31 94 25 95 ca f0 ea bf
       0.053446272082798514 -0.8418934739135066
000350 19 be fd 5e cb 19 af 3f 2d 92 7e 9a 21 52 f0 3f
       0.060743670793154965 1.0200515780389978
000360 02 37 b6 e3 a4 0b d9 bf 48 4c 2a d9 40 3e f1 3f
       -0.39133569943884094 1.0776985629097613
000370 1a c8 93 08 66 cb f5 bf 3f 7a 9f c2 48 89 fb bf
       -1.3621578536081018 -1.7210166552028026
000380 86 5d 8e 6e 3f 67 a5 3f 30 60 2c d2 41 e3 ea bf
       0.04180334305345483 -0.8402413468311405
000390 ec 09 35 09 26 18 b5 3f 50 81 8f 1a a6 5b f0 3f
       0.08239972805771573 1.0223752057573456
0003a0 ca 3f 0a e5 5e 75 d8 bf 3c 31 49 f5 a8 12 f1 3f
       -0.3821637379378414 1.0670556622963678
0003b0 83 31 04 c5 96 aa f5 bf dc ef 59 2f e6 0e fb bf
       -1.3541476913406718 -1.6911374902401723
0003c0 01 c9 21 24 e4 9c 96 3f 8c 74 b4 e9 05 56 ea bf
       0.02208286734134735 -0.8230008663700956
0003d0 28 9f 60 39 cc 73 bf 3f 4e ba 17 c8 b7 bd ef 3f
       0.1228606834489453 0.9919089229641231
0003e0 ec 42 41 18 0d 62 d6 bf 87 7a 22 27 10 83 f1 3f
       -0.34973456734318975 1.0944978264521141
0003f0 be 21 ac e8 ad d8 f5 bf 63 95 d0 3c ac 20 fb bf
       -1.365400227428935 -1.6954767585351298
000400 88 b0 ac 2f e4 fc 73 bf b7 b9 b6 99 95 04 ea bf
       -0.004879847862678706 -0.8130596163007827
000410 59 1c c5 eb 29 04 c3 3f 83 83 74 51 93 42 ef 3f
       0.14856456768231643 0.9768768874092618
000420 d8 93 8b a9 3a 1e d5 bf 63 ec a5 02 95 b4 f1 3f
       -0.32997004086638304 1.1065874198382282
000430 55 f6 bc ca 56 0e f6 bf ca 71 75 de a1 f5 fa bf
       -1.3785007399996136 -1.68496882341343
000440 fe 1c 8b 48 bd 09 a6 bf 69 e7 3e 44 f5 44 e9 bf
       -0.04304305563487708 -0.7896677334713164
000450 24 c3 48 1b 0d ed c5 3f ec 70 cd 85 bc 30 ee 3f
       0.1712967284415977 0.9434492696123278
000460 15 ed 32 41 17 3b d4 bf b4 8d 51 13 3e 07 f2 3f
       -0.31610661856730476 1.1267681841498929
000470 88 0a b8 78 30 8e f6 bf 38 59 2c c1 20 06 fb bf
       -1.4097141948301743 -1.6889960809545084
000480 96 57 d3 03 ea fb ae bf 84 a7 4f 11 d3 c4 e8 bf
       -0.06051570221613571 -0.7740264261349101
000490 c6 39 2e 21 bd 74 c9 3f 1b c9 de b7 8d 88 ed 3f
       0.1988750850691316 0.9229191390243473
0004a0 92 28 1d 7f 7b 56 d3 bf 53 2c 45 8e 87 2e f2 3f
       -0.3021534673067744 1.136359744780539
0004b0 42 b4 62 9d 1d 35 f7 bf 76 c6 1e 3a 39 29 fb bf
       -1.4504676959870868 -1.6975643415757111
0004c0 e3 fd 14 af b4 73 b5 bf 24 a8 97 15 ae 95 e8 bf
       -0.08379678034270159 -0.7682714864470239
0004d0 df 78 f0 13 6f 1c cc 3f 93 72 78 4e 9e e0 ec 3f
       0.2196177337036209 0.902419236433689
0004e0 5b af 9b d3 e4 e2 d2 bf d0 0f b2 92 58 37 f2 3f
       -0.29509850182397707 1.138512204198367
0004f0 8f 66 22 2b 0b b6 f7 bf fa 7d e1 cb 0a 2e fb bf
       -1.4819442448555582 -1.6987407650084365
000500 c9 fa 1e ba cd 31 bb bf f3 2a 06 5f 5f 76 e8 bf
       -0.10622869295091698 -0.7644497734011949
000510 86 6d 36 ee 49 ec cf 3f 3a 56 d6 5b f3 00 ec 3f
       0.24939846164202722 0.8751160424896576
000520 4e e8 e2 35 f2 2f d3 bf 25 51 50 1c 84 55 f2 3f
       -0.2998013998254735 1.1458779436116597
000530 a8 ee ed d2 62 fa f7 bf bd 82 14 8a 2e 23 fb bf
       -1.4986294021063404 -1.6960893052820858
000540 ce ff ab 00 b2 e9 c1 bf 67 a7 65 f5 e6 84 e7 bf
       -0.13994431526952983 -0.7349734108840779
000550 71 35 d3 df 00 55 d0 3f ef a5 4c 7b 01 b6 ea 3f
       0.2551881967345571 0.8347175033752005
000560 b2 a7 92 a6 bd 51 d3 bf 4c 5d 38 26 a8 41 f2 3f
       -0.3018640639007756 1.1410295002913982
000570 d7 38 84 98 c4 ec f8 bf a8 ca b0 d1 7a 13 fb bf
       -1.5578046758342248 -1.6922558012999307
000580 de 8c 61 32 13 f3 c4 bf de 1d aa 9c fb a9 e6 bf
       -0.16366805992138372 -0.7082498607496139
000590 df e6 02 d7 f0 5f cf 3f bd 0f 38 04 a1 f5 e9 3f
       0.24511538027382238 0.8112340052034522
0005a0 ff 03 24 2d 57 6d d3 bf f9 0c 79 54 67 69 f2 3f
       -0.3035486164881717 1.150733308765494
0005b0 90 5d 83 bf 79 b0 f9 bf 86 b9 ee 07 a2 29 fb bf
       -1.6055848580343515 -1.6976642904151915
0005c0 38 0e f8 7f 72 ff c6 bf 07 46 d3 a4 38 22 e6 bf
       -0.17967063187107768 -0.6916774005168812
0005d0 ed d5 6c 29 73 59 ce 3f 20 bb 3a 9f ce 0d e9 3f
       0.237104792811507 0.7829354391049925
0005e0 01 ec 15 49 cb cb d3 bf b4 57 79 98 b7 65 f2 3f
       -0.30931360375660694 1.1498332935347948
0005f0 0a d0 ef f7 02 53 fa bf 9d e7 26 74 23 23 fb bf
       -1.64526650286007 -1.6960787331758873
000600 73 56 dd 54 2f 4f c8 bf 2b 04 b7 af a1 db e5 bf
       -0.18991653102664294 -0.6830604965144905
000610 c4 63 aa f2 f8 f3 cf 3f e7 35 69 af f8 c9 e7 3f
       0.2496329483881522 0.743404715156143
000620 39 b7 8b ef 08 f2 d3 bf 78 72 1c 88 ba 4d f2 3f
       -0.31164763825551095 1.1439767186012926
000630 b1 46 d6 cb c9 ca fa bf 43 dd e5 36 1c e3 fa bf
       -1.6745088541396564 -1.6804468292665014
000640 92 ba ee 08 cf ab c9 bf f2 38 89 24 45 b6 e5 bf
       -0.20055568634184745 -0.6784997666925661
000650 14 24 0b 0f 38 f2 d0 3f a2 97 c9 95 42 9d e6 3f
       0.2647838732632988 0.7066967893158458
000660 76 09 78 e7 94 69 d4 bf 38 aa 57 3b a0 32 f2 3f
       -0.3189441929281637 1.137359840208445
000670 28 8a 79 fb 92 2b fb bf 64 0f 4d a6 b6 b9 fa bf
       -1.6981382201416952 -1.6703402038701478
000680 82 d0 6a 7a ee bd cc bf c4 9b 15 17 e5 fa e5 bf
       -0.22454625108150955 -0.6868768168322892
000690 01 76 b4 52 7b 2c d2 3f df d2 43 82 83 f1 e4 3f
       0.28396494938519373 0.6544816536175765
0006a0 bd 9e f1 c1 b2 33 d5 bf 46 c0 98 08 43 17 f2 3f
       -0.3312804121000957 1.1306791625793422
0006b0 61 35 37 1e 2e 38 fb bf bf d8 aa 42 da 80 fa bf
       -1.7012158565806532 -1.6564581493562824
0006c0 3e 05 2b e3 35 ae ce bf ea c2 7c a1 d6 df e5 bf
       -0.2396914824694622 -0.683574023632983
0006d0 e2 ab 1f f1 7b d7 d2 3f 67 84 3b 59 61 70 e3 3f
       0.2944021086429399 0.6074682944128086
0006e0 88 43 64 38 22 0b d6 bf 58 06 5e a6 c9 05 f2 3f
       -0.3444295454692612 1.1264130114290278
0006f0 0d 35 04 d3 f7 21 fb bf ed 39 8a 23 e5 4d fa bf
       -1.6957929842786286 -1.6440173519400745
000700 65 9b db 35 0b d8 ce bf ac 02 97 6b 50 f3 e4 bf
       -0.2409681332566961 -0.6547014333119328
000710 9c aa d2 55 17 93 d2 3f 31 ba 58 0e c6 70 e2 3f
       0.29022773152488823 0.5762663154799325
000720 95 e0 b0 22 47 9c d6 bf 54 0c 29 77 44 e5 f1 3f
       -0.3532884444025595 1.1184734968853904
000730 0d 63 86 f3 18 30 fb bf 86 8c 66 f1 95 24 fa bf
       -1.6992425453847233 -1.6339320592603896
000740 2b 2f a4 69 cc e2 cf bf e5 ad c5 96 c6 55 e4 bf
       -0.24910884054440294 -0.6354706711549026
000750 dc 8a 6d 4e 4d ee d1 3f 22 5d 51 36 d0 e6 e1 3f
       0.28016979845976464 0.5594254551787439
000760 1a 64 ee 35 d1 01 d7 bf 86 f1 84 49 11 cf f1 3f
       -0.35948591486664017 1.1130535957191525
000770 7e cb 7e 20 37 52 fb bf a5 66 58 da 7b e6 f9 bf
       -1.7075721043918004 -1.6187704590906062
000780 9d 74 20 6b b9 b8 d0 bf 72 75 32 5d 58 f5 e3 bf
       -0.26127467595672177 -0.6236993618255566
000790 d0 16 69 2a ff 32 d1 3f 79 e0 77 a9 ae 54 e1 3f
       0.268737594048031 0.5415871915747764
0007a0 f1 30 37 30 ee 37 d7 bf f7 7e 66 6a 03 c6 f1 3f
       -0.3627887221198441 1.1108431011452333
0007b0 da 7f ca 6a 5f 50 fb bf 0d a0 90 c5 16 9a f9 bf
       -1.7071222468875846 -1.6001193730717234
0007c0 3c 49 b1 e1 ea 81 d1 bf 42 3e 6b d8 3c 54 e3 bf
       -0.273554535296302 -0.6040329195911414
0007d0 b1 e2 29 27 89 40 d1 3f 10 5d 90 64 b6 98 e0 3f
       0.26956394981929593 0.5186416591776908
0007e0 b8 46 68 69 a1 28 d7 bf 4b f9 2e 16 0e c3 f1 3f
       -0.36185488980946046 1.110120855955375
0007f0 6a 62 f3 fa f5 15 fb bf 12 0b a2 c9 8a 60 f9 bf
       -1.6928615381968037 -1.5860698581970536

poses f8 [696, 156]
000000 5c 67 ac aa 8b f2 e5 3f 54 7b e0 d8 68 5a fc 3f
       0.685857613894068 1.7720726463082501
000010 96 ba 68 3d 5d e9 fc 3f f3 19 7e 3c 6f 3c bd 3f
       1.8069736861031394 0.11420340754384721
000020 e8 6a 38 d3 0e 11 aa 3f ff 7a 88 bf e4 84 a3 bf
       0.05091139152883334 -0.03812327230501999
000030 a5 46 50 d4 1e b7 ac 3f 03 9f e1 b3 e4 2c ae bf
       0.056084597985443886 -0.05893625922982262
000040 e0 87 ff 10 6a 87 3b 3f ab cd 76 b3 87 35 b7 3f
       0.0004200586272401479 0.09066055423209345
000050 a6 19 81 28 55 db 9d 3f 3a be 2d 5d 6f 9e 88 3f
       0.029157000157533773 0.012020940810287251
000060 4d f8 a3 f0 d1 96 b3 bf f8 08 4b f3 f1 8b b1 bf
       -0.07652008175861731 -0.06854164304516874
000070 6c 97 1e 1d 2d 43 a8 bf 0b 4b 0e 6c 99 99 97 3f
       -0.04738751392805693 0.023046872348980545
000080 a9 85 e5 09 51 30 74 3f c2 fc 0c ea dd 88 ac 3f
       0.004928890759715734 0.055731711216588944
000090 12 4e 3a a9 85 b8 b4 3f 6e 30 7c 89 20 2b a7 bf
       0.08094058400666196 -0.045250908644533946
0000a0 b0 cd af 29 c3 dc 8e 3f c4 f1 de 68 a6 3e ca bf
       0.015069508275678739 -0.2050369274201228
0000b0 34 ee 7d 5c 84 01 cb 3f cf 99 0f c8 85 b8 b6 3f
       0.21098379627425035 0.08875309118557272
0000c0 25 32 25 ef 4a 65 c4 bf 43 05 ff 2c 12 04 bb bf
       -0.15934120823875833 -0.10553086851634412
0000d0 28 df 1f 1d 4d 29 a8 3f 52 05 43 a6 19 3f a6 bf
       0.04719010334514301 -0.04345016626894939
0000e0 e7 25 3b 41 1a bc 85 bf 9a 93 a5 b6 ba bf 66 3f
       -0.010612683406537605 0.0027769705531448087
0000f0 00 00 00 00 00 00 00 00 00 00 00 00 00 00 00 00
       0.0 0.0
000100 00 00 00 00 00 00 00 00 00 00 00 00 00 00 00 00
       0.0 0.0
000110 00 00 00 00 00 00 00 00 00 00 00 00 00 00 00 00
       0.0 0.0
000120 45 53 53 bf dd f1 93 bf 15 32 6a a7 54 34 b7 3f
       -0.019477333834248673 0.09064225280071299
000130 88 5b 87 86 f1 de 90 bf ec 2a 00 33 4b a4 a1 3f
       -0.016475461803419772 0.034456586814561735
000140 0b 4e 0f c8 4f 0f 91 bf 93 3f 29 74 e5 15 e0 bf
       -0.016659971795730793 -0.502672888638687
000150 bc ae ea 36 46 aa ab 3f 46 78 27 42 e0 e5 b3 3f
       0.05403346462602829 0.07772637953846226
000160 0c 38 93 91 3f 29 df 3f 2b 52 68 17 65 48 b6 3f
       0.4868925973540861 0.08704215833160649
000170 7c da aa 26 5c 17 b9 3f 01 b8 3d fe 7d f0 91 3f
       0.0980126947787116 0.017518967287678325
000180 4a 89 7b 4e 6f 28 c6 3f 7f 08 31 52 5e 7e c7 bf
       0.17310897190243174 -0.18354395879038418
000190 4a 01 bb c8 33 c5 ee bf 78 2a ed 88 0d cc c9 3f
       -0.9615725441472389 0.20153969941960148
0001a0 09 0f 77 e2 2b a9 c5 3f c0 e7 1b 60 91 b9 ee 3f
       0.16922520215859319 0.9601523282174114
0001b0 75 da 7b a7 2a f2 c1 3f c4 86 a5 10 ea ff da bf
       0.14020283868713404 -0.4218697702946026
0001c0 04 51 c0 a6 c5 32 b1 3f c8 57 40 93 fb 67 35 3f
       0.0671809703929434 0.0003266324231402354
0001d0 36 f5 ba 46 b8 e0 d7 3f 25 64 48 47 0e 97 c3 bf
       0.3730908098912836 -0.15304735642055892
0001e0 5f d5 43 47 d3 cc 7e 3f 4f 85 5c 86 2b ab c5 bf
       0.007519555383841719 -0.16928619442573242
0001f0 18 cf ca d8 f2 bd bb bf bd c2 12 15 59 88 96 bf
       -0.10836713593272085 -0.02200450125809782
000200 97 02 15 6d 7b 70 c2 3f bc f1 e0 c4 06 51 c1 3f
       0.14405768228791224 0.13528523076264587
000210 80 bb 8c ef f9 96 bc 3f d6 a9 64 90 f6 f5 a5 3f
       0.1116787156904433 0.04289217484104639
000220 83 eb 72 a9 fb a6 da bf 2d f8 e5 1a 0f db bb 3f
       -0.416441836812446 0.10881132513711185
000230 b1 4d c9 fc 6f e4 b0 bf db ff 70 4e f4 32 e8 bf
       -0.06598567887822672 -0.7562200100001023
000240 9f 58 d7 98 35 ad b8 bf 2f c4 0b a7 3f 46 b7 bf
       -0.09639296514009964 -0.09091565922041477
000250 ae e4 15 1d 6f 1f c8 bf e6 3e cd fb 79 3b be bf
       -0.1884592906970161 -0.11809503934386675
000260 00 54 c2 09 50 15 aa 3f 95 b4 7b 31 5b f2 e0 bf
       0.05094385260705536 -0.529584499976084
000270 ae 20 e9 9e b5 64 c2 bf 17 d3 e1 dd a3 48 ac 3f
       -0.14369840869244882 0.05524170001527844
000280 fc ef f3 8f 30 8e e6 bf ba 5e e0 c1 af a4 93 bf
       -0.7048571406917286 -0.019182916839865817
000290 57 a7 4d 3f 63 a3 b7 bf 6a 31 25 0c 60 a0 d5 bf
       -0.09233684821597642 -0.3379135244947721
0002a0 a9 32 25 45 07 40 dd bf 6c 44 9b 12 d5 1f c9 bf
       -0.4570329833266365 -0.196283945164882
0002b0 c5 4b 13 84 bf 03 e4 bf e5 28 80 a9 ba 79 cb bf
       -0.6254575328442732 -0.21465237881086022
0002c0 b6 e1 12 82 43 e5 b0 bf c9 a1 33 33 7a 38 e0 bf
       -0.06599828649166892 -0.5068942070038754
0002d0 75 1e db 59 90 a9 d7 bf f6 62 6b a9 7d e5 ae bf
       -0.36972435736649994 -0.06034462636097786
0002e0 ac 9b 14 b9 78 59 b4 bf 14 54 27 41 c9 28 c2 bf
       -0.07949022787634757 -0.14186969453172138
0002f0 01 70 5f 2c 70 fa b5 bf da 53 c5 5a 3f 56 e4 bf
       -0.08585263331718808 -0.6355282566897771
000300 e5 f6 70 d5 f2 69 d3 bf 0b 20 55 3f 93 a2 ad bf
       -0.3033415874850632 -0.05788097522832921
000310 32 5f f5 24 57 34 e4 bf 67 f4 a5 10 21 8b c6 bf
       -0.6313892099233043 -0.1761208850183806
000320 c6 b2 4e 09 6d e8 c0 bf 36 8c ee 97 0a e5 d7 bf
       -0.13209307627166406 -0.37335457646458126
000330 4e c7 87 70 19 3b eb 3f ae 0b 2c 2a 1a b9 d1 3f
       0.8509642789706306 0.2769227420650918
000340 9c 33 ba bd b1 6f b7 bf 3f 7e 75 8d 5e fd df bf
       -0.09154806978240376 -0.49983943762160615
000350 59 89 b4 ad 9e 31 9b 3f 91 40 4d c8 33 13 ab 3f
       0.026556472160458842 0.05288087673273013
000360 3b ce 19 f0 4c 23 e1 3f 72 d3 95 9f 34 88 a7 3f
       0.5355591477841196 0.04596104095518329
000370 3a f5 a5 db 3b c0 d1 bf 80 bb 8c ef f9 96 bc 3f
       -0.2773580212595622 0.1116787156904433
000380 d4 a9 64 90 f6 f5 a5 bf 84 eb 72 a9 fb a6 da 3f
       -0.04289217484104638 0.41644183681244606
000390 2d f8 e5 1a 0f db bb 3f b0 4d c9 fc 6f e4 b0 3f
       0.10881132513711185 0.0659856788782267
0003a0 db ff 70 4e f4 32 e8 3f 9f 58 d7 98 35 ad b8 bf
       0.7562200100001023 -0.09639296514009964
0003b0 2f c4 0b a7 3f 46 b7 3f af e4 15 1d 6f 1f c8 3f
       0.09091565922041477 0.18845929069701614
0003c0 e5 3e cd fb 79 3b be bf 01 54 c2 09 50 15 aa bf
       -0.11809503934386674 -0.05094385260705537
0003d0 95 b4 7b 31 5b f2 e0 3f af 20 e9 9e b5 64 c2 bf
       0.529584499976084 -0.14369840869244885
0003e0 18 d3 e1 dd a3 48 ac bf fc ef f3 8f 30 8e e6 3f
       -0.05524170001527845 0.7048571406917286
0003f0 bb 5e e0 c1 af a4 93 bf 57 a7 4d 3f 63 a3 b7 3f
       -0.01918291683986582 0.09233684821597642
000400 6a 31 25 0c 60 a0 d5 3f a9 32 25 45 07 40 dd bf
       0.3379135244947721 -0.4570329833266365
000410 6d 44 9b 12 d5 1f c9 3f c5 4b 13 84 bf 03 e4 3f
       0.19628394516488204 0.6254575328442732
000420 e7 28 80 a9 ba 79 cb bf b6 e1 12 82 43 e5 b0 3f
       -0.21465237881086027 0.06599828649166892
000430 c9 a1 33 33 7a 38 e0 3f 75 1e db 59 90 a9 d7 bf
       0.5068942070038754 -0.36972435736649994
000440 f4 62 6b a9 7d e5 ae 3f ad 9b 14 b9 78 59 b4 3f
       0.06034462636097784 0.07949022787634759
000450 16 54 27 41 c9 28 c2 bf 01 70 5f 2c 70 fa b5 3f
       -0.14186969453172144 0.08585263331718808
000460 da 53 c5 5a 3f 56 e4 3f e5 f6 70 d5 f2 69 d3 bf
       0.6355282566897771 -0.3033415874850632
000470 0c 20 55 3f 93 a2 ad 3f 32 5f f5 24 57 34 e4 3f
       0.05788097522832922 0.6313892099233043
000480 68 f4 a5 10 21 8b c6 bf c6 b2 4e 09 6d e8 c0 3f
       -0.17612088501838064 0.13209307627166406
000490 36 8c ee 97 0a e5 d7 3f 4e c7 87 70 19 3b eb 3f
       0.37335457646458126 0.8509642789706306
0004a0 ae 0b 2c 2a 1a b9 d1 bf 9d 33 ba bd b1 6f b7 3f
       -0.2769227420650918 0.09154806978240378
0004b0 3f 7e 75 8d 5e fd df bf 59 89 b4 ad 9e 31 9b bf
       -0.49983943762160615 -0.026556472160458842
0004c0 90 40 4d c8 33 13 ab bf 3a ce 19 f0 4c 23 e1 3f
       -0.05288087673273012 0.5355591477841195
0004d0 74 d3 95 9f 34 88 a7 bf 3c f5 a5 db 3b c0 d1 3f
       -0.0459610409551833 0.2773580212595623
0004e0 da 84 f5 6d 76 0e e6 3f f0 ef f1 72 51 65 fc 3f
       0.6892654559743747 1.7747358789483734
0004f0 15 a1 f0 e8 3f e4 fc 3f f6 38 d4 7c 26 43 bc 3f
       1.805725011750899 0.11039963290770402
000500 2e 12 06 f9 83 15 a9 3f 29 0a dd 40 63 cd a4 bf
       0.04899227537956495 -0.04062948385992044
000510 79 63 df d7 44 0f ab 3f fe 17 53 b5 20 c6 ac bf
       0.052850867606770664 -0.056199094900463806
000520 64 03 63 68 eb 5b 57 bf 57 3f c1 ab f1 3b b6 3f
       -0.0014257239250101356 0.08685217326387594
000530 25 b5 98 3e fc 66 9c 3f 7d fe ee ee 9d 1a 86 3f
       0.027736607857311264 0.010792955259488974
000540 a2 9a 47 d7 5b 5e b3 bf 02 22 c8 04 4f 41 b1 bf
       -0.07565855031826144 -0.06740278116934209
000550 d7 67 92 56 a3 ed a7 bf 0f 42 db 80 01 f1 96 3f
       -0.04673490936075069 0.022403739442610923
000560 5a e1 76 59 97 88 7f 3f fc d9 e0 f2 1d 18 ad 3f
       0.007698622902744335 0.05682462301085775
000570 ef 0c d9 75 3f 56 b5 3f 07 f8 30 2e 07 66 a7 bf
       0.08334728839058746 -0.045700287235817476
000580 c5 be 41 2b a0 50 8c 3f ad 24 6d 4e 17 2a ca bf
       0.01382565624245958 -0.20440951661502052
000590 cf 0e 0d 45 de 2a cb 3f 6c e8 9f 55 2d 69 b6 3f
       0.21224573489791118 0.08754237499661749
0005a0 b0 7c 86 8c 61 45 c4 bf bb b8 8e f5 ad 47 bb bf
       -0.1583673416289222 -0.10656249280029588
0005b0 55 0b b6 10 69 f5 a9 3f 47 a8 c6 25 aa f6 a6 bf
       0.050700457849436255 -0.04485065184719921
0005c0 a7 1f e3 3b 5b 62 85 bf 39 75 d6 bf af 94 4b bf
       -0.01044150616179691 -0.0008416994239045856
0005d0 00 00 00 00 00 00 00 00 00 00 00 00 00 00 00 00
       0.0 0.0
0005e0 00 00 00 00 00 00 00 00 00 00 00 00 00 00 00 00
       0.0 0.0
0005f0 00 00 00 00 00 00 00 00 00 00 00 00 00 00 00 00
       0.0 0.0
000600 16 d8 6a de 58 5e 9f bf 6a df 23 67 88 96 b2 3f
       -0.030633343291548064 0.07260944860524679
000610 08 51 d7 e9 d6 55 9b bf ae 59 b1 cb d4 e4 a1 3f
       -0.02669463922741591 0.034948968758431107
000620 5e b0 d4 5c 55 40 89 bf 79 77 9f 0d 9f f2 df bf
       -0.012329737563583073 -0.49918342905390706
000630 14 48 63 2d 1f b6 aa 3f ef df 27 9a 19 1f b4 3f
       0.052170728960519025 0.07859954846924187
000640 72 bb e4 0b 36 81 df 3f a6 21 8b 31 8a 34 b6 3f
       0.49226142083619273 0.08673919400746985
000650 ea 3f 36 29 f0 7f b2 3f 19 6c 4c dd 12 9c 87 3f
       0.07226468092107977 0.01152815568780423
000660 6c 49 18 7f 9c 57 c6 3f 7a ba 3d 29 7f a6 c7 bf
       0.17454868512920585 -0.18476857675291908
000670 d9 15 40 ba 6a ba ee bf e0 4c d0 1f b2 0a ca 3f
       -0.9602559697820495 0.20345140984918597
000680 ea 68 d7 3b d8 68 c5 3f 29 bd 59 56 2f b4 ee 3f
       0.1672621051973871 0.9594952284368549
000690 f7 ed f4 11 ad 5a c2 3f 4b bb fc cc 97 58 db bf
       0.14339221360010843 -0.4272822858646818
0006a0 10 c7 7e d6 66 e1 b1 3f 37 bf a0 7d 88 77 7a 3f
       0.06984560715389088 0.006461651961259743
0006b0 79 72 64 7c 5e f2 d7 3f a6 00 16 13 2c ac c3 bf
       0.37416803500835943 -0.15369177753382707
0006c0 9b c5 9b ff 00 c6 8a 3f 7d d1 fa c1 42 82 c6 bf
       0.013072974968482856 -0.17585024329822466
0006d0 7a 79 7b d4 29 74 bd bf c6 55 4e c0 f4 e0 89 bf
       -0.11505376279408167 -0.012636100882256762
0006e0 c5 af 4f 47 71 a2 c2 3f e6 1e fa 1e f3 4f c1 3f
       0.14558235151286972 0.13525237095404136
0006f0 80 bb 8c ef f9 96 bc 3f d6 a9 64 90 f6 f5 a5 3f
       0.1116787156904433 0.04289217484104639
000700 83 eb 72 a9 fb a6 da bf 2d f8 e5 1a 0f db bb 3f
       -0.416441836812446 0.10881132513711185
000710 b1 4d c9 fc 6f e4 b0 bf db ff 70 4e f4 32 e8 bf
       -0.06598567887822672 -0.7562200100001023
000720 9f 58 d7 98 35 ad b8 bf 2f c4 0b a7 3f 46 b7 bf
       -0.09639296514009964 -0.09091565922041477
000730 ae e4 15 1d 6f 1f c8 bf e6 3e cd fb 79 3b be bf
       -0.1884592906970161 -0.11809503934386675
000740 00 54 c2 09 50 15 aa 3f 95 b4 7b 31 5b f2 e0 bf
       0.05094385260705536 -0.529584499976084
000750 ae 20 e9 9e b5 64 c2 bf 17 d3 e1 dd a3 48 ac 3f
       -0.14369840869244882 0.05524170001527844
000760 fc ef f3 8f 30 8e e6 bf ba 5e e0 c1 af a4 93 bf
       -0.7048571406917286 -0.019182916839865817
000770 57 a7 4d 3f 63 a3 b7 bf 6a 31 25 0c 60 a0 d5 bf
       -0.09233684821597642 -0.3379135244947721
000780 a9 32 25 45 07 40 dd bf 6c 44 9b 12 d5 1f c9 bf
       -0.4570329833266365 -0.196283945164882
000790 c5 4b 13 84 bf 03 e4 bf e5 28 80 a9 ba 79 cb bf
       -0.6254575328442732 -0.21465237881086022
0007a0 b6 e1 12 82 43 e5 b0 bf c9 a1 33 33 7a 38 e0 bf
       -0.06599828649166892 -0.5068942070038754
0007b0 75 1e db 59 90 a9 d7 bf f6 62 6b a9 7d e5 ae bf
       -0.36972435736649994 -0.06034462636097786
0007c0 ac 9b 14 b9 78 59 b4 bf 14 54 27 41 c9 28 c2 bf
       -0.07949022787634757 -0.14186969453172138
0007d0 01 70 5f 2c 70 fa b5 bf da 53 c5 5a 3f 56 e4 bf
       -0.08585263331718808 -0.6355282566897771
0007e0 e5 f6 70 d5 f2 69 d3 bf 0b 20 55 3f 93 a2 ad bf
       -0.3033415874850632 -0.05788097522832921
0007f0 32 5f f5 24 57 34 e4 bf 67 f4 a5 10 21 8b c6 bf
       -0.6313892099233043 -0.1761208850183806
