data/amass/ACCAD/Male2Walking_c3d/B14 -  Walk turn right 45_poses.npz (npz, 657504 bytes, 5 tensors)

trans f8 [491, 3]
000000 0a 8f ec e0 9e 3e db bf b9 4c ca ae c9 5f 04 c0
       -0.42569705929985047 -2.5467713981139153
000010 55 62 20 c3 cc 56 ec 3f 10 c2 66 3e af 3e db bf
       0.885595685106703 -0.42570096105467403
000020 05 74 ea f1 66 5f 04 c0 b3 d2 d0 ac a2 56 ec 3f
       -2.546583070723957 0.8855756163889822
000030 1e 3a 63 5c 38 3f db bf 7c 00 c3 17 30 5f 04 c0
       -0.42573365232684235 -2.5464784485230307
000040 66 f3 f7 77 90 56 ec 3f 38 cb 5f fc 6f 40 db bf
       0.8855669348846333 -0.425807949504065
000050 9a cc 9d ef e7 5e 04 c0 69 f7 3d a9 a3 56 ec 3f
       -2.5463408203155042 0.8855760865696826
000060 de 46 3e 04 43 44 db bf e8 f6 8c 94 14 5f 04 c0
       -0.4260413686216519 -2.546425972511191
000070 97 45 da a5 34 57 ec 3f 84 c2 36 0c 86 47 db bf
       0.8856452216443128 -0.4262404555584356
000080 8c 0c 74 4e 2e 5f 04 c0 22 a0 d1 16 cd 57 ec 3f
       -2.5464750413098667 0.8857179113083513
000090 00 64 76 4c 9a 48 db bf 02 33 44 eb 9d 5e 04 c0
       -0.4263063189223999 -2.5461996441066512
0000a0 fa 03 4a fa d9 57 ec 3f 30 76 1b 10 06 47 db bf
       0.8857240570506513 -0.4262099416062908
0000b0 dc bd 03 17 f4 5d 04 c0 68 e1 96 32 2d 57 ec 3f
       -2.545875720788656 0.8856416690896767
0000c0 80 83 fc f5 1c 46 db bf 7d 8b 86 ff 4e 5d 04 c0
       -0.426154365750385 -2.545560833257183
0000d0 fb bf 52 78 6f 56 ec 3f a5 ca 31 53 53 44 db bf
       0.8855511999190634 -0.42604525684797984
0000e0 17 80 b1 26 cf 5c 04 c0 f3 9e 7b 44 93 54 ec 3f
       -2.545316984454995 0.8853241288715864
0000f0 c5 8b 2f 72 22 49 db bf 10 25 bf 1d 63 5d 04 c0
       -0.4263387789816842 -2.545599205394531
000100 48 7f 90 d7 cf 54 ec 3f c2 e0 5f cf 99 47 db bf
       0.8853530130618106 -0.42624516726892747
000110 3c f2 10 15 00 5d 04 c0 8d f0 af c1 9a 54 ec 3f
       -2.5454103132053927 0.8853276999430065
000120 8a 2b a3 30 5e 45 db bf c3 7c ee af 56 5c 04 c0
       -0.4261088824247784 -2.5450872177749218
000130 1a d9 ee be 22 54 ec 3f 8b 26 7e d7 1b 46 db bf
       0.8852704743538056 -0.42615409893242234
000140 80 32 38 67 21 5c 04 c0 f1 b2 41 7b 71 53 ec 3f
       -2.54498558655024 0.8851859481197534
000150 64 05 61 ff c2 49 db bf d3 be 8a 54 95 5c 04 c0
       -0.4263770574508128 -2.545206699833082
000160 fa 55 47 bf 3f 52 ec 3f 73 d2 6e 19 62 4e db bf
       0.8850401626502269 -0.42665913089448465
000170 45 af 3f de 3d 5d 04 c0 bc 15 7c 17 9a 51 ec 3f
       -2.5455281603989612 0.8849611719785382
000180 a6 e4 86 a9 78 53 db bf 24 92 08 08 9f 5d 04 c0
       -0.42696968608249575 -2.545713484536707
000190 76 e3 b5 f4 86 51 ec 3f 2b 82 ab 44 e9 58 db bf
       0.8849520473005288 -0.4273017092328099
0001a0 17 83 27 98 3d 5d 04 c0 55 8b 00 28 74 51 ec 3f
       -2.545527638154805 0.8849430829326176
0001b0 90 ad aa 76 4a 5a db bf 23 e2 79 7b 37 5c 04 c0
       -0.4273859175543402 -2.5450276991434904
0001c0 18 1e 96 b2 5c 50 ec 3f 4e b0 28 7f 2a 5a db bf
       0.8848098266616402 -0.42737829606881383
0001d0 62 ea 87 b9 a3 5b 04 c0 7f 41 c8 f4 b8 4f ec 3f
       -2.544745873890222 0.8847317486670788
0001e0 cd 18 87 2a 58 5a db bf 1c cd 0a d9 a9 5b 04 c0
       -0.42738918450448865 -2.5447575527592914
0001f0 83 2c 03 52 9e 4f ec 3f 00 18 6f 79 d3 5c db bf
       0.8847190477184913 -0.42754065378937867
000200 7c d1 11 31 66 5b 04 c0 c0 d6 99 3c 7b 4f ec 3f
       -2.544628508907577 0.884702318535993
000210 52 89 58 ce f7 5f db bf cf db 85 b4 cf 5a 04 c0
       -0.42773242140733203 -2.5443414786672984
000220 99 76 34 85 74 4f ec 3f 60 45 a7 80 99 62 db bf
       0.884699115911377 -0.42789304317292043
000230 98 ac 1a 36 76 5a 04 c0 fe 68 a3 76 26 4f ec 3f
       -2.5441707827463453 0.8846618954806045
000240 1e b7 7a 1a d5 62 db bf c8 6b 53 f4 45 5a 04 c0
       -0.42790725313067124 -2.544078739925201
000250 0a 24 1e 0e 93 4e ec 3f cf 1b 62 41 ca 62 db bf
       0.884591605733591 -0.427904666758363
000260 c7 b4 54 fb 23 5a 04 c0 f8 fa ad e0 29 4e ec 3f
       -2.544013942263152 0.8845414531968734
000270 ac ce 03 68 f0 66 db bf 6d 13 75 f4 9d 59 04 c0
       -0.42815790326788306 -2.543758306334374
000280 82 79 e5 7b 88 4d ec 3f cc 5e c6 88 fa 6b db bf
       0.8844644946910167 -0.4284654937450625
000290 52 2e e9 10 0b 59 04 c0 00 d3 6d 9c bf 4c ec 3f
       -2.543478138080709 0.8843687110189364
0002a0 4c 90 cc 35 c2 6e db bf b4 4b 2d b2 99 58 04 c0
       -0.4286351704961404 -2.5432619018624454
0002b0 25 bf 4c 99 6a 4c ec 3f af 6e 53 03 18 6f db bf
       0.8843281740318828 -0.4286556274871413
0002c0 4a 6c 8e f8 fe 57 04 c0 16 50 af 1b a5 4c ec 3f
       -2.5429667871917774 0.8843560734480913
0002d0 6e fb 3d 6d e0 6e db bf 29 06 cc dd 29 57 04 c0
       -0.4286423746888691 -2.542560322560139
0002e0 23 70 39 71 8e 4b ec 3f 5b 0a 7d 1e 7d 6e db bf
       0.8842231952107834 -0.42861869790445944
0002f0 5a e0 df 18 4b 57 04 c0 59 cd d2 c7 af 4a ec 3f
       -2.5426237052270553 0.8841170218278577
000300 c1 81 1d 93 2e 6f db bf ca 9c 3f 31 51 57 04 c0
       -0.42866100661015244 -2.5426353309190732
000310 86 b6 9f c7 d0 4a ec 3f 74 c4 8d 23 09 74 db bf
       0.8841327570823558 -0.4289572570042488
000320 06 74 3b 75 c0 56 04 c0 ae 01 5c 5e dc 4a ec 3f
       -2.542359271885746 0.8841382830578846
000330 50 12 a4 af 8a 7a db bf 06 52 91 ba 10 56 04 c0
       -0.42935435440475533 -2.5420240951154964
000340 a6 4c cb 5c c6 4a ec 3f 94 b7 35 de 87 7f db bf
       0.8841277897248758 -0.42965885830096195
000350 4c 8c 99 78 97 55 04 c0 b4 89 92 44 99 4a ec 3f
       -2.5417928144320623 0.8841062869362788
000360 f5 52 57 04 a3 83 db bf 69 58 79 d3 26 55 04 c0
       -0.4299094717401169 -2.5415779611021674
000370 71 28 52 f4 e0 49 ec 3f 3f b9 bf 69 16 89 db bf
       0.8840183994191319 -0.430242160101347
000380 08 ab 2b 6c ce 54 04 c0 1d d4 17 8f e9 48 ec 3f
       -2.5414093447519726 0.8839004320894933
000390 e4 50 4d e8 5a 8e db bf be d8 fe d3 8a 54 04 c0
       -0.43056366620773034 -2.5412804186008477
0003a0 10 c9 b3 7d 45 48 ec 3f f9 e9 9c 93 73 92 db bf
       0.8838221984026706 -0.4308136884243648
0003b0 a9 4d 30 b4 34 54 04 c0 16 2b ec 53 80 48 ec 3f
       -2.5411161496392265 0.883850253974148
0003c0 3e 06 d2 55 7f 94 db bf fa 48 57 05 90 53 04 c0
       -0.430938562211029 -2.5408020417463577
0003d0 0f 8d 6f 13 e3 48 ec 3f 67 e0 9f 9a 99 96 db bf
       0.8838973407368104 -0.4310668954854066
0003e0 10 04 98 df 0a 53 04 c0 83 77 c3 a2 be 48 ec 3f
       -2.5405480831400453 0.8838799647307812
0003f0 39 e3 b3 9f e3 98 db bf 29 e7 e6 41 47 52 04 c0
       -0.43120661350217265 -2.5401749752608294
000400 ea bd 3b 4e 25 48 ec 3f 68 8c b4 55 24 9d db bf
       0.8838068511958543 -0.431466182419348
000410 85 bf 0e b7 e4 50 04 c0 2e 67 f6 1c 85 47 ec 3f
       -2.5394987393737574 0.8837304654764233
000420 4a 37 79 0f b5 a3 db bf 22 ce d5 f2 a2 4f 04 c0
       -0.43186689864238714 -2.5388850184915706
000430 e2 18 48 cf 98 46 ec 3f d3 a5 bd 72 be aa db bf
       0.8836177872151689 -0.4322963829532373
000440 52 18 af 71 c5 4e 04 c0 2c 07 a2 f6 31 46 ec 3f
       -2.5384625321922067 0.8835687462853676
000450 20 a7 65 58 cf af db bf ca 3a 30 24 8f 4e 04 c0
       -0.43260558731582144 -2.538358957979061
000460 6a 4a 45 cb 38 46 ec 3f f5 cd 03 6e df b7 db bf
       0.8835720033769807 -0.4330977033962136
000470 d1 ca 22 f6 eb 4e 04 c0 d5 55 93 5c 89 46 ec 3f
       -2.5385359982841256 0.8836104210010328
000480 4e 2f de ae 4a c2 db bf b7 b5 b9 7f 34 4e 04 c0
       -0.43373362614578503 -2.5381860712575093
000490 ef aa ca 62 0a 47 ec 3f fd 56 f5 ba 06 c9 db bf
       0.8836719445729083 -0.4341446710362645
0004a0 89 e2 ff 1f aa 4c 04 c0 57 25 84 79 83 46 ec 3f
       -2.5374338626828075 0.8836076138842753
0004b0 ac 4c bb 66 9a cd db bf 4f e5 14 c9 4f 4b 04 c0
       -0.43442401916872586 -2.536773272466838
0004c0 73 56 74 71 51 46 ec 3f f2 1f 8e fa ff d3 db bf
       0.8835837570101844 -0.4348144480541115
0004d0 ea 95 23 44 cf 49 04 c0 4e e2 7d a0 3c 44 ec 3f
       -2.53603986009215 0.8833296904186427
0004e0 d3 e2 e9 f2 26 d8 db bf 75 00 56 4f 93 48 04 c0
       -0.43506787988694134 -2.535437221347872
0004f0 cf d5 0c 04 68 41 ec 3f b4 4c 1d 5c 2f de db bf
       0.882984168920922 -0.43543609614898604
000500 e0 f2 ce 0f 61 47 04 c0 40 e0 f8 10 35 40 ec 3f
       -2.5348530993490925 0.8828378039825182
000510 67 b7 17 ea 14 ea db bf 5f 2c a0 57 53 45 04 c0
       -0.4361622129498443 -2.5338503690486927
000520 bc f1 ba de f6 3f ec 3f bb 80 3f 92 46 f7 db bf
       0.8828081464958397 -0.43696750909840504
000530 08 35 dc b1 c1 43 04 c0 6d e9 f7 e1 e0 3f ec 3f
       -2.53308428719777 0.882797662109892
000540 55 e1 59 46 94 01 dc bf 68 e5 0c 60 c5 42 04 c0
       -0.43759638662551953 -2.532603025811728
000550 87 9a 5a af ba 3e ec 3f bc b1 96 fa a7 07 dc bf
       0.882657377708555 -0.4379672953753262
000560 e1 ae 5d b4 6a 41 04 c0 e1 d6 0f 51 ac 3c ec 3f
       -2.5319418040361232 0.8824063857307146
000570 cc 2f 7a 68 1e 0a dc bf 99 ce 52 72 0e 40 04 c0
       -0.43811760142193346 -2.531277554657049
000580 2d 02 41 6b 70 3b ec 3f b2 f1 91 e4 d9 10 dc bf
       0.8822557539752488 -0.4385285122041537
000590 a2 35 d3 10 de 3e 04 c0 22 a4 27 c1 e0 3b ec 3f
       -2.5306969942527795 0.8823093197398786
0005a0 ab a3 a4 2a d3 1a dc bf 4c f0 03 d4 7f 3d 04 c0
       -0.43913726009719295 -2.530028969164084
0005b0 39 72 20 79 be 3c ec 3f e8 a1 67 61 8d 23 dc bf
       0.8824150434261987 -0.4396699382037057
0005c0 46 b6 5c 52 e8 3b 04 c0 8a 3f 01 2c 69 3e ec 3f
       -2.529251712278696 0.8826185092420797
0005d0 f2 74 81 ff 6f 29 dc bf a6 3c 97 ab 31 3a 04 c0
       -0.44002914382674796 -2.528415051033863
0005e0 53 a6 23 33 c5 40 ec 3f 2d 02 93 c6 aa 2e dc bf
       0.8829065321744544 -0.44034833328263084
0005f0 24 d8 ce 1e 73 38 04 c0 1b dd fe db 5a 41 ec 3f
       -2.5275633246301528 0.8829778954304034
000600 08 3b b3 10 c1 35 dc bf 0c 80 a4 4e 46 37 04 c0
       -0.4407808936202149 -2.526989569087169
000610 ce 54 b4 0e 12 42 ec 3f bc 53 dd c5 91 3e dc bf
       0.8830652510829624 -0.4413189346572002
000620 74 e1 2d 29 b3 35 04 c0 72 41 46 77 3a 43 ec 3f
       -2.5262206284643813 0.8832065896586256
000630 59 72 43 a2 bb 47 dc bf 4d 6d d0 04 0d 34 04 c0
       -0.44187823148766864 -2.5254154564005717
000640 9b 05 7c 09 ea 45 ec 3f 2e 04 fe 18 5a 51 dc bf
       0.8835344491237039 -0.44246532860421695
000650 40 18 a0 9f 35 33 04 c0 58 79 88 6b dc 47 ec 3f
       -2.5250046225292238 0.8837720966583147
000660 32 73 c3 bc 93 5d dc bf 0c a2 fb 59 8c 32 04 c0
       -0.44321149286206485 -2.524681761733751
000670 69 ab 7a 49 65 49 ec 3f f1 2c 43 fd 6d 68 dc bf
       0.883959430231113 -0.4438738797441167
000680 49 8d 8f 1e 2d 31 04 c0 18 7e 1e a5 15 4d ec 3f
       -2.5240118396338045 0.8844097352011344
000690 10 45 ea e4 ee 70 dc bf 91 de 24 ed 9a 2f 04 c0
       -0.44439289431564166 -2.5232447173000954
0006a0 ed d6 7d 8d d4 4f ec 3f 41 6d eb c5 e0 75 dc bf
       0.8847449077136084 -0.44469470336999356
0006b0 b4 37 17 34 64 2e 04 c0 d2 a2 36 d5 e8 50 ec 3f
       -2.522652060469193 0.8848766483616493
0006c0 f8 c7 ae 10 42 7d dc bf ea e4 d8 04 21 2d 04 c0
       -0.44514514569448194 -2.522035634869657
0006d0 88 9f 03 c3 55 52 ec 3f 94 ed e6 9b db 85 dc bf
       0.8850506600256134 -0.4456700346451836
0006e0 42 bd f4 14 b4 2b 04 c0 da 1e f0 af f0 54 ec 3f
       -2.521339572638369 0.8853686748779765
0006f0 0b 5c c4 54 55 8f dc bf 47 32 6f e8 6d 2a 04 c0
       -0.44624837186842176 -2.520717445271916
000700 0a 6f 15 5d e8 56 ec 3f 78 a3 af 19 bd 96 dc bf
       0.885608846477653 -0.4467003584709839
000710 00 60 dd 9b e9 29 04 c0 59 e7 68 e0 a0 57 ec 3f
       -2.5204651047642983 0.8856968291286008
000720 9d ee de e9 96 9b dc bf 9c a4 b2 a6 c3 29 04 c0
       -0.4469964298147973 -2.5203927062289733
000730 48 12 74 3a 18 58 ec 3f 3d fd 85 97 10 9f dc bf
       0.8857537404697462 -0.4472085456581743
000740 d6 50 fd 0f 70 29 04 c0 0a 8f a4 ba ed 58 ec 3f
       -2.520233273428043 0.8858555455558144
000750 40 80 46 dd 0d a3 dc bf 73 84 6b d8 95 28 04 c0
       -0.44745203598904837 -2.5198170574008656
000760 cf dc ff af 46 59 ec 3f 49 f0 c2 51 a1 a9 dc bf
       0.8858979642381203 -0.44785340294379644
000770 96 4c 19 35 ca 27 04 c0 1c ec 34 23 07 5b ec 3f
       -2.5194286487909023 0.8861118018752481
000780 62 df 0a 3c 7b b1 dc bf e3 7a 53 07 7f 27 04 c0
       -0.4483326040603882 -2.51928525661002
000790 7f e5 44 ba 58 5c ec 3f 2e 26 9c d1 bb b8 dc bf
       0.8862727773732074 -0.44877524823877735
0007a0 c5 fb 76 1a cf 26 04 c0 ca 6a 2b ac 5e 5c ec 3f
       -2.5189497058449626 0.8862756121337381
0007b0 f3 22 d8 8c 7d be dc bf ca ff 38 f4 a0 25 04 c0
       -0.4491266131813482 -2.51837340163181
0007c0 5f fd e9 85 e6 5b ec 3f db a1 e7 b0 5e c2 dc bf
       0.8862183204181909 -0.4493633964143819
0007d0 80 f2 cd 85 0f 25 04 c0 cc 0b 39 a5 64 5b ec 3f
       -2.518096013400566 0.8861563899048348
0007e0 df 39 3f f9 ec c2 dc bf ab 00 72 41 51 25 04 c0
       -0.4493973192265041 -2.5182213890949092
0007f0 e3 50 6d 7c 66 5b ec 3f de de 9d 3b aa c5 dc bf
       0.8861572675910135 -0.449564512462059

mocap_framerate f8 []
000000 00 00 00 00 00 00 5e 40
       120.0

betas f8 [16]
000000 e0 1b 2d e2 eb 0d ba bf f9 f4 c0 04 ae e8 e8 bf
       -0.10177492401008648 -0.7784032910200543
000010 89 c1 e0 e5 f4 1f e9 3f cd 4c d0 b7 bb fa f0 3f
       0.7851509561351558 1.0612141781064566
000020 9b 4d f3 ce 45 92 e7 3f e5 c7 22 b4 31 7e e2 bf
       0.7366055528640801 -0.5779045599249427
000030 02 ec f2 7f f3 b0 e0 3f 8e 26 f1 0e 9c e3 d3 bf
       0.5216004847528668 -0.3107671876829067
000040 83 28 e6 12 a6 59 c9 3f c9 20 72 5a a5 fd b0 3f
       0.19804836199574902 0.06637032945775724
000050 23 08 84 52 b5 15 c1 bf b9 fd 94 d5 6b 35 a5 bf
       -0.13347498444642367 -0.04142319662286859
000060 68 e5 ee fd 86 2a f0 bf 24 2b eb a8 4a a8 d7 bf
       -1.01038264458324 -0.36964670654258414
000070 e6 87 ab aa ae cb df 3f 15 28 58 32 51 a2 c3 3f
       0.49680678050037697 0.15339102705212385

dmpls f8 [491, 8]
000000 f5 28 da 3c d0 83 e1 bf 91 88 4d 58 ea 5a e2 bf
       -0.547340506412438 -0.5735980724969229
000010 c2 02 ec 12 bb 8a da bf af 08 e8 d3 f5 27 ea bf
       -0.4147174534592005 -0.8173779619976552
000020 66 24 5a 59 b9 46 b5 3f a2 79 c0 a5 77 04 d0 3f
       0.08311041289756957 0.25027266680435833
000030 61 5d 5a 9a 0f 61 fe bf 41 89 e9 ee 5e ee eb bf
       -1.8986965207494324 -0.8728480020766157
000040 1d 28 da 3c d0 83 e1 bf b0 88 4d 58 ea 5a e2 bf
       -0.547340506412414 -0.5735980724969263
000050 8b 02 ec 12 bb 8a da bf 4d 09 e8 d3 f5 27 ea bf
       -0.41471745345919747 -0.8173779619976728
000060 13 25 5a 59 b9 46 b5 3f 27 7a c0 a5 77 04 d0 3f
       0.08311041289757197 0.2502726668043657
000070 95 5d 5a 9a 0f 61 fe bf 75 89 e9 ee 5e ee eb bf
       -1.898696520749444 -0.8728480020766215
000080 37 19 94 49 d4 85 e1 bf 0d d0 65 28 36 5d e2 bf
       -0.5475865780906933 -0.5738783635156338
000090 50 89 bd cf cb 83 da bf 5a ff 5a e4 cf 31 ea bf
       -0.4142941979136099 -0.8185805759494358
0000a0 a1 db b6 3c 7b 57 b5 3f 44 e7 a2 49 4f 0f d0 3f
       0.0833661101558918 0.250934430990686
0000b0 b0 72 5f b1 f3 64 fe bf ca 0f 28 3c 57 f4 eb bf
       -1.8996464661242207 -0.8735767531329597
0000c0 bb 18 94 49 d4 85 e1 bf 3b d0 65 28 36 5d e2 bf
       -0.5475865780906796 -0.5738783635156389
0000d0 ee 88 bd cf cb 83 da bf e6 ff 5a e4 cf 31 ea bf
       -0.41429419791360445 -0.8185805759494513
0000e0 4b da b6 3c 7b 57 b5 3f 6e e7 a2 49 4f 0f d0 3f
       0.08336611015588706 0.25093443099068835
0000f0 f1 72 5f b1 f3 64 fe bf 18 10 28 3c 57 f4 eb bf
       -1.8996464661242352 -0.8735767531329683
000100 b5 fb 6e e8 69 85 e1 bf 4a cc de 5d 40 a9 e2 bf
       -0.5475358524052952 -0.5831605752376927
000110 ed 0c 47 5f 01 9c da bf 21 1a ea e0 ee 7c ea bf
       -0.41577181152770387 -0.8277506249294825
000120 80 f0 43 48 92 42 b4 3f 53 56 da 3a ff 7e d0 3f
       0.07914079918185912 0.25775128123618635
000130 37 bc 2e e6 e3 a0 fe bf 63 5c bd 8a 89 4f ec bf
       -1.9142798415666797 -0.8847091398009862
000140 14 b1 bc 50 73 7b e1 bf 66 66 af d3 cc ac e2 bf
       -0.5463196350952182 -0.5835937628246028
000150 eb 40 bf 62 d0 59 db bf dc 94 a5 9e 66 a4 ea bf
       -0.42735681193609193 -0.8325684641428341
000160 02 2b b3 f5 c2 cb b3 3f 48 13 c5 db 17 a3 d1 3f
       0.07732790468723397 0.275579418772669
000170 90 de 07 3f b0 c0 fe bf a0 c7 8a c6 3b 72 ec bf
       -1.922043081487491 -0.8889445188308294
000180 bf 21 23 81 c6 a1 e1 bf ce c4 27 6a 0d 7f e2 bf
       -0.5509979746066661 -0.5780093263002983
000190 9e fe e4 67 66 f5 db bf ee 80 7d 59 9b ce ea bf
       -0.43685302873562104 -0.8377205608230989
0001a0 3e 38 28 db fb 2f b2 3f 44 98 b7 f4 d3 dc d2 3f
       0.07104467487826668 0.2947282686058126
0001b0 86 e6 37 82 15 c6 fe bf b8 b3 20 eb ca 8c ec bf
       -1.9233603560118424 -0.8921866028155057
0001c0 9a 22 23 81 c6 a1 e1 bf 25 c5 27 6a 0d 7f e2 bf
       -0.5509979746066904 -0.578009326300308
0001d0 c2 fe e4 67 66 f5 db bf d8 80 7d 59 9b ce ea bf
       -0.43685302873562304 -0.8377205608230964
0001e0 f2 36 28 db fb 2f b2 3f c3 98 b7 f4 d3 dc d2 3f
       0.07104467487826208 0.29472826860581963
0001f0 73 e6 37 82 15 c6 fe bf c3 b3 20 eb ca 8c ec bf
       -1.9233603560118382 -0.8921866028155069
000200 24 23 23 81 c6 a1 e1 bf c3 c5 27 6a 0d 7f e2 bf
       -0.5509979746067057 -0.5780093263003255
000210 a4 fe e4 67 66 f5 db bf f4 80 7d 59 9b ce ea bf
       -0.4368530287356214 -0.8377205608230995
000220 80 35 28 db fb 2f b2 3f d0 98 b7 f4 d3 dc d2 3f
       0.07104467487825694 0.29472826860582035
000230 74 e6 37 82 15 c6 fe bf cc b3 20 eb ca 8c ec bf
       -1.9233603560118384 -0.8921866028155079
000240 2d ab c5 81 4c e0 e1 bf b7 05 65 28 89 47 e3 bf
       -0.5586302313434764 -0.6024823941190139
000250 59 ce 34 9f 11 fb db bf 5b 85 ac 67 94 45 eb bf
       -0.43719902560699136 -0.8522436165696193
000260 57 0c ed 18 4e 8e af 3f d5 8e da 8a fe ae d2 3f
       0.061632576506348506 0.29193080482421624
000270 a8 16 a5 4d d8 c8 fe bf a9 91 ef bb 2e 8a ec bf
       -1.9240344079020506 -0.891867987692014
000280 1d 85 5b 84 ee df e1 bf 1e 37 f5 53 41 49 e3 bf
       -0.5585854134662075 -0.6026922836115067
000290 09 32 df b8 3e f8 db bf 16 15 54 8f 04 48 eb bf
       -0.43702667287723834 -0.8525412368186689
0002a0 93 67 eb a8 d7 83 af 3f e7 7c 6d 07 98 ae d2 3f
       0.061552752847730784 0.2919063637290961
0002b0 59 91 ad ad 1d c8 fe bf 52 7e 6f b4 af 88 ec bf
       -1.9238564285561408 -0.8916853450900339
0002c0 96 6a fc 74 e6 da e1 bf 20 a6 36 1b 4a 4e e3 bf
       -0.5579712185747947 -0.6033068210137493
0002d0 ef d4 84 31 64 ec db bf 5d a2 99 b9 fc 4c eb bf
       -0.4363031848509555 -0.853147852421056
0002e0 b2 0a 66 c4 c8 7d af 3f 5f 96 d4 16 65 aa d2 3f
       0.061506532644690096 0.2916500781014743
0002f0 e9 b1 cb ef cb c3 fe bf 2d 02 2e 89 f5 80 ec bf
       -1.9228019110697636 -0.8907420806209011
000300 9b 6a fc 74 e6 da e1 bf 2d a6 36 1b 4a 4e e3 bf
       -0.5579712185747953 -0.6033068210137508
000310 f2 d4 84 31 64 ec db bf 5d a2 99 b9 fc 4c eb bf
       -0.43630318485095565 -0.853147852421056
000320 6c 0a 66 c4 c8 7d af 3f 58 96 d4 16 65 aa d2 3f
       0.06150653264468961 0.2916500781014739
000330 e3 b1 cb ef cb c3 fe bf 25 02 2e 89 f5 80 ec bf
       -1.9228019110697623 -0.8907420806209002
000340 9f 6a fc 74 e6 da e1 bf 4d a6 36 1b 4a 4e e3 bf
       -0.5579712185747957 -0.6033068210137543
000350 ed d4 84 31 64 ec db bf 6a a2 99 b9 fc 4c eb bf
       -0.4363031848509554 -0.8531478524210574
000360 68 09 66 c4 c8 7d af 3f 57 96 d4 16 65 aa d2 3f
       0.061506532644687806 0.29165007810147386
000370 d6 b1 cb ef cb c3 fe bf 1b 02 2e 89 f5 80 ec bf
       -1.9228019110697594 -0.8907420806208991
000380 a5 e2 e2 a7 b9 da e1 bf 43 8a 8f 29 8c 4e e3 bf
       -0.5579498557118155 -0.6033383189899911
000390 66 4c b5 1f 1f ec db bf 42 bf 38 08 54 4d eb bf
       -0.4362867173815118 -0.8531894836978398
0003a0 63 3d 1d 26 7b 77 af 3f a2 a2 d9 41 a9 aa d2 3f
       0.061458443071951384 0.29166633063008807
0003b0 0e b1 23 ed 6d c3 fe bf 31 00 ea b9 bd 80 ec bf
       -1.9227122557886704 -0.8907154685148325
0003c0 a5 e2 e2 a7 b9 da e1 bf 43 8a 8f 29 8c 4e e3 bf
       -0.5579498557118155 -0.6033383189899911
0003d0 66 4c b5 1f 1f ec db bf 42 bf 38 08 54 4d eb bf
       -0.4362867173815118 -0.8531894836978398
0003e0 63 3d 1d 26 7b 77 af 3f a2 a2 d9 41 a9 aa d2 3f
       0.061458443071951384 0.29166633063008807
0003f0 0e b1 23 ed 6d c3 fe bf 31 00 ea b9 bd 80 ec bf
       -1.9227122557886704 -0.8907154685148325
000400 9a e2 e2 a7 b9 da e1 bf 42 8a 8f 29 8c 4e e3 bf
       -0.5579498557118143 -0.603338318989991
000410 55 4c b5 1f 1f ec db bf 47 bf 38 08 54 4d eb bf
       -0.43628671738151087 -0.8531894836978403
000420 de 3c 1d 26 7b 77 af 3f 9a a2 d9 41 a9 aa d2 3f
       0.06145844307195046 0.2916663306300876
000430 0d b1 23 ed 6d c3 fe bf 30 00 ea b9 bd 80 ec bf
       -1.9227122557886702 -0.8907154685148324
000440 33 49 4a ca 13 e1 e1 bf 19 8c cb 96 60 62 e3 bf
       -0.5587252570133273 -0.6057589478699611
000450 a8 5e 3c 06 30 9b db bf 46 c0 c6 da e7 5a eb bf
       -0.4313468991181062 -0.8548468850112918
000460 96 61 87 da b8 0b ad 3f 75 4d 4a 5a c3 90 d2 3f
       0.056730057407267484 0.2900856382122677
000470 a1 c3 05 a3 dc bd fe bf 54 e4 b9 c3 6c 7c ec bf
       -1.9213529937808078 -0.8901885817314317
000480 58 a2 86 3f 4e 39 e2 bf f2 f6 83 5c 81 2e e4 bf
       -0.5694953194370767 -0.630676918691931
000490 ac 24 2c ea 40 05 d9 bf 06 e4 02 59 63 c1 eb bf
       -0.39094565266038717 -0.8673569429876131
0004a0 47 b4 58 8c d1 72 9a 3f 09 71 00 29 fd c3 d1 3f
       0.025828623000212294 0.2775872135550946
0004b0 e5 14 d5 5b 92 af fe bf 37 95 9a d7 be 50 ec bf
       -1.9178641879273581 -0.8848566256535041
0004c0 a5 c8 53 4f 38 b8 e2 bf 3f a5 4f 91 ad 34 e4 bf
       -0.5849877881394333 -0.631430419741413
0004d0 4c a1 07 93 51 2a d8 bf 86 f8 80 7f d5 42 ec bf
       -0.3775829253995837 -0.8831584444340173
0004e0 00 2a fc a5 17 f0 02 bf e8 02 2e 78 b2 fb d1 3f
       -3.612110299229879e-05 0.28098737465192736
0004f0 2b 08 ad 9b 69 a5 fe bf 52 4b 35 27 56 3b ec bf
       -1.9153839188661645 -0.8822432294640328
000500 b5 65 74 0d 33 7f e2 bf ea 4f 6b ba e4 95 e3 bf
       -0.5780272734438571 -0.6120475426673668
000510 ea 85 2c ff c1 90 d8 bf 67 ea 35 dd 34 48 ec bf
       -0.38383531493499723 -0.8838142700690924
000520 11 9b 64 8d e8 9d 82 bf 04 5b df 44 b2 10 d2 3f
       -0.00909024888512769 0.28226906514957784
000530 eb 1f 69 8d db 83 fe bf 92 20 a7 33 66 ea eb bf
       -1.9071918033459905 -0.87236318672605
000540 11 40 b0 ac 36 80 e2 bf 04 1b 0e 33 6e fa e2 bf
       -0.578151070863898 -0.5930701253099362
000550 de 56 e0 1d 92 58 d9 bf fa 10 b5 e0 ed 80 ec bf
       -0.3960309306870452 -0.8907384289564384
000560 a6 76 78 82 f1 52 90 bf 6a 11 9a 8f 40 8d d2 3f
       -0.015941403950015108 0.2898713495599369
000570 5f e8 65 bc 6d 6e fe bf a8 d0 02 88 8c ae eb bf
       -1.9019601210880166 -0.865057244917371
000580 57 b5 d1 7d 11 7f e2 bf 13 44 10 19 8d ed e2 bf
       -0.5780112702756622 -0.5914979447862855
000590 c2 2a 8a 93 76 37 da bf 8c ab 35 ed 93 8d ec bf
       -0.40963520439315115 -0.8922824509621576
0005a0 68 5b 0a 16 37 e4 9b bf 76 51 10 94 ec d7 d2 3f
       -0.027237759323351624 0.2944289632735243
0005b0 19 04 9f d9 c9 75 fe bf 94 da d0 e1 54 80 eb bf
       -1.9037569523645799 -0.8594154749360592
0005c0 07 da 80 e1 e0 72 e2 bf 32 8f 0a 51 fc 16 e3 bf
       -0.5765232471811154 -0.5965558607899537
0005d0 82 86 8c ba 7e c9 da bf 9f 71 ea 63 dc 68 ec bf
       -0.4185482808844442 -0.8878004027824778
0005e0 f4 47 a5 59 a3 94 a3 bf ef 92 1c 3f f7 d9 d2 3f
       -0.038243393605298964 0.29455357707256175
0005f0 91 e0 c3 ce 39 8e fe bf 65 d3 d4 d9 3f 5c eb bf
       -1.9097230984462252 -0.8550109152334754
000600 70 26 b2 d1 38 62 e2 bf cd 52 fd b7 3a 24 e3 bf
       -0.5744899840949085 -0.5981725305124087
000610 9a 8b 4a f1 ba f8 da bf 24 6b da 23 83 55 ec bf
       -0.42143128932564766 -0.8854385090120087
000620 38 bd fe 91 2d 72 a7 bf 48 3f 0b c1 63 17 d3 3f
       -0.04579298407713356 0.298302591819255
000630 41 cd b2 de b5 97 fe bf 7b 6c 07 9e 67 32 eb bf
       -1.912038679042624 -0.8499029242042434
000640 97 77 b3 27 ab 3f e2 bf 2e 5c 9f 2f 15 0b e3 bf
       -0.5702720427905089 -0.5951028757216414
000650 99 59 0c 8b da 9e da bf 50 1e 75 a4 e1 5f ec bf
       -0.415945659436511 -0.8867042743740488
000660 ae 49 6e 35 8b 28 a8 bf ed fc 7b cf c6 69 d3 3f
       -0.047184324524227036 0.30333109151975074
000670 62 71 5e 5d 5d 84 fe bf a2 5d 01 fe 07 ef ea bf
       -1.9073156020377486 -0.8416786156694125
000680 4b 24 fc 08 96 5a e2 bf d5 3a eb 03 7f 34 e3 bf
       -0.5735578704344645 -0.6001582218685494
000690 6d 29 b1 43 18 fa d9 bf 82 2f be 8a b5 5d ec bf
       -0.4058895741515219 -0.8864391050169476
0006a0 83 4f 3f 4b bb a7 a9 bf 09 56 f8 23 0c 3a d3 3f
       -0.05010781568094471 0.3004179335851807
0006b0 87 10 af 68 ed 7d fe bf a7 2c dd c7 dc ac ea bf
       -1.905743988915704 -0.8336013702004451
0006c0 d0 5d 7a 4b b3 90 e2 bf d9 84 9a 1a da c2 e3 bf
       -0.5801636194400377 -0.6175356406785354
0006d0 85 49 90 cc ae 05 d9 bf 14 92 85 6d cf 6b ec bf
       -0.3909718511287326 -0.8881604327294235
0006e0 30 e9 57 f3 48 c0 ad bf b8 eb 4c 9a f5 c2 d2 3f
       -0.05810764284611236 0.29314937656789253
0006f0 b0 7f f9 12 70 85 fe bf 69 bb a8 8c 48 5c ea bf
       -1.907577585334348 -0.8237650630233989
000700 d0 5d 7a 4b b3 90 e2 bf d9 84 9a 1a da c2 e3 bf
       -0.5801636194400377 -0.6175356406785354
000710 85 49 90 cc ae 05 d9 bf 14 92 85 6d cf 6b ec bf
       -0.3909718511287326 -0.8881604327294235
000720 30 e9 57 f3 48 c0 ad bf b8 eb 4c 9a f5 c2 d2 3f
       -0.05810764284611236 0.29314937656789253
000730 b0 7f f9 12 70 85 fe bf 69 bb a8 8c 48 5c ea bf
       -1.907577585334348 -0.8237650630233989
000740 cb 5d 7a 4b b3 90 e2 bf da 84 9a 1a da c2 e3 bf
       -0.5801636194400371 -0.6175356406785355
000750 7c 49 90 cc ae 05 d9 bf 15 92 85 6d cf 6b ec bf
       -0.3909718511287321 -0.8881604327294236
000760 96 e9 57 f3 48 c0 ad bf ae eb 4c 9a f5 c2 d2 3f
       -0.05810764284611307 0.293149376567892
000770 b5 7f f9 12 70 85 fe bf 67 bb a8 8c 48 5c ea bf
       -1.907577585334349 -0.8237650630233987
000780 e2 bd 6e 2d 65 a5 e2 bf bf 39 2e 6d d9 92 e3 bf
       -0.5826898467402624 -0.6116759426529866
000790 22 8e 83 87 a6 f9 d8 bf dc 0c c7 89 e3 59 ec bf
       -0.3902374575975235 -0.8859727564780786
0007a0 9c b0 1c 66 db 19 b3 bf 3c f3 47 ae 36 dc d1 3f
       -0.07461329691858726 0.27906577129015253
0007b0 36 da 8b 38 c5 e5 fe bf 14 27 f8 72 83 36 ea bf
       -1.9310962876167088 -0.8191544766898198
0007c0 e1 1d e1 27 66 9a e2 bf 39 34 00 04 90 13 e3 bf
       -0.5813475397962372 -0.5961380079403461
0007d0 f1 83 df dc aa d2 da bf 4a 38 68 62 35 65 ec bf
       -0.41910811967505796 -0.8873545572294088
0007e0 a4 3c 4e 39 0a 16 b3 bf ed d7 34 1a 45 0e d2 3f
       -0.07455505274832547 0.28212096747608834
0007f0 29 6e 82 ae f4 37 ff bf 5b bb f9 1e 10 52 ea bf
       -1.951161081006726 -0.8225174527159241

poses f8 [491, 156]
000000 1c 93 e7 6e 2e d2 95 bf bf 1a 8a 9a d0 69 01 40
       -0.021309590834692846 2.176667411174406
000010 55 a6 96 51 f1 ff 01 40 34 c9 a1 66 91 26 ab 3f
       2.2499719976520205 0.053028625276868274
000020 09 79 93 70 2d d0 ad 3f 1c 6f b9 23 04 88 90 bf
       0.05822889327258635 -0.016143860512200722
000030 57 0b 61 e1 4e a7 a8 3f 04 22 3c 9f e4 d5 b4 bf
       0.04815145970544304 -0.08138874900408416
000040 78 c7 aa 1d a6 c6 71 3f ca 66 50 d6 e9 49 bb 3f
       0.004339836969551196 0.10659657938267766
000050 ac e5 3f 72 e0 a4 90 3f 85 17 ac f3 dc 59 8b 3f
       0.016253954861871797 0.013354993997847018
000060 43 15 22 49 31 2f c1 3f e0 44 d2 79 e4 5c aa bf
       0.13425270148233368 -0.051489963408252626
000070 1b d7 3e a0 ec 1d ad bf c7 ab 20 b6 7a 29 b8 3f
       -0.05686892944451768 0.09438292452311635
000080 d5 4e 23 52 e7 f6 a8 3f 4f 1a 8b b5 01 c4 a8 3f
       0.04875872495327164 0.048370412264877254
000090 65 28 85 ac 86 3c aa 3f 80 bc 30 55 0c 93 aa bf
       0.05124302726706346 -0.051903138541427474
0000a0 50 60 5c ed 9d c6 96 3f 62 1a e8 76 78 ec d3 bf
       0.02224203835712074 -0.311308017844942
0000b0 76 53 7c 21 ed 1e c6 3f b6 a2 ea 40 04 33 c5 3f
       0.17281879553834373 0.16561940355065524
0000c0 34 03 da 50 64 39 ce bf 93 9c a4 0c ec 35 ba bf
       -0.2361264605315455 -0.10238528546016061
0000d0 6c 7b 91 0a 2c 66 66 bf 40 ee a6 32 70 6b 36 bf
       -0.0027342662984177115 -0.00034209717946584797
0000e0 16 29 42 42 10 99 90 bf 0b 6c 6a fb 57 ef 85 3f
       -0.0162088909569685 0.01071041809091435
0000f0 00 00 00 00 00 00 00 00 00 00 00 00 00 00 00 00
       0.0 0.0
000100 00 00 00 00 00 00 00 00 00 00 00 00 00 00 00 00
       0.0 0.0
000110 00 00 00 00 00 00 00 00 00 00 00 00 00 00 00 00
       0.0 0.0
000120 ef 5a f5 d1 e0 c3 a0 bf 23 b8 d3 18 44 31 ac 3f
       -0.03274443209618549 0.05506336978020012
000130 98 c0 eb d0 10 3d a3 3f cd bf e0 96 f5 c3 aa 3f
       0.037575269225159136 0.05227630106708112
000140 9b 70 06 c9 93 6b 90 bf 97 0e 66 8e fd 40 df bf
       -0.01603537477932147 -0.48834170251959946
000150 54 42 da 70 05 11 b1 3f 70 e5 b2 3d 62 0d b1 3f
       0.06666597371282396 0.06661046987837493
000160 ec 6a 93 3f 4c 8e dd 3f 81 bb b7 84 c6 c0 bf 3f
       0.46181017120913626 0.12403527012041417
000170 81 22 35 e2 a3 9e 90 bf d9 08 60 69 c7 af 8d bf
       -0.016230164224256164 -0.014495427993101039
000180 e3 ba b5 2e 1d de b8 3f dd f2 13 5f cf f6 c7 bf
       0.09713919058206559 -0.18721954481579575
000190 30 9a 0f ad 1e 72 ef bf 97 91 d7 03 9d 81 c5 3f
       -0.9826806430908785 0.16801798522568553
0001a0 f9 80 5d ed 2f 84 c7 3f 98 96 98 8e 00 70 f0 3f
       0.1837215336809164 1.0273442812116738
0001b0 35 61 ef ed 5e b3 cf 3f 13 dd 5f 95 b1 00 db bf
       0.24766146295474703 -0.42191733920431423
0001c0 db d4 81 98 d8 6c bb 3f 4e d6 fe 6b 0d 62 8b 3f
       0.10712960933036035 0.013370613916644871
0001d0 ba cd c9 13 ba 37 de 3f 98 e0 76 4d 29 55 d0 bf
       0.4721512978787491 -0.2551978355873046
0001e0 e2 15 db da 88 0b b0 bf 3d 4d c1 75 90 c5 c0 bf
       -0.06267600386771435 -0.1310291838623047
0001f0 a9 73 ee b6 60 02 bb bf d0 a3 71 8d 8a c0 b4 bf
       -0.10550503221607123 -0.08106294587345464
000200 ed 7d 21 9d b0 0c b1 3f 0d f8 8f 24 06 0f ac 3f
       0.06659988247110223 0.05480212398832416
000210 80 bb 8c ef f9 96 bc 3f d6 a9 64 90 f6 f5 a5 3f
       0.1116787156904433 0.04289217484104639
000220 83 eb 72 a9 fb a6 da bf 2d f8 e5 1a 0f db bb 3f
       -0.416441836812446 0.10881132513711185
000230 b1 4d c9 fc 6f e4 b0 bf db ff 70 4e f4 32 e8 bf
       -0.06598567887822672 -0.7562200100001023
000240 9f 58 d7 98 35 ad b8 bf 2f c4 0b a7 3f 46 b7 bf
       -0.09639296514009964 -0.09091565922041477
000250 ae e4 15 1d 6f 1f c8 bf e6 3e cd fb 79 3b be bf
       -0.1884592906970161 -0.11809503934386675
000260 00 54 c2 09 50 15 aa 3f 95 b4 7b 31 5b f2 e0 bf
       0.05094385260705536 -0.529584499976084
000270 ae 20 e9 9e b5 64 c2 bf 17 d3 e1 dd a3 48 ac 3f
       -0.14369840869244882 0.05524170001527844
000280 fc ef f3 8f 30 8e e6 bf ba 5e e0 c1 af a4 93 bf
       -0.7048571406917286 -0.019182916839865817
000290 57 a7 4d 3f 63 a3 b7 bf 6a 31 25 0c 60 a0 d5 bf
       -0.09233684821597642 -0.3379135244947721
0002a0 a9 32 25 45 07 40 dd bf 6c 44 9b 12 d5 1f c9 bf
       -0.4570329833266365 -0.196283945164882
0002b0 c5 4b 13 84 bf 03 e4 bf e5 28 80 a9 ba 79 cb bf
       -0.6254575328442732 -0.21465237881086022
0002c0 b6 e1 12 82 43 e5 b0 bf c9 a1 33 33 7a 38 e0 bf
       -0.06599828649166892 -0.5068942070038754
0002d0 75 1e db 59 90 a9 d7 bf f6 62 6b a9 7d e5 ae bf
       -0.36972435736649994 -0.06034462636097786
0002e0 ac 9b 14 b9 78 59 b4 bf 14 54 27 41 c9 28 c2 bf
       -0.07949022787634757 -0.14186969453172138
0002f0 01 70 5f 2c 70 fa b5 bf da 53 c5 5a 3f 56 e4 bf
       -0.08585263331718808 -0.6355282566897771
000300 e5 f6 70 d5 f2 69 d3 bf 0b 20 55 3f 93 a2 ad bf
       -0.3033415874850632 -0.05788097522832921
000310 32 5f f5 24 57 34 e4 bf 67 f4 a5 10 21 8b c6 bf
       -0.6313892099233043 -0.1761208850183806
000320 c6 b2 4e 09 6d e8 c0 bf 36 8c ee 97 0a e5 d7 bf
       -0.13209307627166406 -0.37335457646458126
000330 4e c7 87 70 19 3b eb 3f ae 0b 2c 2a 1a b9 d1 3f
       0.8509642789706306 0.2769227420650918
000340 9c 33 ba bd b1 6f b7 bf 3f 7e 75 8d 5e fd df bf
       -0.09154806978240376 -0.49983943762160615
000350 59 89 b4 ad 9e 31 9b 3f 91 40 4d c8 33 13 ab 3f
       0.026556472160458842 0.05288087673273013
000360 3b ce 19 f0 4c 23 e1 3f 72 d3 95 9f 34 88 a7 3f
       0.5355591477841196 0.04596104095518329
000370 3a f5 a5 db 3b c0 d1 bf 80 bb 8c ef f9 96 bc 3f
       -0.2773580212595622 0.1116787156904433
000380 d4 a9 64 90 f6 f5 a5 bf 84 eb 72 a9 fb a6 da 3f
       -0.04289217484104638 0.41644183681244606
000390 2d f8 e5 1a 0f db bb 3f b0 4d c9 fc 6f e4 b0 3f
       0.10881132513711185 0.0659856788782267
0003a0 db ff 70 4e f4 32 e8 3f 9f 58 d7 98 35 ad b8 bf
       0.7562200100001023 -0.09639296514009964
0003b0 2f c4 0b a7 3f 46 b7 3f af e4 15 1d 6f 1f c8 3f
       0.09091565922041477 0.18845929069701614
0003c0 e5 3e cd fb 79 3b be bf 01 54 c2 09 50 15 aa bf
       -0.11809503934386674 -0.05094385260705537
0003d0 95 b4 7b 31 5b f2 e0 3f af 20 e9 9e b5 64 c2 bf
       0.529584499976084 -0.14369840869244885
0003e0 18 d3 e1 dd a3 48 ac bf fc ef f3 8f 30 8e e6 3f
       -0.05524170001527845 0.7048571406917286
0003f0 bb 5e e0 c1 af a4 93 bf 57 a7 4d 3f 63 a3 b7 3f
       -0.01918291683986582 0.09233684821597642
000400 6a 31 25 0c 60 a0 d5 3f a9 32 25 45 07 40 dd bf
       0.3379135244947721 -0.4570329833266365
000410 6d 44 9b 12 d5 1f c9 3f c5 4b 13 84 bf 03 e4 3f
       0.19628394516488204 0.6254575328442732
000420 e7 28 80 a9 ba 79 cb bf b6 e1 12 82 43 e5 b0 3f
       -0.21465237881086027 0.06599828649166892
000430 c9 a1 33 33 7a 38 e0 3f 75 1e db 59 90 a9 d7 bf
       0.5068942070038754 -0.36972435736649994
000440 f4 62 6b a9 7d e5 ae 3f ad 9b 14 b9 78 59 b4 3f
       0.06034462636097784 0.07949022787634759
000450 16 54 27 41 c9 28 c2 bf 01 70 5f 2c 70 fa b5 3f
       -0.14186969453172144 0.08585263331718808
000460 da 53 c5 5a 3f 56 e4 3f e5 f6 70 d5 f2 69 d3 bf
       0.6355282566897771 -0.3033415874850632
000470 0c 20 55 3f 93 a2 ad 3f 32 5f f5 24 57 34 e4 3f
       0.05788097522832922 0.6313892099233043
000480 68 f4 a5 10 21 8b c6 bf c6 b2 4e 09 6d e8 c0 3f
       -0.17612088501838064 0.13209307627166406
000490 36 8c ee 97 0a e5 d7 3f 4e c7 87 70 19 3b eb 3f
       0.37335457646458126 0.8509642789706306
0004a0 ae 0b 2c 2a 1a b9 d1 bf 9d 33 ba bd b1 6f b7 3f
       -0.2769227420650918 0.09154806978240378
0004b0 3f 7e 75 8d 5e fd df bf 59 89 b4 ad 9e 31 9b bf
       -0.49983943762160615 -0.026556472160458842
0004c0 90 40 4d c8 33 13 ab bf 3a ce 19 f0 4c 23 e1 3f
       -0.05288087673273012 0.5355591477841195
0004d0 74 d3 95 9f 34 88 a7 bf 3c f5 a5 db 3b c0 d1 3f
       -0.0459610409551833 0.2773580212595623
0004e0 72 f7 5f 7a 39 cf 95 bf 24 b8 1b 9b 38 6a 01 40
       -0.02129831132332733 2.176865779670168
0004f0 78 7c e1 03 d2 fe 01 40 e2 9c be c2 29 6a ab 3f
       2.2494240096271447 0.053544335386783506
000500 cf 09 9a 09 01 d3 ad 3f 1d 84 d0 ea e7 78 90 bf
       0.05825045816620255 -0.016086219508114497
000510 d7 52 f8 1b 61 db a8 3f f8 3c c9 e6 ff 60 b4 bf
       0.04854873148375354 -0.0796050966684908
000520 43 1b 56 1c ae 89 72 3f ab 86 e5 f8 62 3a bb 3f
       0.004525833244207802 0.10635965897156534
000530 98 53 3f a3 49 33 8f 3f 99 3b c1 10 79 10 8b 3f
       0.015234542173780771 0.013215013336006541
000540 39 d8 e8 fa d9 07 c1 3f d0 66 ba 22 d9 89 aa bf
       0.13305210830157124 -0.05183294819762596
000550 de e4 17 ac 8c 20 ad bf ba 90 a2 a9 d4 e2 b7 3f
       -0.05688895798443537 0.09330491200904847
000560 01 a0 d1 9a c2 f6 a8 3f dc 4c 7e 73 56 a8 a8 3f
       0.048757630728516695 0.04815931472617205
000570 a8 bb eb 86 24 6f aa 3f a8 b4 ec 53 23 31 aa bf
       0.051629201383426804 -0.051156143183427816
000580 7e a2 8c f5 70 ff 96 3f 40 6a d6 aa 68 e6 d3 bf
       0.022458806025641646 -0.3109380405746016
000590 53 b3 53 32 35 34 c6 3f d9 de 02 71 9e 3d c5 3f
       0.17346825559016085 0.1659429599583209
0005a0 b2 08 31 42 ea 3d ce bf 47 d5 99 0b c4 9e ba bf
       -0.2362644980622171 -0.10398507388329846
0005b0 1d 45 13 85 84 18 12 3f b9 d5 b1 0a e0 5e 22 bf
       6.902989231895693e-05 -0.00014015660176240426
0005c0 1d 46 dd 61 d1 7d 90 bf fb de 91 ac 06 d0 85 3f
       -0.016104957197347603 0.010650684491551035
0005d0 00 00 00 00 00 00 00 00 00 00 00 00 00 00 00 00
       0.0 0.0
0005e0 00 00 00 00 00 00 00 00 00 00 00 00 00 00 00 00
       0.0 0.0
0005f0 00 00 00 00 00 00 00 00 00 00 00 00 00 00 00 00
       0.0 0.0
000600 ff b5 3f 84 1c b1 a1 bf 3c 6f 48 06 be c8 ac 3f
       -0.03455437769285296 0.056219042078934994
000610 ea ae a5 f3 55 55 a3 3f 21 5a 0c 81 59 fc aa 3f
       0.03776043509682643 0.05270652485176109
000620 2b bb dd 8a 99 03 90 bf 69 06 6c 1e 9f 42 df bf
       -0.01563873205253256 -0.4884412571992472
000630 6f 56 a0 67 eb 04 b1 3f 6b fb 93 41 17 05 b1 3f
       0.06648131637515474 0.06648393012072311
000640 61 bb c3 0b 04 81 dd 3f 4d 33 94 03 ed 1a c0 3f
       0.4609994997871834 0.12582171129943234
000650 d9 d9 48 56 5e 09 90 bf 0a 69 a3 9f 68 fb 8e bf
       -0.015660738006966077 -0.015127961513304661
000660 10 0e a3 25 89 e4 b8 3f fc cd c7 dc bb fd c7 bf
       0.09723717850561564 -0.1874308422116967
000670 46 e7 6d ac 7d 70 ef bf 78 d9 d9 19 2d 75 c5 3f
       -0.9824818008193936 0.16763843309645288
000680 43 63 7a 50 1c ac c7 3f bd b5 39 fb f2 74 f0 3f
       0.1849398987731324 1.028552037572225
000690 1b 93 5b 03 0b b6 cf 3f 3b 35 c6 f1 2e 19 db bf
       0.2477430120844922 -0.4234120713307054
0006a0 c3 eb b2 99 31 a6 bb 3f 3f ff 57 25 b4 9a 8a 3f
       0.10800466539778512 0.012990386380806405
0006b0 8f ed 88 ce 3c 29 de 3f 35 07 90 38 70 60 d0 bf
       0.4712669388715875 -0.2558861305588949
0006c0 30 69 8b 88 ae 6d b0 bf bb 5e 1d 2a 3d a4 c0 bf
       -0.06417361100776442 -0.13001217419036046
0006d0 bf b7 2a 32 ca f3 ba bf 58 37 c5 e6 0d d3 b4 bf
       -0.10528243756081589 -0.0813454330829847
0006e0 1f f3 78 7b 16 91 b0 3f 89 90 aa be c1 72 ac 3f
       0.06471386446441983 0.05556302502125827
0006f0 80 bb 8c ef f9 96 bc 3f d6 a9 64 90 f6 f5 a5 3f
       0.1116787156904433 0.04289217484104639
000700 83 eb 72 a9 fb a6 da bf 2d f8 e5 1a 0f db bb 3f
       -0.416441836812446 0.10881132513711185
000710 b1 4d c9 fc 6f e4 b0 bf db ff 70 4e f4 32 e8 bf
       -0.06598567887822672 -0.7562200100001023
000720 9f 58 d7 98 35 ad b8 bf 2f c4 0b a7 3f 46 b7 bf
       -0.09639296514009964 -0.09091565922041477
000730 ae e4 15 1d 6f 1f c8 bf e6 3e cd fb 79 3b be bf
       -0.1884592906970161 -0.11809503934386675
000740 00 54 c2 09 50 15 aa 3f 95 b4 7b 31 5b f2 e0 bf
       0.05094385260705536 -0.529584499976084
000750 ae 20 e9 9e b5 64 c2 bf 17 d3 e1 dd a3 48 ac 3f
       -0.14369840869244882 0.05524170001527844
000760 fc ef f3 8f 30 8e e6 bf ba 5e e0 c1 af a4 93 bf
       -0.7048571406917286 -0.019182916839865817
000770 57 a7 4d 3f 63 a3 b7 bf 6a 31 25 0c 60 a0 d5 bf
       -0.09233684821597642 -0.3379135244947721
000780 a9 32 25 45 07 40 dd bf 6c 44 9b 12 d5 1f c9 bf
       -0.4570329833266365 -0.196283945164882
000790 c5 4b 13 84 bf 03 e4 bf e5 28 80 a9 ba 79 cb bf
       -0.6254575328442732 -0.21465237881086022
0007a0 b6 e1 12 82 43 e5 b0 bf c9 a1 33 33 7a 38 e0 bf
       -0.06599828649166892 -0.5068942070038754
0007b0 75 1e db 59 90 a9 d7 bf f6 62 6b a9 7d e5 ae bf
       -0.36972435736649994 -0.06034462636097786
0007c0 ac 9b 14 b9 78 59 b4 bf 14 54 27 41 c9 28 c2 bf
       -0.07949022787634757 -0.14186969453172138
0007d0 01 70 5f 2c 70 fa b5 bf da 53 c5 5a 3f 56 e4 bf
       -0.08585263331718808 -0.6355282566897771
0007e0 e5 f6 70 d5 f2 69 d3 bf 0b 20 55 3f 93 a2 ad bf
       -0.3033415874850632 -0.05788097522832921
0007f0 32 5f f5 24 57 34 e4 bf 67 f4 a5 10 21 8b c6 bf
       -0.6313892099233043 -0.1761208850183806
