data/amass/ACCAD/Male2Walking_c3d/B17 -  Walk to hop to walk_poses.npz (npz, 881952 bytes, 5 tensors)

trans f8 [659, 3]
-0.23952097879216067 -3.0991164676851954 0.8776811735908814 -0.24440318020474444 -3.0981215401087727 0.8790594528810636 -0.24854103037202802 -3.098723131149949
0.8802236786093678 -0.2528138134268224 -3.098149925209835 0.8811888776002734 -0.25653989280935496 -3.0973390387938466 0.8821205441967637 -0.26013757811083077
-3.0984235868522063 0.8843548890313745 -0.26351809535205656 -3.098201225887621 0.885301931074359 -0.2665993055957336 -3.0989878579369394 0.8863225931264263
-0.27226147877140666 -3.0989127804288534 0.8880756547348533 -0.27550419425337647 -3.099353786562919 0.8890328434495827 -0.27988836288325497 -3.0996709978545356
0.8889586995472838 -0.28368434235741813 -3.1002568717632744 0.8890393196781623 -0.28731639253658936 -3.1005885221632545 0.8891306147067863 -0.29101864732777616
-3.101059751409948 0.8893896097088912 -0.2946024314088891 -3.101624646576097 0.8894152519173967 -0.2978924055182583 -3.1028765933654014 0.8893449621234149
-0.30114262226730737 -3.103724045552911 0.8900302786004648 -0.304631316548691 -3.104359870098591 0.8904267017378495 -0.3077844076184087 -3.1054327021434553
0.890616021055396 -0.3109521511968905 -3.106508285533686 0.8908046782249116 -0.3147286606409615 -3.107817997890719 0.8909459290075626 -0.31790038152505457
-3.109139661191841 0.8911346451832369 -0.32191894746419636 -3.110068447344635 0.8914137489696949 -0.3259254441187967 -3.110554526945984 0.8911600433089452
-0.32955037326561876 -3.11119839822998 0.8910154428352378 -0.33298598696492565 -3.1118983731100913 0.8908494191365358 -0.3367050431458426 -3.112374333019111
0.8905241996433271 -0.34035037751445624 -3.1125177178742303 0.889992515864031 -0.3426015367471346 -3.112603487956706 0.8898797411563814 -0.34652414836223233
-3.1131517328228377 0.889684657207019 -0.35016972810487224 -3.113795782084164 0.8894542071142506 -0.35349350483572584 -3.1147014806072653 0.8891109026643425
-0.35870986757346 -3.1146138143578055 0.8892171237664529 -0.36283367423347124 -3.1155415131570394 0.889189314038976 -0.3664608668454342 -3.1174533574128582
0.8892793703687697 -0.3697009423501778 -3.1201124113324954 0.8898891669474207 -0.3735172123400321 -3.1213061786876004 0.8896504021857008 -0.3771389618934792
-3.1222532149167623 0.8890283313820138 -0.3807696923804513 -3.1235647531389854 0.8890109550659123 -0.38550938064329665 -3.124439088424437 0.8885023825023838
-0.389047231655027 -3.125757244320144 0.8886245676097743 -0.3924792160810176 -3.1269372460122775 0.8884086564361526 -0.3952471353153992 -3.1285588223585186
0.8883203541376244 -0.3981184023441569 -3.130091457744112 0.8885202612250364 -0.4011761205650173 -3.131444371681911 0.8887707776616982 -0.40397077058548364
-3.1327127507486727 0.8889030721303022 -0.40695203357415605 -3.133612020714954 0.8887364875614328 -0.4134927277042023 -3.135414467143208 0.8887742604869193
-0.4164931924225326 -3.1359377252594376 0.8892039872026439 -0.4195542603027174 -3.1365271918659516 0.8885328548445247 -0.4215267569752262 -3.1369376606734503
0.8888453894523874 -0.42355342326954326 -3.137417921410865 0.8890834439467082 -0.4261713051724699 -3.1379716420431545 0.8890816939797787 -0.4288576925185119
-3.1383679990356232 0.8890745368574288 -0.4314036109829887 -3.138673516121744 0.8893563544285744 -0.4340649233475918 -3.139094923646879 0.8895726121167018
-0.4365323865234619 -3.1393067998916453 0.8897468452853313 -0.4384696057913242 -3.1396205255921603 0.8899110922829825 -0.4404904790908231 -3.140079223246053
0.890251456513293 -0.44273414022412905 -3.1401242063442045 0.8904631773691829 -0.44441734529096655 -3.140731867300465 0.8906825453305238 -0.44563457951466107
-3.1418874940331594 0.8910195537779394 -0.44695048088478434 -3.1427783790302297 0.8910503186829396 -0.4490148066567908 -3.1435581060004627 0.890759459290026
-0.45039744242064733 -3.143903715761764 0.8907838915344447 -0.45213271271667 -3.142749113209345 0.891212072873504 -0.4535608183642038 -3.142764655362597
0.8917702987209665 -0.4549196178951659 -3.1428684236527467 0.8917066257342579 -0.45581238917406575 -3.1430744433989335 0.8916235000725281 -0.4567935937172042
-3.143478482223347 0.8915736304644797 -0.45775431235143144 -3.1437756619670645 0.8915442632043309 -0.458850719111456 -3.1438615305320945 0.8912913833162476
-0.4589615336950077 -3.1432096766574955 0.8907831407000361 -0.4603260336020507 -3.143363006444182 0.8898542961843057 -0.46118347776647595 -3.1433624027526386
0.8891424890529704 -0.4620776178335465 -3.143740019292299 0.8887274457674106 -0.4628999048882589 -3.143858985319977 0.8882394534201095 -0.4635448435532384
-3.144053183742198 0.8876429196433817 -0.4656877365438734 -3.141024505234357 0.8866791797986591 -0.46695533835545905 -3.1421920493135502 0.8862029851708838
-0.4684740915526791 -3.140479194289518 0.885528558828338 -0.46901444352069066 -3.1410896455185284 0.8849690285245573 -0.46899789297485733 -3.144265585829938
0.8844825777442695 -0.47051227912737487 -3.140928927413239 0.8835030061866761 -0.4710692062720742 -3.1423780661004836 0.8831291353069788 -0.4718670233063127
00000000: 7a22 4f99 9fa8 cebf a79f 1993 fdca 08c0
00000010: 5268 1cd4 f615 ec3f 5a46 0279 9a48 cfbf
00000020: 1467 2ef2 f3c8 08c0 6ca4 2b4a 4121 ec3f
00000030: 84bc 9446 31d0 cfbf 972e 5d5a 2fca 08c0
00000040: 7858 19d9 ca2a ec3f be4b 29fd 192e d0bf
00000050: 770c f7d3 02c9 08c0 428c 5c04 b332 ec3f
00000060: d812 6f4c 266b d0bf fdf2 a1b0 59c7 08c0
00000070: e88d 0edd 543a ec3f 2396 9c15 18a6 d0bf
00000080: 607b 354e 92c9 08c0 9d51 ce9f a24c ec3f
00000090: 233e 5c00 7bdd d0bf 60ea 6cb9 1dc9 08c0
000000a0: bf99 21b7 6454 ec3f 0be1 aa88 f60f d1bf
000000b0: 6e52 6425 baca 08c0 a2e2 e532 c15c ec3f
000000c0: 9d29 d268 bb6c d1bf 6ec9 a8c8 92ca 08c0
000000d0: 2db8 aea2 1d6b ec3f 4ca9 0e58 dca1 d1bf
000000e0: 092c 80ff 79cb 08c0 72f2 7501 f572 ec3f
000000f0: f554 47e1 b0e9 d1bf ca28 e14e 20cc 08c0
00000100: d89b c183 5972 ec3f 02fe 335f e227 d2bf
00000110: 5761 8b79 53cd 08c0 8606 5c96 0273 ec3f
00000120: 8c28 634b 6463 d2bf 6b5a e85a 01ce 08c0
00000130: 7e37 010c c273 ec3f 1a22 33ad 0ca0 d2bf
00000140: 1efb 396a f8ce 08c0 b342 e332 e175 ec3f
00000150: ec49 0e28 c4da d2bf 5c18 2c95 20d0 08c0
00000160: ef8f 71f9 1676 ec3f 435f db4e ab10 d3bf
00000170: f039 a0f6 b0d2 08c0 6ed6 e590 8375 ec3f
00000180: 0e77 84b4 eb45 d3bf 25ab bb45 6dd4 08c0
00000190: 903d 61c7 207b ec3f d27f 7a59 147f d3bf
000001a0: c0b4 a8a0 bad5 08c0 ee5f 6e23 607e ec3f
000001b0: a925 3c5f bdb2 d3bf 9514 bd19 edd7 08c0
000001c0: 1640 772b ed7f ec3f 49bc 00da a3e6 d3bf
000001d0: 31f6 1804 21da 08c0 8d31 03d0 7881 ec3f
000001e0: a646 24ae 8324 d4bf fee2 b6ae cfdc 08c0
000001f0: 2ff0 7209 a182 ec3f 594e 82d7 7a58 d4bf
00000200: b31f 5c9d 84df 08c0 4aa0 accd 2c84 ec3f
00000210: e492 d4ed 519a d4bf 6a55 ed90 6be1 08c0
00000220: 6ef2 6020 7686 ec3f 212b db64 f6db d4bf
00000230: 1443 6d69 6ae2 08c0 9171 3011 6284 ec3f
00000240: 02de e372 5a17 d5bf 6f1f 5efc bbe3 08c0
00000250: 6daa 66d1 3283 ec3f d099 0275 a44f d5bf
00000260: 1ade 67f9 2ae5 08c0 bb43 1ba4 d681 ec3f
00000270: 1e6b 2d4f 938c d5bf aed0 a983 24e6 08c0
00000280: 2278 389b 2c7f ec3f 23c6 26f3 4cc8 d5bf
00000290: 49ec 73b0 6fe6 08c0 c943 aa95 d17a ec3f
000002a0: abd9 f8fe 2eed d5bf 4484 51a8 9ce6 08c0
000002b0: a177 3414 e579 ec3f d05c 1f9f 732d d6bf
000002c0: b5ad 7f18 bce7 08c0 b4a0 4ef5 4b78 ec3f
000002d0: ea9d 904a 2e69 d6bf 38cb 53c3 0de9 08c0
000002e0: d60c 5bab 6876 ec3f 068b a738 a39f d6bf
000002f0: 7e16 209c e8ea 08c0 84bb 2eb5 9873 ec3f
00000300: 8ac0 7e3b 1af5 d6bf 56b1 c2a5 baea 08c0
00000310: dbd7 3378 7774 ec3f 0419 2ebb aa38 d7bf
00000320: fdb7 6207 a1ec 08c0 9f00 f825 3d74 ec3f
00000330: 5a5b 9747 1874 d7bf 2526 c762 8bf0 08c0
00000340: 09b9 9702 fa74 ec3f f870 2c24 2ea9 d7bf
00000350: 5722 f47e fdf5 08c0 ca52 a3d8 f879 ec3f
00000360: ec95 dfbc b4e7 d7bf b820 b25f 6ff8 08c0
00000370: bc58 c81e 0478 ec3f 0250 d874 0b23 d8bf
00000380: d42f bfe4 5ffa 08c0 361a 108b eb72 ec3f
00000390: cb3f 05d8 875e d8bf af5c 6d84 0ffd 08c0
000003a0: f766 391a c772 ec3f d681 8a89 2fac d8bf
000003b0: 1d04 b9eb d9fe 08c0 9b81 688c 9c6e ec3f
000003c0: fbb0 235c 26e6 d8bf 86b8 9c03 8d01 09c0
000003d0: bfcb 09ca 9c6f ec3f 3d5f 5b25 611e d9bf
000003e0: e522 c2ac f703 09c0 e80c 9cfd d76d ec3f
000003f0: df1b 01a4 ba4b d9bf 0b23 0dd9 4907 09c0
00000400: 318d acce 1e6d ec3f 4940 809b c57a d9bf
00000410: daff e363 6d0a 09c0 e36f f90a c26e ec3f
00000420: 64d3 709b deac d9bf c6ef ecb4 320d 09c0
00000430: c451 f669 cf70 ec3f b117 0d38 a8da d9bf
00000440: 6ed2 e1b3 cb0f 09c0 6ca2 03db e471 ec3f
00000450: eb77 cf8a 800b dabf eb95 da2d a311 09c0
00000460: 10d3 9a80 8770 ec3f 7ee5 a733 aa76 dabf
00000470: 6348 1e2e 5415 09c0 442c cab7 d670 ec3f
00000480: c887 1d10 d3a7 dabf 5e41 a284 6616 09c0
00000490: d542 90eb 5b74 ec3f f972 b91c fad9 dabf
000004a0: c0a1 8091 9b17 09c0 e951 1f74 dc6e ec3f
000004b0: 093e e65c 4bfa dabf 3977 b1c5 7218 09c0
000004c0: 97bf dce2 6b71 ec3f 544c 43d1 7f1b dbbf
000004d0: 70c0 3291 6e19 09c0 3151 651f 5f73 ec3f
000004e0: b666 8d02 6446 dbbf 5fce 52e0 901a 09c0
000004f0: 99b1 e373 5b73 ec3f 7452 0089 6772 dbbf
00000500: 215e 75ae 601b 09c0 c149 7071 4c73 ec3f
00000510: 6916 23e4 1d9c dbbf 8583 44dc 001c 09c0
00000520: 1d56 1875 9b75 ec3f 0598 873e b8c7 dbbf
00000530: ded2 a0cc dd1c 09c0 42ac 8efb 6077 ec3f
00000540: a1d6 f088 25f0 dbbf 0729 2de2 4c1d 09c0
00000550: 8907 4760 ce78 ec3f e07a 4ad2 e20f dcbf
00000560: 3726 ba5d f11d 09c0 5e7f b6d3 267a ec3f
00000570: c93e 79fa fe30 dcbf ec86 15db e11e 09c0
00000580: 571c 5e9f f07c ec3f c275 4593 c155 dcbf
00000590: b102 9d70 f91e 09c0 f0f8 22a2 ac7e ec3f
000005a0: 9830 f372 5571 dcbf ec7b 7c07 3820 09c0
000005b0: 2001 6aae 7880 ec3f 0ddc 3ee6 4685 dcbf
000005c0: a7ab 14e9 9522 09c0 1354 7270 3b83 ec3f
000005d0: 4b39 9530 d69a dcbf f915 a4fd 6824 09c0
000005e0: e1ac 3af5 7b83 ec3f f9ae 8099 a8bc dcbf
000005f0: 11c8 d2ca 0126 09c0 131b 48fb 1981 ec3f
00000600: af84 59cb 4fd3 dcbf dbc1 c7fd b626 09c0
00000610: ab35 3e38 4d81 ec3f 9a78 a40b beef dcbf
00000620: 1923 a6a5 5924 09c0 a058 592e cf84 ec3f
00000630: 96c2 67f4 2307 ddbf df74 aecb 6124 09c0
00000640: 599f 91dd 6189 ec3f 96c9 4a2c 671d ddbf
00000650: c8c1 3933 9824 09c0 fcf6 6455 dc88 ec3f
00000660: a84f 27ba 072c ddbf a755 ba36 0425 09c0
00000670: 8e02 a501 2e88 ec3f ba69 8232 1b3c ddbf
00000680: c7a1 e60b d825 09c0 0e45 1a6c c587 ec3f
00000690: 61c0 49be d84b ddbf d5df b0da 7326 09c0
000006a0: c0c4 acd5 8787 ec3f 351b 1568 cf5d ddbf
000006b0: 854d c6df a026 09c0 a598 d181 7585 ec3f
000006c0: 50e4 5532 a05f ddbf a9b7 6d1d 4b25 09c0
000006d0: 7550 24a5 4b81 ec3f 785d f452 fb75 ddbf
000006e0: 6e12 0181 9b25 09c0 5422 8ab7 af79 ec3f
000006f0: 8a9a 9db4 0784 ddbf 7563 fa2f 9b25 09c0
00000700: f2ed fef2 da73 ec3f 3ac1 3300 ae92 ddbf
00000710: 09e5 cf2a 6126 09c0 d61d 548a 7470 ec3f
00000720: e342 34ec 26a0 ddbf f97a 298a 9f26 09c0
00000730: e499 6e25 756c ec3f 1d99 d2fd b7aa ddbf
00000740: 9875 085b 0527 09c0 f29d cc1f 9267 ec3f
00000750: 38ab a6ef d3cd ddbf 4354 af74 d120 09c0
00000760: 64f0 e803 ad5f ec3f d579 bba4 98e2 ddbf
00000770: 606c cc95 3523 09c0 0ba6 dd5c c65b ec3f
00000780: 057e 8fc1 7afb ddbf 6eef 498e b31f 09c0
00000790: 67ef fafc 3f56 ec3f ec78 1128 5504 debf
000007a0: 5473 aa9b f320 09c0 348c 6f91 aa51 ec3f
000007b0: 2d13 0ebd 0f04 debf 789f 28b7 7427 09c0
000007c0: a863 2968 ae4d ec3f e1fb cd88 df1c debf
000007d0: d966 7258 9f20 09c0 a7a9 af18 a845 ec3f
000007e0: d3d6 c574 ff25 debf ef8d 8c1c 9723 09c0
000007f0: 3439 4908 9842 ec3f bc55 4abe 1133 debf

mocap_framerate f8 []
120.0
00000000: 0000 0000 0000 5e40

betas f8 [16]
-0.10177492401008648 -0.7784032910200543 0.7851509561351558 1.0612141781064566 0.7366055528640801 -0.5779045599249427 0.5216004847528668 -0.3107671876829067
0.19804836199574902 0.06637032945775724 -0.13347498444642367 -0.04142319662286859 -1.01038264458324 -0.36964670654258414 0.49680678050037697 0.15339102705212385
00000000: e01b 2de2 eb0d babf f9f4 c004 aee8 e8bf
00000010: 89c1 e0e5 f41f e93f cd4c d0b7 bbfa f03f
00000020: 9b4d f3ce 4592 e73f e5c7 22b4 317e e2bf
00000030: 02ec f27f f3b0 e03f 8e26 f10e 9ce3 d3bf
00000040: 8328 e612 a659 c93f c920 725a a5fd b03f
00000050: 2308 8452 b515 c1bf b9fd 94d5 6b35 a5bf
00000060: 68e5 eefd 862a f0bf 242b eba8 4aa8 d7bf
00000070: e687 abaa aecb df3f 1528 5832 51a2 c33f

dmpls f8 [659, 8]
-0.052384807094100955 0.8766690364717747 -0.5887056078333278 0.03037912541236823 -2.0993001770272484 1.4362962834758815 -1.4822159990267927 -4.908202557317767
-0.025566265913159567 0.9525273771218276 -0.8031811986155044 0.07543048047984177 -2.0202340258417544 1.5378121908120908 -1.5418177040086176 -4.856221212177656
-0.018972916337191996 0.9907347428652822 -1.013766703267886 0.12829027971277374 -1.9444173915538912 1.6322391310989601 -1.6074250513908266 -4.781724766512736
-0.017168273443283574 1.0261173459801518 -1.1812186171022578 0.15824782962959805 -1.8795973172448246 1.6954605210553206 -1.6654705596968737 -4.6756571939373766
-0.015656878600809387 1.0823458398088375 -1.2852328980857817 0.1635303650749156 -1.8254831188273752 1.716929696239461 -1.7278675942939903 -4.552146974721266
-0.1181399684432674 1.1951699030119252 -1.1337821861288921 0.1518480244246995 -1.6217071997550658 1.7491789257904446 -1.5559492952313374 -4.415531155712012
-0.22677921913168342 1.3077749000374554 -1.0955368725901684 0.220254778106922 -1.3355858684072106 1.7823412942985222 -1.4619139270538755 -4.259420997197749
-0.3075868148266182 1.4011957266085737 -1.0762595159785577 0.3054708490038803 -1.0740237263717107 1.7968155283004454 -1.4090643289731335 -4.123827433765643
-0.3902630548516318 1.4643643263675945 -1.038890645537621 0.3936775435048339 -0.8671064250873709 1.8023938980485896 -1.2896721322134763 -3.996979170770741
-0.495481701907001 1.49801525181327 -1.085340900730165 0.5520571718256693 -0.6778957533585253 1.7643530762806872 -1.2565279428288343 -3.8909666303512305
-0.5071734550602516 1.5099968755551194 -1.090388046001974 0.5589935344812532 -0.6688080508568423 1.752188039566143 -1.2546201632696887 -3.8726675210215427
-0.5073933605272546 1.5107239349200687 -1.0904976558791775 0.5589606595753882 -0.6679511018193497 1.7514564417937108 -1.2545555489140925 -3.871353898412794
-0.5077009954984144 1.511599068530044 -1.0907779943322855 0.5589793402969354 -0.6672604367204495 1.7507477402667841 -1.2545166998641735 -3.870073002811444
-0.5050823956106383 1.523968315140041 -1.0929679448343899 0.554710994812178 -0.651081149182086 1.7452971345312704 -1.2537546246233204 -3.852708547711463
-0.5047582174265166 1.5252230039760468 -1.0930554158436858 0.5550119621873276 -0.6491792176506634 1.744932932037497 -1.253524611620403 -3.8513263892968195
-0.5054369655024777 1.5285438917387364 -1.0951772826415178 0.5555226016373039 -0.6463476339933975 1.7435895998676396 -1.2533647857684644 -3.8473530859705614
-0.7421903388043302 1.7117979505127896 -1.0978486849940736 0.6674020427186134 -0.45172046051452525 1.7164108277899721 -1.1608990533038268 -3.728764360178659
-0.8165444000003252 1.7878254599403867 -1.0473372029305024 0.746065750805625 -0.24801569698477563 1.6941979428138467 -1.1263428969653018 -3.685449065813629
-0.8226134181469071 1.801226844979613 -1.0161096550650686 0.8077658714338425 -0.05309848371811854 1.677602267953986 -1.1402188471560073 -3.678647961101264
-0.7931022462095806 1.8025600832030626 -0.9981575737929282 0.8453143635109135 0.13492161757927817 1.6703887543002003 -1.152616266525182 -3.6814220608881087
-0.73974585577392 1.795256742458405 -0.976381232741911 0.8620698402658965 0.29746109243078156 1.6455537136856737 -1.1647573499454331 -3.6807339410505393
-0.6784138467574549 1.7715923997838383 -0.9328494764114377 0.862595273067047 0.45836271038591503 1.625547035482277 -1.1762470134984082 -3.7047613619221513
-0.3832512453159821 1.6417700226140313 -0.8261338873226893 0.7389583923534975 0.6056728670978161 1.633580659008274 -1.2558756044802628 -3.795037634303263
-0.31321504391103494 1.5428620518094045 -0.9064829988173742 0.6924321038262091 0.6548641120471639 1.6007733725961448 -1.308426268773159 -3.7910091162444712
-0.2823173392407776 1.4987083596370405 -0.9911312635956957 0.6315514830297229 0.7098412887789307 1.5660848502476359 -1.3238205046166773 -3.7796916251386956
-0.2625755180069113 1.4676001058443904 -1.0616992569037613 0.5647014747321405 0.7564245494713137 1.536371347998228 -1.3186656984597291 -3.777739980916641
-0.2495034920174461 1.4433504976813707 -1.1194679310305817 0.5147434771001533 0.7906476824812803 1.5081029448480978 -1.2989861079474903 -3.7823577552392966
-0.24737314608190697 1.4149196159297144 -1.168590483253099 0.48216056828766446 0.8137545295136569 1.4763591281908441 -1.2864328539551415 -3.798803495626591
-0.243989325808267 1.4156724234532068 -1.2908520524429612 0.4357511108511828 0.9118923157828238 1.4929410700633576 -1.2981420485921031 -3.8097789203267016
-0.2541038706908064 1.4117148765299814 -1.383601041091426 0.4010893924238561 0.9889683322850774 1.4752963344530943 -1.3137399985959646 -3.810148015166684
-0.25431749798847514 1.4151426375873488 -1.4048450322067636 0.39203436712978507 1.0034485058789608 1.463316475038367 -1.3221006455959299 -3.807712619383275
-0.2541425420372359 1.415484435540481 -1.4103770587535671 0.3905850392282252 1.007647955873734 1.4612718863705243 -1.32457585652645 -3.8078344436285376
00000000: 8c88 8d72 2ed2 aabf c1fc 2139 ac0d ec3f
00000010: d1b5 9324 add6 e2bf c841 8298 b41b 9f3f
00000020: 668d 26e4 5dcb 00c0 f852 cecf 11fb f63f
00000030: 43d9 961f 28b7 f7bf 234b e7d9 ffa1 13c0
00000040: 1c54 e90f 0b2e 9abf 950d a9b1 1a7b ee3f
00000050: fc19 9a0e a9b3 e9bf 0e51 c876 694f b33f
00000060: d50d fa74 7029 00c0 42d9 aef4 e09a f83f
00000070: ecc5 710a 49ab f8bf 2dc7 e140 c56c 13c0
00000080: 5e41 b6dc a26d 93bf 62c1 f358 19b4 ef3f
00000090: ecf2 446f 6338 f0bf 446a e1dd d06b c03f
000000a0: 20f6 2769 551c ffbf d324 75c7 a61d fa3f
000000b0: 5fea a754 03b8 f9bf ed94 0a75 7c20 13c0
000000c0: ace9 de53 8f94 91bf 367d ad05 fa6a f03f
000000d0: b516 1e7e 45e6 f2bf 7c07 7602 7741 c43f
000000e0: 2874 f3a2 d412 febf b177 1936 9b20 fb3f
000000f0: 0c95 2575 c4a5 fabf 9912 bd7a dfb3 12c0
00000100: 9011 3156 5b08 90bf bf0c 0fdf 4951 f13f
00000110: 0559 105f 5090 f4bf 7929 f320 90ee c43f
00000120: f237 6cc9 2d35 fdbf 3f13 ee45 8b78 fb3f
00000130: 62f9 947d 58a5 fbbf 7e0d 3c04 6635 12c0
00000140: 5476 d0c4 6b3e bebf 6a98 e979 6a1f f33f
00000150: 2960 23ca f823 f2bf b5e2 6e8d c16f c33f
00000160: 052c aa3f 83f2 f9bf 3bf5 910a a3fc fb3f
00000170: a50b 9416 2be5 f8bf 3a02 d1ff 80a9 11c0
00000180: ac9f caf8 1907 cdbf 740c a35f a5ec f43f
00000190: e963 f5ab 5187 f1bf 4ae4 60fe 4e31 cc3f
000001a0: 8ef0 9c49 8f5e f5bf d028 154e 7884 fc3f
000001b0: 9436 a4db ff63 f7bf ae70 6ba8 a509 11c0
000001c0: ce1c 979b 80af d3bf b042 d135 4c6b f63f
000001d0: e72f f2e5 5b38 f1bf e197 969a d58c d33f
000001e0: 1450 be80 332f f1bf 0fed afa3 c1bf fc3f
000001f0: 8e65 ae09 878b f6bf f37b 699e cc7e 10c0
00000200: 2230 5be4 11fa d8bf a2d8 b249 096e f73f
00000210: 4445 2bcc 4b9f f0bf d976 a14b 0332 d93f
00000220: fdda 3cf9 55bf ebbf f40e eafb 9ad6 fc3f
00000230: 25b6 e63e 7fa2 f4bf 3c07 2a37 d0f9 0fc0
00000240: 543f 5de2 f8b5 dfbf bb27 37d7 def7 f73f
00000250: 1a5b 9a6b 8e5d f1bf 9c6e 50cd 73aa e13f
00000260: 70b5 586f 52b1 e5bf 8b8f 934a ca3a fc3f
00000270: 2a5c 4f0b bd1a f4bf a27c d91c b320 0fc0
00000280: 6842 5cd3 c33a e0bf 8924 d97b f228 f83f
00000290: f571 58bc 3a72 f1bf c1b7 a868 46e3 e13f
000002a0: 9d69 3724 e066 e5bf 2210 6653 f608 fc3f
000002b0: f153 a297 ec12 f4bf 258d f81b 39fb 0ec0
000002c0: cf81 3500 913c e0bf 0f42 5cdc ec2b f83f
000002d0: 07da 85ab ad72 f1bf 6a0f 1477 01e3 e13f
000002e0: 4f85 34fd da5f e5bf d3f5 9d30 f705 fc3f
000002f0: 279f d9d6 a812 f4bf 8466 8764 88f8 0ec0
00000300: a2fe 7928 163f e0bf 7702 4081 822f f83f
00000310: 82a8 4da0 d373 f1bf 38e1 36a4 28e3 e13f
00000320: d620 348f 325a e5bf 2bde ff0f 1003 fc3f
00000330: 543d 631a 8012 f4bf 4ea9 a1d5 e8f5 0ec0
00000340: 58db 5d8e a229 e0bf cbaa 9a99 2c62 f83f
00000350: 973d aaf4 cb7c f1bf d465 ae45 31c0 e13f
00000360: daee 5822 a8d5 e4bf 40d4 29b0 bcec fb3f
00000370: 6674 5f02 610f f4bf eb85 ebdb 58d2 0ec0
00000380: 207e 87b4 fa26 e0bf a9f1 923c 5067 f83f
00000390: 9e3a fcac 277d f1bf b177 4f72 a8c2 e13f
000003a0: ccad a17e 13c6 e4bf f307 4dcb 3eeb fb3f
000003b0: 7140 bad2 6f0e f4bf 4903 c235 84cf 0ec0
000003c0: 52b9 a024 8a2c e0bf 854b 9870 ea74 f83f
000003d0: 8c47 449d d885 f1bf e512 c755 d7c6 e13f
000003e0: e527 bb3b e1ae e4bf 5e3c 5135 bee5 fb3f
000003f0: 6e56 cd3b c80d f4bf 1244 030e 61c7 0ec0
00000400: d74b 12f4 05c0 e7bf 02ff 6c3f 8663 fb3f
00000410: 3319 60c8 c990 f1bf 3e52 5887 5b5b e53f
00000420: 3303 36ef fce8 dcbf 43bb 3d33 6b76 fb3f
00000430: 545b bee2 0a93 f2bf 61a9 ab68 82d4 0dc0
00000440: 8477 b7b8 2121 eabf e366 96de ee9a fc3f
00000450: ac87 a7a7 e4c1 f0bf ec06 0c48 c5df e73f
00000460: 6bdd b875 fabe cfbf 0d60 554d 6f1b fb3f
00000470: 12c4 2821 8005 f2bf 41f2 45b8 cc7b 0dc0
00000480: ba22 0660 d952 eabf cfd5 7d3d d3d1 fc3f
00000490: 0e78 9a32 fc41 f0bf f243 14d0 37d9 e93f
000004a0: 20b1 1276 b92f abbf beec c879 75d7 fa3f
000004b0: 0316 2d1e 563e f2bf 846a 73fb de6d 0dc0
000004c0: 5556 3bf6 1761 e9bf 43ea e63d 49d7 fc3f
000004d0: 2c40 f626 e8f0 efbf 2cca 43b5 d00c eb3f
000004e0: ae61 838f 1c45 c13f 6935 f58e e9b9 fa3f
000004f0: 2e03 19c1 1d71 f2bf 7d4c d268 8d73 0dc0
00000500: 0ed1 3c80 ffab e7bf 7b84 4c22 5fb9 fc3f
00000510: e0bf e1da 833e efbf 45eb 597d 1396 eb3f
00000520: 22a6 f43f 9a09 d33f 0876 8121 3054 fa3f
00000530: 03a9 5c9a d8a2 f2bf cdb6 f0a2 2472 0dc0
00000540: 2542 9ff4 90b5 e5bf b19e ae45 7158 fc3f
00000550: 22e4 2825 e7d9 edbf a03a f066 619a eb3f
00000560: 260f b48c d055 dd3f 1d19 b89b 3d02 fa3f
00000570: b2e4 6f63 e8d1 f2bf 3e85 c7ec 59a3 0dc0
00000580: 7e23 323b 3087 d8bf 1ae3 aaa4 b044 fa3f
00000590: b662 8555 b06f eabf 906a 0812 8ca5 e73f
000005a0: 414f 8810 ac61 e33f 4019 1d79 2523 fa3f
000005b0: 3064 9104 1118 f4bf b05f f3b0 3c5c 0ec0
000005c0: 6aa3 8d1c b70b d4bf 712c 6c1e 90af f83f
000005d0: c09e 49a2 e801 edbf 184a 145f 6728 e63f
000005e0: fc21 1295 a5f4 e43f a2ba 398a c49c f93f
000005f0: 77ba 1962 50ef f4bf e9dc 6896 fc53 0ec0
00000600: 1081 c8be 7c11 d2bf 5720 ee9d b5fa f73f
00000610: 30f9 65e9 58b7 efbf 704b ab74 ab35 e43f
00000620: f2fd 1414 05b7 e63f c831 e9fc ae0e f93f
00000630: 42a5 d168 5e2e f5bf 7f7c 77f6 ce3c 0ec0
00000640: f379 a48b 09ce d0bf 2153 a33f 4a7b f73f
00000650: 306d 295c b8fc f0bf cb47 bfd3 0812 e23f
00000660: cfdd bb41 a134 e83f 069f 621f fa94 f83f
00000670: 53dd 1334 4119 f5bf 0da1 36bd cf38 0ec0
00000680: fef2 39fd baef cfbf 194f 03b1 f617 f73f
00000690: 7427 8b34 57e9 f1bf f82e ff4f c778 e03f
000006a0: 104a 5d5e fc4c e93f 61fb b18d 3021 f83f
000006b0: 187c 39a8 a5c8 f4bf b132 64c8 4442 0ec0
000006c0: 3c4b 2a5a eca9 cfbf 2b31 4ec0 82a3 f63f
000006d0: 85d2 3fef 8bb2 f2bf c1d7 0d00 b8db de3f
000006e0: ed74 67f0 460a ea3f 24b1 cbbf 2a9f f73f
000006f0: e3cb c39d 3a95 f4bf 6a2c 4d16 f363 0ec0
00000700: 4eb5 75cf 0a3b cfbf 154a 8920 98a6 f63f
00000710: d078 537b 54a7 f4bf ca4b 93a0 58e3 db3f
00000720: 9059 38cb 382e ed3f 1770 ec2c 16e3 f73f
00000730: 983f c498 30c5 f4bf d458 de5e 6d7a 0ec0
00000740: 92db 99e1 3c43 d0bf 3291 9f56 6296 f63f
00000750: 0830 63d8 3a23 f6bf 04e9 ced7 72ab d93f
00000760: cf35 7eea a0a5 ef3f ce27 4654 d09a f73f
00000770: 06ab 963b 1405 f5bf 557b f0e1 2e7b 0ec0
00000780: 964e 2ae6 bc46 d0bf 35ce 399b 6ca4 f63f
00000790: f96a d4c8 3e7a f6bf 41c0 6e50 1717 d93f
000007a0: f185 3f05 200e f03f f9cd 3f89 be69 f73f
000007b0: 1aae ad01 5327 f5bf 928a a608 3276 0ec0
000007c0: 799f a414 df43 d0bf 4f4b ea01 d3a5 f63f
000007d0: fd00 e688 e790 f6bf d6b1 7264 58ff d83f
000007e0: 36be 8576 531f f03f fb68 28a1 5e61 f73f
000007f0: fca2 0d74 7631 f5bf 43bc 9fe7 7176 0ec0

poses f8 [659, 156]
0.6378871042117694 -1.611510158571705 -1.6257937932448763 -0.08565661036825796 0.01614339069127252 -0.06002056935493445 -0.16160750098343304 -0.09988181719083196
-0.07742317174400243 0.09423459974099643 0.018241573586264742 -0.07035046460627901 0.841335918188339 -0.03889052956662869 -0.28103768890518455 0.36949845575376394
-0.16965428346128408 0.13469930823511111 0.19404639915003782 -0.06428273884113539 0.06648213474244893 -0.47144549797533797 0.2554414244170965 0.13199982995321416
-0.26571574170221907 -0.268745231697119 -0.0934631310542107 -0.06323143594006794 -0.02547138028085595 -0.012535904678413094 0.0 0.0
0.0 0.0 0.0 0.0 0.10084886836614763 -0.3692977881370447 0.11086006355993952 0.08674780935310338
0.1174694790749058 -0.4045072574945472 -0.0047553879231572345 -0.008161298072530462 0.3951558367541403 -0.02070737828065086 -0.26971057497771883 0.10120609146424846
0.1386446662404959 -0.31236721765732856 -0.9735490237962496 0.168099372869812 0.0422346928160408 1.0198182350261003 -0.05656033027188423 -0.5471084883551168
0.18859267368296087 -0.13331594466997235 0.4835964835432038 -0.19288579287543434 0.16890802452397596 -0.13407066242625956 -0.2979482862453664 -0.21779660895944436
0.1316549383444337 0.24290698465657143 0.1116787156904433 0.04289217484104639 -0.416441836812446 0.10881132513711185 -0.06598567887822672 -0.7562200100001023
-0.09639296514009964 -0.09091565922041477 -0.1884592906970161 -0.11809503934386675 0.05094385260705536 -0.529584499976084 -0.14369840869244882 0.05524170001527844
-0.7048571406917286 -0.019182916839865817 -0.09233684821597642 -0.3379135244947721 -0.4570329833266365 -0.196283945164882 -0.6254575328442732 -0.21465237881086022
-0.06599828649166892 -0.5068942070038754 -0.36972435736649994 -0.06034462636097786 -0.07949022787634757 -0.14186969453172138 -0.08585263331718808 -0.6355282566897771
-0.3033415874850632 -0.05788097522832921 -0.6313892099233043 -0.1761208850183806 -0.13209307627166406 -0.37335457646458126 0.8509642789706306 0.2769227420650918
-0.09154806978240376 -0.49983943762160615 0.026556472160458842 0.05288087673273013 0.5355591477841196 0.04596104095518329 -0.2773580212595622 0.1116787156904433
-0.04289217484104638 0.41644183681244606 0.10881132513711185 0.0659856788782267 0.7562200100001023 -0.09639296514009964 0.09091565922041477 0.18845929069701614
-0.11809503934386674 -0.05094385260705537 0.529584499976084 -0.14369840869244885 -0.05524170001527845 0.7048571406917286 -0.01918291683986582 0.09233684821597642
0.3379135244947721 -0.4570329833266365 0.19628394516488204 0.6254575328442732 -0.21465237881086027 0.06599828649166892 0.5068942070038754 -0.36972435736649994
0.06034462636097784 0.07949022787634759 -0.14186969453172144 0.08585263331718808 0.6355282566897771 -0.3033415874850632 0.05788097522832922 0.6313892099233043
-0.17612088501838064 0.13209307627166406 0.37335457646458126 0.8509642789706306 -0.2769227420650918 0.09154806978240378 -0.49983943762160615 -0.026556472160458842
-0.05288087673273012 0.5355591477841195 -0.0459610409551833 0.2773580212595623 0.6434216741124169 -1.6221643600365787 -1.6393279843546988 -0.09085807652825037
0.009275821114497181 -0.042082266230118404 -0.12725865872750738 -0.03885578399036267 -0.055847423039955824 0.0795451116402071 0.023132875710957106 -0.05652091870007713
0.8309273527431748 0.03813341297943761 -0.2336392670373958 0.3313847605117907 -0.058558809725965576 0.08768601299927613 0.22033428500927227 -0.0694690918432312
0.0700829469789817 -0.27901227856927985 0.2921638892405975 0.09887988667840662 -0.2669522678958757 -0.21392289321442234 -0.10043221669407328 -0.08571878291126862
-0.024494539443529792 -0.01159175936505482 0.0 0.0 0.0 0.0 0.0 0.0
0.11435530933365236 -0.36581529834216886 0.10346544088560634 0.0896238120180888 0.1050174853385118 -0.4127293693756504 0.004392901736694225 -0.014443730306898495
0.3998862749875356 -0.030474290519758963 -0.2659593778216308 0.10492690944924865 0.1528581313678459 -0.2933801925086764 -0.9616372486013978 0.17672172978473571
0.05361009843253782 1.0098848294718947 -0.02593023728589921 -0.5441656672591709 0.1677875301175545 -0.13702303740365462 0.49767590054149036 -0.18780691215307957
0.13161799927167 -0.1414531344359626 -0.2699545106152868 -0.19654171929980008 0.13651056740285683 0.22071748998621876 0.1116787156904433 0.04289217484104639
-0.416441836812446 0.10881132513711185 -0.06598567887822672 -0.7562200100001023 -0.09639296514009964 -0.09091565922041477 -0.1884592906970161 -0.11809503934386675
0.05094385260705536 -0.529584499976084 -0.14369840869244882 0.05524170001527844 -0.7048571406917286 -0.019182916839865817 -0.09233684821597642 -0.3379135244947721
-0.4570329833266365 -0.196283945164882 -0.6254575328442732 -0.21465237881086022 -0.06599828649166892 -0.5068942070038754 -0.36972435736649994 -0.06034462636097786
-0.07949022787634757 -0.14186969453172138 -0.08585263331718808 -0.6355282566897771 -0.3033415874850632 -0.05788097522832921 -0.6313892099233043 -0.1761208850183806
00000000: 7326 6437 9269 e43f c4cb 43e0 bec8 f9bf
00000010: aa6c 405a 4003 fabf 25c7 3774 97ed b5bf
00000020: d023 439c e487 903f faf8 ee1c 04bb aebf
00000030: 918d c1f9 8daf c4bf 6db7 4cd2 da91 b9bf
00000040: 34d4 9746 01d2 b3bf f60a 0a3c c21f b83f
00000050: 581e ec47 ebad 923f 370c bef0 7c02 b2bf
00000060: a335 b24d 39ec ea3f c7bf 39a1 75e9 a3bf
00000070: daa2 b280 85fc d1bf 84a2 d8d9 dca5 d73f
00000080: fcd7 8b47 3bb7 c5bf b0f1 d4b1 d33d c13f
00000090: c7c3 202d 83d6 c83f c41d 0565 d574 b0bf
000000a0: 82b1 7c22 f904 b13f f8a1 e9bc 292c debf
000000b0: c290 fafc 2659 d03f c101 5dd4 5ee5 c03f
000000c0: b32d 2999 7c01 d1bf 9b15 4633 1f33 d1bf
000000d0: f274 4223 33ed b7bf f613 7175 ef2f b0bf
000000e0: c438 2965 2b15 9abf a2da f4a4 6cac 89bf
000000f0: 0000 0000 0000 0000 0000 0000 0000 0000
00000100: 0000 0000 0000 0000 0000 0000 0000 0000
00000110: 0000 0000 0000 0000 0000 0000 0000 0000
00000120: 6ba1 783f 3bd1 b93f dc28 a230 93a2 d7bf
00000130: d223 6c3b 5361 bc3f 33d5 2bbc 1a35 b63f
00000140: 01a6 e7d2 7a12 be3f 40c2 7b68 72e3 d9bf
00000150: 148d c1b9 627a 73bf def1 83e2 deb6 80bf
00000160: dbae ebb4 3b4a d93f c753 01a2 5034 95bf
00000170: c389 ba24 f042 d1bf dbb3 fe74 a4e8 b93f
00000180: 2146 a2c1 1bbf c13f 3e91 0b12 d3fd d3bf
00000190: 683e 4848 5027 efbf 1b1b 7abe 4784 c53f
000001a0: 9791 cd20 c99f a53f 1ed3 f4ec 2c51 f03f
000001b0: 4093 89c1 79f5 acbf d72c 1ba9 e981 e1bf
000001c0: e1e3 dd02 ce23 c83f c949 3233 7f10 c1bf
000001d0: 9bd5 51aa 3ef3 de3f a6aa 214e 7bb0 c8bf
000001e0: 8664 ae34 c79e c53f d1a6 3c3b 3a29 c1bf
000001f0: 98ad 54b0 9511 d3bf ba8b 5460 c2e0 cbbf
00000200: 2aeb 45ab 11da c03f 0ff4 8879 9317 cf3f
00000210: 80bb 8cef f996 bc3f d6a9 6490 f6f5 a53f
00000220: 83eb 72a9 fba6 dabf 2df8 e51a 0fdb bb3f
00000230: b14d c9fc 6fe4 b0bf dbff 704e f432 e8bf
00000240: 9f58 d798 35ad b8bf 2fc4 0ba7 3f46 b7bf
00000250: aee4 151d 6f1f c8bf e63e cdfb 793b bebf
00000260: 0054 c209 5015 aa3f 95b4 7b31 5bf2 e0bf
00000270: ae20 e99e b564 c2bf 17d3 e1dd a348 ac3f
00000280: fcef f38f 308e e6bf ba5e e0c1 afa4 93bf
00000290: 57a7 4d3f 63a3 b7bf 6a31 250c 60a0 d5bf
000002a0: a932 2545 0740 ddbf 6c44 9b12 d51f c9bf
000002b0: c54b 1384 bf03 e4bf e528 80a9 ba79 cbbf
000002c0: b6e1 1282 43e5 b0bf c9a1 3333 7a38 e0bf
000002d0: 751e db59 90a9 d7bf f662 6ba9 7de5 aebf
000002e0: ac9b 14b9 7859 b4bf 1454 2741 c928 c2bf
000002f0: 0170 5f2c 70fa b5bf da53 c55a 3f56 e4bf
00000300: e5f6 70d5 f269 d3bf 0b20 553f 93a2 adbf
00000310: 325f f524 5734 e4bf 67f4 a510 218b c6bf
00000320: c6b2 4e09 6de8 c0bf 368c ee97 0ae5 d7bf
00000330: 4ec7 8770 193b eb3f ae0b 2c2a 1ab9 d13f
00000340: 9c33 babd b16f b7bf 3f7e 758d 5efd dfbf
00000350: 5989 b4ad 9e31 9b3f 9140 4dc8 3313 ab3f
00000360: 3bce 19f0 4c23 e13f 72d3 959f 3488 a73f
00000370: 3af5 a5db 3bc0 d1bf 80bb 8cef f996 bc3f
00000380: d4a9 6490 f6f5 a5bf 84eb 72a9 fba6 da3f
00000390: 2df8 e51a 0fdb bb3f b04d c9fc 6fe4 b03f
000003a0: dbff 704e f432 e83f 9f58 d798 35ad b8bf
000003b0: 2fc4 0ba7 3f46 b73f afe4 151d 6f1f c83f
000003c0: e53e cdfb 793b bebf 0154 c209 5015 aabf
000003d0: 95b4 7b31 5bf2 e03f af20 e99e b564 c2bf
000003e0: 18d3 e1dd a348 acbf fcef f38f 308e e63f
000003f0: bb5e e0c1 afa4 93bf 57a7 4d3f 63a3 b73f
00000400: 6a31 250c 60a0 d53f a932 2545 0740 ddbf
00000410: 6d44 9b12 d51f c93f c54b 1384 bf03 e43f
00000420: e728 80a9 ba79 cbbf b6e1 1282 43e5 b03f
00000430: c9a1 3333 7a38 e03f 751e db59 90a9 d7bf
00000440: f462 6ba9 7de5 ae3f ad9b 14b9 7859 b43f
00000450: 1654 2741 c928 c2bf 0170 5f2c 70fa b53f
00000460: da53 c55a 3f56 e43f e5f6 70d5 f269 d3bf
00000470: 0c20 553f 93a2 ad3f 325f f524 5734 e43f
00000480: 68f4 a510 218b c6bf c6b2 4e09 6de8 c03f
00000490: 368c ee97 0ae5 d73f 4ec7 8770 193b eb3f
000004a0: ae0b 2c2a 1ab9 d1bf 9d33 babd b16f b73f
000004b0: 3f7e 758d 5efd dfbf 5989 b4ad 9e31 9bbf
000004c0: 9040 4dc8 3313 abbf 3ace 19f0 4c23 e13f
000004d0: 74d3 959f 3488 a7bf 3cf5 a5db 3bc0 d13f
000004e0: 7b36 fb0c e996 e43f 8380 b19d 62f4 f9bf
000004f0: 5889 03fb af3a fabf 462c 4493 7942 b7bf
00000500: 717a a4a2 33ff 823f 685c 668a ce8b a5bf
00000510: 3b09 af00 034a c0bf 3a83 ffc2 e7e4 a3bf
00000520: 7083 0b8f 0898 acbf d325 0d85 115d b43f
00000530: 9b60 9002 25b0 973f 2fa2 b652 4ff0 acbf
00000540: 0548 acf5 f496 ea3f 0f5a 4303 3986 a33f
00000550: dc56 7e39 e4e7 cdbf a79e 326d 6835 d53f
00000560: cbd7 5499 6bfb adbf 8705 262e 9772 b63f
00000570: fab3 26f2 e933 cc3f edab 8cf5 b9c8 b1bf
00000580: 0333 48bd f4f0 b13f c7cc e850 56db d1bf
00000590: f712 572b d0b2 d23f cf14 8437 3150 b93f
000005a0: 1a2c 0df7 be15 d1bf d75e 1c4b d361 cbbf
000005b0: d573 2afe ecb5 b9bf 1dbf 4189 aaf1 b5bf
000005c0: 2cb7 5cb7 1815 99bf ac12 029b 6bbd 87bf
000005d0: 0000 0000 0000 0000 0000 0000 0000 0000
000005e0: 0000 0000 0000 0000 0000 0000 0000 0000
000005f0: 0000 0000 0000 0000 0000 0000 0000 0000
00000600: a945 b6b9 6346 bd3f ea63 b091 8469 d7bf
00000610: cdb1 de0c b67c ba3f c27f 8f0d 96f1 b63f
00000620: 447d 0909 6de2 ba3f bc4b e471 286a dabf
00000630: 51c3 b294 4afe 713f 002a 67aa ac94 8dbf
00000640: e434 4c9a bc97 d93f adcb 9a04 a734 9fbf
00000650: 06bd 737b 7a05 d1bf 600c 8e6c 7ddc ba3f
00000660: 6987 93f1 da90 c33f de9c 07b7 bdc6 d2bf
00000670: 3878 ab7a bbc5 eebf aa80 f550 d19e c63f
00000680: 1e95 0167 c872 ab3f e6ee b4fe 7c28 f03f
00000690: 0e59 7bc4 748d 9abf 377e 0f1e ce69 e1bf
000006a0: 9308 44d1 0f7a c53f 8440 398c f889 c1bf
000006b0: b050 3505 ecd9 df3f 2582 d490 0e0a c8bf
000006c0: 3ae8 37cd dbd8 c03f efd9 28e5 221b c2bf
000006d0: 9905 a048 ef46 d1bf c29b 5870 4728 c9bf
000006e0: c8de 46a3 2d79 c13f b0b0 9280 7840 cc3f
000006f0: 80bb 8cef f996 bc3f d6a9 6490 f6f5 a53f
00000700: 83eb 72a9 fba6 dabf 2df8 e51a 0fdb bb3f
00000710: b14d c9fc 6fe4 b0bf dbff 704e f432 e8bf
00000720: 9f58 d798 35ad b8bf 2fc4 0ba7 3f46 b7bf
00000730: aee4 151d 6f1f c8bf e63e cdfb 793b bebf
00000740: 0054 c209 5015 aa3f 95b4 7b31 5bf2 e0bf
00000750: ae20 e99e b564 c2bf 17d3 e1dd a348 ac3f
00000760: fcef f38f 308e e6bf ba5e e0c1 afa4 93bf
00000770: 57a7 4d3f 63a3 b7bf 6a31 250c 60a0 d5bf
00000780: a932 2545 0740 ddbf 6c44 9b12 d51f c9bf
00000790: c54b 1384 bf03 e4bf e528 80a9 ba79 cbbf
000007a0: b6e1 1282 43e5 b0bf c9a1 3333 7a38 e0bf
000007b0: 751e db59 90a9 d7bf f662 6ba9 7de5 aebf
000007c0: ac9b 14b9 7859 b4bf 1454 2741 c928 c2bf
000007d0: 0170 5f2c 70fa b5bf da53 c55a 3f56 e4bf
000007e0: e5f6 70d5 f269 d3bf 0b20 553f 93a2 adbf
000007f0: 325f f524 5734 e4bf 67f4 a510 218b c6bf
