data/amass/ACCAD/Male2Walking_c3d/B17 -  Walk to hop to walk a_poses.npz (npz, 881952 bytes, 5 tensors)

trans f8 [659, 3]
00000000: 5222 4f99 9fa8 cebf a29f 1993 fdca 08c0
00000010: 6168 1cd4 f615 ec3f 2646 0279 9a48 cfbf
00000020: 1767 2ef2 f3c8 08c0 82a4 2b4a 4121 ec3f
00000030: 5abc 9446 31d0 cfbf 982e 5d5a 2fca 08c0
00000040: 8958 19d9 ca2a ec3f af4b 29fd 192e d0bf
00000050: 7a0c f7d3 02c9 08c0 4f8c 5c04 b332 ec3f
00000060: cb12 6f4c 266b d0bf fff2 a1b0 59c7 08c0
00000070: f38d 0edd 543a ec3f 1c96 9c15 18a6 d0bf
00000080: 627b 354e 92c9 08c0 a451 ce9f a24c ec3f
00000090: 1b3e 5c00 7bdd d0bf 62ea 6cb9 1dc9 08c0
000000a0: c799 21b7 6454 ec3f 09e1 aa88 f60f d1bf
000000b0: 6f52 6425 baca 08c0 a6e2 e532 c15c ec3f
000000c0: 9629 d268 bb6c d1bf 6fc9 a8c8 92ca 08c0
000000d0: 2eb8 aea2 1d6b ec3f 3fa9 0e58 dca1 d1bf
000000e0: 0f2c 80ff 79cb 08c0 80f2 7501 f572 ec3f
000000f0: f254 47e1 b0e9 d1bf d128 e14e 20cc 08c0
00000100: e29b c183 5972 ec3f 08ff 335f e227 d2bf
00000110: 9562 8b79 53cd 08c0 7f07 5c96 0273 ec3f
00000120: d518 634b 6463 d2bf 575b e85a 01ce 08c0
00000130: 7435 010c c273 ec3f 45a6 30ad 0ca0 d2bf
00000140: c2a6 396a f8ce 08c0 e299 e232 e175 ec3f
00000150: 5eec 2d2c c4da d2bf e2be 8796 20d0 08c0
00000160: e96a 06fb 1676 ec3f 9f83 6e4f ab10 d3bf
00000170: 3dcf 9ef5 b0d2 08c0 8300 da8f 8375 ec3f
00000180: 2ac5 1897 eb45 d3bf 1603 354d 6dd4 08c0
00000190: 8d79 4ce7 207b ec3f ddee 4b3e 147f d3bf
000001a0: 7006 14aa bad5 08c0 bd80 3446 607e ec3f
000001b0: aea0 c143 bdb2 d3bf 6cfd fb26 edd7 08c0
000001c0: b218 cf55 ed7f ec3f 2b28 b3be a3e6 d3bf
000001d0: 4e7c 5317 21da 08c0 a7ad 1f08 7981 ec3f
000001e0: c417 8f94 8324 d4bf f1cb 52cb cfdc 08c0
000001f0: 5af0 1e59 a182 ec3f c830 14cc 7a58 d4bf
00000200: fe29 9bcc 84df 08c0 78ab d64d 2d84 ec3f
00000210: 3fde d1fe 529a d4bf 5ec1 7d6d 6be1 08c0
00000220: b59e 3737 7586 ec3f 8a9a 034b f7db d4bf
00000230: 8d76 2440 6ae2 08c0 f649 7217 6184 ec3f
00000240: 4616 795f 5b17 d5bf 81c9 14d7 bbe3 08c0
00000250: d0f1 f210 3283 ec3f cb53 3152 a54f d5bf
00000260: 5447 dbd9 2ae5 08c0 fcbb 8e0d d681 ec3f
00000270: 499a 9f1b 948c d5bf 5cb3 de68 24e6 08c0
00000280: ce6e 9821 2c7f ec3f c5b7 3ab0 4dc8 d5bf
00000290: 1b1e de99 6fe6 08c0 b639 1a31 d17a ec3f
000002a0: ba20 76a5 2fed d5bf e414 fa97 9ce6 08c0
000002b0: 7332 b1c0 e479 ec3f 1623 a637 742d d6bf
000002c0: 96d1 e00a bce7 08c0 c2e7 20af 4b78 ec3f
000002d0: cf83 48df 2e69 d6bf 6fea 61b6 0de9 08c0
000002e0: c11b a768 6876 ec3f 5ee6 aa76 a39f d6bf
000002f0: bffb 1888 e8ea 08c0 c2e2 0f75 9873 ec3f
00000300: ddd6 56cf 1af5 d6bf a1b6 c57f baea 08c0
00000310: 6c11 853b 7774 ec3f ec50 c32a ab38 d7bf
00000320: 30a2 76f2 a0ec 08c0 ee72 25df 3c74 ec3f
00000330: ebe8 a05e 1874 d7bf cca0 d39c 8bf0 08c0
00000340: 52f7 15d2 f974 ec3f 42d4 89be 18aa d7bf
00000350: 2ce2 f56e f8f5 08c0 a365 8719 167a ec3f
00000360: 4197 4486 d1e7 d7bf bb85 30cd 72f8 08c0
00000370: 2148 9a3d 0f78 ec3f 53ac 3686 0c23 d8bf
00000380: 54ab 53cc 5dfa 08c0 9b87 7c84 e772 ec3f
00000390: 2ac6 4e71 895e d8bf 1569 7c9c 0efd 08c0
000003a0: a900 7eec c372 ec3f f565 4445 32ac d8bf
000003b0: e699 fa59 d9fe 08c0 d62c e38e 9a6e ec3f
000003c0: e513 b169 29e6 d8bf 3672 8471 8c01 09c0
000003d0: b206 58cc 9a6f ec3f 593b 7421 641e d9bf
000003e0: e0f0 c129 f703 09c0 83eb 9634 d66d ec3f
000003f0: cdd8 04db bb4b d9bf aa92 9b58 4907 09c0
00000400: b16a b5ee 1c6d ec3f 3aec db82 c87a d9bf
00000410: a3cd d9e7 6c0a 09c0 24ac 3383 c06e ec3f
00000420: d90c 4482 e1ac d9bf fdc9 d957 320d 09c0
00000430: 4bce 29e3 cd70 ec3f 77c5 4210 abda d9bf
00000440: 9a94 bc4e cb0f 09c0 1a9b 205a e371 ec3f
00000450: 1a59 9f44 830b dabf 0cd5 a7c7 a211 09c0
00000460: c97a 3d0b 8670 ec3f b57e 2f3c ac76 dabf
00000470: bded a0c1 5315 09c0 8928 2f41 d570 ec3f
00000480: 43ed f6e5 d3a7 dabf e904 9618 6616 09c0
00000490: 6c98 902e 5a74 ec3f 6630 454a fcd9 dabf
000004a0: 25cf 5635 9b17 09c0 dbee 362f db6e ec3f
000004b0: 3ce8 b80d 56fa dabf 284d b9ef 7218 09c0
000004c0: 7dab 6b60 6b71 ec3f 4959 e30e 821b dbbf
000004d0: 7b36 a4f7 6d19 09c0 b051 34d8 5d73 ec3f
000004e0: 1dc0 7634 6546 dbbf c6f3 a027 901a 09c0
000004f0: dd6d 573e 5a73 ec3f c7e3 7f24 6972 dbbf
00000500: 0238 8051 601b 09c0 b013 2b1d 4b73 ec3f
00000510: 1b4b f352 1f9c dbbf a973 2a7d 001c 09c0
00000520: b60a 1128 9a75 ec3f 4e87 e748 bac7 dbbf
00000530: 523e c270 dd1c 09c0 eeb0 a2bf 5f77 ec3f
00000540: bbca 81ef 27f0 dbbf 9368 138f 4c1d 09c0
00000550: 120a 9827 cd78 ec3f f632 1b2e e50f dcbf
00000560: ec20 230f f11d 09c0 c51a c294 257a ec3f
00000570: 32c0 770d 0131 dcbf 7bc3 1c8f e11e 09c0
00000580: b16a d04e ef7c ec3f e0f8 7c9f c355 dcbf
00000590: 9864 0324 f91e 09c0 79e2 284d ab7e ec3f
000005a0: 4eac d16e 5771 dcbf 9ec8 aeb9 3720 09c0
000005b0: 5840 5d53 7780 ec3f ad1c 11d2 4885 dcbf
000005c0: f6b5 6b9d 9522 09c0 e6c2 8418 3a83 ec3f
000005d0: 6f80 eb30 d89a dcbf 7298 59b1 6824 09c0
000005e0: cd01 5aa5 7a83 ec3f 7bd2 8875 aabc dcbf
000005f0: 2138 d77a 0126 09c0 e79e 17a2 1881 ec3f
00000600: e4b3 92bf 51d3 dcbf 23ac f6ba b626 09c0
00000610: 61c1 d4e1 4b81 ec3f 8fe8 f280 c0ef dcbf
00000620: 1954 c756 5924 09c0 0f48 09fc cd84 ec3f
00000630: 9df0 079f 2507 ddbf d851 b16c 6124 09c0
00000640: b86f 4c93 6089 ec3f 5ae2 dc4f 681d ddbf
00000650: e5d2 12d3 9724 09c0 005a c2e7 da88 ec3f
00000660: e542 0051 092c ddbf 14fe f2c5 0325 09c0
00000670: 97b4 d6b1 2c88 ec3f 16af ad23 1f3c ddbf
00000680: 4de7 439e d725 09c0 719c 0276 c487 ec3f
00000690: 08ac ffef 9438 ddbf 07b8 e8f0 4225 09c0
000006a0: 0308 0b8f 2084 ec3f c0a2 faaf b949 ddbf
000006b0: dedb c72c 9124 09c0 a43b 7d9f db7c ec3f
000006c0: 921e a272 5a5f ddbf 945c 6db1 3d24 09c0
000006d0: 2aa6 a5f0 0678 ec3f 92a7 c00c 6176 ddbf
000006e0: a3ac fed8 2225 09c0 ac16 3877 b774 ec3f
000006f0: 9b65 921a 4184 ddbf d6cc 525c 8625 09c0
00000700: e995 d071 5171 ec3f 03d0 61ff c092 ddbf
00000710: 8767 128e 6a26 09c0 0d1e 38eb dc6e ec3f
00000720: 2ae8 cc3c 1fa0 ddbf 6c42 f1b5 b726 09c0
00000730: f3fa 858d 626b ec3f ec6c aba7 b1aa ddbf
00000740: 4fa8 5d8a 2227 09c0 acda 879b c666 ec3f
00000750: 235f a812 d6cd ddbf 86e3 0d01 ef20 09c0
00000760: fc87 afb1 105f ec3f 862b 81c2 9be2 ddbf
00000770: e59c 1b1d 5223 09c0 a115 4e40 4a5b ec3f
00000780: 9975 2705 7afb ddbf 87eb ab72 ce1f 09c0
00000790: d8e5 f7c9 dd55 ec3f d8d6 0312 4c04 debf
000007a0: 5049 e210 0d21 09c0 0c21 af73 5c51 ec3f
000007b0: 1ed4 5c9d fb03 debf 263b 5630 8d27 09c0
000007c0: 8fe4 86d0 704d ec3f 56be 8944 c21c debf
000007d0: a39a 20e0 b520 09c0 c1ca 5310 7845 ec3f
000007e0: bf8a ac54 c725 debf 4099 ec41 ad23 09c0
000007f0: c453 2e8b 7742 ec3f 32ba f289 c532 debf
-0.23952097879215956 -3.099116467685193 0.877681173590883 -0.244403180204743 -3.098121540108774 0.879059452881066 -0.24854103037202685 -3.0987231311499492
0.8802236786093697 -0.2528138134268216 -3.098149925209836 0.8811888776002749 -0.25653989280935424 -3.0973390387938475 0.8821205441967649 -0.2601375781108304
-3.098423586852207 0.8843548890313753 -0.2635180953520561 -3.098201225887622 0.8853019310743598 -0.26659930559573347 -3.09898785793694 0.8863225931264267
-0.2722614787714063 -3.098912780428854 0.8880756547348534 -0.27550419425337574 -3.0993537865629217 0.8890328434495842 -0.2798883628832548 -3.0996709978545387
0.8889586995472849 -0.2836843423574327 -3.1002568717634156 0.8890393196781899 -0.28731639253636604 -3.1005885221633593 0.8891306147067284 -0.29101864731874044
-3.1010597514003573 0.8893896097040932 -0.2946024352492652 -3.1016246566940575 0.8894152548631072 -0.2978924060535579 -3.1028765858735867 0.8893449601746543
-0.301142594867161 -3.1037241012385364 0.8900303380540194 -0.3046312912335745 -3.104359940277213 0.8904267665093567 -0.307784382026976 -3.1054328008319114
0.8906160999256569 -0.31095212576895176 -3.1065084287979863 0.890804782740294 -0.31472863681517205 -3.107818211044553 0.8909460774079989 -0.3179003708799084
-3.1091400132038407 0.891134883907724 -0.32191920170541616 -3.110068183326958 0.8914133146726814 -0.32592565847009125 -3.110554219353452 0.8911595781267454
-0.3295505936006048 -3.1111981204241492 0.891015084365387 -0.3329861929572046 -3.1118981380504156 0.8908491387172712 -0.3367052335510477 -3.1123741333926045
0.8905239730988457 -0.34035055360697825 -3.1125175496015465 0.8899923285514919 -0.34260169180243916 -3.1126033662027215 0.8898795856017173 -0.34652429041357047
-3.11315163134186 0.889684526489184 -0.3501698666096304 -3.1137956856376188 0.8894540828704224 -0.35349356258993747 -3.114701331388886 0.8891107832306135
-0.35871000526399915 -3.114613531323656 0.8892170107360875 -0.36283377815313034 -3.115541357274445 0.8891891821218374 -0.366460888300607 -3.1174537899097228
0.8892792800176983 -0.3697568760611071 -3.1201027554309544 0.8899031160937522 -0.37352407562353923 -3.1213127165253503 0.8896557048012746 -0.37713921648782395
-3.122249218276389 0.8890264117837775 -0.3807700735588663 -3.123563025042254 0.8890094393718943 -0.3855100323140442 -3.1244380025484473 0.8885014334458912
-0.38904795953231847 -3.125756155828891 0.8886236182299483 -0.39247992770190404 -3.1269362699805328 0.8884078051699905 -0.3952474249703187 -3.1285578653790553
0.8883194601324559 -0.39811909465032935 -3.130090533575371 0.8885195314918559 -0.4011768123747977 -3.131443678220647 0.888770049742058 -0.4039714487836003
-3.1327119971561617 0.8889023552227144 -0.4069526834622522 -3.1336112592786147 0.888735792115619 -0.41349321248524556 -3.1354136588322192 0.888773562729754
-0.4164933915851245 -3.135936920240614 0.8892031583279851 -0.41955477955776244 -3.1365265051953366 0.8885322496566589 -0.42152930584018455 -3.1369379738258836
0.8888451464857635 -0.42355395749963926 -3.137416777323606 0.8890828345052366 -0.42617159007477473 -3.137970265960095 0.8890811174018683 -0.42885807575617857
-3.138367306447436 0.8890739030545003 -0.43140395260449943 -3.1386728075580845 0.889355734114665 -0.43406540984698416 -3.1390942391661065 0.8895720236664866
-0.43653295888286053 -3.1393061807439806 0.8897462628668242 -0.4384701681381523 -3.1396199400515936 0.8899104981836322 -0.4404909736176733 -3.140078657212539
0.8902508296335637 -0.44273462843911027 -3.1401236356292195 0.8904625422502043 -0.4444178182809012 -3.140731287619089 0.8906818988998664 -0.44563503755893913
-3.141886930322239 0.8910189131621251 -0.4469509580358197 -3.14277781061815 0.8910496930621378 -0.4490152499959447 -3.1435575100831703 0.8907588163246744
-0.4503979082899703 -3.143903217938275 0.890783253742523 -0.4521332988039228 -3.1427485255794747 0.8912115023215409 -0.4535612156903513 -3.14276394764077
0.8917696835446725 -0.45491988944153194 -3.1428677072639055 0.8917059446856115 -0.4558127680802911 -3.1430736031322883 0.89162287458534 -0.4567945335791007
-3.1434776653740415 0.8915731720816337 -0.45657847821593167 -3.143194086172119 0.8911288064775821 -0.45762483773664187 -3.1428550241939623 0.890241443159415
-0.45894490427642964 -3.1426957952022097 0.8896517467630407 -0.460350286916417 -3.143132872840924 0.8892476395128219 -0.46119716257961735 -3.143322678830013
0.8888327811188762 -0.462082147022784 -3.1437579249731615 0.8885330766797225 -0.46289807260075355 -3.143905087876467 0.8881085170868047 -0.4635433328055132
-3.1441088495094287 0.8875458753307917 -0.4656882459835165 -3.141080864178039 0.8866046400473802 -0.466956081338758 -3.142246463208368 0.886143804164636
-0.4684739160855656 -3.140530486938079 0.885481733769832 -0.4690122772147851 -3.1411382025773165 0.8849317798094787 -0.4689930950874571 -3.144312265044749
0.8844532082358841 -0.4705053014103887 -3.1409718999814955 0.8834801024334739 -0.47105582493729153 -3.142420306237142 0.8831136434915767 -0.4718488547468126

mocap_framerate f8 []
00000000: 0000 0000 0000 5e40
120.0

betas f8 [16]
00000000: e01b 2de2 eb0d babf f9f4 c004 aee8 e8bf
00000010: 89c1 e0e5 f41f e93f cd4c d0b7 bbfa f03f
00000020: 9b4d f3ce 4592 e73f e5c7 22b4 317e e2bf
00000030: 02ec f27f f3b0 e03f 8e26 f10e 9ce3 d3bf
00000040: 8328 e612 a659 c93f c920 725a a5fd b03f
00000050: 2308 8452 b515 c1bf b9fd 94d5 6b35 a5bf
00000060: 68e5 eefd 862a f0bf 242b eba8 4aa8 d7bf
00000070: e687 abaa aecb df3f 1528 5832 51a2 c33f
-0.10177492401008648 -0.7784032910200543 0.7851509561351558 1.0612141781064566 0.7366055528640801 -0.5779045599249427 0.5216004847528668 -0.3107671876829067
0.19804836199574902 0.06637032945775724 -0.13347498444642367 -0.04142319662286859 -1.01038264458324 -0.36964670654258414 0.49680678050037697 0.15339102705212385

dmpls f8 [659, 8]
00000000: 904f 8d72 2ed2 aabf a102 2239 ac0d ec3f
00000010: 14b2 9324 add6 e2bf e856 8198 b41b 9f3f
00000020: 5d87 26e4 5dcb 00c0 ca5c cecf 11fb f63f
00000030: 43db 961f 28b7 f7bf f94c e7d9 ffa1 13c0
00000040: a00e e90f 0b2e 9abf d80f a9b1 1a7b ee3f
00000050: f112 9a0e a9b3 e9bf 331e c876 694f b33f
00000060: b408 fa74 7029 00c0 76e0 aef4 e09a f83f
00000070: bac7 710a 49ab f8bf bbc8 e140 c56c 13c0
00000080: 4b27 b6dc a26d 93bf 35c1 f358 19b4 ef3f
00000090: f2ee 446f 6338 f0bf 0c53 e1dd d06b c03f
000000a0: 4eed 2769 551c ffbf 0f2a 75c7 a61d fa3f
000000b0: 5bec a754 03b8 f9bf 3c96 0a75 7c20 13c0
000000c0: 42d3 de53 8f94 91bf a37c ad05 fa6a f03f
000000d0: 7412 1e7e 45e6 f2bf caf2 7502 7741 c43f
000000e0: 676c f3a2 d412 febf 9e7b 1936 9b20 fb3f
000000f0: 6397 2575 c4a5 fabf bf13 bd7a dfb3 12c0
00000100: 73f2 3056 5b08 90bf 480c 0fdf 4951 f13f
00000110: b154 105f 5090 f4bf 2715 f320 90ee c43f
00000120: 2c31 6cc9 2d35 fdbf 0e16 ee45 8b78 fb3f
00000130: 0dfc 947d 58a5 fbbf 870e 3c04 6635 12c0
00000140: 9677 d0c4 6b3e bebf 6f97 e979 6a1f f33f
00000150: 985c 23ca f823 f2bf c9d4 6e8d c16f c33f
00000160: 9d26 aa3f 83f2 f9bf 4af7 910a a3fc fb3f
00000170: 6d0e 9416 2be5 f8bf 0b03 d1ff 80a9 11c0
00000180: 4d9d caf8 1907 cdbf 3d0b a35f a5ec f43f
00000190: 8160 f5ab 5187 f1bf dad3 60fe 4e31 cc3f
000001a0: 64eb 9c49 8f5e f5bf 8c2a 154e 7884 fc3f
000001b0: 1a39 a4db ff63 f7bf 6b71 6ba8 a509 11c0
000001c0: e621 979b 80af d3bf a642 d135 4c6b f63f
000001d0: fc2d f2e5 5b38 f1bf 3794 969a d58c d33f
000001e0: e14c be80 332f f1bf 8fed afa3 c1bf fc3f
000001f0: 4768 ae09 878b f6bf 607c 699e cc7e 10c0
00000200: 7338 5be4 11fa d8bf 01d9 b249 096e f73f
00000210: 4144 2bcc 4b9f f0bf aa75 a14b 0332 d93f
00000220: 15d6 3cf9 55bf ebbf 8a0e eafb 9ad6 fc3f
00000230: 85b8 e63e 7fa2 f4bf a207 2a37 d0f9 0fc0
00000240: c527 5de2 f8b5 dfbf 4d24 37d7 def7 f73f
00000250: 7f51 9a6b 8e5d f1bf d767 50cd 73aa e13f
00000260: d6a2 586f 52b1 e5bf ae92 934a ca3a fc3f
00000270: 1e5b 4f0b bd1a f4bf 6b7f d91c b320 0fc0
00000280: 093b 5cd3 c33a e0bf 4521 d97b f228 f83f
00000290: 6a68 58bc 3a72 f1bf 3eb6 a868 46e3 e13f
000002a0: 1d59 3724 e066 e5bf cf13 6653 f608 fc3f
000002b0: 2952 a297 ec12 f4bf 8a90 f81b 39fb 0ec0
000002c0: ab62 3500 913c e0bf 153b 5cdc ec2b f83f
000002d0: d5cb 85ab ad72 f1bf 9c01 1477 01e3 e13f
000002e0: 686d 34fd da5f e5bf a8fb 9d30 f705 fc3f
000002f0: 679c d9d6 a812 f4bf a86a 8764 88f8 0ec0
00000300: 9d21 7a28 163f e0bf 6403 4081 822f f83f
00000310: 33a0 4da0 d373 f1bf b42f 37a4 28e3 e13f
00000320: ca2d 348f 325a e5bf eedf ff0f 1003 fc3f
00000330: 1534 631a 8012 f4bf 6db0 a1d5 e8f5 0ec0
00000340: faca 748e a229 e0bf 85ff 9e99 2c62 f83f
00000350: 590a b1f4 cb7c f1bf 24b7 b945 31c0 e13f
00000360: 7653 6822 a8d5 e4bf 750f 26b0 bcec fb3f
00000370: 3330 6202 610f f4bf 685c eadb 58d2 0ec0
00000380: fedd 5aa8 fa26 e0bf dc58 b639 5067 f83f
00000390: fb19 90ab 277d f1bf f659 fd6b a8c2 e13f
000003a0: 9982 8182 13c6 e4bf 18da e5cb 3eeb fb3f
000003b0: c761 97d4 6f0e f4bf 6c84 d436 84cf 0ec0
000003c0: db49 48b5 8a2c e0bf f8b6 1582 ea74 f83f
000003d0: b5d0 3796 d885 f1bf 1714 c9e9 d7c6 e13f
000003e0: 61e8 f244 e1ae e4bf f233 da2a bee5 fb3f
000003f0: 94bb 8d20 c80d f4bf 32d8 350e 61c7 0ec0
00000400: 17ee b23c 0bc0 e7bf 9f71 812e 8c63 fb3f
00000410: 463c 58a8 b190 f1bf fe3c 04e0 7f5b e53f
00000420: a6bb 882b ade8 dcbf 582f 3192 6c76 fb3f
00000430: 821d e7c4 fe92 f2bf 8930 befd 85d4 0dc0
00000440: 116c 00d3 0821 eabf c5ea 31f9 ed9a fc3f
00000450: cb54 474c c7c1 f0bf 82c8 7e0b dedf e73f
00000460: 27d2 e16f 3abe cfbf a5b0 60db 731b fb3f
00000470: a2fd 2b96 7705 f2bf 2478 e953 d37b 0dc0
00000480: 50fb 1411 ac52 eabf 37da 5307 ccd1 fc3f
00000490: a462 3dbe d841 f0bf e6cd 2e2c 49d9 e93f
000004a0: b409 e613 182c abbf 3c7e 6c7b 7dd7 fa3f
000004b0: 7337 e848 4f3e f2bf 939a af72 e86d 0dc0
000004c0: bf3a b8d3 cd60 e9bf fcb9 1838 3ad7 fc3f
000004d0: cc57 3d96 8bf0 efbf 30a9 5b86 d70c eb3f
000004e0: 628d cf9a 4446 c13f d1eb ada1 f6b9 fa3f
000004f0: 93da d1d3 1771 f2bf c038 44f4 9a73 0dc0
00000500: 993f 35c2 87ab e7bf b43e d8f7 44b9 fc3f
00000510: 7b4c 5c80 023e efbf 34b3 b7e9 0996 eb3f
00000520: 9e0e 85e6 600a d33f da3a e2fc 4454 fa3f
00000530: 563b 0e66 d3a2 f2bf 1c47 0b7c 3872 0dc0
00000540: c748 7688 adb4 e5bf 4fb3 866e 4058 fc3f
00000550: 2fc7 d0c7 1ad9 edbf e8ba fad9 2c9a eb3f
00000560: de1a b9fa f156 dd3f 5d29 1284 6102 fa3f
00000570: d219 2c04 e7d1 f2bf d477 f954 7aa3 0dc0
00000580: 50dd 14ed 6683 d8bf 6e71 aa38 3544 fa3f
00000590: 83a3 77d9 0871 eabf 8e70 363a 80a4 e73f
000005a0: 7453 b140 5560 e33f 5e29 d139 0f23 fa3f
000005b0: f0a9 1da5 8818 f4bf 64cc 2ea4 2d5c 0ec0
000005c0: c40d 8e9a 620a d4bf 918e 9704 39af f83f
000005d0: f375 0cf1 5303 edbf c2c6 5d18 9427 e63f
000005e0: ea19 91a4 53f3 e43f 5770 c6b1 b79c f93f
000005f0: 889a 817e 8bef f4bf ec12 dc7a df53 0ec0
00000600: 5a1a 177e e110 d2bf 3ab8 a343 80fa f73f
00000610: c88d 272c 91b8 efbf 46b6 7b15 eb34 e43f
00000620: 58e7 dcef d0b5 e63f f89e 0e26 a70e f93f
00000630: 289b c973 792e f5bf 05f3 0a08 af3c 0ec0
00000640: 4449 57e5 b7cd d0bf 4ed1 574e 287b f73f
00000650: 4663 243b 3bfd f0bf 3f25 dfa7 5511 e23f
00000660: f6a1 7720 8d33 e83f e815 c23d f694 f83f
00000670: 352a 5c18 4a19 f5bf d9d0 918a b038 0ec0
00000680: 8e83 d79b 65ef cfbf a004 3841 e017 f73f
00000690: 3544 c202 c6e9 f1bf c937 b50c 2278 e03f
000006a0: a6d6 e5a1 044c e93f dfde 066a 2f21 f83f
000006b0: fdf7 0cb0 a4c8 f4bf ccc9 5075 2742 0ec0
000006c0: 622f 4f77 b7a9 cfbf c259 5c82 72a3 f63f
000006d0: 3445 1cbb eab2 f2bf 9181 9a39 86da de3f
000006e0: f859 4635 6809 ea3f 74fd 3de0 2b9f f73f
000006f0: 7a2b 34c3 3495 f4bf d2f0 a739 d863 0ec0
00000700: 4f48 f802 073b cfbf c65e e0df 8da6 f63f
00000710: d83a 5daf a7a7 f4bf 92c8 3869 48e2 db3f
00000720: 6e64 40e7 702d ed3f ffcd 5c63 18e3 f73f
00000730: b1d2 f383 27c5 f4bf 6c12 2863 547a 0ec0
00000740: 1d99 5c9d 4443 d0bf 24c3 9ed1 5b96 f63f
00000750: dc56 c155 8323 f6bf 3081 7a4a 7faa d93f
00000760: a2f9 2219 eea4 ef3f 4a65 1f6f d39a f73f
00000770: 8bfd 14e6 0905 f5bf e642 2611 187b 0ec0
00000780: 09d9 3f1b c746 d0bf be6d 84f6 66a4 f63f
00000790: c4b2 3f90 857a f6bf 8394 2faf 2a16 d93f
000007a0: 22de 03c6 c90d f03f 17d6 8451 c169 f73f
000007b0: ccb3 6ee0 4827 f5bf efcd afba 1b76 0ec0
000007c0: 1639 f0ab da43 d0bf 8318 5068 cba5 f63f
000007d0: 5fe1 93ee 2b91 f6bf a21f a066 68fe d83f
000007e0: d19d d801 011f f03f c1f6 80a3 6261 f73f
000007f0: 6381 a1ad 6b31 f5bf a878 c990 5c76 0ec0
-0.05238480709399973 0.8766690364719417 -0.5887056078332216 0.03037912541215962 -2.0993001770265622 1.4362962834764397 -1.4822159990269064 -4.908202557318185
-0.025566265913097852 0.9525273771218918 -0.8031811986153042 0.0754304804796611 -2.0202340258411713 1.5378121908125002 -1.5418177040087202 -4.856221212178009
-0.018972916337168837 0.9907347428652772 -1.01376670326766 0.12829027971260876 -1.9444173915533898 1.6322391310992577 -1.6074250513909394 -4.781724766513033
-0.017168273443263667 1.0261173459801192 -1.181218617102016 0.158247829629451 -1.8795973172443838 1.6954605210555438 -1.6654705596970067 -4.675657193937638
-0.015656878600781753 1.082345839808811 -1.2852328980855356 0.16353036507477123 -1.8254831188269902 1.7169296962396206 -1.727867594294142 -4.552146974721501
-0.11813996844327188 1.1951699030118694 -1.1337821861286894 0.15184802442460058 -1.6217071997547585 1.7491789257905617 -1.5559492952314955 -4.4155311557121975
-0.22677921913166657 1.3077749000373864 -1.0955368725899748 0.22025477810680522 -1.335585868406917 1.7823412942986208 -1.461913927054019 -4.259420997197917
-0.3075868148266906 1.4011957266085715 -1.0762595159784487 0.3054708490038282 -1.0740237263715289 1.7968155283004739 -1.4090643289732883 -4.12382743376574
-0.39026305485175 1.4643643263676156 -1.0388906455375635 0.3936775435048171 -0.8671064250872315 1.802393898048566 -1.2896721322136113 -3.9969791707707865
-0.49548170190666624 1.4980152518130752 -1.085340900729619 0.5520571718254769 -0.6778957533579966 1.7643530762808655 -1.2565279428287748 -3.890966630351547
-0.5071734550600421 1.5099968755549338 -1.0903880460014315 0.5589935344812103 -0.6688080508563733 1.752188039566352 -1.2546201632695875 -3.8726675210219286
-0.5073933605263695 1.5107239349196722 -1.0904976558783706 0.5589606595749959 -0.6679511018186703 1.7514564417940424 -1.2545555489139362 -3.8713538984132647
-0.5077009954994086 1.5115990685300966 -1.0907779943318132 0.5589793402991661 -0.6672604367208177 1.7507477402668843 -1.2545166998636479 -3.8700730028122536
-0.5050823957775201 1.5239683152030647 -1.0929679449333405 0.5547109948945246 -0.6510811492940849 1.7452971344764283 -1.2537546246630995 -3.85270854767764
-0.5047581947500814 1.5252229933153592 -1.0930554105449335 0.5550119504139832 -0.6491792248671856 1.7449329342613336 -1.2535246185635616 -3.85132639728595
-0.5054372349425721 1.5285439568937687 -1.0951772563831075 0.5555228773233719 -0.6463476511628522 1.74358956088258 -1.2533646842600534 -3.8473530874425927
-0.7421928582693366 1.7118036095263063 -1.0978256774867687 0.6674193740199426 -0.45170144320848704 1.7164121351842905 -1.1608874980464354 -3.7287711929003007
-0.8165325280309635 1.7878246053866615 -1.0473092059740334 0.7460775589481872 -0.24799280608171267 1.694202286666987 -1.1263347498023468 -3.685461669504564
-0.8225918134338404 1.801219967482792 -1.0160758429757744 0.8077741492219814 -0.053070785931612546 1.67760990345404 -1.1402123306210938 -3.678666015609744
-0.793066895976004 1.8025457564614262 -0.9981134352080914 0.8453176140003844 0.1349569087898131 1.67040122180946 -1.152610614224305 -3.681447895366631
-0.7396887581944497 1.7952317887719973 -0.9763195521394573 0.8620652737423371 0.2975084544343448 1.645573604418749 -1.1647523867174718 -3.680771798223658
-0.6783054032587409 1.771545821898332 -0.9327520277640583 0.8625702149782599 0.458431715819115 1.6255812796612965 -1.176245704935003 -3.70482317339245
-0.38302014496317316 1.6416523183352996 -0.8262981650742492 0.7388306748357694 0.6055094016579532 1.6335594423749948 -1.2559896898115959 -3.795008928945707
-0.31313386052371706 1.5427789859176395 -0.9066562374097756 0.6923313594727107 0.6547029699511857 1.6007611221639502 -1.3084826413775392 -3.790953597870944
-0.28228032411099024 1.4986574785393842 -0.991280161132118 0.6314597529978492 0.7096943554708828 1.5660773741346343 -1.323846294684424 -3.7796307209340534
-0.2625560512216405 1.4675677356982137 -1.0618240652313076 0.5646160391562843 0.7562928804518936 1.536367646448861 -1.3186741782725566 -3.777680475783296
-0.24949331387963664 1.4433291003809146 -1.1195736034171777 0.5146646736336545 0.7905295526567968 1.508101858298623 -1.2989851834277026 -3.7823018231658576
-0.24736684156084282 1.4149041263786875 -1.1686808880807122 0.48208766579957635 0.8136483231090201 1.4763602027377063 -1.2864272713802323 -3.7987522606254993
-0.24398887295734759 1.415662645833366 -1.290931401268315 0.43568620944564274 0.9117970005637639 1.492943180212819 -1.2981333879844608 -3.809731268558883
-0.25410571448664304 1.4117086590087604 -1.3836701726735816 0.4010313250855857 0.9888830653142586 1.4752992954948518 -1.3137301433160669 -3.8101044978906087
-0.25431993161272765 1.4151372556287778 -1.4049125323028173 0.3919779501723683 1.0033662543263593 1.463319128449603 -1.322090985001739 -3.8076700768376592
-0.25414149084908055 1.415477187606968 -1.410442287391639 0.3905278207971553 1.0075693199267912 1.461275709806998 -1.3245655806022902 -3.8077937423214117

poses f8 [659, 156]
00000000: b927 6437 9269 e43f 15cb 43e0 bec8 f9bf
00000010: be6c 405a 4003 fabf f5cb 3774 97ed b5bf
00000020: e85e 439c e487 903f 53ef ee1c 04bb aebf
00000030: 7b8b c1f9 8daf c4bf 0bca 4cd2 da91 b9bf
00000040: e4c8 9746 01d2 b3bf ab0d 0a3c c21f b83f
00000050: a131 ec47 ebad 923f 2101 bef0 7c02 b2bf
00000060: 453a b24d 39ec ea3f 0124 39a1 75e9 a3bf
00000070: f08f b280 85fc d1bf a4a3 d8d9 dca5 d73f
00000080: b8dc 8b47 3bb7 c5bf fcea d4b1 d33d c13f
00000090: 74c2 202d 83d6 c83f 181c 0565 d574 b0bf
000000a0: c7ac 7c22 f904 b13f dec0 e9bc 292c debf
000000b0: 88a5 fafc 2659 d03f de1b 5dd4 5ee5 c03f
000000c0: 6e2f 2999 7c01 d1bf 8310 4633 1f33 d1bf
000000d0: 2668 4223 33ed b7bf f510 7175 ef2f b0bf
000000e0: 0281 2965 2b15 9abf f4d3 f4a4 6cac 89bf
000000f0: 0000 0000 0000 0000 0000 0000 0000 0000
00000100: 0000 0000 0000 0000 0000 0000 0000 0000
00000110: 0000 0000 0000 0000 0000 0000 0000 0000
00000120: f699 783f 3bd1 b93f 1e27 a230 93a2 d7bf
00000130: 3026 6c3b 5361 bc3f 6dc9 2bbc 1a35 b63f
00000140: f5a4 e7d2 7a12 be3f 13c2 7b68 72e3 d9bf
00000150: fe34 c1b9 627a 73bf b430 84e2 deb6 80bf
00000160: 87ae ebb4 3b4a d93f 4c2e 01a2 5034 95bf
00000170: 5e8b ba24 f042 d1bf bcb5 fe74 a4e8 b93f
00000180: 4253 a2c1 1bbf c13f a790 0b12 d3fd d3bf
00000190: 5e3e 4848 5027 efbf 6b16 7abe 4784 c53f
000001a0: 5ea6 cd20 c99f a53f 44d3 f4ec 2c51 f03f
000001b0: f893 89c1 79f5 acbf 482d 1ba9 e981 e1bf
000001c0: a7ef dd02 ce23 c83f 2d3f 3233 7f10 c1bf
000001d0: 33d3 51aa 3ef3 de3f c6a8 214e 7bb0 c8bf
000001e0: 7869 ae34 c79e c53f e1a6 3c3b 3a29 c1bf
000001f0: 70b2 54b0 9511 d3bf 0d86 5460 c2e0 cbbf
00000200: d6ed 45ab 11da c03f 52f0 8879 9317 cf3f
00000210: 80bb 8cef f996 bc3f d6a9 6490 f6f5 a53f
00000220: 83eb 72a9 fba6 dabf 2df8 e51a 0fdb bb3f
00000230: b14d c9fc 6fe4 b0bf dbff 704e f432 e8bf
00000240: 9f58 d798 35ad b8bf 2fc4 0ba7 3f46 b7bf
00000250: aee4 151d 6f1f c8bf e63e cdfb 793b bebf
00000260: 0054 c209 5015 aa3f 95b4 7b31 5bf2 e0bf
00000270: ae20 e99e b564 c2bf 17d3 e1dd a348 ac3f
00000280: fcef f38f 308e e6bf ba5e e0c1 afa4 93bf
00000290: 57a7 4d3f 63a3 b7bf 6a31 250c 60a0 d5bf
000002a0: a932 2545 0740 ddbf 6c44 9b12 d51f c9bf
000002b0: c54b 1384 bf03 e4bf e528 80a9 ba79 cbbf
000002c0: b6e1 1282 43e5 b0bf c9a1 3333 7a38 e0bf
000002d0: 751e db59 90a9 d7bf f662 6ba9 7de5 aebf
000002e0: ac9b 14b9 7859 b4bf 1454 2741 c928 c2bf
000002f0: 0170 5f2c 70fa b5bf da53 c55a 3f56 e4bf
00000300: e5f6 70d5 f269 d3bf 0b20 553f 93a2 adbf
00000310: 325f f524 5734 e4bf 67f4 a510 218b c6bf
00000320: c6b2 4e09 6de8 c0bf 368c ee97 0ae5 d7bf
00000330: 4ec7 8770 193b eb3f ae0b 2c2a 1ab9 d13f
00000340: 9c33 babd b16f b7bf 3f7e 758d 5efd dfbf
00000350: 5989 b4ad 9e31 9b3f 9140 4dc8 3313 ab3f
00000360: 3bce 19f0 4c23 e13f 72d3 959f 3488 a73f
00000370: 3af5 a5db 3bc0 d1bf 80bb 8cef f996 bc3f
00000380: d4a9 6490 f6f5 a5bf 84eb 72a9 fba6 da3f
00000390: 2df8 e51a 0fdb bb3f b04d c9fc 6fe4 b03f
000003a0: dbff 704e f432 e83f 9f58 d798 35ad b8bf
000003b0: 2fc4 0ba7 3f46 b73f afe4 151d 6f1f c83f
000003c0: e53e cdfb 793b bebf 0154 c209 5015 aabf
000003d0: 95b4 7b31 5bf2 e03f af20 e99e b564 c2bf
000003e0: 18d3 e1dd a348 acbf fcef f38f 308e e63f
000003f0: bb5e e0c1 afa4 93bf 57a7 4d3f 63a3 b73f
00000400: 6a31 250c 60a0 d53f a932 2545 0740 ddbf
00000410: 6d44 9b12 d51f c93f c54b 1384 bf03 e43f
00000420: e728 80a9 ba79 cbbf b6e1 1282 43e5 b03f
00000430: c9a1 3333 7a38 e03f 751e db59 90a9 d7bf
00000440: f462 6ba9 7de5 ae3f ad9b 14b9 7859 b43f
00000450: 1654 2741 c928 c2bf 0170 5f2c 70fa b53f
00000460: da53 c55a 3f56 e43f e5f6 70d5 f269 d3bf
00000470: 0c20 553f 93a2 ad3f 325f f524 5734 e43f
00000480: 68f4 a510 218b c6bf c6b2 4e09 6de8 c03f
00000490: 368c ee97 0ae5 d73f 4ec7 8770 193b eb3f
000004a0: ae0b 2c2a 1ab9 d1bf 9d33 babd b16f b73f
000004b0: 3f7e 758d 5efd dfbf 5989 b4ad 9e31 9bbf
000004c0: 9040 4dc8 3313 abbf 3ace 19f0 4c23 e13f
000004d0: 74d3 959f 3488 a7bf 3cf5 a5db 3bc0 d13f
000004e0: c136 fb0c e996 e43f 7380 b19d 62f4 f9bf
000004f0: 2f89 03fb af3a fabf 7f2e 4493 7942 b7bf
00000500: 3079 a4a2 33ff 823f d95e 668a ce8b a5bf
00000510: 240a af00 034a c0bf 9788 ffc2 e7e4 a3bf
00000520: e282 0b8f 0898 acbf 8524 0d85 115d b43f
00000530: 6660 9002 25b0 973f d1a2 b652 4ff0 acbf
00000540: 7448 acf5 f496 ea3f 115b 4303 3986 a33f
00000550: b655 7e39 e4e7 cdbf c29e 326d 6835 d53f
00000560: 3dde 5499 6bfb adbf 4504 262e 9772 b63f
00000570: b7b3 26f2 e933 cc3f 1dac 8cf5 b9c8 b1bf
00000580: 1d32 48bd f4f0 b13f 61cd e850 56db d1bf
00000590: 1212 572b d0b2 d23f 2015 8437 3150 b93f
000005a0: 312c 0df7 be15 d1bf 4d5d 1c4b d361 cbbf
000005b0: 7973 2afe ecb5 b9bf bebf 4189 aaf1 b5bf
000005c0: 9bc2 5cb7 1815 99bf 720f 029b 6bbd 87bf
000005d0: 0000 0000 0000 0000 0000 0000 0000 0000
000005e0: 0000 0000 0000 0000 0000 0000 0000 0000
000005f0: 0000 0000 0000 0000 0000 0000 0000 0000
00000600: 3644 b6b9 6346 bd3f dd63 b091 8469 d7bf
00000610: 85b2 de0c b67c ba3f 2f7f 8f0d 96f1 b63f
00000620: ab7d 0909 6de2 ba3f 524b e471 286a dabf
00000630: ead8 b294 4afe 713f 2b39 67aa ac94 8dbf
00000640: f934 4c9a bc97 d93f 59c1 9a04 a734 9fbf
00000650: 13bd 737b 7a05 d1bf 450d 8e6c 7ddc ba3f
00000660: e189 93f1 da90 c33f c09c 07b7 bdc6 d2bf
00000670: 4078 ab7a bbc5 eebf 3e81 f550 d19e c63f
00000680: 5899 0167 c872 ab3f f8ee b4fe 7c28 f03f
00000690: 2252 7bc4 748d 9abf 957e 0f1e ce69 e1bf
000006a0: da0a 44d1 0f7a c53f 453e 398c f889 c1bf
000006b0: 2350 3505 ecd9 df3f 9282 d490 0e0a c8bf
000006c0: f4e9 37cd dbd8 c03f 1cda 28e5 221b c2bf
000006d0: 5b05 a048 ef46 d1bf 209a 5870 4728 c9bf
000006e0: 9ddf 46a3 2d79 c13f a0ae 9280 7840 cc3f
000006f0: 80bb 8cef f996 bc3f d6a9 6490 f6f5 a53f
00000700: 83eb 72a9 fba6 dabf 2df8 e51a 0fdb bb3f
00000710: b14d c9fc 6fe4 b0bf dbff 704e f432 e8bf
00000720: 9f58 d798 35ad b8bf 2fc4 0ba7 3f46 b7bf
00000730: aee4 151d 6f1f c8bf e63e cdfb 793b bebf
00000740: 0054 c209 5015 aa3f 95b4 7b31 5bf2 e0bf
00000750: ae20 e99e b564 c2bf 17d3 e1dd a348 ac3f
00000760: fcef f38f 308e e6bf ba5e e0c1 afa4 93bf
00000770: 57a7 4d3f 63a3 b7bf 6a31 250c 60a0 d5bf
00000780: a932 2545 0740 ddbf 6c44 9b12 d51f c9bf
00000790: c54b 1384 bf03 e4bf e528 80a9 ba79 cbbf
000007a0: b6e1 1282 43e5 b0bf c9a1 3333 7a38 e0bf
000007b0: 751e db59 90a9 d7bf f662 6ba9 7de5 aebf
000007c0: ac9b 14b9 7859 b4bf 1454 2741 c928 c2bf
000007d0: 0170 5f2c 70fa b5bf da53 c55a 3f56 e4bf
000007e0: e5f6 70d5 f269 d3bf 0b20 553f 93a2 adbf
000007f0: 325f f524 5734 e4bf 67f4 a510 218b c6bf
0.6378871042118056 -1.6115101585716662 -1.6257937932448807 -0.08565661036827506 0.016143390691325005 -0.06002056935491731 -0.16160750098341822 -0.0998818171908981
-0.07742317174396224 0.09423459974100605 0.01824157358628187 -0.07035046460623963 0.8413359181884706 -0.03889052956635198 -0.28103768890491576 0.36949845575377993
-0.16965428346131772 0.1346993082350635 0.19404639915002841 -0.06428273884112945 0.06648213474243213 -0.47144549797577706 0.2554414244173917 0.1319998299533997
-0.26571574170224366 -0.2687452316970466 -0.09346313105416523 -0.06323143594005727 -0.025471380280920115 -0.012535904678410127 0.0 0.0
0.0 0.0 0.0 0.0 0.10084886836612114 -0.36929778813701997 0.11086006355994793 0.08674780935306155
0.11746947907490209 -0.4045072574945447 -0.0047553879231376755 -0.008161298072558366 0.3951558367541356 -0.02070737828061757 -0.26971057497774165 0.10120609146425513
0.1386446662405892 -0.3123672176573202 -0.9735490237962485 0.1680993728697787 0.04223469281607771 1.0198182350261087 -0.056560330271885506 -0.5471084883551294
0.18859267368304453 -0.13331594466989696 0.4835964835431696 -0.192885792875421 0.1689080245240111 -0.13407066242626 -0.29794828624543523 -0.21779660895940403
0.1316549383444527 0.24290698465654487 0.1116787156904433 0.04289217484104639 -0.416441836812446 0.10881132513711185 -0.06598567887822672 -0.7562200100001023
-0.09639296514009964 -0.09091565922041477 -0.1884592906970161 -0.11809503934386675 0.05094385260705536 -0.529584499976084 -0.14369840869244882 0.05524170001527844
-0.7048571406917286 -0.019182916839865817 -0.09233684821597642 -0.3379135244947721 -0.4570329833266365 -0.196283945164882 -0.6254575328442732 -0.21465237881086022
-0.06599828649166892 -0.5068942070038754 -0.36972435736649994 -0.06034462636097786 -0.07949022787634757 -0.14186969453172138 -0.08585263331718808 -0.6355282566897771
-0.3033415874850632 -0.05788097522832921 -0.6313892099233043 -0.1761208850183806 -0.13209307627166406 -0.37335457646458126 0.8509642789706306 0.2769227420650918
-0.09154806978240376 -0.49983943762160615 0.026556472160458842 0.05288087673273013 0.5355591477841196 0.04596104095518329 -0.2773580212595622 0.1116787156904433
-0.04289217484104638 0.41644183681244606 0.10881132513711185 0.0659856788782267 0.7562200100001023 -0.09639296514009964 0.09091565922041477 0.18845929069701614
-0.11809503934386674 -0.05094385260705537 0.529584499976084 -0.14369840869244885 -0.05524170001527845 0.7048571406917286 -0.01918291683986582 0.09233684821597642
0.3379135244947721 -0.4570329833266365 0.19628394516488204 0.6254575328442732 -0.21465237881086027 0.06599828649166892 0.5068942070038754 -0.36972435736649994
0.06034462636097784 0.07949022787634759 -0.14186969453172144 0.08585263331718808 0.6355282566897771 -0.3033415874850632 0.05788097522832922 0.6313892099233043
-0.17612088501838064 0.13209307627166406 0.37335457646458126 0.8509642789706306 -0.2769227420650918 0.09154806978240378 -0.49983943762160615 -0.026556472160458842
-0.05288087673273012 0.5355591477841195 -0.0459610409551833 0.2773580212595623 0.6434216741124247 -1.6221643600365752 -1.6393279843546897 -0.09085807652825827
0.009275821114496624 -0.04208226623012274 -0.12725865872751385 -0.0388557839903722 -0.05584742303995484 0.07954511164020246 0.023132875710956922 -0.056520918700078256
0.8309273527431871 0.0381334129794394 -0.23363926703738763 0.3313847605117922 -0.058558809725977025 0.08768601299927166 0.2203342850092704 -0.06946909184323187
0.0700829469789785 -0.2790122785692884 0.2921638892405848 0.09887988667840775 -0.26695226789587695 -0.2139228932144114 -0.100432216694072 -0.08571878291127086
-0.024494539443539947 -0.011591759365053387 0.0 0.0 0.0 0.0 0.0 0.0
0.11435530933364721 -0.36581529834216814 0.1034654408856089 0.08962381201808677 0.10501748533851323 -0.41272936937564453 0.004392901736699021 -0.01444373030690523
0.39988627498753676 -0.03047429051974979 -0.26595937782163154 0.10492690944925183 0.15285813136786344 -0.29338019250867475 -0.9616372486013987 0.17672172978473982
0.05361009843254533 1.0098848294718987 -0.02593023728589306 -0.5441656672591814 0.1677875301175707 -0.13702303740363866 0.49767590054148253 -0.1878069121530826
0.13161799927168227 -0.14145313443596386 -0.26995451061528336 -0.19654171929978848 0.13651056740286274 0.2207174899862041 0.1116787156904433 0.04289217484104639
-0.416441836812446 0.10881132513711185 -0.06598567887822672 -0.7562200100001023 -0.09639296514009964 -0.09091565922041477 -0.1884592906970161 -0.11809503934386675
0.05094385260705536 -0.529584499976084 -0.14369840869244882 0.05524170001527844 -0.7048571406917286 -0.019182916839865817 -0.09233684821597642 -0.3379135244947721
-0.4570329833266365 -0.196283945164882 -0.6254575328442732 -0.21465237881086022 -0.06599828649166892 -0.5068942070038754 -0.36972435736649994 -0.06034462636097786
-0.07949022787634757 -0.14186969453172138 -0.08585263331718808 -0.6355282566897771 -0.3033415874850632 -0.05788097522832921 -0.6313892099233043 -0.1761208850183806
