data/amass/ACCAD/Male2Walking_c3d/B18 -  Walk to leap to walk t2_poses.npz (npz, 757704 bytes, 5 tensors)

trans f8 [566, 3]
2.6613062594779553 -2.5656904756366945 0.8157377218637276 2.654115889574112 -2.5579063050994724 0.8157471533266216 2.6467383731182257 -2.5494944365176364
0.8158779350623823 2.6389527611578507 -2.54204140946032 0.8160200661113459 2.6316150424037206 -2.534243446833914 0.8178360769630244 2.6240200675653256
-2.5260479822677775 0.8184973658048413 2.616677999130349 -2.5186669635389998 0.8197330999175658 2.6087115802219345 -2.5096160777163914 0.8203466025226958
2.600596109010732 -2.5011261733612367 0.8208831857558828 2.592910804090626 -2.4941521177097914 0.8216924463592066 2.5859032078685735 -2.4877342787380092
0.822243847359003 2.578605152812393 -2.478233075483111 0.8232082187836582 2.5716397697479025 -2.471380799504896 0.8237958717016876 2.564709215888075
-2.4637191635443223 0.8245625219330149 2.557124516160114 -2.4537493422752283 0.8258585302504146 2.5501955082614733 -2.4478532016725305 0.826893200451366
2.543266136814942 -2.4414772086196126 0.827545821979652 2.5356886420771785 -2.4321030405128723 0.8287173997924169 2.5297440512506397 -2.4255064895879945
0.8298899591701447 2.52366075448907 -2.4201445478958705 0.8313019418520927 2.5163155542562055 -2.410529175960878 0.8330313323646407 2.5091516049586002
-2.4030213818063997 0.8350702135658825 2.5028957813601727 -2.397458016420381 0.836867880856919 2.4957582543304673 -2.3892767866671187 0.839313393629654
2.4883338072105303 -2.382311806028174 0.8412779085400042 2.4818265068102168 -2.3742661698815 0.8436800232234113 2.4750449138297066 -2.366718342957565
0.8462880650660382 2.4674333365789813 -2.358708971864934 0.8489502058950317 2.4607605204281904 -2.3511045724669697 0.8516955443538541 2.453749730858244
-2.343579054526194 0.8544545034493299 2.446631058073298 -2.3360295229699157 0.8569697036236447 2.4400667457003564 -2.3284969949812258 0.859167023904366
2.43343464448995 -2.3214939072479766 0.8608862894068037 2.424949152069151 -2.313700696366575 0.8629135608567323 2.41699232526935 -2.3063437578301715
0.8647376879657672 2.409640905121766 -2.2997167019077067 0.8664372344686109 2.402507327900879 -2.292757711954356 0.8679238650919109 2.395191337524924
-2.285236423865001 0.8690567878959067 2.3872992822677594 -2.2772141592226833 0.8698393294363869 2.3807467446732136 -2.272434323791986 0.8709231608077076
2.3737714668563634 -2.265538575984007 0.8711527490438106 2.3664943948588557 -2.2586865327976766 0.8710547659767478 2.3591754161524428 -2.252212942792577
0.8706834362400688 2.351786529201858 -2.2460207836840524 0.8701486078700258 2.344428501359628 -2.2391554914841305 0.8690202119062226 2.3370460846999497
-2.232196680931411 0.8673240703782448 2.329613728412005 -2.2253814510214713 0.8655073725474997 2.3219587251476397 -2.2186207028057328 0.8635718306738586
2.3141719026488694 -2.2117285183584583 0.8614394155426074 2.3061184746858747 -2.2044798537083348 0.8591697180149204 2.2977057726834382 -2.1973037173908643
0.8569170986329666 2.289711739215491 -2.190153782150321 0.8543164579356333 2.2818827691120283 -2.183075878024718 0.8513252350612586 2.273757457365255
-2.175690804137277 0.8481879098512616 2.2648925721111293 -2.1680390022048943 0.8458118970114521 2.255998807985536 -2.16009287009731 0.8433400520635733
2.247267930294861 -2.1519735090296557 0.8405622048523818 2.238365933665352 -2.1438820659485627 0.837941112429416 2.2291287515175604 -2.1357937373989166
0.835507149992823 2.2198858015622385 -2.127579572182731 0.8332909805614274 2.2104333572623096 -2.119317247614989 0.8313558174097313 2.2006329261892734
-2.11085556598196 0.8295388632935681 2.1904664403769085 -2.102297159484074 0.8281362336565012 2.1798716121766724 -2.093641912934346 0.8269622781748851
2.1689797233763244 -2.0850858057325037 0.8257679252464462 2.158094592038506 -2.076420984393187 0.8245785826952906 2.1465931484424265 -2.0676498450794933
0.8238794638955945 2.134966370902604 -2.0593175521119305 0.8235203207464201 2.1233488343961526 -2.0506998301166237 0.8240834909833401 2.11170425951243
-2.0420927589184936 0.825156383261366 2.0999639830934385 -2.0331699590403427 0.8266957029189002 2.0884646168980017 -2.024163701426233 0.8286270007714428
2.0770286710646984 -2.014964122483003 0.8303145081066055 2.065526000055884 -2.0062341890474404 0.8323040167961944 2.054173000944636 -1.9966820808026637
0.834028815415868 2.0430810965005195 -1.9876456823468593 0.83587752420429 2.0320671660112146 -1.9787192502954971 0.8375755636906945 2.0217645694481656
-1.9702481203034996 0.8392525921808704 2.0115682314107493 -1.9619046642559723 0.8409472709423093 2.0011794256970834 -1.9535703527304382 0.8429337916367743
1.9908584410065648 -1.9453867685180881 0.8452469083188905 1.980550189162038 -1.9371488747382966 0.8478719976654626 1.9703179936536754 -1.928819599924339
0.8505839606631225 1.9602246344055148 -1.9199163590721353 0.8533296471503806 1.950212112442536 -1.9111767022952886 0.8565475638459483 1.9398890470276624
00000000: 84c8 a8ef 5a4a 0540 7425 64ba 8886 04c0
00000010: 8a95 b0fe 851a ea3f 3a1e 8c1c a13b 0540
00000020: 5113 b594 9776 04c0 58f9 2ac6 991a ea3f
00000030: 61e3 0c2b 852c 0540 e66a d156 5d65 04c0
00000040: c5de 130b ac1b ea3f 1be5 e643 931c 0540
00000050: b6ad 75ce 1956 04c0 e27e 1a1d d61c ea3f
00000060: fa48 f62f 8c0d 0540 2408 a26d 2146 04c0
00000070: b271 8190 b62b ea3f 20ed b13b fefd 0440
00000080: 32bc ffa4 5835 04c0 60ce 3f63 2131 ea3f
00000090: a76b f3df f4ee 0440 3553 6fdd 3a26 04c0
000000a0: 5607 f3e8 403b ea3f 5dff 4d2d a4de 0440
000000b0: 2976 1a98 b113 04c0 b207 a784 4740 ea3f
000000c0: 9372 3255 05ce 0440 920c 6e70 4e02 04c0
000000d0: c70c 95d0 ac44 ea3f 4a1d 0805 48be 0440
000000e0: 6780 8606 06f4 03c0 f474 0ff5 4d4b ea3f
000000f0: 0b56 6305 eeaf 0440 0e8b c23a e1e6 03c0
00000100: f2cf 3754 d24f ea3f af02 05bd fba0 0440
00000110: 1086 d8dc 6bd3 03c0 da2c 2fc3 b857 ea3f
00000120: 1d48 21df b792 0440 d8af ee4b 63c5 03c0
00000130: e23b f128 895c ea3f a6e9 ef43 8684 0440
00000140: 589c 8f64 b2b5 03c0 e5b4 26f1 d062 ea3f
00000150: fda8 c5b2 fd74 0440 9b3a cd55 47a1 03c0
00000160: 818a 51de 6e6d ea3f ee1c 13e7 cc66 0440
00000170: 42bd 340f 3495 03c0 0226 a7ba e875 ea3f
00000180: cf27 95ea 9b58 0440 d79a e733 2588 03c0
00000190: 6702 2b60 417b ea3f 267b 7420 1749 0440
000001a0: 230a 5c70 f274 03c0 be81 375a da84 ea3f
000001b0: f3f9 fa72 ea3c 0440 2e21 48f2 6f67 03c0
000001c0: f843 3d63 758e ea3f 7cd5 b50c 7530 0440
000001d0: 9a71 a6be 745c 03c0 9d64 ab87 069a ea3f
000001e0: 7792 9f0c 6a21 0440 4772 4685 c348 03c0
000001f0: ff94 2153 31a8 ea3f 5906 a013 be12 0440
00000200: e693 3346 6339 03c0 6a22 242b e5b8 ea3f
00000210: 0ee8 3139 ee05 0440 f277 f077 fe2d 03c0
00000220: 2a4e 6b26 9fc7 ea3f 3e92 881a 50f7 0340
00000230: 329e de25 3d1d 03c0 107e 17c3 a7db ea3f
00000240: d000 1c8e 1be8 0340 2920 fe7d f90e 03c0
00000250: e2d9 00a6 bfeb ea3f 34c4 08db c7da 0340
00000260: 2d1f fd42 7ffe 02c0 ed0e 813f 6dff ea3f
00000270: e23c 0859 e4cc 0340 b8c4 ce06 0aef 02c0
00000280: 2785 4eb5 ca14 eb3f c855 6db0 4dbd 0340
00000290: 8d88 37cf a2de 02c0 550d 489f 992a eb3f
000002a0: 5537 3436 a3af 0340 09c6 01ea 0fcf 02c0
000002b0: 52c2 a403 1741 eb3f f5d6 f489 47a1 0340
000002c0: ad3e 1660 a6bf 02c0 6983 87f8 b057 eb3f
000002d0: ea6b de4d b392 0340 8f2b 1d3f 30b0 02c0
000002e0: 653e 57ba 4b6c eb3f b0b8 c6b6 4185 0340
000002f0: a83a 5208 c3a0 02c0 a111 afd7 4b7e eb3f
00000300: 414d 3895 ac77 0340 50f2 cb65 6b92 02c0
00000310: e476 5267 618c eb3f aacc b4bd 4b66 0340
00000320: d203 bd82 7582 02c0 3ff2 64e6 fc9c eb3f
00000330: 05b8 7d12 0056 0340 f3b6 295b 6473 02c0
00000340: dbcf 2d5f eeab eb3f 89d0 94cf f146 0340
00000350: 9311 c6de d165 02c0 2e8a 4294 dab9 eb3f
00000360: 82e0 0dc3 5538 0340 4af7 f35a 9157 02c0
00000370: 059b ff44 08c6 eb3f 08a8 7213 5a29 0340
00000380: 8006 c108 2a48 02c0 bb26 4c2e 50cf eb3f
00000390: 9bd5 b85d 3019 0340 e7cb 9e0e bc37 02c0
000003a0: f485 164a b9d5 eb3f 7770 03f3 c40b 0340
000003b0: a5f4 f70b f22d 02c0 0df0 9f3f 9ade eb3f
000003c0: b59b 12e5 7bfd 0240 f96b 5db0 d21f 02c0
000003d0: 51d6 deba 7be0 eb3f 53b0 009d 94ee 0240
000003e0: d340 b23e ca11 02c0 60a4 9c3e aedf eb3f
000003f0: 2837 4f5c 97df 0240 5560 2738 8804 02c0
00000400: 6a3d 7a82 a3dc eb3f 3cc3 b074 75d0 0240
00000410: 7079 a0be d9f7 01c0 28c6 aee4 41d8 eb3f
00000420: fc32 e9ba 63c1 0240 49aa b45a cae9 01c0
00000430: 2b68 b679 03cf eb3f c13f b837 45b2 0240
00000440: a4b8 f6ee 89db 01c0 7adc a968 1ec1 eb3f
00000450: cdbc be85 0ca3 0240 1419 4aca 94cd 01c0
00000460: 913a 7184 3cb2 eb3f 235e 9918 5f93 0240
00000470: b73b 0636 bcbf 01c0 ddb6 4f64 61a2 eb3f
00000480: 8897 f98e 6c83 0240 46d7 afb8 9eb1 01c0
00000490: 11b5 a764 e990 eb3f 61d1 2b3e ee72 0240
000004a0: fff1 6255 c6a2 01c0 d3cd 127e 517e eb3f
000004b0: d50b 6c90 b361 0240 7b95 acf8 1394 01c0
000004c0: a660 4068 dd6b eb3f 2095 6963 5451 0240
000004d0: e65e 9c58 6f85 01c0 5094 e877 8f56 eb3f
000004e0: fb22 d5c0 4b41 0240 d36b 667c f076 01c0
000004f0: b01f 5b6b 0e3e eb3f ec5b f3bf a730 0240
00000500: 04d2 8f94 d067 01c0 7b8f b5f8 5a24 eb3f
00000510: 6f5d 31ff 7f1e 0240 4461 17d5 2458 01c0
00000520: c86b 871c e410 eb3f 24e7 601a 490c 0240
00000530: 3320 4bc5 de47 01c0 b7a3 e046 a4fc ea3f
00000540: 71ba cf9b 67fa 0140 3820 19e3 3d37 01c0
00000550: 3a07 83b5 e2e5 ea3f e695 0c66 2ce8 0140
00000560: 06d7 fda3 ab26 01c0 6276 3be1 69d0 ea3f
00000570: d8ba 7274 41d5 0140 280a e906 1b16 01c0
00000580: 0e63 997d 79bc ea3f 3884 b47c 53c2 0140
00000590: cd4c 5170 4805 01c0 ef04 b2d8 51aa ea3f
000005a0: ce6e 1baf f7ae 0140 45d7 e299 5cf4 00c0
000005b0: 10a7 e383 779a ea3f a4de 836f e59a 0140
000005c0: d6c6 333e 08e3 00c0 a46b 1316 958b ea3f
000005d0: 1f3c e344 1386 0140 90a9 532c 81d1 00c0
000005e0: 42fe 058f 1780 ea3f 8838 1e87 6070 0140
000005f0: 03b4 cc54 c7bf 00c0 5a2d 7998 7976 ea3f
00000600: 20b5 8c0a 125a 0140 9fcc 8777 41ae 00c0
00000610: c59d 20db b06c ea3f b9d6 f318 c743 0140
00000620: 2e93 e59a 829c 00c0 d510 b59f f262 ea3f
00000630: ee05 5307 392c 0140 2f91 8100 8c8a 00c0
00000640: 07e2 2877 385d ea3f 22b1 a83f 6914 0140
00000650: 3632 137b 7b79 00c0 5250 a649 475a ea3f
00000660: 7dd9 4d50 9efc 0040 f71b 0250 d567 00c0
00000670: 784d 5e57 e45e ea3f 3270 eb33 c5e4 0040
00000680: 72a0 77ba 3456 00c0 c42e 065c ae67 ea3f
00000690: 5050 b1ea b9cc 0040 af4d 8a9c ee43 00c0
000006a0: 1af9 f88b 4a74 ea3f d170 e3ef 2cb5 0040
000006b0: 0102 1bbd 7c31 00c0 53ab 9cc5 1c84 ea3f
000006c0: 269e 3835 c19d 0040 356c 8582 a51e 00c0
000006d0: 52ca 36bb ef91 ea3f c338 da7e 3286 0040
000006e0: 519b b082 c40c 00c0 c802 8f08 3ca2 ea3f
000006f0: 2e11 1b41 f26e 0040 1fe8 d8e8 68f2 ffbf
00000700: af3f c432 5db0 ea3f 4a5d e4e6 3a58 0040
00000710: 2372 1b8f 65cd ffbf 6a67 bd38 82bf ea3f
00000720: 3b59 2a6e ac41 0040 bcc1 3f84 d5a8 ffbf
00000730: 9a5e bf44 6bcd ea3f 5fee 0fe7 922c 0040
00000740: 1558 9be4 2286 ffbf 8600 9040 28db ea3f
00000750: 61a7 bc15 b117 0040 9396 2d25 f663 ffbf
00000760: 0772 4b40 0ae9 ea3f 5460 d65b 6a02 0040
00000770: 4299 76fc d241 ffbf 40be 7849 50f9 ea3f
00000780: 7c6b 7161 8eda ff3f 73b3 4de0 4d20 ffbf
00000790: b6ca 883e 430c eb3f e099 2865 55b0 ff3f
000007a0: 38bf 87d1 8ffe febf ef5a a574 c421 eb3f
000007b0: ec67 1729 6c86 ff3f 02f1 d8f0 71dc febf
000007c0: be9b b1da fb37 eb3f 275d 9981 145d ff3f
000007d0: cc52 5437 fab7 febf b6fa e6f9 794e eb3f
000007e0: a142 b39d 1134 ff3f 2bc4 9305 2e94 febf
000007f0: 6efa c56f d668 eb3f 7fa3 ed18 c909 ff3f

mocap_framerate f8 []
120.0
00000000: 0000 0000 0000 5e40

betas f8 [16]
-0.10177492401008648 -0.7784032910200543 0.7851509561351558 1.0612141781064566 0.7366055528640801 -0.5779045599249427 0.5216004847528668 -0.3107671876829067
0.19804836199574902 0.06637032945775724 -0.13347498444642367 -0.04142319662286859 -1.01038264458324 -0.36964670654258414 0.49680678050037697 0.15339102705212385
00000000: e01b 2de2 eb0d babf f9f4 c004 aee8 e8bf
00000010: 89c1 e0e5 f41f e93f cd4c d0b7 bbfa f03f
00000020: 9b4d f3ce 4592 e73f e5c7 22b4 317e e2bf
00000030: 02ec f27f f3b0 e03f 8e26 f10e 9ce3 d3bf
00000040: 8328 e612 a659 c93f c920 725a a5fd b03f
00000050: 2308 8452 b515 c1bf b9fd 94d5 6b35 a5bf
00000060: 68e5 eefd 862a f0bf 242b eba8 4aa8 d7bf
00000070: e687 abaa aecb df3f 1528 5832 51a2 c33f

dmpls f8 [566, 8]
-0.5252947907598352 0.7344648715235672 -1.0277962585182259 -1.0394652347545013 0.2504269978919793 0.06809939212630044 -0.35210137100843303 0.7097460744273054
-0.5283840758691035 0.7532563077760857 -1.0444200637701753 -1.049610687042252 0.2595557999567115 0.0786630805185198 -0.3565825227202611 0.7125565182347925
-0.5297401970220806 0.7710697540347656 -1.0611799216328832 -1.059979232941807 0.2700586108476927 0.0897763421688671 -0.3609278229076904 0.7129530219292349
-0.5294830523080439 0.7882374710576621 -1.0786452297468399 -1.069044379955128 0.28092398932142815 0.10171565820484778 -0.3643564349133377 0.7119914055941515
-0.5918252584357798 0.9933132493672576 -1.2571324840275704 -1.1780561976173585 0.48952660665340597 0.2772598210068411 -0.3149208964014145 0.6831149000481005
-0.5834214051358543 1.0035762894997085 -1.2689655236986639 -1.1938526802543397 0.5032117452668676 0.28865303851824103 -0.3152164475032622 0.6765889066199937
-0.5716672685764171 1.111666824900923 -1.3317195601418244 -1.3056848651087585 0.6288817140699688 0.38805098347458955 -0.2717919992191855 0.6255153883744545
-0.5044681738319344 1.1281352967123592 -1.3989848332018229 -1.3913153662046978 0.6851049359104887 0.41264100241775087 -0.30053135355920907 0.5616357556658473
-0.5027150913882494 1.1294611194958293 -1.4039431075127613 -1.3932010560066295 0.6844859629075976 0.41179329575334667 -0.3043987524557936 0.5595834012046371
-0.4534609227147817 1.163439810104224 -1.4215119982151319 -1.3981754729691325 0.7543614379335083 0.42969119895182156 -0.3284730343468206 0.4573762409409063
-0.4550083274294649 1.165668897009745 -1.4254771669494137 -1.3961741383380537 0.7542124843383637 0.42949772551485166 -0.33314821304753817 0.45444893183014506
-0.4548963950356746 1.165786283997164 -1.4257306573097634 -1.3962376139010086 0.7541104073733153 0.429470190062555 -0.3334423608600596 0.45428197747336935
-0.37529424937361655 1.1416547810198037 -1.400571064658525 -1.4120920899232101 0.7776554012528832 0.4545881699698705 -0.42752555502300826 0.29572636744641345
-0.38464755189104116 1.148590435078647 -1.415614670228767 -1.4064170515178673 0.771556961521935 0.45261699237829656 -0.4425429840279447 0.27834908016149534
-0.3863096848032076 1.1536213695407043 -1.4359403498174013 -1.400612575060079 0.7671555129024642 0.4497980617535534 -0.45339604232565583 0.26058925842924
-0.3838845128171547 1.1541352810889465 -1.4495387356989407 -1.3909214731131334 0.7707120463733516 0.455342447563331 -0.4638500139823355 0.23788985895054102
-0.3616184091380415 1.1656965304591387 -1.4904396135246263 -1.3657157543506775 0.7712725743558343 0.4768076925266711 -0.5051059168702701 0.13669704802125554
-0.3606385167280042 1.1761496165717802 -1.4949094802863718 -1.362544551973157 0.7680722153898342 0.47518746241901105 -0.5047963109582494 0.10825424221820805
-0.3607680307576245 1.176955946168179 -1.4955843279938608 -1.362419137442083 0.7675839959571182 0.4750387818815532 -0.5048653562203023 0.10676687373482555
-0.34267005377992127 1.1924933583833504 -1.5296585701490464 -1.344388691851076 0.771356837705677 0.49236267567587055 -0.5284956174392968 -0.004727414091522483
-0.33007533476769224 1.20959762750552 -1.5473177935735198 -1.333703315674919 0.7731893926973897 0.496386210779838 -0.5298112757898574 -0.12468981472622659
-0.33084834037753746 1.211053337376797 -1.5502070687525686 -1.3324751238622476 0.7708980471362097 0.4949777664823127 -0.5306127090755567 -0.13078331456003112
-0.3323202681348645 1.2127992471955833 -1.5525173985808198 -1.3304325901984844 0.7692706909124538 0.4942549878862718 -0.5313989310792988 -0.1370961405141153
-0.3336308720683088 1.214550749130884 -1.5545931836601259 -1.3288350318335689 0.7668838208094946 0.4926673187624141 -0.5319621760636224 -0.14323551541619822
-0.31265268829842086 1.2165499698372573 -1.5642589649019505 -1.3063120621071327 0.7436750417476083 0.4926325907182263 -0.5684755530521212 -0.4973210495870676
-0.30872041059925076 1.2167915010514596 -1.5628962869696486 -1.305384769413954 0.737732830663453 0.48969513096035316 -0.5706704084554809 -0.5267571980498725
-0.30445252356025376 1.2194030583109412 -1.5600659230993088 -1.3037130612724368 0.730687788039659 0.48540982271520455 -0.57346570921161 -0.5550088822614008
-0.30540508752427104 1.2286335568035505 -1.5244323730906049 -1.303805826688162 0.6803721299963675 0.4488886335860734 -0.5932550758619406 -0.8323199324028416
-0.3070039175397414 1.2258158519149287 -1.5176881581079693 -1.3070135499300994 0.6758901817395494 0.44642049705502185 -0.5914918754118477 -0.861185597189022
-0.3042208256159527 1.2225484041527448 -1.5089295879079347 -1.3118106099304305 0.6684419782568294 0.4417944167120569 -0.5915642898360165 -0.88744401378913
-0.301068577065994 1.219823799408621 -1.4996319221731864 -1.3162813144868832 0.6616622346780368 0.43630443026163324 -0.5921517874364022 -0.913459269927217
-0.3011784251859689 1.2158361474934896 -1.4861038838679819 -1.3228306565609853 0.6575858650447108 0.4318260247314634 -0.5928807055882747 -0.9382033409048629
00000000: 3153 6205 37cf e0bf 6125 6879 bc80 e73f
00000010: 5097 547d da71 f0bf bd97 494c a6a1 f0bf
00000020: 18d1 7ef5 fe06 d03f 3f58 0f36 f66e b13f
00000030: 2fe9 5630 d488 d6bf 2a26 4466 3db6 e63f
00000040: 2db8 b2b8 85e8 e0bf 8eed ecf8 ac1a e83f
00000050: bfdd 12d0 f1b5 f0bf 980e 6693 34cb f0bf
00000060: c446 13ee 8f9c d03f d2ca 3a7e 4323 b43f
00000070: 1d28 5a80 3fd2 d6bf 8bd7 cb53 43cd e63f
00000080: 0fc4 b2b6 a1f3 e0bf 5d73 107a 9aac e83f
00000090: 795c 29cc 97fa f0bf a2c9 bec8 acf5 f0bf
000000a0: 9b04 66e9 a348 d13f c0dd 9115 95fb b63f
000000b0: 7bb8 e602 7119 d7bf 67a7 18db 82d0 e63f
000000c0: b760 2e71 86f1 e0bf ba94 f5c9 3d39 e93f
000000d0: 3ffc 1b80 2142 f1bf f513 9e47 ce1a f1bf
000000e0: 6408 b39c a8fa d13f 931e 7b91 090a ba3f
000000f0: 588e 02a7 9d51 d7bf 21eb 4133 a2c8 e63f
00000100: a3b5 3d86 3bf0 e2bf 5ce8 16de 38c9 ef3f
00000110: d833 9af3 361d f4bf dfdd 9974 51d9 f2bf
00000120: 7a49 8667 6754 df3f 5007 eef9 9fbe d13f
00000130: c4bf b7f9 a927 d4bf a6bd 63c7 13dc e53f
00000140: 1909 db5d 63ab e2bf 9013 e702 a60e f03f
00000150: ad98 00cb ae4d f4bf 08f3 9e44 051a f3bf
00000160: 044c 9c84 4f1a e03f 7feb 1498 4a79 d23f
00000170: 1d05 4c9b 812c d4bf de9d 58c7 9da6 e53f
00000180: eb56 d727 194b e2bf 43f6 0f27 63c9 f13f
00000190: d10a 642b b94e f5bf 7d63 28d0 15e4 f4bf
000001a0: 3d74 5f8b cc1f e43f 500e cdca d3d5 d83f
000001b0: b87e fd44 0a65 d1bf 11d1 06d9 3804 e43f
000001c0: 5d64 8f70 9a24 e0bf 457c cd98 d70c f23f
000001d0: c13a a3eb 3d62 f6bf d257 c4e6 d342 f6bf
000001e0: 090a c22f 61ec e53f 8bdd 97ce b568 da3f
000001f0: 1367 bddb e73b d3bf 822b 5b8c ebf8 e13f
00000200: 5afb 96f5 3d16 e0bf 0069 a5d2 4512 f23f
00000210: 0864 430c 8d76 f6bf 76d1 c430 8d4a f6bf
00000220: 5f4b 281b 4fe7 e53f 6240 7e44 d25a da3f
00000230: d069 afe7 447b d3bf 1dde f172 1be8 e13f
00000240: f1bb 44f6 8005 ddbf 8831 f40f 739d f23f
00000250: 254a 735d 83be f6bf 508c a73e ed5e f6bf
00000260: e736 2999 ba23 e83f 7522 b883 0f80 db3f
00000270: 76cc 08c3 b305 d5bf 3fc0 33ff a645 dd3f
00000280: cbe6 6d3f db1e ddbf a1f0 e96d 94a6 f23f
00000290: 22e1 5325 c1ce f6bf 3eed 7ab1 ba56 f6bf
000002a0: 5efb 4e38 8222 e83f 26bb 3207 e47c db3f
000002b0: 1ea4 f0e1 4c52 d5bf 2568 faf8 b015 dd3f
000002c0: f8c6 efc4 051d ddbf 7f4a be84 0fa7 f23f
000002d0: dfcc 20f3 cacf f6bf 0566 9240 fd56 f6bf
000002e0: 67bb 2726 ac21 e83f ab3c 3b89 707c db3f
000002f0: dbad bfa0 1e57 d5bf d942 1ab7 f412 dd3f
00000300: 76f0 db2b d204 d8bf 65d5 bccd 3744 f23f
00000310: 90ea 6634 bd68 f6bf 5291 12e0 ed97 f6bf
00000320: 650b 7e94 8de2 e83f 42d2 cafa f817 dd3f
00000330: e2cb 4125 945c dbbf 88d2 2f49 2eed d23f
00000340: 6af1 f6c3 109e d8bf 4794 325d a060 f23f
00000350: 13ed 8591 5ba6 f6bf 53e5 8c2a af80 f6bf
00000360: 659c 9739 98b0 e83f 0c3c f842 adf7 dc3f
00000370: 7c5a dece 9f52 dcbf 5b94 0aa9 78d0 d13f
00000380: eee6 9641 4cb9 d8bf 0d4e 62ae 3b75 f23f
00000390: 848f 9796 9cf9 f6bf 7bfd 43bb e868 f6bf
000003a0: 0f97 dbb7 898c e83f ea48 42cf 7dc9 dc3f
000003b0: 652b 7bd5 7004 ddbf 5d1e a991 7ead d03f
000003c0: 8965 ff58 9091 d8bf 1afd 768e 5677 f23f
000003d0: 51cb 8187 4f31 f7bf 6933 e5df 3641 f6bf
000003e0: 25d1 394f aca9 e83f 6cf7 30a6 5424 dd3f
000003f0: d668 13f8 b7af ddbf 630e 1fc6 2c73 ce3f
00000400: ad48 388a c124 d7bf 691f b667 b1a6 f23f
00000410: b504 4c35 d7d8 f7bf 0f17 49c3 f8d9 f5bf
00000420: 051f 65d2 43ae e83f 9887 7869 0484 de3f
00000430: 3a2a 3fe2 d329 e0bf 2a03 5bf3 497f c13f
00000440: 2095 c192 b314 d7bf 4d0f a642 82d1 f23f
00000450: 16f7 0434 26eb f7bf 3915 2184 fbcc f5bf
00000460: 7119 c22e 0c94 e83f b7c4 a3ac 7869 de3f
00000470: caa0 d697 4a27 e0bf d3ff facd 8cb6 bb3f
00000480: e5f6 62cb d216 d7bf 4400 1ac2 cfd4 f23f
00000490: e14c 12d5 e9ed f7bf e621 6c02 78cc f5bf
000004a0: c433 f24f 0c90 e83f 25d4 2010 0967 de3f
000004b0: d42f 3b64 db27 e0bf 92bb fce6 1255 bb3f
000004c0: a569 9360 4eee d5bf 5842 6fea 7314 f33f
000004d0: 6361 cd43 7b79 f8bf 2ecd 89b7 9d82 f5bf
000004e0: 56bd ef88 f4ae e83f 7c21 73bd de82 df3f
000004f0: 3b65 1fa4 6fe9 e0bf b00e af8e 0d5d 73bf
00000500: 8ac8 024c f41f d5bf 5049 b70a 835a f33f
00000510: a2ac 7e4d d0c1 f8bf a83f b649 d956 f5bf
00000520: 01fb 67ae f7bd e83f 6c06 5fab cac4 df3f
00000530: 2239 d2c6 36f4 e0bf a4b8 64f4 abeb bfbf
00000540: a3df 7684 9e2c d5bf 83eb db76 7960 f33f
00000550: f91f 65ed a5cd f8bf ea8c 7b6f d151 f5bf
00000560: 5a02 a061 32ab e83f 5f79 d239 b7ad df3f
00000570: 8d49 0a81 c7fa e0bf 94eb 72f5 81bd c0bf
00000580: fcfa db3a bc44 d5bf 5f18 f52e a067 f33f
00000590: 8802 d67b 1cd7 f8bf 02f6 06af 7349 f5bf
000005a0: a6b0 6791 dd9d e83f 7bcf 36ac dfa1 df3f
000005b0: a4ad c354 3801 e1bf b73d f5c7 5d8c c1bf
000005c0: c509 1e4d 355a d5bf 5697 2dc4 cc6e f33f
000005d0: e879 261a 9ddf f8bf 9a11 b885 e842 f5bf
000005e0: 6caa 46f0 4f8a e83f f61f 7981 dc87 df3f
000005f0: 40df 9c8a d505 e1bf 9a4c 2b97 8a55 c2bf
00000600: 80e2 cf6b 8002 d4bf b469 e619 fd76 f33f
00000610: b6a8 8b68 3407 f9bf 63ed 117a a7e6 f4bf
00000620: 8609 e599 2fcc e73f b806 85d8 4a87 df3f
00000630: 63e6 9da4 f330 e2bf b6af e5aa 1bd4 dfbf
00000640: 116a c840 13c2 d3bf 7c11 715d fa77 f33f
00000650: 0931 7989 9f01 f9bf 5c45 d523 dbe2 f4bf
00000660: 3852 9ce1 819b e73f c30c 1f3f 2a57 df3f
00000670: 618f a396 ee42 e2bf 49d1 51e9 31db e0bf
00000680: b80f f86f 267c d3bf ee67 01c8 ac82 f33f
00000690: a00c 75af 07f6 f8bf d387 183a 02dc f4bf
000006a0: f8f0 265b cb61 e73f 7703 6e5c f410 df3f
000006b0: 381f 4ec2 d459 e2bf e0ab c9fc a1c2 e1bf
000006c0: 83b8 bcc7 c18b d3bf 9dd4 13a9 7ba8 f33f
000006d0: 8134 3633 1364 f8bf c05b 9f7f 63dc f4bf
000006e0: 5f37 eec5 9bc5 e53f 8d17 3364 97ba dc3f
000006f0: c66a a011 f2fb e2bf 1455 2f69 5da2 eabf
00000700: b7ee 64c2 f3a5 d3bf b849 2e15 f19c f33f
00000710: 719a c960 7348 f8bf e90e 460a 87e9 f4bf
00000720: 9748 4872 e4a0 e53f 7062 c746 2792 dc3f
00000730: 82cb 975e 80ed e2bf 8bd1 f618 d58e ebbf
00000740: b516 32a0 5a78 d3bf f8ce 59ea 8e8f f33f
00000750: 5b80 005a 9324 f8bf f626 431f 2dfd f4bf
00000760: 3c5f 7c6e e063 e53f 045b d516 5c46 dc3f
00000770: 1078 ca3b 18ee e2bf 4e2b 08fd f065 ecbf
00000780: 4082 1623 b544 d3bf d87a d5f5 6584 f33f
00000790: df57 dc0a 7efe f7bf b2e9 e0fe 7c0f f5bf
000007a0: 2018 5e47 562c e53f 50b6 c46a 69ec db3f
000007b0: 54d5 294e e8f2 e2bf 0818 52ef 0e3b edbf
000007c0: 29cf 9bdf 8146 d3bf 7b77 ac9a 1074 f33f
000007d0: babe badd 14c7 f7bf d235 817a 502a f5bf
000007e0: 92b9 1583 f10a e53f f521 729f 09a3 db3f
000007f0: 1dcb 1df5 e0f8 e2bf fee5 4503 c305 eebf

poses f8 [566, 156]
0.9010196435799569 -1.5543238589633845 -1.667336897170869 0.4657772145384089 0.08748558293266416 0.07033721271500278 -0.550452813907771 0.0647737609408991
-0.04304034958724069 0.24868484553005643 -0.18404786426801795 0.0429161580318868 0.1717861845520362 -0.3396422342322054 -0.05488834377449836 0.5519104825657107
-0.2595471030084077 0.10963480846430258 0.04135015978687768 -0.038327613392628426 0.07765335032025203 -0.4857041555208 0.17456823541003377 -0.010408893745448754
-0.3159121148989102 -0.1890572107458518 0.07191540209807838 0.021290435992194656 -0.08934497535875377 0.02857527920078509 0.0 0.0
0.0 0.0 0.0 0.0 -0.03702061650979375 0.11842131798640868 0.06390615324009172 0.012221732625982383
-0.0738714450553315 -0.4770022306038295 0.005909441733212438 0.01850562865077223 0.5116995346914864 0.09118929154749725 -0.020467144060352466 -0.057281796847637685
0.12100917432179431 -0.3890943131606713 -0.9026555937396654 0.23926625645864363 0.07672343719709718 0.9367247722925217 0.20494380205211857 -0.5947906749395152
0.058583715709241806 -0.04441868123674741 0.36923873909410604 -0.21621972008018445 -0.157001352923856 -0.2577114765455804 -0.03497416964733885 0.03180674907737576
0.12979440536055054 0.1283418136214536 0.1116787156904433 0.04289217484104639 -0.416441836812446 0.10881132513711185 -0.06598567887822672 -0.7562200100001023
-0.09639296514009964 -0.09091565922041477 -0.1884592906970161 -0.11809503934386675 0.05094385260705536 -0.529584499976084 -0.14369840869244882 0.05524170001527844
-0.7048571406917286 -0.019182916839865817 -0.09233684821597642 -0.3379135244947721 -0.4570329833266365 -0.196283945164882 -0.6254575328442732 -0.21465237881086022
-0.06599828649166892 -0.5068942070038754 -0.36972435736649994 -0.06034462636097786 -0.07949022787634757 -0.14186969453172138 -0.08585263331718808 -0.6355282566897771
-0.3033415874850632 -0.05788097522832921 -0.6313892099233043 -0.1761208850183806 -0.13209307627166406 -0.37335457646458126 0.8509642789706306 0.2769227420650918
-0.09154806978240376 -0.49983943762160615 0.026556472160458842 0.05288087673273013 0.5355591477841196 0.04596104095518329 -0.2773580212595622 0.1116787156904433
-0.04289217484104638 0.41644183681244606 0.10881132513711185 0.0659856788782267 0.7562200100001023 -0.09639296514009964 0.09091565922041477 0.18845929069701614
-0.11809503934386674 -0.05094385260705537 0.529584499976084 -0.14369840869244885 -0.05524170001527845 0.7048571406917286 -0.01918291683986582 0.09233684821597642
0.3379135244947721 -0.4570329833266365 0.19628394516488204 0.6254575328442732 -0.21465237881086027 0.06599828649166892 0.5068942070038754 -0.36972435736649994
0.06034462636097784 0.07949022787634759 -0.14186969453172144 0.08585263331718808 0.6355282566897771 -0.3033415874850632 0.05788097522832922 0.6313892099233043
-0.17612088501838064 0.13209307627166406 0.37335457646458126 0.8509642789706306 -0.2769227420650918 0.09154806978240378 -0.49983943762160615 -0.026556472160458842
-0.05288087673273012 0.5355591477841195 -0.0459610409551833 0.2773580212595623 0.9012301455348211 -1.5542649630347527 -1.6706440165578045 0.4685117729415464
0.08647406434429876 0.0758506553987117 -0.5459126670552622 0.07270231775073574 -0.03929979273372534 0.2506290341786937 -0.18160899127674088 0.044068478889836546
0.19144200650917825 -0.3377344132614518 -0.055609259202882434 0.5670622328310178 -0.26304139310295854 0.1127653712457701 0.04194687761763009 -0.04005124685742264
0.08093970315236276 -0.47782264542958697 0.16848441839031725 -0.012843939073138825 -0.31788308278712374 -0.19126679897148385 0.06534427375088252 0.018410597493834033
-0.08975730258100802 0.029615145492727514 0.0 0.0 0.0 0.0 0.0 0.0
-0.03992086263178442 0.12031553151642867 0.06155334745621156 0.014652968754148935 -0.06858251993423559 -0.47853802974686355 0.008661678824820856 0.018948898886993866
0.5102858710865422 0.09400336310370865 -0.01917550152297517 -0.05998153793626075 0.11150244890584811 -0.38769271984129033 -0.9189564251455808 0.23672885265455978
0.07851284475213827 0.9358790322380096 0.19421530851128657 -0.5746771416324984 0.069798989005434 -0.034487021619841775 0.36798688898785026 -0.22045080312430093
-0.16744499015056305 -0.25654335377802046 -0.051821035514083846 0.022157325305556128 0.1310784744032642 0.13696260435783292 0.1116787156904433 0.04289217484104639
-0.416441836812446 0.10881132513711185 -0.06598567887822672 -0.7562200100001023 -0.09639296514009964 -0.09091565922041477 -0.1884592906970161 -0.11809503934386675
0.05094385260705536 -0.529584499976084 -0.14369840869244882 0.05524170001527844 -0.7048571406917286 -0.019182916839865817 -0.09233684821597642 -0.3379135244947721
-0.4570329833266365 -0.196283945164882 -0.6254575328442732 -0.21465237881086022 -0.06599828649166892 -0.5068942070038754 -0.36972435736649994 -0.06034462636097786
-0.07949022787634757 -0.14186969453172138 -0.08585263331718808 -0.6355282566897771 -0.3033415874850632 -0.05788097522832921 -0.6313892099233043 -0.1761208850183806
00000000: fe57 c725 27d5 ec3f 7a3e dab1 82de f8bf
00000010: 3d35 4c74 69ad fabf 3886 ea3b 4bcf dd3f
00000020: cf39 9185 7465 b63f dd7f 4d9c 9e01 b23f
00000030: 9d33 3738 4f9d e1bf 2c4d e160 0395 b03f
00000040: 226e c57b 6209 a6bf dcfc 47af e7d4 cf3f
00000050: 2a03 f762 e18e c7bf 5710 6f4e 1bf9 a53f
00000060: 6c1e 47f6 16fd c53f 4c88 17c8 b2bc d5bf
00000070: d0da e232 531a acbf cb0e 1e2c 40a9 e13f
00000080: 7354 cc73 6b9c d0bf cd7e dbdc 0611 bc3f
00000090: 9922 f01f d92b a53f 3a32 1c4c ad9f a3bf
000000a0: 5ae1 0c08 17e1 b33f 818f dfe1 c615 dfbf
000000b0: c9d5 007f 4058 c63f 0c3f cb11 4251 85bf
000000c0: 35aa 7972 e737 d4bf 1cfb 9cd4 0633 c8bf
000000d0: 1306 173c 0c69 b23f d05a 37f9 28cd 953f
000000e0: 5a4f 3af3 4fdf b6bf e7d5 9086 d642 9d3f
000000f0: 0000 0000 0000 0000 0000 0000 0000 0000
00000100: 0000 0000 0000 0000 0000 0000 0000 0000
00000110: 0000 0000 0000 0000 0000 0000 0000 0000
00000120: a5e8 5fc2 5df4 a2bf 929d e607 dc50 be3f
00000130: 6eea 2d56 275c b03f 0cb2 6e2f b507 893f
00000140: f0f3 9e30 3de9 b2bf f8ff 235d 3487 debf
00000150: 324f b5af 7f34 783f a650 63b7 23f3 923f
00000160: 751b dcb3 d75f e03f 0221 f170 2e58 b73f
00000170: 68e5 86c9 56f5 94bf b1c2 3b28 0a54 adbf
00000180: c462 3a0e 75fa be3f 296b 85d5 ebe6 d8bf
00000190: f639 d5fb 8de2 ecbf 485b 43d5 46a0 ce3f
000001a0: 6826 99ad 25a4 b33f 832e cb3a a6f9 ed3f
000001b0: af76 aa37 993b ca3f 6d97 1a74 8608 e3bf
000001c0: 0f45 194e affe ad3f 0f8f 7c9e 0bbe a6bf
000001d0: 5fd4 3485 9ba1 d73f 3d51 3f79 16ad cbbf
000001e0: ed2b 1ece 9e18 c4bf 014c e446 587e d0bf
000001f0: 781e ae65 22e8 a1bf 0ba8 2866 f948 a03f
00000200: 3419 1d63 1a9d c03f 0153 1b2a 816d c03f
00000210: 80bb 8cef f996 bc3f d6a9 6490 f6f5 a53f
00000220: 83eb 72a9 fba6 dabf 2df8 e51a 0fdb bb3f
00000230: b14d c9fc 6fe4 b0bf dbff 704e f432 e8bf
00000240: 9f58 d798 35ad b8bf 2fc4 0ba7 3f46 b7bf
00000250: aee4 151d 6f1f c8bf e63e cdfb 793b bebf
00000260: 0054 c209 5015 aa3f 95b4 7b31 5bf2 e0bf
00000270: ae20 e99e b564 c2bf 17d3 e1dd a348 ac3f
00000280: fcef f38f 308e e6bf ba5e e0c1 afa4 93bf
00000290: 57a7 4d3f 63a3 b7bf 6a31 250c 60a0 d5bf
000002a0: a932 2545 0740 ddbf 6c44 9b12 d51f c9bf
000002b0: c54b 1384 bf03 e4bf e528 80a9 ba79 cbbf
000002c0: b6e1 1282 43e5 b0bf c9a1 3333 7a38 e0bf
000002d0: 751e db59 90a9 d7bf f662 6ba9 7de5 aebf
000002e0: ac9b 14b9 7859 b4bf 1454 2741 c928 c2bf
000002f0: 0170 5f2c 70fa b5bf da53 c55a 3f56 e4bf
00000300: e5f6 70d5 f269 d3bf 0b20 553f 93a2 adbf
00000310: 325f f524 5734 e4bf 67f4 a510 218b c6bf
00000320: c6b2 4e09 6de8 c0bf 368c ee97 0ae5 d7bf
00000330: 4ec7 8770 193b eb3f ae0b 2c2a 1ab9 d13f
00000340: 9c33 babd b16f b7bf 3f7e 758d 5efd dfbf
00000350: 5989 b4ad 9e31 9b3f 9140 4dc8 3313 ab3f
00000360: 3bce 19f0 4c23 e13f 72d3 959f 3488 a73f
00000370: 3af5 a5db 3bc0 d1bf 80bb 8cef f996 bc3f
00000380: d4a9 6490 f6f5 a5bf 84eb 72a9 fba6 da3f
00000390: 2df8 e51a 0fdb bb3f b04d c9fc 6fe4 b03f
000003a0: dbff 704e f432 e83f 9f58 d798 35ad b8bf
000003b0: 2fc4 0ba7 3f46 b73f afe4 151d 6f1f c83f
000003c0: e53e cdfb 793b bebf 0154 c209 5015 aabf
000003d0: 95b4 7b31 5bf2 e03f af20 e99e b564 c2bf
000003e0: 18d3 e1dd a348 acbf fcef f38f 308e e63f
000003f0: bb5e e0c1 afa4 93bf 57a7 4d3f 63a3 b73f
00000400: 6a31 250c 60a0 d53f a932 2545 0740 ddbf
00000410: 6d44 9b12 d51f c93f c54b 1384 bf03 e43f
00000420: e728 80a9 ba79 cbbf b6e1 1282 43e5 b03f
00000430: c9a1 3333 7a38 e03f 751e db59 90a9 d7bf
00000440: f462 6ba9 7de5 ae3f ad9b 14b9 7859 b43f
00000450: 1654 2741 c928 c2bf 0170 5f2c 70fa b53f
00000460: da53 c55a 3f56 e43f e5f6 70d5 f269 d3bf
00000470: 0c20 553f 93a2 ad3f 325f f524 5734 e43f
00000480: 68f4 a510 218b c6bf c6b2 4e09 6de8 c03f
00000490: 368c ee97 0ae5 d73f 4ec7 8770 193b eb3f
000004a0: ae0b 2c2a 1ab9 d1bf 9d33 babd b16f b73f
000004b0: 3f7e 758d 5efd dfbf 5989 b4ad 9e31 9bbf
000004c0: 9040 4dc8 3313 abbf 3ace 19f0 4c23 e13f
000004d0: 74d3 959f 3488 a7bf 3cf5 a5db 3bc0 d13f
000004e0: 5cb9 279a e0d6 ec3f bad8 18f0 44de f8bf
000004f0: 4dfb 6538 f5ba fabf 7bcb a4cd 18fc dd3f
00000500: 439b 4f0e 2a23 b63f 5f50 51d4 f26a b33f
00000510: 012f 6fd7 1d78 e1bf 0e33 157d 9e9c b23f
00000520: e5d5 0f39 1a1f a4bf 816f 4e5c 4e0a d03f
00000530: 2fb9 18a3 f63e c7bf 8e8d 3bc7 2490 a63f
00000540: 1ace 84f2 2b81 c83f 8e44 eccc 709d d5bf
00000550: 5528 431b d178 acbf 6aca 19b2 5f25 e23f
00000560: 71c6 3791 abd5 d0bf 9e33 9ffd 30de bc3f
00000570: 56f6 12a7 0f7a a53f 8b53 d5d6 9881 a4bf
00000580: b8c2 fce1 76b8 b43f 4221 da6e a594 debf
00000590: 7c9d 6fbd e590 c53f afe6 2a52 ec4d 8abf
000005a0: 4c6e 2149 3258 d4bf 1252 3233 6e7b c8bf
000005b0: 63ac bdfe 66ba b03f c918 8b48 3ada 923f
000005c0: 89a0 29a7 55fa b6bf aa20 6ec5 6e53 9e3f
000005d0: 0000 0000 0000 0000 0000 0000 0000 0000
000005e0: 0000 0000 0000 0000 0000 0000 0000 0000
000005f0: 0000 0000 0000 0000 0000 0000 0000 0000
00000600: a2fd dcde 8170 a4bf f55c 10a9 ffcc be3f
00000610: 2248 919c eb83 af3f 5500 b52c 6002 8e3f
00000620: 10df 31c0 9f8e b1bf 68ec e9f8 5da0 debf
00000630: 109d 3fda 36bd 813f b234 0f14 5767 933f
00000640: a9ae fd08 4354 e03f bb93 3eba 9a10 b83f
00000650: 57ca b31f bea2 93bf a69c 996f e6b5 aebf
00000660: b57a 79ab 6c8b bc3f 8566 2720 f5cf d8bf
00000670: 0261 0e4e 1768 edbf 44e1 158c 214d ce3f
00000680: 78bf 86f4 6a19 b43f 212e 8f95 b8f2 ed3f
00000690: a121 3817 0cdc c83f 3b40 2251 c163 e2bf
000006a0: df7b 12b7 58de b13f b5c1 fc6b 48a8 a1bf
000006b0: 7ad0 63e1 188d d73f 02dd e55e bb37 ccbf
000006c0: e1b0 4962 d66e c5bf 79e5 9ed0 346b d0bf
000006d0: a841 8e69 4988 aabf 5c7f 37ee 68b0 963f
000006e0: 8ec3 62f0 2dc7 c03f e8f5 3e99 fd87 c13f
000006f0: 80bb 8cef f996 bc3f d6a9 6490 f6f5 a53f
00000700: 83eb 72a9 fba6 dabf 2df8 e51a 0fdb bb3f
00000710: b14d c9fc 6fe4 b0bf dbff 704e f432 e8bf
00000720: 9f58 d798 35ad b8bf 2fc4 0ba7 3f46 b7bf
00000730: aee4 151d 6f1f c8bf e63e cdfb 793b bebf
00000740: 0054 c209 5015 aa3f 95b4 7b31 5bf2 e0bf
00000750: ae20 e99e b564 c2bf 17d3 e1dd a348 ac3f
00000760: fcef f38f 308e e6bf ba5e e0c1 afa4 93bf
00000770: 57a7 4d3f 63a3 b7bf 6a31 250c 60a0 d5bf
00000780: a932 2545 0740 ddbf 6c44 9b12 d51f c9bf
00000790: c54b 1384 bf03 e4bf e528 80a9 ba79 cbbf
000007a0: b6e1 1282 43e5 b0bf c9a1 3333 7a38 e0bf
000007b0: 751e db59 90a9 d7bf f662 6ba9 7de5 aebf
000007c0: ac9b 14b9 7859 b4bf 1454 2741 c928 c2bf
000007d0: 0170 5f2c 70fa b5bf da53 c55a 3f56 e4bf
000007e0: e5f6 70d5 f269 d3bf 0b20 553f 93a2 adbf
000007f0: 325f f524 5734 e4bf 67f4 a510 218b c6bf
