data/amass/ACCAD/Male2Walking_c3d/B18 -  Walk to leap to walk_poses.npz (npz, 461112 bytes, 5 tensors)

trans f8 [344, 3]
0	0xbfe0be1c723b4934	-0.5232069235883388
1	0xc008f3e618acd024	-3.119091217779003
2	0x3feb23de8e232aa5	0.8481285835381028
3	0xbfe0bd756bbe4b7e	-0.5231272796976183
4	0xc008e92522f2b063	-3.113840363532334
5	0x3feb137ad50ec23e	0.8461279069216017
6	0xbfe0b9ca040a126d	-0.5226793364423209
7	0xc008daf871eb2e37	-3.106919183721199
8	0x3feb054ef894f557	0.8443980078806516
9	0xbfe0bb6f010419ef	-0.5228800792545466
10	0xc008c6dce2a2cf85	-3.0971009927688464
11	0x3feafc093e6d9021	0.8432661265655989
12	0xbfe0c1678a3d1f68	-0.5236089420295515
13	0xc008b569e9c4b122	-3.088580919566213
14	0x3feaf04bd756f828	0.8418330388883577
15	0xbfe0be8d0e7ca2b9	-0.5232606203981823
16	0xc008a61bc01bbda0	-3.081107617231922
17	0x3feae7d3a39d8fa7	0.8407991595854484
18	0xbfe0b79a1f3e0a62	-0.5224123583032674
19	0xc00897ab8b31444a	-3.074057662430765
20	0x3fead9199a131af7	0.8390014657278176
21	0xbfe0b582ec8de3b5	-0.5221571560097035
22	0xc008895b0f1fedf9	-3.067068212663568
23	0x3fead042f975c958	0.8379225609080931
24	0xbfe0b3cfb20c0aaf	-0.5219496228676997
25	0xc00878dbb52ecc48	-3.0590128092676743
26	0x3feac6082b55a9a6	0.8366738172892851
27	0xbfe0ad304af41447	-0.5211411918577448
28	0xc008676afbfb6ba6	-3.0504970251181076
29	0x3feab99d8b36884a	0.8351581305507889
30	0xbfe0ad8630831c62	-0.5211821506026235
31	0xc0085443271fb137	-3.0411437088534075
32	0x3feab25831b082b9	0.8342705698488181
33	0xbfe0ae4b777e39e5	-0.5212762197350541
34	0xc00841de76ad98bf	-3.0321625968673227
35	0x3feaac4860a48574	0.833530606036375
36	0xbfe0adb1ce127a93	-0.5212029480788537
37	0xc0082d82e632acd2	-3.022222326680642
38	0x3feaa6fb0c5a902a	0.8328833810123843
39	0xbfe0ac901abd4fb3	-0.5210648081069763
40	0xc008190ef12e3ca6	-3.0122355310664544
41	0x3feaa268480bb891	0.8323251158851851
42	0xbfe0991408b46280	-0.5186863107692972
43	0xc00808a9b0d8d541	-3.004229909531802
44	0x3fea9fa6fc969ffa	0.8319888051382798
45	0xbfe09627a8cd3ec9	-0.5183294579419108
46	0xc007f369abc87613	-2.993853895239917
47	0x3feaa2a429186ca9	0.8323536684651077
48	0xbfe08d23d138d439	-0.5172289930693587
49	0xc007e3c7d1eddf61	-2.9862209702222775
50	0x3feaa81411090d40	0.8330173809739918
51	0xbfe08376c2e883e2	-0.5160478407670974
52	0xc007d325f1d38e9a	-2.978099717396458
53	0x3feaae6e39d58e93	0.833792794187007
54	0xbfe08091465deb4d	-0.5156942724564516
55	0xc007b71ff04279ef	-2.9644163866316755
56	0x3feab42fced0ad31	0.8344954528196579
57	0xbfe075f5c92f1ef3	-0.5143994264007844
58	0xc007a485cbc6e960	-2.9553333206251153
59	0x3feace150a5efaa9	0.837656517272838
60	0xbfe06da498977b33	-0.5133841495806791
61	0xc0079196e7e281f8	-2.946088611221281
62	0x3feae0fc7429ac7b	0.839964129333921
63	0xbfe064d2d9c9cea6	-0.5123075727155608
64	0xc0077afba254c07e	-2.9350502664674982
65	0x3feaf16cba713c28	0.8419707910014766
66	0xbfe05fb3b10aa8b9	-0.5116823633045647
67	0xc007609dcfa65851	-2.9221760008468114
68	0x3feb01a761a43521	0.8439518839892665
69	0xbfe04fd948d2191c	-0.5097471639899456
70	0xc0074c71e0d3ca87	-2.9123265804894944
71	0x3feb128fe2c1f89e	0.8460158757077527
72	0xbfe04af13b5a6798	-0.5091482314339713
73	0xc0073380f979e45f	-2.900148343117095
74	0x3feb1f0c49daf540	0.8475400392996235
75	0xbfe044bf31a844ea	-0.5083919496411486
76	0xc0071c1b08f5ff32	-2.8887234401771815
77	0x3feb2c2315903e6a	0.849137823215597
78	0xbfe03f22e83249f3	-0.5077070746504532
79	0xc00705a655d4c7af	-2.877758665615111
80	0x3feb3b2d46f7747d	0.8509737382952519
81	0xbfe024f8c68dae07	-0.5045131566998301
82	0xc006f93767ee8a6c	-2.8716877097770546
83	0x3feb4271417a3e9e	0.8518606451852582
84	0xbfdffeb26fd56eb5	-0.4999204723478486
85	0xc006f0bbe4a59103	-2.86754587774533
86	0x3feb4d2d9949032d	0.8531711572505621
87	0xbfdff8353bbd9986	-0.499524410572484
88	0xc006d6cf7851beab	-2.8548879051157505
89	0x3feb5b422e978c0e	0.8548899564742685
90	0xbfe00bbba6e4c6bc	-0.5014322528497455
91	0xc006b180d25bced7	-2.836671489168889
92	0x3feb6b5197baeb68	0.8568504298667508
93	0xbfe00e3abdef2519	-0.5017369947101172
94	0xc00694b111c6e67c	-2.8226033581566394
95	0x3feb786930fd3ce0	0.8584485966511259
96	0xbfdff458dcae2a0a	-0.4992887644845331
97	0xc0068952ffdc030b	-2.8170528401391315
98	0x3feb802c3b8c7316	0.8593960917529297
99	0xbfdfdd938f130e50	-0.4978989503108311
100	0xc006711441f3e425	-2.805214419608563
101	0x3feb8f3bd7ce4b85	0.8612345900495347
102	0xbfdfcc407d261e66	-0.4968415472180595
103	0xc0065a6c6ebf6bc5	-2.794152131287293
104	0x3feb9e776a46ce28	0.8630940509523883
105	0xbfdfbe282d288e37	-0.49598125848772007
106	0xc00644be937ed234	-2.783566620166562
107	0x3febaa0a91aad200	0.86450699282301
108	0xbfdfaa6d39d37fec	-0.49477701804244023
109	0xc0062e78eb0c2a30	-2.77269157057642
110	0x3febb542fd51266c	0.8658766696546087
111	0xbfdf98c92b3b5061	-0.4937003061470531
112	0xc00618b99ac46b4c	-2.7620727626030313
113	0x3febc0e08085888a	0.8672945509135996
114	0xbfdf892fe7127f77	-0.4927482372822775
115	0xc00603382d22f316	-2.7515719915667303
116	0x3febcbccef8e74a1	0.8686279944264649
117	0xbfdf7c2163023e4c	-0.4919513193972065
118	0xc005ef990566b698	-2.7419910833330725
119	0x3febdbfa17bb7907	0.8706026519319331
120	0xbfdf70cb85ef8678	-0.4912594612088479
121	0xc005dae90883dcba	-2.7318897881737856
122	0x3febea009c7c0039	0.8723147445998684
123	0xbfdf6801c959cda1	-0.4907230821911189
124	0xc005c60746304e9c	-2.721693561886992
125	0x3febf4474da84d4c	0.8735691563364667
126	0xbfdf5dc08cbbff24	-0.49009717696752575
127	0xc005b125172ad061	-2.7114965257588186
128	0x3fec00827e270de9	0.8750622238080129
129	0xbfdf53e90f220dfa	-0.4894964835914092
130	0xc0059c1e4d42091a	-2.701229671075578
131	0x3fec0c491c00aaf8	0.8764997050214722
132	0xbfdf4602a320a2dc	-0.48864808969896756
133	0xc005876cdb143fb7	-2.6911255946688146
134	0x3fec187fa7c96915	0.8779905583462858
135	0xbfdf3957d56f0ead	-0.48787494509836443
136	0xc005721094794eef	-2.6806956862945905
137	0x3fec257c0e27885d	0.8795757557347873
138	0xbfdf2e0897ade666	-0.48718466579848607
139	0xc0055c1314bf985b	-2.669958269211788
140	0x3fec3172b3e783a9	0.8810361398465051
141	0xbfdf22c45ec6f4eb	-0.4864970136221262
142	0xc00545ddf0dd981f	-2.6591147248864355
143	0x3fec3d0c2fd0426b	0.8824521001680073
144	0xbfdf17fa74a24ac1	-0.48583852186235893
145	0xc00531db7c7bb126	-2.6493444180724905
146	0x3fec49c0d5a0adc8	0.8840030834593842
147	0xbfdf0c1666f4f755	-0.4851127629698245
148	0xc0051e3db6e67d65	-2.639766148480407
149	0x3fec542073465cc5	0.8852693797552084
150	0xbfdf01234e9fe6c8	-0.4844444530313976
151	0xc0050a17cdb888c5	-2.6299282142582308
152	0x3fec5c245e59ad21	0.8862478106288202
153	0xbfdef1283a433406	-0.48346906366060727
154	0xc004f2e2849ee34d	-2.6185961113919007
155	0x3fec5f350db09cde	0.8866219775562987
156	0xbfdee4717fd77237	-0.482693075986194
157	0xc004de9e0f01f037	-2.6086999103991064
158	0x3fec634f1f61f600	0.8871226895277573
159	0xbfded8ee75f87d3c	-0.48199044724056583
160	0xc004cb0075666cd2	-2.599121968448892
161	0x3fec661f74adacca	0.8874661711573932
162	0xbfdecf820a04b78e	-0.48141528108941933
163	0xc004b79d5953e406	-2.589655588028566
164	0x3fec65b39a601a79	0.8874147429604157
165	0xbfded6cb39058429	-0.4818599755145124
166	0xc004a3e5f30b1779	-2.58002843740081
167	0x3fec5fb7045b14df	0.8866839490007371
168	0xbfded9372ca4e68b	-0.4820077835061986
169	0xc00490b937a95da9	-2.5706657742081984
170	0x3fec5c7acc6d5128	0.8862890236582972
171	0xbfded46b477e3eff	-0.4817150304961472
172	0xc0047d58357f4c98	-2.5612034015153533
173	0x3fec593717d6d296	0.8858905282600797
174	0xbfdecbcc4da024c5	-0.4811888464033241
175	0xc004698da9bdd2eb	-2.55153973207995
176	0x3fec52bcb9bcd23e	0.8850997569739503
177	0xbfdec57957158bcf	-0.48080285553276964
178	0xc00455a1f1a2979d	-2.5418127897018636
179	0x3fec4a852bfdab38	0.884096704406466
180	0xbfdec028e23585ac	-0.4804784974167784
181	0xc00441d75cd681ea	-2.532149052902459
182	0x3fec3fd0d0fa0fdc	0.8827900010660374
183	0xbfdeb8965d4641b9	-0.48001631840545717
184	0xc0042dd9ca9eb5ce	-2.522388060539675
185	0x3fec3305b3c14cd6	0.8812283049432164
186	0xbfdeb431ed590103	-0.47974823168262065
187	0xc0041960326d60f6	-2.5123905124311205
188	0x3fec25fc45f33ae3	0.8796368948186138
189	0xbfdeb6583207e047	-0.4798794258672427
190	0xc00404de65b4a1cb	-2.502377314162208
191	0x3fec173f64d41689	0.8778378457361252
192	0xbfdeb6150121af14	-0.479863406281525
193	0xc003f0df65f42c50	-2.49261359836013
194	0x3fec06ba8b8e33e9	0.8758213735287629
195	0xbfdeae972f4fcefe	-0.4794061624554472
196	0xc003dc558b05e68a	-2.4825850354362204
197	0x3febf47ecddc9743	0.873595621179199
198	0xbfdeab9ec5c2a845	-0.4792248660329544
199	0xc003c74c0fd487a7	-2.4723130451902366
200	0x3febe0ddb3e4aa52	0.8711994660892037
201	0xbfdea9329720e4ea	-0.47907700308458223
202	0xc003b1fc45e9c4b8	-2.4619069539990868
203	0x3febcd0d41605e78	0.8687807347186682
204	0xbfdea0b06cf66123	-0.4785576881490831
205	0xc0039c4cf96d7b22	-2.4513186918769785
206	0x3febb97541a3872d	0.8663889200217675
207	0xbfde961d71a91889	-0.47791229343091196
208	0xc0038604808ba09f	-2.4404382746325406
209	0x3feba540af6796cc	0.8639224458572357
210	0xbfde8f852ec41f46	-0.4775097805690972
211	0xc0036fa359c82b27	-2.4295107855044935
212	0x3feb8fb02f59d548	0.8612900662252878
213	0xbfde8be63e3420b0	-0.4772887809235824
214	0xc00359a8331f16ad	-2.4187778467047196
215	0x3feb79e044ca5237	0.8586274474678878
216	0xbfde8a837bb20449	-0.4772041995966601
217	0xc003437c04edb2e8	-2.4079513917007382
218	0x3feb6276a72554e1	0.8557694687430307
219	0xbfde87fcafae469a	-0.4770499911911458
220	0xc0032d2be3ebd3b2	-2.3970563703864736
221	0x3feb4c069a753349	0.8530304924730469
222	0xbfde8941f3d20de7	-0.47712754068945035
223	0xc003167725ce4e96	-2.38596944366311
224	0x3feb37aefef82304	0.8505473117703279
225	0xbfde94a99f3c46d0	-0.47782364416444256
226	0xc002ff89b317ff64	-2.374774359865045
227	0x3feb229146b8a47b	0.8479696637415509
228	0xbfdea3a00a37a6e8	-0.4787368869570927
229	0xc002e867b10cda96	-2.3634790260360417
230	0x3feb0c415818be9b	0.8452460022580967
231	0xbfdead4ef4e114c4	-0.47932790674196846
232	0xc002d05b4dd89dea	-2.351736648724672
233	0x3feaf7be7e6ef7d5	0.8427422017482465
234	0xbfdeaaac51f13c19	-0.47916706087284094
235	0xc002b772f619a377	-2.339574740083147
236	0x3feae6a2e20e9f4d	0.8406538405588236
237	0xbfdea0e3a9f3d8f2	-0.478569904298083
238	0xc0029ebbebec2835	-2.327506869453851
239	0x3fead7d70b737244	0.8388476585055931
240	0xbfde9a85c4176d69	-0.47818130635797346
241	0xc0028627dbab3d56	-2.3155057107575585
242	0x3feacba38b0a470f	0.837358256876742
243	0xbfde891b30fb0625	-0.4771182993245893
244	0xc0026a9028e23d3e	-2.302032775310777
245	0x3feabd231cc8de08	0.8355880319786033
246	0xbfde8c1380ff21de	-0.47729957196545836
247	0xc0024f39bf4f0058	-2.288684362982206
248	0x3feab263e903cac0	0.8342761565275723
249	0xbfdea28ad3fde0fe	-0.47867079450908523
250	0xc002349aaed783be	-2.275685659362778
251	0x3feaac0be11be497	0.8335017582568466
252	0xbfdebbd10fbddef7	-0.48021341836236736
253	0xc002194f03d709b0	-2.262357740402159
254	0x3feaa945743cfb26	0.8331630010869489
255	0xbfdecfca517f620b	-0.48143251379727364

mocap_framerate f8 []
0	0x405e000000000000	120.0

betas f8 [16]
0	0xbfba0debe22d1be0	-0.10177492401008648
1	0xbfe8e8ae04c0f4f9	-0.7784032910200543
2	0x3fe91ff4e5e0c189	0.7851509561351558
3	0x3ff0fabbb7d04ccd	1.0612141781064566
4	0x3fe79245cef34d9b	0.7366055528640801
5	0xbfe27e31b422c7e5	-0.5779045599249427
6	0x3fe0b0f37ff2ec02	0.5216004847528668
7	0xbfd3e39c0ef1268e	-0.3107671876829067
8	0x3fc959a612e62883	0.19804836199574902
9	0x3fb0fda55a7220c9	0.06637032945775724
10	0xbfc115b552840823	-0.13347498444642367
11	0xbfa5356bd594fdb9	-0.04142319662286859
12	0xbff02a86fdeee568	-1.01038264458324
13	0xbfd7a84aa8eb2b24	-0.36964670654258414
14	0x3fdfcbaeaaab87e6	0.49680678050037697
15	0x3fc3a25132582815	0.15339102705212385

dmpls f8 [344, 8]
0	0xbfe4b6150203a387	-0.6472268142070882
1	0x3fdaf6fb90109160	0.4213246256715788
2	0xbfea5b0c647d10bb	-0.8236143076578836
3	0xbff2b4c1b1f1fa60	-1.169130034540693
4	0xbfaa5fd29fb5fa16	-0.05151231956095985
5	0xbfa13ff5d1a1b4f2	-0.033691102828791744
6	0xbfe512608df9a070	-0.6584933064414269
7	0x3fcf2c4bca5becbb	0.24353930836500645
8	0xbfe4e4775d14107e	-0.6528889482438129
9	0x3fdb57258e4a4448	0.4271940125991631
10	0xbfe9c3d9bbaa6a36	-0.8051575341554045
11	0xbff2f6acd6d06905	-1.1852234259773138
12	0xbfae50b99668c406	-0.05920963250208193
13	0xbfab1b4ca57cbadf	-0.05294265289409394
14	0xbfe5fff62d04df51	-0.6874953154829005
15	0x3fcda09ec8e58043	0.2314642411174664
16	0xbfe574648a0035c3	-0.6704580970123789
17	0x3fdbfbdfd31b95e2	0.4372481881713083
18	0xbfe8d7e7c781f35a	-0.7763556381829446
19	0xbff3b642269fbdff	-1.2319966801404687
20	0xbfb4928a02c7d613	-0.08036100929151528
21	0xbfb8fde2e8388a23	-0.09762399835066353
22	0xbfe755379e393bc2	-0.7291524973205628
23	0x3fcdcd7e66a1ca60	0.23283367167785496
24	0xbfe575f84777d60b	-0.6706506152974624
25	0x3fdbfa07d462812f	0.43713565579129726
26	0xbfe8e0de89408e1b	-0.7774498635012067
27	0xbff3b9c517a721cd	-1.2328539775791
28	0xbfb48180460e15fe	-0.08010102949454986
29	0xbfb8c8c12da22831	-0.09681327213380155
30	0xbfe75d524ab825f6	-0.7301417788850688
31	0x3fcdc65841995ae5	0.23261550143316537
32	0xbfe580d31f76333a	-0.6719756712423994
33	0x3fdbee4b95893127	0.43641938784709783
34	0xbfe9049393a9eefa	-0.7818086513575218
35	0xbff3c59a23d7c07d	-1.2357427024944905
36	0xbfb43d51b8e3403e	-0.07906065715656127
37	0xbfb7df98096a1e20	-0.09325552205893262
38	0xbfe77c06990aadcd	-0.7338898648353563
39	0x3fcda0cfe9171893	0.23147009736402832
40	0xbfe5894fdb768107	-0.6730117117295159
41	0x3fdbed4480b2b22a	0.43635666435401055
42	0xbfe9288a557e4b3a	-0.7861987752715784
43	0xbff3d3debc800d24	-1.2392260897912104
44	0xbfb3da7bfaae1f93	-0.07755255575295754
45	0xbfb6cc538bab2b6a	-0.08905527267340366
46	0xbfe7909277c65e7f	-0.7363979663231958
47	0x3fcd919b4f73d5de	0.23100606326595047
48	0xbfe589ac88b30cb0	-0.6730559034262082
49	0x3fdbd09a82edc7fb	0.4346071508981592
50	0xbfe9500fc632686b	-0.7910231467278782
51	0xbff3edf6d769e9e4	-1.2455967344854963
52	0xbfb3b44a44c665b8	-0.07696975878788848
53	0xbfb5920433845691	-0.08425928361642777
54	0xbfe7c3c034f31eeb	-0.7426453622983592
55	0x3fcd340ef236d450	0.22815119578231924
56	0xbfe59d5cff0aabad	-0.6754593831332066
57	0x3fdbdb7af4198a5f	0.43527101362102444
58	0xbfe96eb620f12ce9	-0.79476458009722
59	0xbff3f99b161fc3bd	-1.2484389175626653
60	0xbfb3b511644c3dec	-0.07698162745167964
61	0xbfb4c79db662b6fe	-0.08117089941762498
62	0xbfe7e61f2f2a801b	-0.7468410416804575
63	0x3fcd18f0a1f82034	0.22732360752729763
64	0xbfe5a3c3794b85fe	-0.6762406701129178
65	0x3fdbdd73e8697d53	0.43539140411845273
66	0xbfe977044485a400	-0.7957784021683665
67	0xbff3fba5f30b5226	-1.2489375585474902
68	0xbfb3b619945d7d7e	-0.07699737426945849
69	0xbfb497de8c7de0c0	-0.08044234209035306
70	0xbfe7ee977d13aaa4	-0.7478749697596254
71	0x3fcd0db31c90a1dd	0.22698058028005522
72	0xbfe5b57b04e45faf	-0.6784033866451774
73	0x3fdbe0c12e9a8eab	0.4355929331888812
74	0xbfe99836637e9121	-0.7998306220293082
75	0xbff405323752f3c1	-1.2512685929388996
76	0xbfb3d0d7a36a495e	-0.07740543117168872
77	0xbfb4061a80b364c5	-0.0782181324206191
78	0xbfe8125066f45890	-0.7522356043653122
79	0x3fccd11b6630a47d	0.22513144006487443
80	0xbfe5b7c01a13b175	-0.6786804684939357
81	0x3fdbe617d4ad63e6	0.43591876763599513
82	0xbfe9a2e27002711a	-0.8011333644567771
83	0xbff40779fdf1cbf7	-1.2518253249843363
84	0xbfb3bf18b279c4fd	-0.07713465077701538
85	0xbfb3cd08c83d4a3f	-0.07734732521684239
86	0xbfe818b6ead8a854	-0.7530169092981489
87	0x3fccc9b9ee8d3ab0	0.22490619800597278
88	0xbfe5bd08415a7969	-0.6793252254899872
89	0x3fdc018a945cd017	0.43759407509355824
90	0xbfe9d314dc52aa36	-0.8070167830640631
91	0xbff40d9224687819	-1.253313200205872
92	0xbfb35f2bf075b437	-0.07567095394706845
93	0xbfb2ed05746f7c46	-0.07392915814078646
94	0xbfe82d24824279b2	-0.7555105728277367
95	0x3fccc63c5c46a247	0.2247996759954438
96	0xbfe5bfbc98378301	-0.6796553585992059
97	0x3fdc1d61c768ba14	0.4392933318476093
98	0xbfea0229c6d6f5a7	-0.8127640613162627
99	0xbff411d22bb7b821	-1.2543508250923951
100	0xbfb2d2d06262980a	-0.07352926637631199
101	0xbfb1f60d21592659	-0.07016069473424959
102	0xbfe83ea08d76729e	-0.7576449168150992
103	0x3fcccc31577fa145	0.22498146793737753
104	0xbfe5c191b18538d4	-0.6798790423579484
105	0x3fdc2404f1e21cdf	0.4396984445706504
106	0xbfea0d805492bb4f	-0.814148106748556
107	0xbff412358e1c6b47	-1.2544456053935436
108	0xbfb2a56c73477614	-0.07283666433746588
109	0xbfb1b5623c7b5391	-0.06917394615750384
110	0xbfe841ebe57370f9	-0.7580470544303629
111	0x3fcccd5b71e0118a	0.22501700458827784
112	0xbfe5ce16d62910d7	-0.6814073736973353
113	0x3fdc9fdad3652b6b	0.44725676197111025
114	0xbfeac94999f01080	-0.8370712286564554
115	0xbff417ae70e85e1f	-1.2557815943199626
116	0xbfb04c51d2be5239	-0.06366454501250808
117	0xbfab617ab78af92a	-0.05347808352006418
118	0xbfe87d44b89cc04f	-0.7652915578564804
119	0x3fccb9bdb33066a8	0.22441836595026143
120	0xbfe5fe5c94eb371a	-0.6873000057764529
121	0x3fde4b30f97ec02c	0.4733393131709842
122	0xbfedb9af6a345882	-0.9289166521364367
123	0xbff4278313be94d7	-1.2596464892642893
124	0xbf97433e78ef311c	-0.02271745312809613
125	0x3f87b536929d4498	0.011576105450929838
126	0xbfe92719a96dcde4	-0.7860229787024164
127	0x3fcc022f34e7dc40	0.21881666262899735
128	0xbfe5feb7b2c783bc	-0.6873434535774474
129	0x3fde4d8568772e6a	0.47348151399339733
130	0xbfedbc4e5b6bbc5d	-0.9292365823329295
131	0xbff42791e0abf04d	-1.2596606041179428
132	0xbf97124f47766c00	-0.022530783402185506
133	0x3f884533d22fb86f	0.011850743152504088
134	0xbfe92750f85c89f0	-0.7860493517694618
135	0x3fcc00fce0781acf	0.21878014526756437
136	0xbfe6004e09c91c4a	-0.6875372115254177
137	0x3fde5c6753d83c81	0.4743898695750844
138	0xbfedc77c4c70e504	-0.9306012623775648
139	0xbff4293e121ebd1f	-1.2600689609351503
140	0xbf96b2c91a02e4b4	-0.022166387760738274
141	0x3f89c2171868538a	0.012577228958471815
142	0xbfe928414cea40d5	-0.7861639501807313
143	0x3fcbfae4a8b6cc85	0.21859415281287312
144	0xbfe607e722ef6434	-0.6884647066427818
145	0x3fde874ab2ae42db	0.4770075554779802
146	0xbfedf1b359836bac	-0.9357544658954473
147	0xbff42b20e90fed73	-1.2605294326775407
148	0xbf93cf20418e7215	-0.019344810487028925
149	0x3f911a04f7f1cf4d	0.016700818665824447
150	0xbfe92df0cf86faee	-0.7868579915301248
151	0x3fcbe78795ef8755	0.21800322362019622
152	0xbfe22349a80816be	-0.5668075830332879
153	0x3fe2f5bfa43d6e23	0.592498608380485
154	0xbff1e7917e72d849	-1.1190352382086692
155	0xbff5c93e8b0f25ce	-1.3616319114683963
156	0x3fc773de781fb5cb	0.18322354188369014
157	0x3fd2255d4fc7da32	0.28353054801064836
158	0xbfe9c7e2a611fd32	-0.8056500667152362
159	0x3fbfd07a256880a3	0.12427485860144087
160	0xbfe1488675fd6322	-0.5401031784523165
161	0x3fe42c107ceefbd2	0.6303789558513648
162	0xbff25cc1d2bfb7e0	-1.147645781743897
163	0xbff683f3e9e11243	-1.4072150360017452
164	0x3fd36050c54f7e0e	0.302753632246067
165	0x3fd955b5a8d0937f	0.39585629926505556
166	0xbfe8dcb7f049a0de	-0.776943177520504
167	0x3fa06ea28793913e	0.032094077157838616
168	0xbfe03c703627a91c	-0.5073777253831255
169	0x3fe5d4414bfb62d8	0.6821600421927441
170	0xbff2f4e2a984b55f	-1.1847864744007308
171	0xbff72be7161ceb5c	-1.4482184280193087
172	0x3fdd0cea6aeab04e	0.45391331139649516
173	0x3fe0a8b4c8be9c82	0.5205940171043866
174	0xbfe876bf308eff17	-0.76449546321962
175	0xbfab2d466ddbc856	-0.053079796705689006
176	0xbfdfa5ab3a2910e9	-0.49448662452438313
177	0x3fe66eac41fa7455	0.7010098732604414
178	0xbff42307f3aa32e6	-1.2585525053174762
179	0xbff7fd6a6ee6dd91	-1.499369080744007
180	0x3fe379e740d1aeef	0.6086307779309815
181	0x3fe480b54ee8e90f	0.6407114545066025
182	0xbfe8f54b85a3ba97	-0.7799432382724544
183	0xbfc2a7686b3b7b3e	-0.1457338832469421
184	0xbfde352538eef19d	-0.4719937377920134
185	0x3fe76c2062595b8c	0.7319490357284493
186	0xbff45054f9b9d5a4	-1.2696122889441108
187	0xbff8ad36b862ea25	-1.5422885134308981
188	0x3fe697db107032c8	0.7060370751438194
189	0x3fe61281f8d6381f	0.6897592411130552
190	0xbfe93845625a2e56	-0.7881190224592938
191	0xbfcd9a6f10ecc806	-0.23127544714367348
192	0xbfddb909da7f5c58	-0.4644188531651188
193	0x3fe8124e6792b4ea	0.7522346518432219
194	0xbff52adfd1c7b283	-1.3229673571142093
195	0xbff9185e65eadab7	-1.568449400057643
196	0x3fe995633a173cf9	0.7994857916436607
197	0x3fe76ab7259906c2	0.7317767843562353
198	0xbfea802acb5b0009	-0.828145405939723
199	0xbfd418248668e4a5	-0.3139735519976717
200	0xbfdcd316f135bd2b	-0.45038388782173183
201	0x3fe846f1b7273cc2	0.7586601807796785
202	0xbff5b9d653f3cf5f	-1.3578704146757088
203	0xbff9ac5e86729c8e	-1.6045823337424596
204	0x3febddad4c846922	0.8708101744153149
205	0x3fe824e3edd31d34	0.7545032162678695
206	0xbfebc53bf9c40b7c	-0.8678264501798902
207	0xbfd877657a82a5d8	-0.3822873779668874
208	0xbfdc0ee708083638	-0.4384095743597274
209	0x3fe92d0fa316ee69	0.7867506203978795
210	0xbff69115c5723802	-1.4104211533299353
211	0xbffa036cf1eafdfa	-1.6258363199157189
212	0x3fed9f16c4675d49	0.9256700359355047
213	0x3fe93a2e562d6fa8	0.7883521731523517
214	0xbfeceed65c9edb83	-0.9041549500460494
215	0xbfdc2ba21f2e0631	-0.4401631645669993
216	0xbfdb25503109fa64	-0.42415241993868436
217	0x3feac624975ae562	0.8366873699334685
218	0xbff53639c00f925f	-1.3257386686683714
219	0xbff985f7892a1da0	-1.5952067716587877
220	0x3feb14094ea63a08	0.8461958442802038
221	0x3fe537364bb48858	0.6629897574059767
222	0xbfec8acab678c3da	-0.8919423641110555
223	0xbfde9467ccbadf71	-0.47780795090829203
224	0xbfd5cd9b69ba55bd	-0.34067426037776355
225	0x3feedc4239978fcd	0.9643870472759716
226	0xbff16e90375eeee1	-1.0894930041239876
227	0xbff8b56f4e42cab8	-1.544295602518714
228	0x3fe8349712f5f280	0.7564196939780032
229	0x3fe0aa5704651826	0.5207934461439023
230	0xbfea9e7bbd225615	-0.8318461126352213
231	0xbfe09939f5b30084	-0.5187043951809902
232	0xbfd4ac0a2305f083	-0.3230004636786889
233	0x3ff0f295dc2cafd0	1.0592249489372882
234	0xbff0a3f69cfc8088	-1.0400301105765113
235	0xbff7c472b2235260	-1.485460944987743
236	0x3fe7aa8173c3ea84	0.7395636807480774
237	0x3fe09437f0928afc	0.518093080394777
238	0xbfea5064e3e625f8	-0.8223137332108186
239	0xbfe291f43bb6b24f	-0.5803166548044575
240	0xbfd7f0d741d53556	-0.3740747588061216
241	0x3ff0dd16c87c8879	1.0539768058302157
242	0xbff3ad8ba31c8d15	-1.2298694964927723
243	0xbff713e8c4b3ac95	-1.4423606570879077
244	0x3fe98ff652a7a767	0.798823510585163
245	0x3fe4941b0b2d0b7a	0.6430793016701124
246	0xbfec6724e87f5ce5	-0.8875908413855568
247	0xbfe5d97c211de236	-0.6827984473048392
248	0xbfdb670ac3b484fa	-0.42816418754416896
249	0x3ff0331fde2276e0	1.0124815632947772
250	0xbff690df73087066	-1.4103693479037474
251	0xbff70034626514c6	-1.4375499576138266
252	0x3feb3dd158827c25	0.8512961128907405
253	0x3fe7dc9bb679e46e	0.7456797183978219
254	0xbfee71857c01c39c	-0.951357595635375
255	0xbfe9a656547a6c2e	-0.8015548372235395

poses f8 [344, 156]
0	0xbfcb0c3bfbe15311	-0.21131086157642945
1	0x4001a130bbe5a2a9	2.203706233926216
2	0x4002b3bc9fa9e140	2.337762114879439
3	0x3fd7adff6e13a2f3	0.36999498128584135
4	0x3fc030873ca1574b	0.12648096523724414
5	0x3f9802659ce616f6	0.02344664354452327
6	0xbfdfe06f3e5b2af4	-0.49807339753594637
7	0xbf622802f677f5dd	-0.0022163446299134763
8	0xbf9e3a1be1bd7966	-0.029518542912563638
9	0x3fce99e7c43dbcb8	0.23907181818092282
10	0xbfbda04730632148	-0.11572689944580816
11	0x3f95c81bf722f63c	0.021271168669718885
12	0x3fb04d9070430046	0.06368353596462936
13	0xbfc9cb8cb3c7bd1e	-0.2015243413766052
14	0xbfa1b9e9c274661b	-0.034621529566902086
15	0x3fd25f725ef707fc	0.2870756080047838
16	0xbfce0348d1599626	-0.23447523328938863
17	0x3fad5f49b4b8636f	0.05736761408861112
18	0x3fabd85425a7f6b0	0.05438483199757849
19	0xbf946cda64d9eeb8	-0.019946491628145963
20	0x3faa94e4dec7738c	0.051917221255030815
21	0xbfe0d797b992281e	-0.5263174652511713
22	0x3fc7e8b40308879f	0.18678903720961856
23	0x3fbcb938edc1796d	0.11220126919349634
24	0xbfca42c01a4a8e37	-0.20516206058265293
25	0xbfc5bf8ca6d39547	-0.16990812440705325
26	0x3fbad41c402f5927	0.10479904715552789
27	0x3fa34ed8774a5196	0.03771091896229277
28	0xbfaed871fc9234fa	-0.06024509628432813
29	0x3f9b89565189d8f5	0.02689108727141672
30	0x0000000000000000	0.0
31	0x0000000000000000	0.0
32	0x0000000000000000	0.0
33	0x0000000000000000	0.0
34	0x0000000000000000	0.0
35	0x0000000000000000	0.0
36	0xbf8792ba6ba8e047	-0.0115103305916905
37	0x3fb41cd02e81a6e5	0.07856465468799063
38	0x3fabf92d1e69df74	0.054635438883393755
39	0x3fa1ad375fc08aa0	0.034524660528650886
40	0xbf9783391c631d65	-0.02296151386033553
41	0xbfddd664dae527a2	-0.4662105691573918
42	0x3f9f2caa154731bd	0.03044381861563904
43	0x3f9d24b76dab85f7	0.028460374897695897
44	0x3fdfac609fc90197	0.49489608387013945
45	0x3fb3b7bb745e7798	0.07702228156128255
46	0xbfa2536373b6985e	-0.03579245364680682
47	0xbfa4fb98ca71a562	-0.04098203154792192
48	0x3fc08ab59c10d73a	0.12923307533645262
49	0xbfd5c06d262dc022	-0.3398697731818193
50	0xbfee7b02fd168afa	-0.9525160735250602
51	0x3fcbcf5b7673c5f9	0.21726554187584649
52	0x3fc12ff34b826007	0.13427582919098333
53	0x3fefcc394a4895a0	0.9936796618318802
54	0x3fcfa97984c42fd8	0.24735945685131244
55	0xbfe22011fea9dd6e	-0.5664148305794876
56	0x3fb15c8edd2d1b67	0.06781857394990497
57	0xbfa90e9906b7141c	-0.048939497060509235
58	0x3fd6110ef8d0e2b9	0.34479116724427744
59	0xbfcb9af8f07b5edf	-0.21566688291817734
60	0xbfbce2cce166c2ee	-0.11283569815601499
61	0xbfd057f9ffd81cb2	-0.255369663093414
62	0xbfb423c2875711cc	-0.07867065242960009
63	0x3f875e1cc1f8fee9	0.011409973783087906
64	0x3fc0c8da82ce3649	0.13112956416118696
65	0x3fc3d7ed6ce94fd8	0.15502708261430942
66	0x3fbc96f9ef8cbb80	0.1116787156904433
67	0x3fa5f5f69064a9d6	0.04289217484104639
68	0xbfdaa6fba972eb83	-0.416441836812446
69	0x3fbbdb0f1ae5f82d	0.10881132513711185
70	0xbfb0e46ffcc94db1	-0.06598567887822672
71	0xbfe832f44e70ffdb	-0.7562200100001023
72	0xbfb8ad3598d7589f	-0.09639296514009964
73	0xbfb7463fa70bc42f	-0.09091565922041477
74	0xbfc81f6f1d15e4ae	-0.1884592906970161
75	0xbfbe3b79fbcd3ee6	-0.11809503934386675
76	0x3faa155009c25400	0.05094385260705536
77	0xbfe0f25b317bb495	-0.529584499976084
78	0xbfc264b59ee920ae	-0.14369840869244882
79	0x3fac48a3dde1d317	0.05524170001527844
80	0xbfe68e308ff3effc	-0.7048571406917286
81	0xbf93a4afc1e05eba	-0.019182916839865817
82	0xbfb7a3633f4da757	-0.09233684821597642
83	0xbfd5a0600c25316a	-0.3379135244947721
84	0xbfdd4007452532a9	-0.4570329833266365
85	0xbfc91fd5129b446c	-0.196283945164882
86	0xbfe403bf84134bc5	-0.6254575328442732
87	0xbfcb79baa98028e5	-0.21465237881086022
88	0xbfb0e5438212e1b6	-0.06599828649166892
89	0xbfe0387a3333a1c9	-0.5068942070038754
90	0xbfd7a99059db1e75	-0.36972435736649994
91	0xbfaee57da96b62f6	-0.06034462636097786
92	0xbfb45978b9149bac	-0.07949022787634757
93	0xbfc228c941275414	-0.14186969453172138
94	0xbfb5fa702c5f7001	-0.08585263331718808
95	0xbfe4563f5ac553da	-0.6355282566897771
96	0xbfd369f2d570f6e5	-0.3033415874850632
97	0xbfada2933f55200b	-0.05788097522832921
98	0xbfe4345724f55f32	-0.6313892099233043
99	0xbfc68b2110a5f467	-0.1761208850183806
100	0xbfc0e86d094eb2c6	-0.13209307627166406
101	0xbfd7e50a97ee8c36	-0.37335457646458126
102	0x3feb3b197087c74e	0.8509642789706306
103	0x3fd1b91a2a2c0bae	0.2769227420650918
104	0xbfb76fb1bdba339c	-0.09154806978240376
105	0xbfdffd5e8d757e3f	-0.49983943762160615
106	0x3f9b319eadb48959	0.026556472160458842
107	0x3fab1333c84d4091	0.05288087673273013
108	0x3fe1234cf019ce3b	0.5355591477841196
109	0x3fa788349f95d372	0.04596104095518329
110	0xbfd1c03bdba5f53a	-0.2773580212595622
111	0x3fbc96f9ef8cbb80	0.1116787156904433
112	0xbfa5f5f69064a9d4	-0.04289217484104638
113	0x3fdaa6fba972eb84	0.41644183681244606
114	0x3fbbdb0f1ae5f82d	0.10881132513711185
115	0x3fb0e46ffcc94db0	0.0659856788782267
116	0x3fe832f44e70ffdb	0.7562200100001023
117	0xbfb8ad3598d7589f	-0.09639296514009964
118	0x3fb7463fa70bc42f	0.09091565922041477
119	0x3fc81f6f1d15e4af	0.18845929069701614
120	0xbfbe3b79fbcd3ee5	-0.11809503934386674
121	0xbfaa155009c25401	-0.05094385260705537
122	0x3fe0f25b317bb495	0.529584499976084
123	0xbfc264b59ee920af	-0.14369840869244885
124	0xbfac48a3dde1d318	-0.05524170001527845
125	0x3fe68e308ff3effc	0.7048571406917286
126	0xbf93a4afc1e05ebb	-0.01918291683986582
127	0x3fb7a3633f4da757	0.09233684821597642
128	0x3fd5a0600c25316a	0.3379135244947721
129	0xbfdd4007452532a9	-0.4570329833266365
130	0x3fc91fd5129b446d	0.19628394516488204
131	0x3fe403bf84134bc5	0.6254575328442732
132	0xbfcb79baa98028e7	-0.21465237881086027
133	0x3fb0e5438212e1b6	0.06599828649166892
134	0x3fe0387a3333a1c9	0.5068942070038754
135	0xbfd7a99059db1e75	-0.36972435736649994
136	0x3faee57da96b62f4	0.06034462636097784
137	0x3fb45978b9149bad	0.07949022787634759
138	0xbfc228c941275416	-0.14186969453172144
139	0x3fb5fa702c5f7001	0.08585263331718808
140	0x3fe4563f5ac553da	0.6355282566897771
141	0xbfd369f2d570f6e5	-0.3033415874850632
142	0x3fada2933f55200c	0.05788097522832922
143	0x3fe4345724f55f32	0.6313892099233043
144	0xbfc68b2110a5f468	-0.17612088501838064
145	0x3fc0e86d094eb2c6	0.13209307627166406
146	0x3fd7e50a97ee8c36	0.37335457646458126
147	0x3feb3b197087c74e	0.8509642789706306
148	0xbfd1b91a2a2c0bae	-0.2769227420650918
149	0x3fb76fb1bdba339d	0.09154806978240378
150	0xbfdffd5e8d757e3f	-0.49983943762160615
151	0xbf9b319eadb48959	-0.026556472160458842
152	0xbfab1333c84d4090	-0.05288087673273012
153	0x3fe1234cf019ce3a	0.5355591477841195
154	0xbfa788349f95d374	-0.0459610409551833
155	0x3fd1c03bdba5f53c	0.2773580212595623
156	0xbfce8f6909f37c7a	-0.2387515352811283
157	0x4001c4530761083c	2.2208614899145953
158	0x4002b5ff1f7c06ce	2.3388655147290143
159	0x3fd6e2863f9faf7d	0.3575759526563543
160	0x3fbee6838ca28a3d	0.12070486243695995
161	0x3fa0aec11dab5268	0.03258326995061084
162	0xbfe02c3786789a2a	-0.5053975702656477
163	0xbf8031883f70bc49	-0.007906975208326854
164	0xbfa34ad94b0a1736	-0.03768042603500847
165	0x3fcf219e01b797a1	0.24321341594548776
166	0xbfbe1d402a0c4372	-0.11763382937011871
167	0x3f98254817744fdb	0.023579718047656555
168	0x3fb4967980d3077f	0.08042106051564522
169	0xbfca7ed4f75b20e3	-0.20699560239723444
170	0xbfa18742f6d1e72f	-0.03423508894861837
171	0x3fd13492ca5b7273	0.2688338256973914
172	0xbfcf57828ca36d35	-0.24485809199436806
173	0x3fadeca742c96390	0.05844614687220606
174	0x3fa58647c7c4caff	0.042040103088217144
175	0xbfa029b0ab4287db	-0.03156807032179617
176	0x3fadd93c017ffb94	0.05829799192723964
177	0xbfe12fc424201232	-0.537080832059081
178	0x3fc6459e42d810a6	0.173999579085039
179	0x3fbdefc71816944c	0.11693996751871899
180	0xbfca017894b95d31	-0.20316989194791682
181	0xbfc6728fd0949491	-0.17537114796246958
182	0x3fbbc6986a19ae5a	0.10849907484378588
183	0x3fa566ccb2ae0103	0.04179992371700971
184	0xbfb0f0b8a2b672a4	-0.06617311451413826
185	0x3f9bfbb4759a4019	0.02732736556805557
186	0x0000000000000000	0.0
187	0x0000000000000000	0.0
188	0x0000000000000000	0.0
189	0x0000000000000000	0.0
190	0x0000000000000000	0.0
191	0x0000000000000000	0.0
192	0xbf989296662772d7	-0.023996686921111312
193	0x3fb48a5dd549b794	0.08023630578256152
194	0x3fae559f5c78203e	0.05924699786925246
195	0x3fa2ecb8cf5b936b	0.03696229487630983
196	0xbf961ae813fc1080	-0.0215870153615616
197	0xbfdda6e0e4663d5a	-0.46331045441271146
198	0x3f9e23d11c7fb72f	0.02943350540584005
199	0x3f9773e9092826d7	0.022903100189103433
200	0x3fdf7721b74d0465	0.4916462221190783
201	0x3fb6f5066c3c4a31	0.08967628614872393
202	0xbfa3409e9379f8bb	-0.03760238218545583
203	0xbfa6c67672e78edb	-0.04448290016787634
204	0x3fbecc4487ae3c2a	0.12030437767519744
205	0xbfd64f799570188d	-0.3486007651666874
206	0xbfeeab6ec2d83c02	-0.9584268384513737
207	0x3fcbf538ef928c9d	0.21842109392045908
208	0x3fc1600db6be855b	0.13574382231767398
209	0x3fefd643900d4c7e	0.9949052632822626
210	0x3fd00caca47369c6	0.2507735830273784
211	0xbfe1f24ee4e401e1	-0.5608286352654056
212	0x3fb200f65aaa0109	0.07032718385199045
213	0xbfa4eb7a52bf6fc0	-0.04085905323128669
214	0x3fd622ee555c2e26	0.3458820184320949
215	0xbfcbc129f07bbe68	-0.21683239214279415
216	0xbfbb0244d2b29f36	-0.10550336975086058
217	0xbfd0d85ae5a57b04	-0.2632052652970034
218	0xbfb631398008c75e	-0.08668860793912134
219	0x3f81de49d6acf70c	0.008724762786751515
220	0x3fc13ddc0d63e290	0.13470030454461268
221	0x3fc4a2626cab3c23	0.1612055807695195
222	0x3fbc96f9ef8cbb80	0.1116787156904433
223	0x3fa5f5f69064a9d6	0.04289217484104639
224	0xbfdaa6fba972eb83	-0.416441836812446
225	0x3fbbdb0f1ae5f82d	0.10881132513711185
226	0xbfb0e46ffcc94db1	-0.06598567887822672
227	0xbfe832f44e70ffdb	-0.7562200100001023
228	0xbfb8ad3598d7589f	-0.09639296514009964
229	0xbfb7463fa70bc42f	-0.09091565922041477
230	0xbfc81f6f1d15e4ae	-0.1884592906970161
231	0xbfbe3b79fbcd3ee6	-0.11809503934386675
232	0x3faa155009c25400	0.05094385260705536
233	0xbfe0f25b317bb495	-0.529584499976084
234	0xbfc264b59ee920ae	-0.14369840869244882
235	0x3fac48a3dde1d317	0.05524170001527844
236	0xbfe68e308ff3effc	-0.7048571406917286
237	0xbf93a4afc1e05eba	-0.019182916839865817
238	0xbfb7a3633f4da757	-0.09233684821597642
239	0xbfd5a0600c25316a	-0.3379135244947721
240	0xbfdd4007452532a9	-0.4570329833266365
241	0xbfc91fd5129b446c	-0.196283945164882
242	0xbfe403bf84134bc5	-0.6254575328442732
243	0xbfcb79baa98028e5	-0.21465237881086022
244	0xbfb0e5438212e1b6	-0.06599828649166892
245	0xbfe0387a3333a1c9	-0.5068942070038754
246	0xbfd7a99059db1e75	-0.36972435736649994
247	0xbfaee57da96b62f6	-0.06034462636097786
248	0xbfb45978b9149bac	-0.07949022787634757
249	0xbfc228c941275414	-0.14186969453172138
250	0xbfb5fa702c5f7001	-0.08585263331718808
251	0xbfe4563f5ac553da	-0.6355282566897771
252	0xbfd369f2d570f6e5	-0.3033415874850632
253	0xbfada2933f55200b	-0.05788097522832921
254	0xbfe4345724f55f32	-0.6313892099233043
255	0xbfc68b2110a5f467	-0.1761208850183806
