data/amass/ACCAD/Male2Walking_c3d/B18 -  Walk to leap to walk t3_poses.npz (npz, 983488 bytes, 5 tensors)

trans f8 [735, 3]
0	0x400af9808b053c05	3.3718272076580456
1	0xc008ec0642d07fad	-3.115246316898228
2	0x3feb811e2705ccf6	0.859511448112612
3	0x400afa7d5e9aaf9b	3.3723094359356316
4	0xc008ebe5dae0d0ef	-3.115184507356495
5	0x3feb921b81fc3885	0.8615853823446434
6	0x400af958b110bb71	3.371751197169424
7	0xc008f0aba63c295d	-3.1175148951635223
8	0x3feb99184807ad4b	0.8624383360706046
9	0x400af8ffcc15bb31	3.3715816444522706
10	0xc008f242d96553c1	-3.1182915672347638
11	0x3feb9eef5e3e89c9	0.86315124899948
12	0x400af8c141a7bcb0	3.3714623574556626
13	0xc008f283f13f2a61	-3.1184157225991815
14	0x3feba258b13b15f5	0.8635676824130188
15	0x400af8331c9a0f28	3.371191237880243
16	0xc008f1305324637c	-3.1177679534416125
17	0x3feba33bd9121d77	0.863675998655636
18	0x400af869b8f9afd6	3.371295399780119
19	0xc008f13077e9ad64	-3.1177682274043708
20	0x3feba68d801937eb	0.864081144516374
21	0x400af8a85d283cce	3.371414878645374
22	0xc008f30411f0e402	-3.118660106815242
23	0x3feba86daabf03fb	0.8643101057897405
24	0x400af8bb74f9208b	3.3714512957122387
25	0xc008f4301a9f6f3f	-3.119232376089627
26	0x3feba9fba216520b	0.864499870850126
27	0x400af848d012efac	3.371232629373443
28	0xc008f4706cfb408e	-3.11935506002198
29	0x3febab5ced65de03	0.8646683346441367
30	0x400af3d27da1b420	3.36905382299166
31	0xc008e67a3ef0d0f3	-3.112537852977874
32	0x3febb0962a6fee46	0.8653059796192302
33	0x400af3e2db00c0c2	3.3690850362400804
34	0xc008e651df97631a	-3.112460848624676
35	0x3febb2350256f52d	0.8655037923523757
36	0x400af44fc09f8116	3.369292740695651
37	0xc008e607472292ca	-3.1123185689378703
38	0x3febb1c8a19dca1b	0.8654521137780792
39	0x400af8cfe810fdd7	3.37149030019621
40	0xc008efdcea6d1c49	-3.1171205820606116
41	0x3feb9e1dcd36f389	0.8630513198946669
42	0x400af801d4cfbbb2	3.3710972429175508
43	0xc008f108cd2c1a36	-3.1176925686916332
44	0x3feb9f84b0518edc	0.863222450611342
45	0x400afd7cfe3c7f58	3.3737735616886475
46	0xc0090198eb70d4cc	-3.125779952412449
47	0x3feb9e36439109dd	0.8630629844340622
48	0x400afd28b5cc1ab9	3.37361280469062
49	0xc00903416f2b2d07	-3.126589649682163
50	0x3feba0f5f33451af	0.8633985281072024
51	0x400af5f7fc0b9432	3.370101899245605
52	0xc008f5d46dee9f66	-3.1200340832182745
53	0x3feb9ff00fb015a5	0.8632736498263297
54	0x400af5ada89a2f8f	3.3699601337484135
55	0xc008f51756807458	-3.119673419757003
56	0x3feb9dbfffb9a795	0.863006591285045
57	0x400af543e3a5bd4f	3.369758394713848
58	0xc008f5d1d4028592	-3.120029121710737
59	0x3feb9c288ea897c9	0.8628123079586142
60	0x400af49e977ed358	3.369443114812764
61	0xc008f6ef283800a8	-3.120573343476355
62	0x3feb9adf8014d050	0.8626554013812981
63	0x400af16917cedf29	3.3678762302405585
64	0xc008f7d6d16a4df7	-3.1210152016226362
65	0x3feb9c64e5a17e48	0.8628410801865778
66	0x400af448cda0ebf2	3.3692794861540216
67	0xc008f4fff08dea84	-3.119628791171012
68	0x3feba5e08231b778	0.8639986555915433
69	0x400af4c22138213d	3.3695108981375186
70	0xc008f508fdd08f62	-3.119646056105851
71	0x3feba01a5b4d89b6	0.8632938178309846
72	0x400af4950d609755	3.369424919615009
73	0xc008f49c6b24e65a	-3.1194389696727685
74	0x3feb9c77fbcae759	0.8628501813720774
75	0x400af3a7ae9d9672	3.3689721719591086
76	0xc008f430669d5469	-3.1192329422724936
77	0x3feb9a207a5a2dfc	0.8625643148129138
78	0x400af3367295f1d3	3.368756194306323
79	0xc008f46e3001a2e8	-3.119350791025102
80	0x3feb9e99d289cf8c	0.8631104576183914
81	0x400af26a946a7ef5	3.368367347240446
82	0xc008f41f9ccb6189	-3.1192009210173564
83	0x3feb9c4f71404b5a	0.8628308498322028
84	0x400af2b8b92cd1cd	3.368516394310268
85	0xc008f44a4e816f21	-3.1192823537111427
86	0x3feb9aae713bf307	0.862632008705618
87	0x400af2bbea964441	3.3685224845035298
88	0xc008f410f0f9d3d6	-3.119172937988405
89	0x3feb99e8a3aec7d7	0.8625376889160589
90	0x400af22d234cbe6b	3.3682501561923366
91	0xc008f34a37bb6811	-3.1187939027850082
92	0x3feb992f2d609098	0.8624492536805688
93	0x400af102fdf65585	3.3676814881134214
94	0xc008f1c93552ce24	-3.1180595556159165
95	0x3feb9942fdf72194	0.86245870211228
96	0x400aee8540568936	3.3664650942238508
97	0xc008f0cbf3c8886d	-3.117576508099822
98	0x3feb8d683cfc2a49	0.8610116187204052
99	0x400aedaa17998aa4	3.3660470813495795
100	0xc008f02aaeb7fc98	-3.1172689103983195
101	0x3feb8c33bff9b1b3	0.8608645200270558
102	0x400aecdbeb45496c	3.3656538372535376
103	0xc008f02993b30d5d	-3.117266801740398
104	0x3feb8c4101af4275	0.8608708413031098
105	0x400aebcdb4cf1e5e	3.3651384473521793
106	0xc008efff9d21c0f6	-3.1171867633748844
107	0x3feb8c58e31ac6e3	0.8608822284351983
108	0x400aeb04cc5a2a8e	3.3647552456871557
109	0xc008ef6a5b7e4d61	-3.116902079383792
110	0x3feb8c8da2c2498f	0.8609073809514473
111	0x400aea838ff943e3	3.3645087478584954
112	0xc008eeecc46d6f5e	-3.1166625352761193
113	0x3feb8d3804c11ec6	0.8609886257990744
114	0x400aea47473e551d	3.364393765058266
115	0xc008eea3397afedd	-3.1165222635898844
116	0x3feb8d825359cfc3	0.861024058146079
117	0x400aeab2d3bbbfb9	3.364598898093359
118	0xc008ee77a9f2b107	-3.116439178198678
119	0x3feb8cf45532f10a	0.8609563507120879
120	0x400aea99d09901fd	3.3645511910146966
121	0xc008ee962f534943	-3.1164973923961568
122	0x3feb8bde3cf62091	0.8608237448361412
123	0x400ae9af3d3b6f9d	3.3641037734759736
124	0xc008ef3fc243ef64	-3.116820829103675
125	0x3feb8b3485c3cdd8	0.8607428181261936
126	0x400ae7a55e69f4e9	3.3631083847127354
127	0xc008edb9e1697e35	-3.116077195197955
128	0x3feb8a1860daf652	0.8606073276238908
129	0x400ae6741238fcfa	3.3625260757104316
130	0xc008ecf07dfff207	-3.1156930774434417
131	0x3feb896a0012ba25	0.8605241776875273
132	0x400ae5fc71a63c1d	3.362297904859146
133	0xc008ecb136079c54	-3.1155723782608593
134	0x3feb891323cc9599	0.8604827593996333
135	0x400ae53cc442f53f	3.3619323094305
136	0xc008ebec4c1e6c42	-3.1151967951568915
137	0x3feb89940e73fae8	0.8605442316328125
138	0x400ae40631319754	3.361339935613538
139	0xc008eb6e9d8310e9	-3.1149570756552873
140	0x3feb89e3926c9afb	0.8605821475838121
141	0x400ae2c04c7ab0f5	3.3607183432524104
142	0xc008eb83e4dea935	-3.1149976616335615
143	0x3feb893a16d30e9c	0.8605013318815113
144	0x400ae155f38867a8	3.3600272203447794
145	0xc008eaa3d3d06ea9	-3.1145702884658317
146	0x3feb87dec643af32	0.8603357193328292
147	0x400ae086fcf8689b	3.3596324694927495
148	0xc008e9d2225fb6fa	-3.114170330568297
149	0x3feb869662b2beef	0.8601791312885022
150	0x400adf1daf6b1efe	3.3589433388295893
151	0xc008e8c0da213747	-3.113649086130781
152	0x3feb85807ae75def	0.8600466156448742
153	0x400adda25e520ae8	3.3582198494708457
154	0xc008e889f4a946c0	-3.1135443796309517
155	0x3feb8673fab44dca	0.8601627251213639
156	0x400adcf34d2adc49	3.357885935659884
157	0xc008e86b7c1f7852	-3.1134862610916025
158	0x3feb865ffb73e769	0.860153189772274
159	0x400adbdb3d7417b9	3.3573517609647436
160	0xc008e88bf48caf9a	-3.1135481934961264
161	0x3feb85831d35682d	0.8600478716355205
162	0x400adad894aee6d1	3.356858407580923
163	0xc008e98fc1d4fa5c	-3.114043726265022
164	0x3feb854645735f40	0.8600188595255318
165	0x400ad8ba3686fc07	3.355823923105621
166	0xc008e80e6e9bcdbb	-3.1133087769792076
167	0x3feb8547124f9178	0.8600192411072802
168	0x400ad672a615c19d	3.3547108626737114
169	0xc008e7f63825a977	-3.113262594842293
170	0x3feb84562f330b1d	0.8599043771613172
171	0x400ad41dbf808ef1	3.3535723649127864
172	0xc008e78216c89ab0	-3.113041093823391
173	0x3feb85df09139657	0.8600917031551017
174	0x400ad282e9bfd692	3.35278875939077
175	0xc008e76c8a6af856	-3.1129999936957047
176	0x3feb85b6da499345	0.8600725425172661
177	0x400ad08ed5ec88cd	3.351834937363583
178	0xc008e6c4a5d8f9cd	-3.112679763492656
179	0x3feb858a25216015	0.86005122425104
180	0x400aceb36fb15dd9	3.350928185081767
181	0xc008e72fd949df49	-3.112884233061696
182	0x3feb862bd9c40f2d	0.8601283314933191
183	0x400acc874b0e3956	3.3498674262729464
184	0xc008e78ea0377c98	-3.1130650059636302
185	0x3feb859a434a9703	0.8600589098248012
186	0x400ac99a676d6ff8	3.3484390335343015
187	0xc008e63acffe25a4	-3.112416863387539
188	0x3feb83b776b6100a	0.8598286932542589
189	0x400ac7260ff0caf4	3.3472405667647482
190	0xc008e5ce4caa1422	-3.1122098912624248
191	0x3feb82f19009353e	0.8597343266680253
192	0x400ac4abcb3782c0	3.3460307956996473
193	0xc008e5ab4ca55de3	-3.112143133923142
194	0x3feb83226e692455	0.8597576290568535
195	0x400ac285198432f4	3.3449804299801773
196	0xc008e698db025e45	-3.112596236238263
197	0x3feb82e4560aacfb	0.8597280197622291
198	0x400ac04f14fc4e61	3.34390083689668
199	0xc008e723a6d92d24	-3.1128609690691906
200	0x3feb81915c39c7dd	0.8595663834842032
201	0x400abda2bac73816	3.342595538334545
202	0xc008e68d7008d987	-3.112574458379814
203	0x3feb7f02f8a7b40c	0.8592543465180156
204	0x400abadf9e0704e3	3.341246828641134
205	0xc008e5af44e1cc3b	-3.112150705471803
206	0x3feb7daac1fbabc5	0.8590902127010557
207	0x400ab837d49ad17d	3.339950238203697
208	0xc008e4b69b4c475c	-3.111676419511168
209	0x3feb7d6b67e1172a	0.8590600041286269
210	0x400ab549b1b551f3	3.338519466730071
211	0xc008e36936573063	-3.1110405202253317
212	0x3feb7ca85837e7d7	0.8589669917121182
213	0x400ab24c6ef8e669	3.337059847803904
214	0xc008e2bc6bbad686	-3.1107109466927936
215	0x3feb7bde4b1f6d2a	0.8588706462136646
216	0x400aa428db5b73e4	3.330156053284087
217	0xc008de50907b36ab	-3.108552101860217
218	0x3feb70dbe4572834	0.8575267276548915
219	0x400aa1bc3873e5ca	3.3289722833985467
220	0xc008df4101212b62	-3.109010704827072
221	0x3feb6e91ad57ac79	0.8572471986384606
222	0x400a9dc205c0f412	3.3270302247533516
223	0xc008dedf4317ea57	-3.1088242761300466
224	0x3feb6c9029b94e5e	0.8570023360175119
225	0x400a9947f8d4c945	3.3248443069398115
226	0xc008dc83d360899c	-3.1076733125530165
227	0x3feb6c7bbbb932f3	0.8569925943826021
228	0x400a97490b359826	3.323869788716382
229	0xc008db691e6ae7c5	-3.1071340919852184
230	0x3feb69e6fd9605eb	0.8566775276996713
231	0x400a947ec035eeaa	3.322507383008845
232	0xc008dbfdb2f42ce9	-3.107417486263888
233	0x3feb688c96b8bb46	0.8565123504430197
234	0x400a90ee90ac8991	3.3207675268797137
235	0xc008db846d536d09	-3.10718617831083
236	0x3feb67f7f2c23dd9	0.8564414731389959
237	0x400a8d0d12a6c0d2	3.3188725907458343
238	0xc008daa079176a7d	-3.1067513904829966
239	0x3feb669ad9132041	0.8562750091305206
240	0x400a8a8a32693278	3.317646402201998
241	0xc008da60fc0b70f7	-3.106630295848045
242	0x3feb642981d1a511	0.8559768233800772
243	0x400a8749cef167db	3.3160587470456284
244	0xc008d9ec044ebbf6	-3.1064071976211336
245	0x3feb623f0d593b5f	0.8557429562296014
246	0x400a82df7c42c1ed	3.313902827060011
247	0xc008d8cc54ab7c9a	-3.1058584799607845
248	0x3feb60c9f945b45c	0.8555650585746082
249	0x400a7ee9bfd26276	3.3119692789153374
250	0xc008d74b4377b23f	-3.105124022569981
251	0x3feb5e6c7447b2ce	0.8552763243765982
252	0x400a7bb59cd405f5	3.3104049923138015
253	0xc008d73c39293f3d	-3.105095335551509
254	0x3feb5a66204c8e82	0.8547850256768046
255	0x400a77a325e26536	3.3084166488376026

mocap_framerate f8 []
0	0x405e000000000000	120.0

betas f8 [16]
0	0xbfba0debe22d1be0	-0.10177492401008648
1	0xbfe8e8ae04c0f4f9	-0.7784032910200543
2	0x3fe91ff4e5e0c189	0.7851509561351558
3	0x3ff0fabbb7d04ccd	1.0612141781064566
4	0x3fe79245cef34d9b	0.7366055528640801
5	0xbfe27e31b422c7e5	-0.5779045599249427
6	0x3fe0b0f37ff2ec02	0.5216004847528668
7	0xbfd3e39c0ef1268e	-0.3107671876829067
8	0x3fc959a612e62883	0.19804836199574902
9	0x3fb0fda55a7220c9	0.06637032945775724
10	0xbfc115b552840823	-0.13347498444642367
11	0xbfa5356bd594fdb9	-0.04142319662286859
12	0xbff02a86fdeee568	-1.01038264458324
13	0xbfd7a84aa8eb2b24	-0.36964670654258414
14	0x3fdfcbaeaaab87e6	0.49680678050037697
15	0x3fc3a25132582815	0.15339102705212385

dmpls f8 [735, 8]
0	0xbfbd3a46b88b0a07	-0.1141704750580531
1	0x3fb4e1215305774e	0.08156021382225484
2	0xbfc5dd75711c7468	-0.17082088492398673
3	0x3f600491b8470546	0.001955303772974179
4	0xbf68c25507340ef8	-0.003022352285940385
5	0x3fbf8cd70839353e	0.12324279738205221
6	0xbfdb7910397e270a	-0.4292641221478425
7	0xbfa0d408b343235c	-0.03286769092807759
8	0xbfc688e5f8a12059	-0.17605280532939352
9	0x3fd427b6a8ecd4f8	0.3149239205989285
10	0xbfd5c38b8a6d0e40	-0.3400601245705026
11	0xbf78b0ad16b1d595	-0.006027866485159979
12	0x3f971a1ccaf6b09a	0.02256054867545796
13	0x3fd4810fdd352b0e	0.32037731745065023
14	0xbfe718e8914c1e30	-0.7217905843580805
15	0xbfaef93826eeb07a	-0.060495142700660545
16	0xbfd0d05823b8d39a	-0.2627163266036462
17	0x3fdd445466cf7ab2	0.45729551353535236
18	0xbfdbe51d18ac01b0	-0.43585898789754207
19	0xbf7fc57eb17c315e	-0.0077567051846581785
20	0x3f9ec3c72c42f46e	0.03004370887423529
21	0x3fdd070ca2d818d2	0.45355525877711245
22	0xbfef799edb8d11ea	-0.983596257029203
23	0xbfaefdb9dc55c9ce	-0.06052952589643078
24	0xbfd78c9f70c8ce1b	-0.3679579354677302
25	0x3fe26174e09f642b	0.5743965518150892
26	0xbfe0298d2ae984ef	-0.5050721967819792
27	0xbfa6669992bddc3c	-0.04375152508048827
28	0xbf0a0ac8210df600	-4.967139478305113e-05
29	0x3fe22c639cc3a03f	0.5679185926246716
30	0xbff39ca534308bc8	-1.2257434881837401
31	0xbfb5c6ef54c00c98	-0.08506675547691811
32	0xbfdc0b42d8ad876e	-0.4381873241419417
33	0x3fe4aa0c95c08e88	0.6457579541060605
34	0xbfe1967ae1d71a15	-0.5496191416685315
35	0xbfb7da6b670267ce	-0.09317656769636004
36	0xbf9d26c218ccb48c	-0.028468163264893806
37	0x3fe54da7fd4bca50	0.6657295176685896
38	0xbff71afeef92d1f0	-1.4440907820072617
39	0xbfbbd4f9563b14d9	-0.10871847491496868
40	0xbfdfca6daacf6f8c	-0.49673024826710654
41	0x3fe547a76477c1e4	0.6649968111287845
42	0xbfe2b24a678563e3	-0.5842639943976987
43	0xbfbae012d57b8a73	-0.10498159133889277
44	0xbfa0738801483ae5	-0.032131433636200225
45	0x3fe6e0c344c1055e	0.7149368613101321
46	0xbff8817971bd9585	-1.5316099589339
47	0xbfbda1e0e899f014	-0.11575132063620713
48	0xbfdffa520e9ac81b	-0.4996533529875948
49	0x3fe5329f4280c5f5	0.662429456604683
50	0xbfe3cc9dede4ab68	-0.6187276502945283
51	0xbfc244ad282152eb	-0.1427208372066596
52	0x3f89df30c33adf3c	0.012632733304925751
53	0x3fe9cc4544c750bb	0.8061853736239962
54	0xbffa80487a870d9f	-1.6563191210014805
55	0xbfbde74e382fbeee	-0.1168106925176706
56	0xbfe0f8d4eabdc0c3	-0.5303749642171386
57	0x3fe50f8c1dee141f	0.6581478676386076
58	0xbfe49a94318a6d91	-0.6438694923012226
59	0xbfc4981faff5302a	-0.16089244929969598
60	0x3fa3244ede30f0f0	0.03738638365072855
61	0x3fec0f6b16fcd5d4	0.8768821190812397
62	0xbffc62a04e428676	-1.774078660681338
63	0xbfbce25a94bf376f	-0.11282888537900047
64	0xbfe14309b1ed4eda	-0.5394333338867583
65	0x3fe53c22aa5ced6e	0.6635907485391905
66	0xbfe4b7d3258f4f8d	-0.6474395497884743
67	0xbfc4ff6a0d09326f	-0.16404462467689337
68	0x3fa579f5c4a3257a	0.0419461061988597
69	0x3fec873ab1147f30	0.8915074785800012
70	0xbffcc6af22feda63	-1.7985068671238416
71	0xbfbd22564bdfd8b9	-0.11380519249346123
72	0xbfe196d1ae6d673f	-0.5496605307373342
73	0x3fe57b538b376e36	0.6713044852326167
74	0xbfe4d44735269386	-0.6509128606891046
75	0xbfc53620ebf0a0c1	-0.16571437378411782
76	0x3fa71277c0a11d99	0.045062773002935326
77	0x3fecfd744ef39fee	0.9059392492317764
78	0xbffd2810fab18b59	-1.822281817695247
79	0xbfbd8a4a8d8d21a2	-0.11539140659181737
80	0xbfe1b4be1a000e69	-0.553313303739242
81	0x3fe57b5d0fc73176	0.6713090236822115
82	0xbfe4d4754a467fbb	-0.6509348345461982
83	0xbfc5999358cf52c0	-0.16874925457400103
84	0x3fa800d410dedbc4	0.046881320056335635
85	0x3fed06013deb9a67	0.9069830140477507
86	0xbffd3faad8a6f353	-1.8280437911009428
87	0xbfbd8174f0ad2404	-0.11525660396468146
88	0xbfe28f6eb5927328	-0.5800088449792371
89	0x3fe554f78469ab0b	0.6666219316660728
90	0xbfe4c9e4ca5e097a	-0.6496452286230998
91	0xbfca81cad21dff28	-0.20708594569804828
92	0x3fb5aca0a52ad193	0.0846653369179136
93	0x3fed9ce742fc55a6	0.9254032429041004
94	0xbffe73a5dcbac1c2	-1.9032343504187428
95	0xbfbacc17ff71231a	-0.10467672335029157
96	0xbfe2d79bc7860325	-0.5888193985884739
97	0x3fe5684e958df2c1	0.6689827843652766
98	0xbfe4d4ed8ed0c68c	-0.6509921826711476
99	0xbfcbb58565ac6672	-0.21647708382151937
100	0x3fb8528f1b007a9b	0.09500975045419084
101	0x3feda70f9e6a6bb3	0.9266431898171191
102	0xbffedd1df309f2b5	-1.9289836400704818
103	0xbfb97f1fb462b048	-0.09959600595419815
104	0xbfe89fd1cfdce994	-0.7695092258284597
105	0x3fe3da6e8d4cc825	0.6204140434040296
106	0xbfdd2cb16fe4ecea	-0.4558528511731327
107	0xbfc5e0c6d0b44433	-0.1709221381247815
108	0x3fc644e4b817d95a	0.17397746075557557
109	0x3feeaefb5ccafcd6	0.9588600933419922
110	0xbffedfe5295c839a	-1.9296619048766162
111	0xbfc2f88f6a17690b	-0.14821045570608535
112	0xbfeb026af46ce952	-0.8440451406416207
113	0x3fe3bb5acf0a5b2b	0.6166204494246349
114	0xbfd2e2e4c77c9fdd	-0.29509849053510867
115	0xbfc4bb0bc0679970	-0.16195818800697337
116	0x3fce2cb6dbc8ca8c	0.23573957187325723
117	0x3fefafe8feeaa785	0.9902234057274063
118	0xbfff4c8df29ead63	-1.956190059407924
119	0xbfcaba99eb6920e0	-0.20881961817418127
120	0xbfe9cecfe5ce21c9	-0.8064956177122947
121	0x3fe4aeae0ee158bb	0.6463232317571718
122	0xbfc42a17d60c71c9	-0.15753457976906152
123	0xbfc010789ed72196	-0.12550266033055085
124	0x3fd158cd10258eee	0.2710449845965134
125	0x3ff0d4030c40661d	1.0517607191635598
126	0xc000388c9c0c91c8	-2.0276119414649862
127	0xbfd26998e8a2939c	-0.28769514768856097
128	0xbfe6f725125d5738	-0.7176690443691092
129	0x3fe46cf78a131ce9	0.6383016297121716
130	0xbf9f29d474a27568	-0.0304330059230912
131	0xbfc079c177fbbf64	-0.12871569021762774
132	0x3fd2fb569870f80e	0.29659047018856277
133	0x3ff216b89ee5aba1	1.1305471617622305
134	0xc000e6bfdf9c5300	-2.112670657117974
135	0xbfd8179e2142aec6	-0.3764415097054833
136	0xbfe3f5f0139d0b7b	-0.6237717040133782
137	0x3fe30c08879c640a	0.5952189110422534
138	0x3facd8810b67bf7c	0.056339295046085675
139	0xbfc6325f7daa719c	-0.17341226230645368
140	0x3fcf1425f4594cd4	0.24280237609000344
141	0x3ff1f873295d9a55	1.1231567016453898
142	0xc000f00b630a081a	-2.1172092187343994
143	0xbfd865d1c9e16bfb	-0.38121456828019945
144	0xbfe2ae271d0ee184	-0.5837588851491522
145	0x3fe1b74dd453058c	0.5536259791335154
146	0x3fb50c12026422ed	0.0822154289090908
147	0xbfcacc67d45ca280	-0.2093629633830183
148	0x3fc69fe8dfdea830	0.17675505572452854
149	0x3ff1f4fb217a6ffc	1.122309809469697
150	0xc000f98dfe4199c6	-2.121852861763929
151	0xbfd81151590d23fa	-0.37605699249667135
152	0xbfe28a13323dacad	-0.5793548566120045
153	0x3fe0c87ac68db948	0.5244726064682164
154	0x3fb4b1bfa15300fc	0.08083722771243979
155	0xbfce045041d218e7	-0.23450663770581245
156	0x3fbb6dbdd3aaef70	0.10714327256840561
157	0x3ff1fd4217f754d7	1.1243306099107053
158	0xc000eef29131b99f	-2.1166735976505175
159	0xbfd6f31af60ef885	-0.3585879710116234
160	0xbfe33d366adc1682	-0.6012222373107792
161	0x3fe0c2d9e7cb0055	0.5237855460363884
162	0x3fb05fa05fcbbf17	0.06395914400831902
163	0xbfcef7187a93bff3	-0.2419157598992566
164	0x3fa2fdf0aa1d823c	0.03709365917780302
165	0x3ff1f85d6ef948e4	1.1231359801209289
166	0xc000d6ea8a934bb9	-2.1049395395470722
167	0xbfd560994fe803e3	-0.33402092746115225
168	0xbfe5dd03a1587d41	-0.6832292701036878
169	0x3fd9a3964c4605cb	0.40060956429087174
170	0x3faa503e45c62c5e	0.05139345742926403
171	0xbfd1e1c18ec0e52d	-0.2794040578915709
172	0xbf97ac9df6932062	-0.02311941926453221
173	0x3ff21865ab1b4079	1.1309563335271646
174	0xc000397d6688ef97	-2.0280712137736816
175	0xbfd669ed19f48b2c	-0.350215220782206
176	0xbfe08ea58d127027	-0.5174129252732244
177	0x3fca65a17274d4f7	0.2062265213841454
178	0x3fc09a5dbd72b045	0.1297108817137788
179	0xbfd1581e3f78e86b	-0.27100330542055556
180	0xbfc49be3e58c837c	-0.1610073920101306
181	0x3ff02de7bcda876c	1.0112073304266813
182	0xbffdcb6c4f5f824b	-1.8621638393889437
183	0xbfd3e11566f8f6a6	-0.3106130128470376
184	0xbfd96ba3f01f8390	-0.3971948475792084
185	0x3faa811deb5c5010	0.0517663335614601
186	0x3fc2338c1fd76e32	0.14219810061227772
187	0xbfd28b7ce3d84221	-0.2897636628195262
188	0xbfcf66954e983cce	-0.2453180917513919
189	0x3fee5b638057d18f	0.9486558443737055
190	0xbffb350d7baa8378	-1.7004523115831187
191	0xbfd232da7e2d8279	-0.2843538505749517
192	0xbfd4a406b77a372e	-0.32251136701312333
193	0xbfb1ec62be3228d8	-0.07001320975738012
194	0x3fbe656fa0948cda	0.11873529119889117
195	0xbfd414b7f689df15	-0.3137645633319022
196	0xbfd476e98c1b185a	-0.3197578304501626
197	0x3fed2fe80382f85b	0.9120979374490717
198	0xbff8ecbffdfaa907	-1.557800285440466
199	0xbfd127f76f610423	-0.2680643642125366
200	0xbfd1b34920cd1c14	-0.27656772807353147
201	0xbfc2f5b4b4f2be04	-0.14812334857332143
202	0x3fb2d0c2cdfb797c	0.07349793938508314
203	0xbfd4eb2786d8d828	-0.32685268562943515
204	0xbfd8af5482e99e7b	-0.38570130142623044
205	0x3fec628ea93b6574	0.88703091672066
206	0xbff6fe7b4b92f3bc	-1.4371293022261247
207	0xbfceec3900d9c636	-0.24158394376313347
208	0xbfcee2e5d59601ec	-0.2412993710422734
209	0xbfd09d835278a457	-0.2596138291724563
210	0xbfb5ee6616004f6a	-0.08566892659319839
211	0xbfd0f4b36c9a98b1	-0.26493535619591585
212	0xbfd864ab6b117642	-0.38114438491706804
213	0x3fecb7f3ea13174c	0.8974551746148136
214	0xbff70bf8723e35ba	-1.4404224836938355
215	0xbfd2b32775310f8c	-0.2921847004365581
216	0xbfc94119342afb00	-0.19729914710293173
217	0xbfd3d64c5f1c53da	-0.3099547318282113
218	0xbfcc65b75ab63a12	-0.22185413293159734
219	0xbfcf516e61a3e454	-0.2446725823172381
220	0xbfd744ba34e494c6	-0.36356978574106014
221	0x3fed3acd4b03e255	0.9134279694690784
222	0xbff6eecc63ec1f38	-1.433300390550313
223	0xbfd55748c19885a0	-0.3334524050315739
224	0xbfc6a62e5f252b46	-0.17694644590150171
225	0xbfd7784807248cc3	-0.3667163915399209
226	0xbfd276d0a20f7b46	-0.2885018904325317
227	0xbfcecdd039750230	-0.24065592580338224
228	0xbfd8518f34952b53	-0.3799779904845099
229	0x3fed05c57f53151a	0.9069545256431042
230	0xbff6a6c61138b6c8	-1.4157162354198807
231	0xbfd77becc9bbeb0b	-0.36693877888289766
232	0xbfc4d8dd7cac5ac8	-0.16286820018350157
233	0xbfd95bbe3785577c	-0.3962245504566153
234	0xbfd500e4add28bc2	-0.3281795213208022
235	0xbfcee8542847932f	-0.2414651104619678
236	0xbfd9d285b5614875	-0.40347426140682013
237	0x3fec8ab712378b27	0.8919329982566965
238	0xbff6502386b46fec	-1.394565130415681
239	0xbfd94cd4dbba58c3	-0.3953144212513388
240	0xbfc43cd308d886e1	-0.1581062119667456
241	0xbfd9edc739d32a09	-0.40513783118208885
242	0xbfd5f07c957f5de4	-0.3428031406342298
243	0xbfce9ac90ed1e491	-0.23909867499950058
244	0xbfdac423ad1855c0	-0.41822139648260404
245	0x3fec2752fedcf99b	0.8798003175541455
246	0xbff62a6584e86245	-1.3853507224759067
247	0xbfda3725c6eed843	-0.40961594035195875
248	0xbfc78b3a4a8a0e99	-0.18393639220822847
249	0xbfde27823b672e3e	-0.47116142083243406
250	0xbfd2705b6bb925d9	-0.28810773391577765
251	0xbfcec984b871cbf6	-0.2405248547180176
252	0xbfe081bc7d736032	-0.515836949368355
253	0x3fe9a52aa0ed7109	0.801411928473983
254	0xbff55d34eee369fc	-1.3352555591178534
255	0xbfdc83d00306d163	-0.4455451993519743

poses f8 [735, 156]
0	0x3fe4d344e9778e08	0.6507896957304533
1	0xbffc603fad85fb29	-1.7734982279068368
2	0xbffd785fa57c6e08	-1.8418880905436499
3	0x3facea50d78b4b00	0.05647518759874082
4	0x3fab70941bbc3ef5	0.053593281160031404
5	0xbf8244a1536af569	-0.008919964178285071
6	0xbfdc23c05cb90b92	-0.43968209319080487
7	0xbf5237e048adf6e6	-0.0011119547150139574
8	0xbfb3809f04b8d8b2	-0.07618135323795874
9	0x3fb38fc8fcc12359	0.07641273661387284
10	0xbf9397990d5b80f9	-0.01913298744227718
11	0xbf97c562653d071f	-0.023213899067974993
12	0x3fcdef49a354d5f8	0.2338649795071175
13	0xbfa1747a8d9a4df5	-0.03409178713368625
14	0xbfb23fc91748ea5a	-0.07128578966595836
15	0x3fea9c61429307f1	0.831589345958717
16	0xbfad034ed630ec49	-0.05666586269986646
17	0x3fc6506981ac8bf7	0.17432898360956958
18	0x3fc44021e835e8bf	0.15820716703803403
19	0xbf38cb8d4c2396c8	-0.0003783435787581943
20	0x3fb0e6d3d4a08969	0.0660221475705264
21	0xbfdee6f232f29bfd	-0.4828458306823789
22	0x3fd7c40933c3b552	0.3713400846016458
23	0x3fcafa01019fcb9c	0.21075451449686688
24	0xbfb33b13b7cc43ff	-0.07512019383672451
25	0xbfb5fcd0bc65cec0	-0.08588890647461778
26	0x3fb072493de64fd2	0.06424386750433023
27	0xbfbd04949a3a1e06	-0.11335114255245324
28	0x3f936079368291d9	0.01892270465090626
29	0xbf95d390504e1aa5	-0.021314864064630474
30	0x0000000000000000	0.0
31	0x0000000000000000	0.0
32	0x0000000000000000	0.0
33	0x0000000000000000	0.0
34	0x0000000000000000	0.0
35	0x0000000000000000	0.0
36	0x3fb164a558b2234d	0.06794198432375005
37	0xbfba669e59b6312f	-0.10312833490587957
38	0x3f928bce0799cd70	0.01811143800155207
39	0xbf9048866b3587ca	-0.015901661199116103
40	0x3fa32c0a6b72e42b	0.03744537889128482
41	0xbfdd0639aa0e97a2	-0.453504959174433
42	0x3f69e374970ba955	0.0031602170132504583
43	0x3fc09d77b12f989a	0.1298055281797062
44	0x3fddf5f077f84240	0.46813594547078097
45	0x3fa5fdd16cb2f78b	0.04295210315602479
46	0xbfb0ac3749f03e32	-0.06512780718934932
47	0x3fa606a5c95cf4bd	0.043019467192132656
48	0x3fd0ebb6b5fa4812	0.2643868233800514
49	0xbfcd43f5650bbcfc	-0.22863643106345666
50	0xbfef21ff5219cc72	-0.9729000667124537
51	0x3fcc99404d3a61cb	0.22342685480977162
52	0x3fcad03208f1a321	0.20947862087930338
53	0x3fecf5714f4261c9	0.9049612567933362
54	0xbfa09d7b2c7dfba4	-0.03245148580662452
55	0xbfd90d6f7271989c	-0.3914450280775641
56	0x3fb40d655d91b955	0.07832940611271984
57	0xbf990c21b9625724	-0.024460341396284183
58	0x3fd675c230715da2	0.3509374116015015
59	0xbf0b2126ee628e70	-5.174541529242855e-05
60	0x3fa7ceca83665de5	0.046499565639517994
61	0xbfc856a8eb680501	-0.1901446484990075
62	0xbfc6b3a3abbc169d	-0.1773571575687826
63	0xbfbc637b0d696223	-0.11089295461113884
64	0x3fc8a4820710f382	0.19252038331060467
65	0x3fbd110ca1ed245a	0.11354140237121282
66	0x3fbc96f9ef8cbb80	0.1116787156904433
67	0x3fa5f5f69064a9d6	0.04289217484104639
68	0xbfdaa6fba972eb83	-0.416441836812446
69	0x3fbbdb0f1ae5f82d	0.10881132513711185
70	0xbfb0e46ffcc94db1	-0.06598567887822672
71	0xbfe832f44e70ffdb	-0.7562200100001023
72	0xbfb8ad3598d7589f	-0.09639296514009964
73	0xbfb7463fa70bc42f	-0.09091565922041477
74	0xbfc81f6f1d15e4ae	-0.1884592906970161
75	0xbfbe3b79fbcd3ee6	-0.11809503934386675
76	0x3faa155009c25400	0.05094385260705536
77	0xbfe0f25b317bb495	-0.529584499976084
78	0xbfc264b59ee920ae	-0.14369840869244882
79	0x3fac48a3dde1d317	0.05524170001527844
80	0xbfe68e308ff3effc	-0.7048571406917286
81	0xbf93a4afc1e05eba	-0.019182916839865817
82	0xbfb7a3633f4da757	-0.09233684821597642
83	0xbfd5a0600c25316a	-0.3379135244947721
84	0xbfdd4007452532a9	-0.4570329833266365
85	0xbfc91fd5129b446c	-0.196283945164882
86	0xbfe403bf84134bc5	-0.6254575328442732
87	0xbfcb79baa98028e5	-0.21465237881086022
88	0xbfb0e5438212e1b6	-0.06599828649166892
89	0xbfe0387a3333a1c9	-0.5068942070038754
90	0xbfd7a99059db1e75	-0.36972435736649994
91	0xbfaee57da96b62f6	-0.06034462636097786
92	0xbfb45978b9149bac	-0.07949022787634757
93	0xbfc228c941275414	-0.14186969453172138
94	0xbfb5fa702c5f7001	-0.08585263331718808
95	0xbfe4563f5ac553da	-0.6355282566897771
96	0xbfd369f2d570f6e5	-0.3033415874850632
97	0xbfada2933f55200b	-0.05788097522832921
98	0xbfe4345724f55f32	-0.6313892099233043
99	0xbfc68b2110a5f467	-0.1761208850183806
100	0xbfc0e86d094eb2c6	-0.13209307627166406
101	0xbfd7e50a97ee8c36	-0.37335457646458126
102	0x3feb3b197087c74e	0.8509642789706306
103	0x3fd1b91a2a2c0bae	0.2769227420650918
104	0xbfb76fb1bdba339c	-0.09154806978240376
105	0xbfdffd5e8d757e3f	-0.49983943762160615
106	0x3f9b319eadb48959	0.026556472160458842
107	0x3fab1333c84d4091	0.05288087673273013
108	0x3fe1234cf019ce3b	0.5355591477841196
109	0x3fa788349f95d372	0.04596104095518329
110	0xbfd1c03bdba5f53a	-0.2773580212595622
111	0x3fbc96f9ef8cbb80	0.1116787156904433
112	0xbfa5f5f69064a9d4	-0.04289217484104638
113	0x3fdaa6fba972eb84	0.41644183681244606
114	0x3fbbdb0f1ae5f82d	0.10881132513711185
115	0x3fb0e46ffcc94db0	0.0659856788782267
116	0x3fe832f44e70ffdb	0.7562200100001023
117	0xbfb8ad3598d7589f	-0.09639296514009964
118	0x3fb7463fa70bc42f	0.09091565922041477
119	0x3fc81f6f1d15e4af	0.18845929069701614
120	0xbfbe3b79fbcd3ee5	-0.11809503934386674
121	0xbfaa155009c25401	-0.05094385260705537
122	0x3fe0f25b317bb495	0.529584499976084
123	0xbfc264b59ee920af	-0.14369840869244885
124	0xbfac48a3dde1d318	-0.05524170001527845
125	0x3fe68e308ff3effc	0.7048571406917286
126	0xbf93a4afc1e05ebb	-0.01918291683986582
127	0x3fb7a3633f4da757	0.09233684821597642
128	0x3fd5a0600c25316a	0.3379135244947721
129	0xbfdd4007452532a9	-0.4570329833266365
130	0x3fc91fd5129b446d	0.19628394516488204
131	0x3fe403bf84134bc5	0.6254575328442732
132	0xbfcb79baa98028e7	-0.21465237881086027
133	0x3fb0e5438212e1b6	0.06599828649166892
134	0x3fe0387a3333a1c9	0.5068942070038754
135	0xbfd7a99059db1e75	-0.36972435736649994
136	0x3faee57da96b62f4	0.06034462636097784
137	0x3fb45978b9149bad	0.07949022787634759
138	0xbfc228c941275416	-0.14186969453172144
139	0x3fb5fa702c5f7001	0.08585263331718808
140	0x3fe4563f5ac553da	0.6355282566897771
141	0xbfd369f2d570f6e5	-0.3033415874850632
142	0x3fada2933f55200c	0.05788097522832922
143	0x3fe4345724f55f32	0.6313892099233043
144	0xbfc68b2110a5f468	-0.17612088501838064
145	0x3fc0e86d094eb2c6	0.13209307627166406
146	0x3fd7e50a97ee8c36	0.37335457646458126
147	0x3feb3b197087c74e	0.8509642789706306
148	0xbfd1b91a2a2c0bae	-0.2769227420650918
149	0x3fb76fb1bdba339d	0.09154806978240378
150	0xbfdffd5e8d757e3f	-0.49983943762160615
151	0xbf9b319eadb48959	-0.026556472160458842
152	0xbfab1333c84d4090	-0.05288087673273012
153	0x3fe1234cf019ce3a	0.5355591477841195
154	0xbfa788349f95d374	-0.0459610409551833
155	0x3fd1c03bdba5f53c	0.2773580212595623
156	0x3fe50e5487b8b963	0.6579992914974294
157	0xbffc582a5adac16b	-1.771524767780728
158	0xbffd51f93087825c	-1.832513036315638
159	0x3fa7d2571ba9482e	0.04652664387380444
160	0x3fab9a4458c9ba53	0.05391133865201838
161	0xbf77f789fffa32e1	-0.005851306020883768
162	0xbfdd53c6ceae6d85	-0.45823831733442716
163	0xbf87695a1476a7ec	-0.011431411504265264
164	0xbfb51db7444fb4ce	-0.0824846784377826
165	0x3fb222058adcb7d4	0.07083162918271962
166	0xbf94b74086874ebe	-0.020230301104517727
167	0xbf9ad30f3700c867	-0.026195752842064126
168	0x3fcd504d8e313668	0.22901315157871527
169	0xbf98eca8245aa360	-0.024340274065852596
170	0xbfb25f8154f1e584	-0.07176979373789122
171	0x3feb61a9fadee96e	0.8556718730754207
172	0xbfb36d3216aa722c	-0.07588494351734515
173	0x3fc6fd3ec1a47927	0.1796034284133807
174	0x3fc4a729628892c2	0.16135136901097807
175	0xbf514c42c0b41001	-0.0010557796366024166
176	0x3fb1501d8cba2fae	0.067628714425324
177	0xbfdd5e3ca61da637	-0.4588767645096569
178	0x3fd7cb2347b4b885	0.3717735481503797
179	0x3fcb23aecc98c30b	0.2120264529235317
180	0xbfa6c72ed33e3d61	-0.044488395010484856
181	0xbfb868b24c9913d9	-0.09534754152362214
182	0x3faf3faa599b2696	0.06103260368179268
183	0xbfbfdd88d29e928d	-0.12447409765315794
184	0x3f8e4081c08bb700	0.01477147454121619
185	0xbf99c1189d94b45f	-0.025150665872548546
186	0x0000000000000000	0.0
187	0x0000000000000000	0.0
188	0x0000000000000000	0.0
189	0x0000000000000000	0.0
190	0x0000000000000000	0.0
191	0x0000000000000000	0.0
192	0x3fa47e686fff7dfa	0.0400269161907509
193	0xbfc147254ffd6251	-0.13498369603873298
194	0x3f8b33a85c315507	0.013282122910974537
195	0xbf751110e4ef8864	-0.005143228524476216
196	0x3fa1fb1af047b8ab	0.03511890586001817
197	0xbfdd8d0561c53a31	-0.461732240179944
198	0x3f7813c667d8bd3e	0.005878233930658281
199	0x3fbffb0b62a6bb49	0.1249243846748246
200	0x3fdf2ab12f041eb3	0.48698072043815016
201	0x3fb9fbaf9df6e5d9	0.10149667364648653
202	0xbfb69cdbafe77ebb	-0.08833096546686196
203	0x3f973ee1737b4f82	0.02270080821365595
204	0x3fd0f8e26b9f07ed	0.2651907015789437
205	0xbfcd5409c185c389	-0.22912713956204936
206	0xbfeec7c0000b3947	-0.9618835450035385
207	0x3fcd8f2f52d14de9	0.23093215507343182
208	0x3fc975122e6ae997	0.19888522402272876
209	0x3feccc1545d32818	0.8999124873892042
210	0xbf9eeb8df33dfb24	-0.03019544407970466
211	0xbfd9102893096e36	-0.39161123618189053
212	0x3fb438d9b725a564	0.07899246903766294
213	0xbfa1e99f1c97deeb	-0.03498551582373274
214	0x3fd71538e096659c	0.3606702988850772
215	0xbf7b62663cd86242	-0.006685637823033165
216	0x3fadc943dc0e1f32	0.058176155674173904
217	0xbfc672e3f627b6a1	-0.17538117903989295
218	0xbfc65d17b63cfccd	-0.17471596144057458
219	0xbfbaab05d4e13e05	-0.10417210051786448
220	0x3fc7412c62cb5352	0.18167643379151827
221	0x3fbbd59a29de5384	0.10872806093386883
222	0x3fbc96f9ef8cbb80	0.1116787156904433
223	0x3fa5f5f69064a9d6	0.04289217484104639
224	0xbfdaa6fba972eb83	-0.416441836812446
225	0x3fbbdb0f1ae5f82d	0.10881132513711185
226	0xbfb0e46ffcc94db1	-0.06598567887822672
227	0xbfe832f44e70ffdb	-0.7562200100001023
228	0xbfb8ad3598d7589f	-0.09639296514009964
229	0xbfb7463fa70bc42f	-0.09091565922041477
230	0xbfc81f6f1d15e4ae	-0.1884592906970161
231	0xbfbe3b79fbcd3ee6	-0.11809503934386675
232	0x3faa155009c25400	0.05094385260705536
233	0xbfe0f25b317bb495	-0.529584499976084
234	0xbfc264b59ee920ae	-0.14369840869244882
235	0x3fac48a3dde1d317	0.05524170001527844
236	0xbfe68e308ff3effc	-0.7048571406917286
237	0xbf93a4afc1e05eba	-0.019182916839865817
238	0xbfb7a3633f4da757	-0.09233684821597642
239	0xbfd5a0600c25316a	-0.3379135244947721
240	0xbfdd4007452532a9	-0.4570329833266365
241	0xbfc91fd5129b446c	-0.196283945164882
242	0xbfe403bf84134bc5	-0.6254575328442732
243	0xbfcb79baa98028e5	-0.21465237881086022
244	0xbfb0e5438212e1b6	-0.06599828649166892
245	0xbfe0387a3333a1c9	-0.5068942070038754
246	0xbfd7a99059db1e75	-0.36972435736649994
247	0xbfaee57da96b62f6	-0.06034462636097786
248	0xbfb45978b9149bac	-0.07949022787634757
249	0xbfc228c941275414	-0.14186969453172138
250	0xbfb5fa702c5f7001	-0.08585263331718808
251	0xbfe4563f5ac553da	-0.6355282566897771
252	0xbfd369f2d570f6e5	-0.3033415874850632
253	0xbfada2933f55200b	-0.05788097522832921
254	0xbfe4345724f55f32	-0.6313892099233043
255	0xbfc68b2110a5f467	-0.1761208850183806
