data/amass/ACCAD/Male2Walking_c3d/B21 -  put down box to walk a_poses.npz (npz, 891304 bytes, 5 tensors)

trans f8 [666, 3]
00000000: 6e65 c762 edee fd3f bf24 054a bdd2 fbbf
00000010: 2207 881e 4688 eb3f bcd7 7015 9cef fd3f
00000020: 69be 9127 c9d4 fbbf 9dd6 de27 3785 eb3f
00000030: b1c9 fd3b ccef fd3f aebd d216 ebd5 fbbf
00000040: eb1b 9802 4b84 eb3f c6cd 1747 b8ee fd3f
00000050: 155d 18bf 53d6 fbbf ab68 1178 8683 eb3f
00000060: 240a d735 69db fd3f bf1e 7981 91ce fbbf
00000070: daf0 a94d af82 eb3f e520 e1df a4dc fd3f
00000080: afa2 9f29 11d7 fbbf c752 ddcb f093 eb3f
00000090: 1774 3b5d e2e1 fd3f 83ea db7e 66d7 fbbf
000000a0: 12df a1bc 898f eb3f 1979 d288 6fe2 fd3f
000000b0: 2226 1a4d 30d7 fbbf 753c 01ca a18c eb3f
000000c0: 2e24 d7e8 60e2 fd3f f6e1 e09d 50d7 fbbf
000000d0: 9afb 3539 cc89 eb3f a6f5 38b7 f8e1 fd3f
000000e0: c7f6 a35e ebd5 fbbf 7caf 0962 e787 eb3f
000000f0: cfc4 9a26 66e2 fd3f 08b6 ed83 38d7 fbbf
00000100: 1d2b eaed d985 eb3f 0db3 84ad 79e2 fd3f
00000110: d466 0e24 2ad7 fbbf b528 cd49 ab83 eb3f
00000120: e18d 25e6 56e2 fd3f 3d9f dccf 30d7 fbbf
00000130: 50cd 13ab 9581 eb3f 6187 2343 f9e1 fd3f
00000140: 0aba bae0 a7d6 fbbf 470a f14a 7680 eb3f
00000150: 70f7 e704 29e2 fd3f 64a8 1352 04d6 fbbf
00000160: 9613 59fb 667f eb3f e2b6 c5c1 d0e1 fd3f
00000170: c18d 107c 92d5 fbbf f86d 506f f47d eb3f
00000180: c10d d266 87e1 fd3f 9455 e227 0cd5 fbbf
00000190: 6a98 64ef bd7c eb3f 9dc3 ae3b e8e0 fd3f
000001a0: d842 01a1 33d4 fbbf 3e32 dee9 257c eb3f
000001b0: 09f4 28af 5de0 fd3f 49a7 b6c5 aed3 fbbf
000001c0: 7714 e207 417b eb3f 4487 b7c1 07e0 fd3f
000001d0: 8c64 dc77 7ad3 fbbf a56c 190b b979 eb3f
000001e0: 522d b907 27df fd3f 4c82 97b5 f5d2 fbbf
000001f0: 61aa c74d 4578 eb3f c175 357d 94dd fd3f
00000200: 5509 5782 b7d2 fbbf fd99 31e6 d876 eb3f
00000210: e038 127f efdc fd3f 2532 564f acd2 fbbf
00000220: b8eb 66b0 8776 eb3f 1c0d 1470 5edc fd3f
00000230: 85aa 071f 76d2 fbbf 91bf b60e f975 eb3f
00000240: 3c7f 11e2 5fdc fd3f 9cc7 7caa 3cd2 fbbf
00000250: e096 5260 7b75 eb3f 906c 051d 8bdc fd3f
00000260: f91c ebd2 abd1 fbbf 1089 98a0 d474 eb3f
00000270: 1d2d d8c7 9bdc fd3f 9f65 7c8e 79d1 fbbf
00000280: ba56 ff3b 2b73 eb3f 28b5 ffc9 20dc fd3f
00000290: edb8 785f 5cd1 fbbf 0aeb a3f1 8771 eb3f
000002a0: 4987 46f0 0cdb fd3f 9526 9083 71d0 fbbf
000002b0: c983 d64d ff70 eb3f c39b 5d4b 77da fd3f
000002c0: 5e13 030c aacf fbbf 137c feb4 a070 eb3f
000002d0: 0027 96fc 50da fd3f 17fb d538 5bcf fbbf
000002e0: 75e1 a4f5 ca6f eb3f f031 360f 31da fd3f
000002f0: 0a4f 5d6a c0cf fbbf 63f5 ea4a aa6e eb3f
00000300: 60f9 f4a2 2bda fd3f 8c4f 193f cecf fbbf
00000310: ee66 478c 0d6e eb3f fdf0 885e 30d9 fd3f
00000320: de67 b0c9 c4cf fbbf b665 557d 966e eb3f
00000330: 9077 ab7b 61d8 fd3f 14f4 4eff 37cf fbbf
00000340: f37b defa 576e eb3f 0220 b48d e7d7 fd3f
00000350: b6af 4838 21cf fbbf d5a3 7607 cd6d eb3f
00000360: b911 23d8 d0d7 fd3f cce1 bf17 3bcf fbbf
00000370: 60e6 40c7 3b6d eb3f 65a2 af90 7ed7 fd3f
00000380: fb1f 6754 a3cf fbbf e6c3 c993 af6d eb3f
00000390: 0329 143d add6 fd3f cbe1 2cfd 95cf fbbf
000003a0: 22df 11e6 706d eb3f 27c9 6260 95d6 fd3f
000003b0: 8ab4 6dee d0cf fbbf 28d4 5a95 736b eb3f
000003c0: 7298 2914 63d6 fd3f 955e f7eb 8fd0 fbbf
000003d0: 9fd3 6b9d 2b69 eb3f e315 f2a0 50d6 fd3f
000003e0: 1441 84d1 cdd0 fbbf 2b4e 02e0 3268 eb3f
000003f0: d982 e041 3cd6 fd3f 5693 dbab bcd0 fbbf
00000400: a2c3 e108 4467 eb3f 1c45 48c7 f4d5 fd3f
00000410: a8cd 308b bfd0 fbbf 4aca 9c23 bb66 eb3f
00000420: 7491 ca14 8ad5 fd3f 7f51 b53b cfd0 fbbf
00000430: 2eac 0793 bf65 eb3f c329 294c b1d4 fd3f
00000440: 499e 436d 76d0 fbbf 17cc c038 6164 eb3f
00000450: edb3 7c89 acd3 fd3f 10d4 1a74 5fd0 fbbf
00000460: bc49 38bb ca63 eb3f 3ee9 15e6 8ad2 fd3f
00000470: da73 31f2 e4cf fbbf ff38 d50f ee63 eb3f
00000480: b516 a636 38d1 fd3f bcdc b556 dece fbbf
00000490: 19b1 87b8 9363 eb3f 2e43 6e1d 51d0 fd3f
000004a0: 0349 7a5c 1cce fbbf 9257 5415 8463 eb3f
000004b0: 0033 6f06 6acf fd3f ba53 f157 c6cd fbbf
000004c0: 1875 c432 e663 eb3f 3ac0 d81d 00cf fd3f
000004d0: 68d9 0ecc 96cd fbbf 1e78 84f4 1664 eb3f
000004e0: e2af 5889 fdcd fd3f 3e27 6e97 31cd fbbf
000004f0: 48bb 6d58 d163 eb3f 23e9 fdeb 5acc fd3f
00000500: 5bbc 3615 9bcc fbbf da46 21c9 3463 eb3f
00000510: fc1f 337f 60cb fd3f 4cd4 6d00 31cc fbbf
00000520: 16c5 e0eb 9d62 eb3f 6b3e 0c39 9fca fd3f
00000530: 6f9b ff99 fbcb fbbf 6942 e6d3 a662 eb3f
00000540: 3063 b217 dcc9 fd3f a5b7 3d34 5bcb fbbf
00000550: c997 dd19 c162 eb3f 6eef ed8a 12c9 fd3f
00000560: 6a06 b232 88ca fbbf d991 1a8f d962 eb3f
00000570: b153 000f b4c8 fd3f 6e28 d684 f6c9 fbbf
00000580: 52cd c81a d761 eb3f ed54 9177 6fc8 fd3f
00000590: f4a5 ac7c edc9 fbbf c00a 9154 d95f eb3f
000005a0: 9149 51e3 40c8 fd3f f9c1 991f 4bca fbbf
000005b0: 89a8 b0ae 665e eb3f 183e 6f2f 22c8 fd3f
000005c0: 5692 09f6 8bca fbbf 7df0 6b1c a25d eb3f
000005d0: 0f9d caac 1bc8 fd3f cd40 cb35 8aca fbbf
000005e0: 26cd 4768 425d eb3f 9912 f64a 17c8 fd3f
000005f0: 9be5 bf8f 92ca fbbf b0b9 f5ec 875c eb3f
00000600: ff6e 0ebe 97c7 fd3f 4ff3 73ce 3cca fbbf
00000610: 3f9a 084c 965c eb3f c28b 3a62 a6c6 fd3f
00000620: c0ff 7d91 66c9 fbbf 7e12 b8d4 845c eb3f
00000630: 8605 76fe 4fc6 fd3f 0222 5ef0 f2c8 fbbf
00000640: 448f b801 315c eb3f e37a 907a 82c6 fd3f
00000650: a737 62c8 aec7 fbbf bdef 8462 ec5b eb3f
00000660: cb92 49f0 32c7 fd3f 5f57 a64c 50c6 fbbf
00000670: 4af0 e7ba 0f5c eb3f 12d2 e512 25c8 fd3f
00000680: 6323 be40 ccc5 fbbf 1a6d db13 345c eb3f
00000690: 9c64 b7db fec8 fd3f 14eb 956f 66c5 fbbf
000006a0: 3169 0cb9 785c eb3f c549 0d81 59c9 fd3f
000006b0: cc51 f54c 7ac4 fbbf 8191 c005 fb5c eb3f
000006c0: 5c8e 16e4 53ca fd3f a696 c5c5 58c4 fbbf
000006d0: 459e 99b4 685e eb3f 5f84 e3f9 d0cb fd3f
000006e0: 3ee3 3842 64c4 fbbf 3d99 263c 4a60 eb3f
000006f0: ce3d 3a50 3ccd fd3f 8034 318a cbc3 fbbf
00000700: e19b 1f8b fc61 eb3f 20d6 ac80 5dce fd3f
00000710: 686c 9f41 b0c2 fbbf d682 0a0f 2f63 eb3f
00000720: 4e00 b36c 81cf fd3f 5423 457f 7bc2 fbbf
00000730: c783 6fdf 8163 eb3f a60a dc5b e9d1 fd3f
00000740: 4372 1291 a8c3 fbbf 074a 2fae 3063 eb3f
00000750: be2f bc09 f5d4 fd3f 93c0 ed5f 9dc4 fbbf
00000760: a85a cf9f 8a63 eb3f 9320 7852 55d7 fd3f
00000770: 7e8c 9a55 29c5 fbbf b273 c133 3d64 eb3f
00000780: 5e46 0db4 40d8 fd3f baf7 221b 6ec4 fbbf
00000790: 21bc 9b42 7965 eb3f 7464 d1e2 d0da fd3f
000007a0: f211 8d94 e2c4 fbbf c94e 523b c366 eb3f
000007b0: f86c 698d 31df fd3f efc7 32b8 38c6 fbbf
000007c0: 6934 a728 5a68 eb3f 5f28 49c8 4de2 fd3f
000007d0: af3e 1635 6dc7 fbbf e868 7873 316a eb3f
000007e0: 79a1 9b38 66e2 fd3f 17b5 b058 8dc5 fbbf
000007f0: 6cdc 9b5e 6d6c eb3f 8336 ac47 29e7 fd3f
1.8708318575430343 -1.7389500514421312 0.8603849979701617 1.8709984624415332 -1.7394496484447706 0.8600116518707243 1.8710443824207739 -1.7397261516124263
0.8598990488688946 1.8707812096662209 -1.7398259606032458 0.8598053307607832 1.8660671332478467 -1.7379317338508569 0.8597027317878443 1.866368174103678
-1.7400066018982832 0.8618091565827734 1.8676475183376675 -1.740087981742051 0.8612717327332311 1.8677821488013875 -1.7400362979700579 0.8609169907957851
1.8677682013824426 -1.7400671164633628 0.8605710141563236 1.8676688344124641 -1.7397264191526334 0.8603398241807407 1.867773199843487 -1.740044131608899
0.8600892683765299 1.8677918222485375 -1.7400304230163117 0.8598228875573769 1.8677586546044653 -1.7400367850877523 0.8595684377054713 1.8676693556412476
-1.739906194543098 0.8594314063742069 1.8677149001736915 -1.7397502142071284 0.8593020352496861 1.867630726740963 -1.7396416517520807 0.8591253446679152
1.8675607696940093 -1.739513545796716 0.8589772868770187 1.8674089747766864 -1.7393070496802263 0.8589047973378638 1.8672768442331764 -1.7391803477462011
0.8587956575362473 1.867194897371932 -1.7391304666582839 0.858608743360851 1.8669805814450524 -1.7390038579398093 0.8584314841403505 1.8665966883630605
-1.7389445392041882 0.8582577224704547 1.8664393390386564 -1.7389338587846705 0.8582189984657509 1.866301000410039 -1.7388821804148915 0.8581509864215936
1.866302378730281 -1.738827386824119 0.85809105694781 1.8663436063423298 -1.7386892546654151 0.858011544860604 1.8663595014975904 -1.7386413160187215
0.8578087016892006 1.866242207582511 -1.7386134843214294 0.8576087684189997 1.8659791360627926 -1.738389505308452 0.8575436134598188 1.8658364242526069
-1.7381992787570293 0.857498506073059 1.865799891153472 -1.7381241054678804 0.8573965833411835 1.8657694429595004 -1.7382206110823426 0.857258936237184
1.8657642713074765 -1.738233801345788 0.857184194547896 1.8655246441622346 -1.7382247808914069 0.8572494934007213 1.865327342114572 -1.738090512560352
0.8572196864878364 1.865211061029186 -1.738068790301424 0.8571534295816671 1.8651894038058414 -1.7380934646335957 0.8570841685934276 1.8651109363364864
-1.7381928727136244 0.8571393858420577 1.864911306942816 -1.7381801499997092 0.8571094983626362 1.864888550288535 -1.7382363618483248 0.8568666379056866
1.8648405826184242 -1.7384185044701657 0.8565881800301333 1.8648229872645679 -1.7384775337450877 0.8564695716071972 1.8648035596199206 -1.73846118099137
0.8563556836580697 1.8647353920426388 -1.7384639203199672 0.856290406756963 1.864633637634225 -1.7384788830141529 0.8561704513243791 1.864426896575069
-1.7383941906099543 0.8560033901652585 1.8641782160368578 -1.7383722815841374 0.8559316307676492 1.8639019954412812 -1.738255449359022 0.8559484776722285
1.8635789999693035 -1.7380050074696518 0.855905399713751 1.863358607257577 -1.7378200161370507 0.8558979431716003 1.8631382228224425 -1.7377379832516753
0.8559447280455599 1.8630372205625592 -1.7376926394477668 0.8559679771167372 1.862790619382388 -1.7375961222882803 0.8559347846147398 1.8623913973265835
-1.7374525860466494 0.8558601311035219 1.8621525734652087 -1.7373514191397303 0.855788193415864 1.8619682529860266 -1.7373004928174074 0.855792440286746
1.8617821622521653 -1.7371475258509943 0.8558049683749626 1.8615899493151704 -1.7369462948121517 0.8558166308399066 1.861499842261065 -1.7368073643615634
0.8556933901913146 1.8614344282735218 -1.736798750886348 0.855450310868342 1.8613900069800347 -1.7368880495451988 0.8552735721507513 1.861360726634194
-1.7369498835406794 0.8551798396215556 1.861354517904889 -1.7369482137037722 0.8551342045524606 1.8613503387615877 -1.7369561782091754 0.8550452831384998
1.8612286972119703 -1.7368743958060866 0.8550521359473534 1.860998519616928 -1.7366700824058938 0.8550438074749562 1.8609161319621719 -1.736559809624055
0.8550038369762452 1.8609642779990103 -1.7362506701933655 0.8549711155133007 1.861132563231126 -1.7359164232379596 0.8549879694469464 1.861363481349262
-1.7357904938710014 0.85500530126902 1.861571176783662 -1.7356933935940946 0.8550380338886382 1.8616576233949769 -1.735468197458533 0.8551001655910541
1.861896410912684 -1.7354362225973232 0.8552745368332998 1.862259842040906 -1.7354471766286248 0.8555041479892577 1.8626063474547325 -1.7353015325673198
0.855711242414028 1.862882139813685 -1.7350313723934736 0.8558574003000909 1.8631605382979788 -1.7349810573088762 0.8558968891121531 1.8637479389441665
-1.735268179595679 0.8558581735654237 1.864491498973606 -1.7355016467300046 0.8559010621346106 1.8650716039137805 -1.735635122670629 0.8559862147191011
1.8652960809016785 -1.7354565677664895 0.8561369229263428 1.8659218654704803 -1.735567646291312 0.8562942656157811 1.8669906162165812 -1.7358939357040943
0.8564883035666188 1.8677499602950076 -1.7361881326395794 0.8567130332260406 1.8677732669112557 -1.7357305016005904 0.8569857452229264 1.868935852023612

mocap_framerate f8 []
00000000: 0000 0000 0000 5e40
120.0

betas f8 [16]
00000000: e01b 2de2 eb0d babf f9f4 c004 aee8 e8bf
00000010: 89c1 e0e5 f41f e93f cd4c d0b7 bbfa f03f
00000020: 9b4d f3ce 4592 e73f e5c7 22b4 317e e2bf
00000030: 02ec f27f f3b0 e03f 8e26 f10e 9ce3 d3bf
00000040: 8328 e612 a659 c93f c920 725a a5fd b03f
00000050: 2308 8452 b515 c1bf b9fd 94d5 6b35 a5bf
00000060: 68e5 eefd 862a f0bf 242b eba8 4aa8 d7bf
00000070: e687 abaa aecb df3f 1528 5832 51a2 c33f
-0.10177492401008648 -0.7784032910200543 0.7851509561351558 1.0612141781064566 0.7366055528640801 -0.5779045599249427 0.5216004847528668 -0.3107671876829067
0.19804836199574902 0.06637032945775724 -0.13347498444642367 -0.04142319662286859 -1.01038264458324 -0.36964670654258414 0.49680678050037697 0.15339102705212385

dmpls f8 [666, 8]
00000000: 8a5c e379 dace f0bf 9110 aca0 942d d0bf
00000010: 56fd 0de6 673f de3f 7f5d 2365 9ae2 90bf
00000020: c4d4 1fd4 f1c8 e6bf 05e7 1320 9310 f4bf
00000030: bf55 9dbf 9b56 03c0 76a8 e665 2c79 01c0
00000040: ca83 1972 1922 f1bf 6036 83e0 cc40 d1bf
00000050: b882 27f5 7533 df3f e2e3 6b42 a02d 92bf
00000060: 0976 ea7b 863d e7bf a057 482c 1e40 f4bf
00000070: 5b95 f1b3 7c86 03c0 20bf d13b 9374 01c0
00000080: a2b3 e60d 3444 f1bf 775d b224 bf99 d1bf
00000090: 0d1e ddfa 2a05 e03f 2808 bf7a 1145 95bf
000000a0: ff7c e87b 00d2 e7bf b427 0322 1d6f f4bf
000000b0: 6129 6774 03b5 03c0 3b1d 604d cc6e 01c0
000000c0: 1056 e0db e953 f1bf 12df 8909 a769 d1bf
000000d0: 6411 7d6c 6279 e03f f7e6 e850 505c 97bf
000000e0: 3520 45e7 ba50 e8bf b56f c6b0 588c f4bf
000000f0: a57f 9816 c2d2 03c0 fbae 46d2 5f6b 01c0
00000100: 08d1 9de8 2e73 f1bf 6d04 7da8 44be d0bf
00000110: 4151 125e e330 e13f bd8c 17aa 2bd9 9bbf
00000120: 9882 1b47 a121 e7bf f75c 08ca ff15 f5bf
00000130: 8a5d 72cd 4fb7 03c0 a266 2558 f628 01c0
00000140: 9878 6302 4876 f2bf 6737 31ee aced d9bf
00000150: 4930 834c 5ceb ce3f 2ee9 5332 9e9d c93f
00000160: 86fa d560 7994 e3bf 1170 f55f 984b f4bf
00000170: a72a 07f9 a215 05c0 8b8c 1b81 b9bb 00c0
00000180: f20f aa4b 8323 f3bf 1e26 0a63 8739 ddbf
00000190: e6b6 043c fdd6 b83f b924 feca a6b4 d33f
000001a0: 07da 3b53 d3d8 e2bf d111 3e2c 77cf f4bf
000001b0: 29bf 085d a7bf 05c0 1d8f 31dc 1729 00c0
000001c0: 3f09 2eac 3157 f3bf 30ab 9afa c6f1 debf
000001d0: e07c 2a0d 9f56 623f 63f5 0742 7813 d83f
000001e0: 653a 4e3d d1c0 e2bf bec6 b717 758f f5bf
000001f0: f77e 0e68 e128 06c0 0e3f 8c0d 4f2c ffbf
00000200: 3e16 a51d c43b f3bf c899 d791 680e e0bf
00000210: c498 760f 83d8 b2bf 5863 ae64 a8ab da3f
00000220: 66ca ad32 7f16 e3bf 100c e512 f16e f6bf
00000230: 5e6b b908 7983 06c0 d703 18d7 dd0e febf
00000240: 9078 eca9 39ab f2bf 3cd9 0885 b275 dfbf
00000250: d94c 11f6 a7c7 bdbf 980f d635 0dd4 da3f
00000260: acec 9226 9460 e4bf 44d2 ef1c 3f86 f7bf
00000270: 6ca0 70bd d597 06c0 a382 1e06 bd46 fdbf
00000280: 270d e971 0056 f3bf 5567 46f0 97a3 debf
00000290: 0262 bcfe 2649 c3bf 152c 7e51 60c4 dd3f
000002a0: 810b e5c7 4171 e4bf f4a5 6c53 7f31 f8bf
000002b0: c6c3 df74 a66e 06c0 384a cdaa aa48 fcbf
000002c0: fffc 0acc 0ff2 f3bf 9920 43f5 b59c dcbf
000002d0: 4889 d5df 5159 c5bf 8fa8 4dc5 feeb df3f
000002e0: 4fb2 dc99 e9b0 e4bf c35b 84de b3e1 f8bf
000002f0: 256a 48ee 0a2a 06c0 de4b d376 776a fbbf
00000300: 156a 837c 4872 f4bf ea2e 0e21 98f5 dabf
00000310: ddf0 18fd b948 c6bf 9230 8920 94c8 e03f
00000320: 9bae 5b11 f436 e5bf 194a 6d95 0b9b f9bf
00000330: 3830 7b9b 36e8 05c0 0655 902e 229c fabf
00000340: 5966 fded 79ee f4bf 984f f8be faea d9bf
00000350: 0420 a8df 9ff1 c7bf 5118 43f5 43c6 e13f
00000360: f22d 91e1 129f e5bf 52e1 0eeb 4e4f fabf
00000370: 8da6 2a9d c5bf 05c0 c573 d408 2ddd f9bf
00000380: 835a e1f3 8f2d f5bf 251b a97e 88d3 d8bf
00000390: c911 af35 c2f5 c9bf 437d 7e5b 4ee3 e23f
000003a0: 52be fc24 d2e2 e5bf 0fe8 4bdd 2710 fbbf
000003b0: 23ce 7ddd d7af 05c0 1b6e 7d2e 4228 f9bf
000003c0: 452d 7a8a 9d6b f5bf 8aed 559c f0c7 d7bf
000003d0: a0c2 3069 8bc5 ccbf ee54 40c3 01fe e33f
000003e0: 8960 bd5a 586e e6bf 351f 6943 bdd2 fbbf
000003f0: 55ab 5fc2 c4b0 05c0 69a4 9820 3888 f8bf
00000400: 5c7c fdd2 6095 f5bf 8094 1468 65d5 d6bf
00000410: 32d2 14b5 5da9 d0bf fc2d 723a 8e20 e53f
00000420: 1595 50dc fbd5 e6bf ba25 c55a 226b fcbf
00000430: be94 dcb6 01c6 05c0 ca60 d663 8609 f8bf
00000440: 62db 9162 f071 f5bf 284d db0e 1083 d6bf
00000450: be83 9883 a3da d3bf 12f2 179f 1c11 e63f
00000460: db0d 9a50 c52d e7bf 0410 795e 4edd fcbf
00000470: 6676 8ebc 66ea 05c0 bf37 abda dea6 f7bf
00000480: 905d fa73 0fd6 f4bf 0b84 7b1d 08b7 d6bf
00000490: a3d5 5f13 5b6c d6bf 9a7f 20e4 9c32 e63f
000004a0: 2a66 d3e2 50e4 e7bf cd76 6d49 8262 fdbf
000004b0: d437 bf0f 6814 06c0 d05d 743e 8b5b f7bf
000004c0: e97f c066 6d2c f4bf 6df4 6cca 6be0 d6bf
000004d0: 715b 048c be31 d7bf dd41 2bd9 c091 e53f
000004e0: 7cec 86f9 f9fa e8bf d897 41e6 40f9 fdbf
000004f0: bf9c 2358 b11f 06c0 3cb2 577e 4525 f7bf
00000500: 3e68 312d 1cec f3bf fd2a f8fd 8f05 d7bf
00000510: 5db5 ba3f 4f7e d7bf 5c7d 64af 0bf8 e43f
00000520: e17b 5cfa 42d9 e9bf 281e 7e64 1279 febf
00000530: 2485 8527 1611 06c0 a026 83ae a0fd f6bf
00000540: e82c 771a e0f4 f3bf 4d62 4fc6 10bd d7bf
00000550: a4d9 d09b 08a3 d8bf 2a68 16f6 aebe e43f
00000560: db47 2dd5 8168 eabf 8131 e62b 7bd6 febf
00000570: 9b5c 562e 8a02 06c0 79a1 a07d 4bd3 f6bf
00000580: 834d cd05 aafb f3bf 6eb2 5855 6bd1 d7bf
00000590: d8bc 1539 5c01 d9bf 9676 b207 2fbe e43f
000005a0: c2a7 9169 3d76 eabf 120d 4a8d 9be5 febf
000005b0: fce6 9dc9 f201 06c0 1f52 b02e 90c8 f6bf
000005c0: 79b6 136d 11f6 f3bf 9087 925e cdc2 d8bf
000005d0: c35c 9465 31c7 dbbf e0ed f421 b8f9 e43f
000005e0: b0c3 db10 f993 eabf 0c9d 091d 0734 ffbf
000005f0: e0c7 9ab8 e01e 06c0 ca01 2bfe eb8c f6bf
00000600: bb96 425d 902c f4bf 759f 8fb7 f17a d9bf
00000610: 9798 2ff1 ed4d debf 2bbd 5e08 f86a e53f
00000620: c3ee d9d5 7c9d eabf 7bd8 6b7a cf6d ffbf
00000630: 20d1 5f7c 4635 06c0 ad9f 1a7f 3d56 f6bf
00000640: e4a9 5823 137e f4bf 8e24 ff88 f30b d9bf
00000650: 15f7 81f6 88d8 dfbf 8bc5 f051 46c4 e53f
00000660: d738 179f e1d0 eabf 641b 6346 c7bd ffbf
00000670: 1231 79ff de38 06c0 f3c5 6dcc b50f f6bf
00000680: e70d f8cb 00c3 f4bf 97ce 4013 46f5 d7bf
00000690: 511e b22e 100b e0bf 8ef0 52f6 3e98 e53f
000006a0: 3c1b 59aa e143 ebbf 62c4 3c5f 4b16 00c0
000006b0: bd98 ddd3 ca1d 06c0 60f1 a4d3 38c9 f5bf
000006c0: 24dc e50f edcd f4bf f77a ccee e5e1 d6bf
000006d0: 9f31 8d9d e3ea dfbf c1ff be1a 3937 e53f
000006e0: 5b7c 75ec 49c3 ebbf cefb 3f9c 9159 00c0
000006f0: 0174 5917 11f9 05c0 f0ac af5b 5582 f5bf
00000700: 44f4 06d9 9f22 f5bf 6e9b 85c8 cd05 d6bf
00000710: c04f 2d55 13fb dfbf 9a1f 540d 5457 e53f
00000720: 963d 289c 95f5 ebbf d86f 0607 2c8d 00c0
00000730: 8f06 bb9f 8acc 05c0 5e22 8dd1 0c5f f5bf
00000740: d3bb 64ba ed76 f5bf 60d8 eb8e c375 d5bf
00000750: 374b 799f b026 e0bf 1944 8db7 42a9 e53f
00000760: 3999 1180 122d ecbf 9ac0 b1b0 f3b9 00c0
00000770: 618c 18d7 52b0 05c0 97ad 0b03 9b5e f5bf
00000780: ea3c 90b2 39a2 f5bf 941a a695 da1d d5bf
00000790: 20f7 ea5d d86c e0bf c02e ef8e 55e5 e53f
000007a0: 62a6 9971 8c72 ecbf 46ab 0e89 59e4 00c0
000007b0: 2289 761c d2a2 05c0 6167 5df9 9c6c f5bf
000007c0: f8e8 2d20 3f95 f5bf 62ce fbfe 3616 d5bf
000007d0: 906e 8bd4 dfb9 e0bf 3fed 264f 8d01 e63f
000007e0: aa38 a0ca 59cc ecbf 41bd d54b 2117 01c0
000007f0: 3485 cc6f 309d 05c0 c9a9 fb97 df6b f5bf
-1.0505013238196477 -0.25278201761853675 0.47261998621248347 -0.016489422247869975 -0.7120293753675004 -1.2540465596234196 -2.4172892541780295 -2.184166713811517
-1.0708250481622934 -0.26958009648374137 0.48751591626027446 -0.017752174428981145 -0.7262604160529814 -1.2656537751949841 -2.4406675394153985 -2.1819214509377076
-1.0791512053503785 -0.2750089510313595 0.5006308459932726 -0.020771287075838668 -0.7443849964219281 -1.2771273926359585 -2.4633854955656465 -2.1791006131130906
-1.0829866970938191 -0.27207351619243625 0.514817439929669 -0.02281308645090171 -0.7598547474854117 -1.2842642693785653 -2.4779092564858325 -2.1774288585492036
-1.0906209074574367 -0.2616130490678817 0.5372177922568327 -0.02719562745722891 -0.7228552235429389 -1.3178708927060236 -2.4645076799894854 -2.145001114503274
-1.1538772671988564 -0.4051315618606765 0.2415576337429022 0.20012261826907135 -0.6118742839169762 -1.2684558628452616 -2.63556475213166 -2.0916624151737486
-1.1961701350819536 -0.45663628265228506 0.09703047480862956 0.3079010946608594 -0.5889679551754065 -1.300650761434657 -2.7185809391302382 -2.020065040838644
-1.208787605836349 -0.4835069129282372 0.002238569876979221 0.3761883396944851 -0.5860372731566029 -1.347523777625994 -2.7699611787246528 -1.9483175782406223
-1.2020913274767646 -0.5017588470917014 -0.07361621024628834 0.4167271598067166 -0.5964961995908424 -1.4020853746485535 -2.81419569793563 -1.8786295320608042
-1.1668030393262008 -0.4915586756864234 -0.11632776029118776 0.41919260270537384 -0.6367893937489462 -1.470275033029922 -2.8241381454463887 -1.8297701109915259
-1.2084965180991476 -0.4787349554477392 -0.1506699317767613 0.46511085470473407 -0.6388253120606892 -1.5120843180433186 -2.804028428152807 -1.7677408859205013
-1.2465970964838673 -0.447064866556056 -0.16678832463646587 0.4987790037909087 -0.6465957646483477 -1.5551031772681518 -2.770528661332053 -1.7134928361526742
-1.2779011596491092 -0.4212398836905168 -0.17409443720123977 0.5244846950022455 -0.6629581774736438 -1.6003528439511057 -2.7383854052514174 -1.6631185358904204
-1.3082217499235382 -0.4049670090619144 -0.18706129475344835 0.5554523268008414 -0.6756681829078259 -1.6443623716314346 -2.7186386374131133 -1.6164980263631474
-1.3236236120771145 -0.3879109608573564 -0.2028124582412956 0.5902473246568792 -0.6839380953223986 -1.6914442676920804 -2.7108609489457804 -1.5723287406934847
-1.338773289610644 -0.37157836215165985 -0.2247785819650021 0.6247566998960374 -0.700969865060885 -1.7389500268199758 -2.711312788529009 -1.533256652192245
-1.3489692918590412 -0.3567746654901569 -0.2603372829792391 0.6602240697406496 -0.7136210730574556 -1.7761558099467565 -2.721682957274054 -1.5023254299067497
-1.340317139661885 -0.3517494340023455 -0.3102196488489958 0.6895888430877355 -0.7243372511151692 -1.8040298166606599 -2.7394537669159034 -1.4782398740530736
-1.3022608309164276 -0.3549213684000853 -0.3503635110094711 0.693678327141231 -0.7466206007185907 -1.8365500324502364 -2.7599641065817 -1.4598495902663338
-1.2608465207813373 -0.35744757431149915 -0.3624111525872911 0.6740421525556105 -0.7806367753577343 -1.8733529085525245 -2.7654749761455544 -1.4465994773155577
-1.2451440587378921 -0.35971450616550255 -0.3670843241078126 0.6552790094028 -0.8077711953991377 -1.9045585561269807 -2.758343037378511 -1.4369208161246334
-1.2472840341386533 -0.37091464391918266 -0.38495078293217433 0.6482767874142656 -0.8252572215662853 -1.9273635592281553 -2.751240121851493 -1.4265856654475029
-1.2489414431227892 -0.3721569379293105 -0.3907080228299953 0.6482157850584425 -0.8269335805791729 -1.9310565489875597 -2.750951361781402 -1.4239656280307214
-1.2475752125568802 -0.3868897841986092 -0.4340327732074451 0.6554833090989938 -0.8305630997912115 -1.9502020963935278 -2.765077059005293 -1.4094047478139253
-1.2608798640225547 -0.3981289188945916 -0.473506436856391 0.6693077243307121 -0.8317245651992028 -1.964309194763273 -2.7760133473149295 -1.396054741382595
-1.2807799702373979 -0.3913544500215459 -0.4975912482549217 0.6802093124771756 -0.8379982096901369 -1.9838326215264823 -2.7777690848216787 -1.3788354859829013
-1.2976081817185958 -0.3743453205126825 -0.5013504898096902 0.6748347102179808 -0.8520363165961053 -2.0108859482211736 -2.764547019195645 -1.3616264598232064
-1.300274908162245 -0.35753773040953213 -0.49871149431126044 0.6629910967239924 -0.8675889604891255 -2.043734760954499 -2.7466146301435406 -1.3443196851247272
-1.3209532239554997 -0.3441042383405407 -0.49969943349901413 0.6669101963352546 -0.8737285661645042 -2.068931631931246 -2.724873779196805 -1.3357055841062428
-1.3415353089328519 -0.3353127380099803 -0.5047228922579511 0.6769116959568492 -0.8805019856779729 -2.0907968334432327 -2.71109550517717 -1.3355970496148524
-1.3521058058866466 -0.32994713415283994 -0.5132867655117686 0.684244898956841 -0.8889829844240007 -2.1114989001847873 -2.7045023177789895 -1.3390168896498482
-1.348937154484302 -0.329480885512771 -0.5226897383940514 0.6876894517840028 -0.8999451596771639 -2.136293976269059 -2.701752541951146 -1.3388362824285756

poses f8 [666, 156]
00000000: 6c6c c855 d787 ed3f 5b58 125d c20b fabf
00000010: d084 98fc ca78 f8bf 058a 4cc4 f53a 86bf
00000020: 45aa 7369 2334 833f 61d0 bdc6 7d42 9cbf
00000030: 48b1 b8a8 1bfe b6bf f4f5 2b46 6ca7 b2bf
00000040: 8267 31bc a11a b3bf 644b 9789 d982 b7bf
00000050: e9ba 88d0 b4d1 923f 2d23 32bb 6308 acbf
00000060: e2b9 a159 917f 5bbf 193b 3e69 1f57 733f
00000070: ee2d f30e db55 acbf 0c92 37d1 ea2f ad3f
00000080: 06e8 3f42 1d73 c1bf f5b6 5edc 9613 af3f
00000090: 9425 53fa 1189 c03f 65b6 d6c4 ca50 b3bf
000000a0: 931c 9ee3 832f b53f 0a71 17e7 d388 cdbf
000000b0: bcec 22a2 7aa4 cd3f 97d7 c85e 1426 c03f
000000c0: 1412 cd44 bdcb d33f 6757 a130 acee c1bf
000000d0: 4225 abcb 6f36 bc3f ebac 3436 44ef b7bf
000000e0: 755c d463 d9a4 7ebf eed2 3d54 821a 92bf
000000f0: 0000 0000 0000 0000 0000 0000 0000 0000
00000100: 0000 0000 0000 0000 0000 0000 0000 0000
00000110: 0000 0000 0000 0000 0000 0000 0000 0000
00000120: c662 da36 dc43 ad3f 5278 ca9f 911f bbbf
00000130: 905b 4f13 fda5 823f 9477 7d02 0776 a93f
00000140: 782e 5281 4ccc a53f d5af daf5 5942 debf
00000150: 4246 4fb5 7316 8abf 1622 41ee 3827 85bf
00000160: 8e0f e8e2 44e1 d93f 3c69 630d 3ff0 be3f
00000170: 685e a16e 7598 8c3f a3fc d7d0 4ddb aa3f
00000180: 3f9b 6a77 4919 d63f ec52 b23e 21fc c7bf
00000190: 5cbe ef59 05e3 ecbf a860 6a50 11ec d03f
000001a0: 7d92 a88b 18a7 b13f a787 a181 e9a1 ee3f
000001b0: ecf7 3321 1055 9d3f 2807 696c 5a6f f5bf
000001c0: fbdf 2ad4 c945 d03f fdba 814d a041 b3bf
000001d0: 21a1 2ffc 01b9 f63f 00c7 6dac 1f83 b8bf
000001e0: 2045 5fed 3d7b d6bf 1043 f2f1 cc42 d5bf
000001f0: 76cf 2988 88d6 c83f 91d2 b406 03a4 ddbf
00000200: 9da1 015e 3479 d33f 220a 164a 100c c8bf
00000210: 80bb 8cef f996 bc3f d6a9 6490 f6f5 a53f
00000220: 83eb 72a9 fba6 dabf 2df8 e51a 0fdb bb3f
00000230: b14d c9fc 6fe4 b0bf dbff 704e f432 e8bf
00000240: 9f58 d798 35ad b8bf 2fc4 0ba7 3f46 b7bf
00000250: aee4 151d 6f1f c8bf e63e cdfb 793b bebf
00000260: 0054 c209 5015 aa3f 95b4 7b31 5bf2 e0bf
00000270: ae20 e99e b564 c2bf 17d3 e1dd a348 ac3f
00000280: fcef f38f 308e e6bf ba5e e0c1 afa4 93bf
00000290: 57a7 4d3f 63a3 b7bf 6a31 250c 60a0 d5bf
000002a0: a932 2545 0740 ddbf 6c44 9b12 d51f c9bf
000002b0: c54b 1384 bf03 e4bf e528 80a9 ba79 cbbf
000002c0: b6e1 1282 43e5 b0bf c9a1 3333 7a38 e0bf
000002d0: 751e db59 90a9 d7bf f662 6ba9 7de5 aebf
000002e0: ac9b 14b9 7859 b4bf 1454 2741 c928 c2bf
000002f0: 0170 5f2c 70fa b5bf da53 c55a 3f56 e4bf
00000300: e5f6 70d5 f269 d3bf 0b20 553f 93a2 adbf
00000310: 325f f524 5734 e4bf 67f4 a510 218b c6bf
00000320: c6b2 4e09 6de8 c0bf 368c ee97 0ae5 d7bf
00000330: 4ec7 8770 193b eb3f ae0b 2c2a 1ab9 d13f
00000340: 9c33 babd b16f b7bf 3f7e 758d 5efd dfbf
00000350: 5989 b4ad 9e31 9b3f 9140 4dc8 3313 ab3f
00000360: 3bce 19f0 4c23 e13f 72d3 959f 3488 a73f
00000370: 3af5 a5db 3bc0 d1bf 80bb 8cef f996 bc3f
00000380: d4a9 6490 f6f5 a5bf 84eb 72a9 fba6 da3f
00000390: 2df8 e51a 0fdb bb3f b04d c9fc 6fe4 b03f
000003a0: dbff 704e f432 e83f 9f58 d798 35ad b8bf
000003b0: 2fc4 0ba7 3f46 b73f afe4 151d 6f1f c83f
000003c0: e53e cdfb 793b bebf 0154 c209 5015 aabf
000003d0: 95b4 7b31 5bf2 e03f af20 e99e b564 c2bf
000003e0: 18d3 e1dd a348 acbf fcef f38f 308e e63f
000003f0: bb5e e0c1 afa4 93bf 57a7 4d3f 63a3 b73f
00000400: 6a31 250c 60a0 d53f a932 2545 0740 ddbf
00000410: 6d44 9b12 d51f c93f c54b 1384 bf03 e43f
00000420: e728 80a9 ba79 cbbf b6e1 1282 43e5 b03f
00000430: c9a1 3333 7a38 e03f 751e db59 90a9 d7bf
00000440: f462 6ba9 7de5 ae3f ad9b 14b9 7859 b43f
00000450: 1654 2741 c928 c2bf 0170 5f2c 70fa b53f
00000460: da53 c55a 3f56 e43f e5f6 70d5 f269 d3bf
00000470: 0c20 553f 93a2 ad3f 325f f524 5734 e43f
00000480: 68f4 a510 218b c6bf c6b2 4e09 6de8 c03f
00000490: 368c ee97 0ae5 d73f 4ec7 8770 193b eb3f
000004a0: ae0b 2c2a 1ab9 d1bf 9d33 babd b16f b73f
000004b0: 3f7e 758d 5efd dfbf 5989 b4ad 9e31 9bbf
000004c0: 9040 4dc8 3313 abbf 3ace 19f0 4c23 e13f
000004d0: 74d3 959f 3488 a7bf 3cf5 a5db 3bc0 d13f
000004e0: e662 8358 5caa ed3f cc5b ef2f 8c18 fabf
000004f0: 629d 169c 9e6b f8bf 3475 a064 85e8 92bf
00000500: 0707 0906 c735 813f bb47 ca53 3b1e 9bbf
00000510: 5ecd a882 b2ae b8bf c62d 0a76 39af b2bf
00000520: 70c6 19b7 b7c6 b2bf eee7 a605 0592 b8bf
00000530: e97d a30a d1e1 913f 95ee dce9 f07e aabf
00000540: 2e24 48cd 0269 5f3f aa87 578b 10be 703f
00000550: 15b8 4948 c9be acbf b282 7438 cd94 ad3f
00000560: 4ae4 7804 280a c2bf d422 63ef a9c9 ad3f
00000570: afc0 693c 8915 c03f a66e 4a37 b946 b3bf
00000580: e527 4dde edc6 b43f da05 cec8 d792 cdbf
00000590: dca6 774e b4c8 cd3f 5132 6d6c 4fbf bf3f
000005a0: b8bf 148a ee41 d33f b0f1 6e83 cd8a c2bf
000005b0: efbb a345 4ee5 bb3f b9e9 3b5c d01c b7bf
000005c0: b34d fe3c dd6d 7dbf 72c7 376d 6b49 92bf
000005d0: 0000 0000 0000 0000 0000 0000 0000 0000
000005e0: 0000 0000 0000 0000 0000 0000 0000 0000
000005f0: 0000 0000 0000 0000 0000 0000 0000 0000
00000600: 4adc f15e c585 ab3f bd72 9020 3a8a babf
00000610: 260d f81f 2ecd 863f b801 fbdd 3103 aa3f
00000620: 7919 47a4 a7e7 a43f 14bf 1ecd 8b3f debf
00000630: 3f0b 9822 af8e 86bf ab25 0c63 a72e 84bf
00000640: ee61 6a16 e8b6 d93f eb6a 4034 3bc4 c03f
00000650: 71ba bfba eee5 933f da90 cea9 d8e8 a93f
00000660: f200 e91d 0715 d63f 694c 9734 60c5 c7bf
00000670: a16b 85c3 f8e4 ecbf f6e6 5679 c7d9 d03f
00000680: 1673 04bb bdca b13f 9e18 5e24 2ac7 ee3f
00000690: a6a8 f28e d3a7 a13f b699 98f7 f07e f5bf
000006a0: 6497 3595 51c1 d03f 65c6 3c68 772a b2bf
000006b0: b8be 5fb9 e5bd f63f 234d 886f b676 babf
000006c0: 6b21 3749 3082 d6bf e245 7dd7 9a54 d5bf
000006d0: 329b 8aa2 6bc0 c93f 4da9 39c0 a2a8 ddbf
000006e0: 2f5b 46b9 c193 d33f 7736 f340 f521 c9bf
000006f0: 80bb 8cef f996 bc3f d6a9 6490 f6f5 a53f
00000700: 83eb 72a9 fba6 dabf 2df8 e51a 0fdb bb3f
00000710: b14d c9fc 6fe4 b0bf dbff 704e f432 e8bf
00000720: 9f58 d798 35ad b8bf 2fc4 0ba7 3f46 b7bf
00000730: aee4 151d 6f1f c8bf e63e cdfb 793b bebf
00000740: 0054 c209 5015 aa3f 95b4 7b31 5bf2 e0bf
00000750: ae20 e99e b564 c2bf 17d3 e1dd a348 ac3f
00000760: fcef f38f 308e e6bf ba5e e0c1 afa4 93bf
00000770: 57a7 4d3f 63a3 b7bf 6a31 250c 60a0 d5bf
00000780: a932 2545 0740 ddbf 6c44 9b12 d51f c9bf
00000790: c54b 1384 bf03 e4bf e528 80a9 ba79 cbbf
000007a0: b6e1 1282 43e5 b0bf c9a1 3333 7a38 e0bf
000007b0: 751e db59 90a9 d7bf f662 6ba9 7de5 aebf
000007c0: ac9b 14b9 7859 b4bf 1454 2741 c928 c2bf
000007d0: 0170 5f2c 70fa b5bf da53 c55a 3f56 e4bf
000007e0: e5f6 70d5 f269 d3bf 0b20 553f 93a2 adbf
000007f0: 325f f524 5734 e4bf 67f4 a510 218b c6bf
0.9228321719596244 -1.6278709064113375 -1.52949045820451 -0.010854644826001634 0.009376789718278941 -0.027597394232956044 -0.08981488103080892 -0.07286717141320037
-0.07462511868052782 -0.09184035882144098 0.018378091075812817 -0.054751507378631416 -0.0016783637461475977 0.004721758556015109 -0.055342526984158855 0.05700620464248027
-0.1363255094036619 0.060696329498893954 0.12918305132761232 -0.07545153909333065 0.08275627429076086 -0.23073815139549253 0.23158200184648148 0.12616209629203176
0.30931026190617783 -0.14009621023677285 0.11020563814522169 -0.09349466632254504 -0.007481431178596333 -0.017679249183362104 0.0 0.0
0.0 0.0 0.0 0.0 0.0571583573302568 -0.10595045233864767 0.009105660583299785 0.04972860246083069
0.04257430151582481 -0.4727997685356489 -0.012738136263496295 -0.010328717013309546 0.4043743339427629 0.12085336758483306 0.013962666929884196 0.052454406493773996
0.3452933946777427 -0.1873818927894243 -0.9027125126430735 0.26440842488365 0.06895593080168712 0.9572646648268702 0.028644802118826293 -1.3396858439231867
0.2542595455120133 -0.07522012607817526 1.4201679087655708 -0.09575078925788816 -0.3512720888221157 -0.3322021830327211 0.19404703758811664 -0.46313548712650127
0.30427273922261994 -0.18786815278515784 0.1116787156904433 0.04289217484104639 -0.416441836812446 0.10881132513711185 -0.06598567887822672 -0.7562200100001023
-0.09639296514009964 -0.09091565922041477 -0.1884592906970161 -0.11809503934386675 0.05094385260705536 -0.529584499976084 -0.14369840869244882 0.05524170001527844
-0.7048571406917286 -0.019182916839865817 -0.09233684821597642 -0.3379135244947721 -0.4570329833266365 -0.196283945164882 -0.6254575328442732 -0.21465237881086022
-0.06599828649166892 -0.5068942070038754 -0.36972435736649994 -0.06034462636097786 -0.07949022787634757 -0.14186969453172138 -0.08585263331718808 -0.6355282566897771
-0.3033415874850632 -0.05788097522832921 -0.6313892099233043 -0.1761208850183806 -0.13209307627166406 -0.37335457646458126 0.8509642789706306 0.2769227420650918
-0.09154806978240376 -0.49983943762160615 0.026556472160458842 0.05288087673273013 0.5355591477841196 0.04596104095518329 -0.2773580212595622 0.1116787156904433
-0.04289217484104638 0.41644183681244606 0.10881132513711185 0.0659856788782267 0.7562200100001023 -0.09639296514009964 0.09091565922041477 0.18845929069701614
-0.11809503934386674 -0.05094385260705537 0.529584499976084 -0.14369840869244885 -0.05524170001527845 0.7048571406917286 -0.01918291683986582 0.09233684821597642
0.3379135244947721 -0.4570329833266365 0.19628394516488204 0.6254575328442732 -0.21465237881086027 0.06599828649166892 0.5068942070038754 -0.36972435736649994
0.06034462636097784 0.07949022787634759 -0.14186969453172144 0.08585263331718808 0.6355282566897771 -0.3033415874850632 0.05788097522832922 0.6313892099233043
-0.17612088501838064 0.13209307627166406 0.37335457646458126 0.8509642789706306 -0.2769227420650918 0.09154806978240378 -0.49983943762160615 -0.026556472160458842
-0.05288087673273012 0.5355591477841195 -0.0459610409551833 0.2773580212595623 0.9270459870122891 -1.6309930679760667 -1.526274308891367 -0.01846512247731376
0.008403353568727135 -0.026482512463708235 -0.09641566934515342 -0.07298621303396322 -0.07334469051581904 -0.0959780825423022 0.017462984346705488 -0.05174973349354876
0.0019171264040116587 0.0040875097524536805 -0.05614308364316415 0.057775891438955354 -0.140934946235378 0.05817919776160854 0.12565722894533368 -0.07529790496703956
0.08116041829376248 -0.23104378991051427 0.2326875098363449 0.12401291272289795 0.30089915737607553 -0.14486092488904267 0.1089676780718347 -0.09028341533477303
-0.007184852802214636 -0.0178581986819561 0.0 0.0 0.0 0.0 0.0 0.0
0.0537549665831923 -0.10367167754197744 0.01113353762685294 0.05080562433932151 0.040829886249002585 -0.47262854605922766 -0.011014335864279466 -0.009854610166729246
0.4017887324239656 0.13098850299214546 0.019431810520411156 0.05060460160101039 0.34503343506732087 -0.18571093147201914 -0.9029506510517998 0.26329218720967107
0.06949983421186476 0.9618120870880096 0.03448353881806669 -1.3434915229532698 0.2617992360231851 -0.07096048636301473 1.4213616601154353 -0.10337391112289089
-0.35169608259140855 -0.33328887027627563 0.20118470608323374 -0.4634177090835195 0.3058933553051472 -0.19634881659878875 0.1116787156904433 0.04289217484104639
-0.416441836812446 0.10881132513711185 -0.06598567887822672 -0.7562200100001023 -0.09639296514009964 -0.09091565922041477 -0.1884592906970161 -0.11809503934386675
0.05094385260705536 -0.529584499976084 -0.14369840869244882 0.05524170001527844 -0.7048571406917286 -0.019182916839865817 -0.09233684821597642 -0.3379135244947721
-0.4570329833266365 -0.196283945164882 -0.6254575328442732 -0.21465237881086022 -0.06599828649166892 -0.5068942070038754 -0.36972435736649994 -0.06034462636097786
-0.07949022787634757 -0.14186969453172138 -0.08585263331718808 -0.6355282566897771 -0.3033415874850632 -0.05788097522832921 -0.6313892099233043 -0.1761208850183806
