data/amass/ACCAD/Male2Walking_c3d/B21 -  put down box to walk_poses.npz (npz, 891304 bytes, 5 tensors)

trans f8 [666, 3]
0	0x3ffdeeed62c76589	1.8708318575430403
1	0xbffbd2bd4a0524d9	-1.738950051442137
2	0x3feb88461e8806de	0.8603849979701541
3	0x3ffdef9c1570d7c6	1.8709984624415354
4	0xbffbd4c92791be70	-1.7394496484447721
5	0x3feb853727ded67e	0.8600116518707208
6	0x3ffdefcc3bfdc9b5	1.8710443824207748
7	0xbffbd5eb16d2bdad	-1.739726151612426
8	0x3feb844b02981bdb	0.8598990488688928
9	0x3ffdeeb84717cdc9	1.8707812096662215
10	0xbffbd653bf185d16	-1.739825960603246
11	0x3feb8386781168a1	0.8598053307607821
12	0x3ffddb6935d70a27	1.8660671332478473
13	0xbffbce9181791ebf	-1.7379317338508569
14	0x3feb82af4da9f0d5	0.8597027317878437
15	0x3ffddca4dfe120e7	1.8663681741036784
16	0xbffbd711299fa2ae	-1.740006601898283
17	0x3feb93f0cbdd52c1	0.8618091565827727
18	0x3ffde1e25d3b7418	1.8676475183376677
19	0xbffbd7667edbea83	-1.740087981742051
20	0x3feb8f89bca1df0d	0.8612717327332305
21	0x3ffde26f88d27919	1.8677821488013875
22	0xbffbd7304d1a2621	-1.7400362979700577
23	0x3feb8ca1ca013c71	0.8609169907957847
24	0x3ffde260e8d7242e	1.8677682013824426
25	0xbffbd7509de0e1f5	-1.7400671164633625
26	0x3feb89cc3935fb97	0.8605710141563233
27	0x3ffde1f8b738f5a7	1.8676688344124643
28	0xbffbd5eb5ea3f6c6	-1.7397264191526332
29	0x3feb87e76209af7b	0.8603398241807406
30	0x3ffde266269ac4ce	1.8677731998434868
31	0xbffbd73883edb607	-1.7400441316088988
32	0x3feb85d9edea2b1c	0.8600892683765298
33	0x3ffde279ad84b30e	1.8677918222485377
34	0xbffbd72a240e66d4	-1.7400304230163117
35	0x3feb83ab49cd28b1	0.8598228875573765
36	0x3ffde256e6258de2	1.8677586546044656
37	0xbffbd730cfdc9f3c	-1.740036785087752
38	0x3feb8195ab13cd4e	0.8595684377054711
39	0x3ffde1f943238761	1.8676693556412476
40	0xbffbd6a7e0baba08	-1.7399061945430976
41	0x3feb80764af10a45	0.8594314063742067
42	0x3ffde22904e7f770	1.8677149001736915
43	0xbffbd6045213a862	-1.739750214207128
44	0x3feb7f66fb591397	0.8593020352496862
45	0x3ffde1d0c1c5b6e2	1.867630726740963
46	0xbffbd5927c108dc0	-1.7396416517520805
47	0x3feb7df46f506df5	0.8591253446679149
48	0x3ffde18766d20dc0	1.867560769694009
49	0xbffbd50c27e25593	-1.7395135457967157
50	0x3feb7cbdef649865	0.8589772868770181
51	0x3ffde0e83baec39d	1.8674089747766864
52	0xbffbd433a10142d9	-1.7393070496802265
53	0x3feb7c25e9de323a	0.8589047973378634
54	0x3ffde05daf28f408	1.8672768442331762
55	0xbffbd3aec5b6a748	-1.739180347746201
56	0x3feb7b4107e21474	0.858795657536247
57	0x3ffde007c1b78743	1.8671948973719317
58	0xbffbd37a77dc648d	-1.739130466658284
59	0x3feb79b90b196ca2	0.8586087433608507
60	0x3ffddf2707b92d50	1.866980581445052
61	0xbffbd2f5b597824c	-1.7390038579398093
62	0x3feb78454dc7aa5c	0.85843148414035
63	0x3ffddd947d3575be	1.8665966883630598
64	0xbffbd2b782570955	-1.7389445392041882
65	0x3feb76d8e63199f8	0.8582577224704542
66	0x3ffddcef7f1238d5	1.866439339038654
67	0xbffbd2ac4f56322b	-1.7389338587846719
68	0x3feb7687b066ebb3	0.8582189984657503
69	0x3ffddc5e70140d1a	1.8663010004100387
70	0xbffbd2761f07aa84	-1.7388821804148913
71	0x3feb75f90eb6bf8e	0.8581509864215933
72	0x3ffddc5fe2117f39	1.8663023787302804
73	0xbffbd23caa7cc79c	-1.738827386824119
74	0x3feb757b605296de	0.8580910569478097
75	0x3ffddc8b1d056c8c	1.8663436063423289
76	0xbffbd1abd2eb1cf8	-1.738689254665415
77	0x3feb74d4a0988910	0.858011544860604
78	0x3ffddc9bc7d82d1a	1.8663595014975898
79	0xbffbd1798e7c65a0	-1.7386413160187217
80	0x3feb732b3bff56bc	0.8578087016892009
81	0x3ffddc20c9ffb526	1.8662422075825105
82	0xbffbd15c5f78b8ec	-1.7386134843214291
83	0x3feb7187f1a3eb0c	0.8576087684189999
84	0x3ffddb0cf0468748	1.8659791360627924
85	0xbffbd07183902696	-1.7383895053084522
86	0x3feb70ff4dd683cb	0.857543613459819
87	0x3ffdda774b5d9bc3	1.8658364242526069
88	0xbffbcfaa0c03135c	-1.7381992787570288
89	0x3feb70a0b4fe7c14	0.8574985060730591
90	0x3ffdda50fc9626fe	1.8657998911534714
91	0xbffbcf5b38d5fb17	-1.7381241054678804
92	0x3feb6fcaf5a4e176	0.8573965833411836
93	0x3ffdda310f3631ef	1.8657694429595002
94	0xbffbcfc06a5d4f0a	-1.7382206110823426
95	0x3feb6eaa4aeaf563	0.857258936237184
96	0x3ffdda2ba2f4f960	1.8657642713074765
97	0xbffbcfce3f194f8c	-1.738233801345788
98	0x3feb6e0d8c4766ed	0.8571841945478959
99	0x3ffdd9305e88f0fe	1.8655246441622348
100	0xbffbcfc4c9b067da	-1.738224780891406
101	0x3feb6e967d5565b4	0.8572494934007211
102	0x3ffdd8617bab7791	1.8653273421145722
103	0xbffbcf37ff4ef412	-1.7380905125603516
104	0x3feb6e57fade7bf2	0.8572196864878363
105	0x3ffdd7e78db4200c	1.8652110610291883
106	0xbffbcf213848afb8	-1.7380687903014245
107	0x3feb6dcd0776a3da	0.8571534295816676
108	0x3ffdd7d0d82311bd	1.8651894038058423
109	0xbffbcf3b17bfe1ae	-1.738093464633589
110	0x3feb6d3bc740e669	0.8570841685934286
111	0x3ffdd77e90afa26c	1.865110936336488
112	0xbffbcfa354671ff4	-1.7381928727136229
113	0x3feb6daf93c9c3e3	0.8571393858420574
114	0x3ffdd6ad3d142903	1.864911306942816
115	0xbffbcf95fd2ce1c1	-1.738180149999707
116	0x3feb6d70e611df22	0.8571094983626362
117	0x3ffdd6956062c926	1.8648885502885348
118	0xbffbcfd0ee6db48b	-1.738236361848325
119	0x3feb6b73955ad429	0.8568666379056867
120	0x3ffdd6631429986f	1.8648405826184236
121	0xbffbd08febf75e96	-1.7384185044701659
122	0x3feb692b9d6bd3a1	0.8565881800301335
123	0x3ffdd650a0f215e2	1.8648229872645676
124	0xbffbd0cdd1844114	-1.7384775337450877
125	0x3feb6832e0024e2a	0.856469571607197
126	0x3ffdd63c41e082d8	1.8648035596199204
127	0xbffbd0bcabdb9356	-1.73846118099137
128	0x3feb674408e1c3a4	0.8563556836580699
129	0x3ffdd5f4c748451b	1.8647353920426386
130	0xbffbd0bf8b30cda9	-1.7384639203199674
131	0x3feb66bb239cca4a	0.856290406756963
132	0x3ffdd58a14ca9173	1.8646336376342247
133	0xbffbd0cf3bb55181	-1.7384788830141533
134	0x3feb65bf9307ac2e	0.8561704513243791
135	0x3ffdd4b14c2929c1	1.8644268965750685
136	0xbffbd0766d439e4a	-1.7383941906099545
137	0x3feb646138c0cc19	0.8560033901652587
138	0x3ffdd3ac897cb3eb	1.8641782160368574
139	0xbffbd05f741ad412	-1.7383722815841378
140	0x3feb63cabb3849c1	0.8559316307676498
141	0x3ffdd28ae615e93c	1.8639019954412808
142	0xbffbcfe4f23173db	-1.7382554493590223
143	0x3feb63ee0fd53904	0.855948477672229
144	0x3ffdd13836a616b4	1.8635789999693033
145	0xbffbcede56b5dcbe	-1.7380050074696523
146	0x3feb6393b887b11c	0.8559053997137513
147	0x3ffdd0511d6e432a	1.863358607257576
148	0xbffbce1c5c7a4902	-1.7378200161370505
149	0x3feb63841554579c	0.8558979431716014
150	0x3ffdcf6a066f32fb	1.8631382228224413
151	0xbffbcdc657f153b8	-1.7377379832516748
152	0x3feb63e632c47517	0.8559447280455598
153	0x3ffdcf001dd8c03d	1.8630372205625598
154	0xbffbcd96cc0ed97f	-1.7376926394477719
155	0x3feb6416f484781f	0.8559679771167373
156	0x3ffdcdfd8958afe8	1.8627906193823893
157	0xbffbcd31976e272f	-1.737596122288277
158	0x3feb63d1586dbb50	0.8559347846147407
159	0x3ffdcc5aebfde922	1.8623913973265833
160	0xbffbcc9b1536bc5e	-1.73745258604665
161	0x3feb6334c92146da	0.8558601311035219
162	0x3ffdcb607f331ff9	1.862152573465208
163	0xbffbcc31006dd450	-1.7373514191397312
164	0x3feb629debe0c519	0.8557881934158643
165	0x3ffdca9f390c3e68	1.861968252986026
166	0xbffbcbfb99ff9b72	-1.737300492817408
167	0x3feb62a6d3e6426e	0.8557924402867465
168	0x3ffdc9dc17b2632e	1.8617821622521649
169	0xbffbcb5b343db7a7	-1.7371475258509947
170	0x3feb62c119dd97c7	0.8558049683749623
171	0x3ffdc9128aedef6d	1.8615899493151702
172	0xbffbca8832b2066c	-1.7369462948121521
173	0x3feb62d98f1a91dc	0.8558166308399069
174	0x3ffdc8b40f0053b2	1.8614998422610651
175	0xbffbc9f684d62870	-1.7368073643615638
176	0x3feb61d71ac8cd52	0.8556933901913146
177	0x3ffdc86f779154ed	1.8614344282735218
178	0xbffbc9ed7caca5f5	-1.7367987508863483
179	0x3feb5fd954910ac2	0.8554503108683422
180	0x3ffdc840e351498f	1.8613900069800342
181	0xbffbca4b1f99c1fb	-1.7368880495451993
182	0x3feb5e66aeb0a88d	0.8552735721507517
183	0x3ffdc8222f6f3e16	1.8613607266341936
184	0xbffbca8bf6099257	-1.7369498835406796
185	0x3feb5da21c6bf083	0.8551798396215563
186	0x3ffdc81bacca9d0d	1.8613545179048885
187	0xbffbca8a35cb40d1	-1.736948213703773
188	0x3feb5d426847cd2a	0.855134204552461
189	0x3ffdc8174af61298	1.8613503387615875
190	0xbffbca928fbfe59e	-1.736956178209176
191	0x3feb5c87ecf5b9b4	0.8550452831385003
192	0x3ffdc797be0e6efe	1.86122869721197
193	0xbffbca3cce73f351	-1.736874395806087
194	0x3feb5c964c089a43	0.8550521359473539
195	0x3ffdc6a6623a8bbf	1.8609985196169274
196	0xbffbc966917dffc5	-1.736670082405895
197	0x3feb5c84d4b81285	0.855043807474957
198	0x3ffdc64ffe760586	1.8609161319621719
199	0xbffbc8f2f05e2206	-1.736559809624056
200	0x3feb5c3101b88f45	0.8550038369762453
201	0x3ffdc6827a907ae2	1.86096427799901
202	0xbffbc7aec86237a8	-1.7362506701933658
203	0x3feb5bec6284efc0	0.8549711155133011
204	0x3ffdc732f04992cc	1.8611325632311262
205	0xbffbc6504ca65760	-1.7359164232379598
206	0x3feb5c0fbae7f04c	0.8549879694469467
207	0x3ffdc82512e5d213	1.8613634813492623
208	0xbffbc5cc40be2365	-1.7357904938710018
209	0x3feb5c3413db6d1c	0.8550053012690202
210	0x3ffdc8fedbb7649d	1.8615711767836622
211	0xbffbc5666f95eb15	-1.7356933935940948
212	0x3feb5c78b90c6933	0.8550380338886384
213	0x3ffdc959810d49c6	1.861657623394977
214	0xbffbc47a4cf551cc	-1.735468197458533
215	0x3feb5cfb05c09182	0.8551001655910542
216	0x3ffdca53e4168e5c	1.861896410912684
217	0xbffbc458c5c596a7	-1.7354362225973234
218	0x3feb5e68b4999e45	0.8552745368332998
219	0x3ffdcbd0f9e38461	1.8622598420409064
220	0xbffbc4644238e341	-1.7354471766286255
221	0x3feb604a3c269961	0.8555041479892617
222	0x3ffdcd3c503a3dcf	1.8626063474547327
223	0xbffbc3cb8a31347f	-1.7353015325673196
224	0x3feb61fc8b1f9be0	0.8557112424140279
225	0x3ffdce5d80acd621	1.8628821398136852
226	0xbffbc2b0419f6c68	-1.7350313723934736
227	0x3feb632f0f0a82d6	0.8558574003000909
228	0x3ffdcf816cb3004f	1.863160538297979
229	0xbffbc27b7f452353	-1.734981057308876
230	0x3feb6381df6f83c6	0.855896889112153
231	0x3ffdd1e95bdc0aa7	1.8637479389441667
232	0xbffbc3a891127243	-1.735268179595679
233	0x3feb6330ae2f4a05	0.8558581735654235
234	0x3ffdd4f509bc2fbf	1.8644914989736063
235	0xbffbc49d5fedc092	-1.7355016467300044
236	0x3feb638a9fcf5aa7	0.8559010621346105
237	0x3ffdd75552782093	1.8650716039137805
238	0xbffbc529559a8c7f	-1.7356351226706292
239	0x3feb643d33c173b2	0.8559862147191011
240	0x3ffdd840b40d465d	1.8652960809016783
241	0xbffbc46e1b22f7bb	-1.7354565677664897
242	0x3feb6579429bbc21	0.8561369229263428
243	0x3ffddad0e2d16474	1.8659218654704803
244	0xbffbc4e2948d11f2	-1.735567646291312
245	0x3feb66c33b524ec9	0.8562942656157811
246	0x3ffddf318d696cf8	1.8669906162165812
247	0xbffbc638b832c7ef	-1.7358939357040943
248	0x3feb685a28a7346a	0.8564883035666189
249	0x3ffde24dc849285e	1.8677499602950074
250	0xbffbc76d35163eb0	-1.7361881326395796
251	0x3feb6a31737868ea	0.8567130332260409
252	0x3ffde266389ba178	1.8677732669112554
253	0xbffbc58d58b0b518	-1.7357305016005906
254	0x3feb6c6d5e9bdc6c	0.8569857452229264
255	0x3ffde72947ac3682	1.8689358520236117

mocap_framerate f8 []
0	0x405e000000000000	120.0

betas f8 [16]
0	0xbfba0debe22d1be0	-0.10177492401008648
1	0xbfe8e8ae04c0f4f9	-0.7784032910200543
2	0x3fe91ff4e5e0c189	0.7851509561351558
3	0x3ff0fabbb7d04ccd	1.0612141781064566
4	0x3fe79245cef34d9b	0.7366055528640801
5	0xbfe27e31b422c7e5	-0.5779045599249427
6	0x3fe0b0f37ff2ec02	0.5216004847528668
7	0xbfd3e39c0ef1268e	-0.3107671876829067
8	0x3fc959a612e62883	0.19804836199574902
9	0x3fb0fda55a7220c9	0.06637032945775724
10	0xbfc115b552840823	-0.13347498444642367
11	0xbfa5356bd594fdb9	-0.04142319662286859
12	0xbff02a86fdeee568	-1.01038264458324
13	0xbfd7a84aa8eb2b24	-0.36964670654258414
14	0x3fdfcbaeaaab87e6	0.49680678050037697
15	0x3fc3a25132582815	0.15339102705212385

dmpls f8 [666, 8]
0	0xbff0ceda79e360a7	-1.0505013238198815
1	0xbfd02d94a0ac27ad	-0.25278201761886515
2	0x3fde3f67e60e0974	0.47261998621265566
3	0xbf90e29a6521a800	-0.0164894222474814
4	0xbfe6c8f1d41fdd99	-0.7120293753677515
5	0xbff410932013ed5e	-1.2540465596237804
6	0xc003569bbf9d5d28	-2.417289254178872
7	0xc001792c65e6a5b5	-2.1841667138112038
8	0xbff1221972198692	-1.0708250481624515
9	0xbfd140cce0834118	-0.2695800964838937
10	0x3fdf3375f5278b59	0.4875159162603971
11	0xbf922da0426a67f6	-0.017752174428643706
12	0xbfe73d867bea7c57	-0.7262604160531606
13	0xbff4401e2c485c26	-1.2656537751952412
14	0xc003867cb3f19b0c	-2.4406675394160455
15	0xc00174933bd1bcd7	-2.181921450937448
16	0xbff144340de6b54d	-1.0791512053504733
17	0xbfd199bf24b25d41	-0.27500895103135653
18	0x3fe0052afadd2019	0.5006308459933307
19	0xbf9545117abdd476	-0.02077128707556538
20	0xbfe7d2007be88134	-0.7443849964220477
21	0xbff46f1d22032b11	-1.2771273926361497
22	0xc003b50374672dcc	-2.4633854955661487
23	0xc0016ecc4d601b39	-2.1791006131128623
24	0xbff153e9dbe05792	-1.0829866970939048
25	0xbfd169a70989dca3	-0.27207351619240167
26	0x3fe079626c7d133b	0.5148174399297213
27	0xbf975c5050e7d60b	-0.022813086450659308
28	0xbfe850bae7452325	-0.7598547474854952
29	0xbff48c58b0c671e0	-1.2842642693786885
30	0xc003d2c2169882d4	-2.4779092564861944
31	0xc0016b5fd246ad4c	-2.1774288585490122
32	0xbff1732ee89dd1dc	-1.0906209074574837
33	0xbfd0be44a87cfe75	-0.26161304906779687
34	0x3fe130e35e1251cb	0.5372177922568481
35	0xbf9bd92baa16bf81	-0.027195627457046626
36	0xbfe721a1471b8647	-0.7228552235430435
37	0xbff515ffca085ebe	-1.3178708927061247
38	0xc003b74fcd72605e	-2.464507679989807
39	0xc00128f65825650d	-2.1450011145030943
40	0xbff2764802637966	-1.1538772671989022
41	0xbfd9edacee31326b	-0.40513156186060567
42	0x3fceeb5c4c8333ad	0.2415576337429263
43	0x3fc99d9e3253ff24	0.2001226182692274
44	0xbfe3947960d5fdb9	-0.6118742839170671
45	0xbff44b985ff57130	-1.2684558628453253
46	0xc00515a2f9072cd9	-2.6355647521319097
47	0xc000bbb9811b8b2c	-2.0916624151735927
48	0xbff323834baa0fec	-1.1961701350819522
49	0xbfdd3987630a216e	-0.45663628265221845
50	0x3fb8d6fd3c04b726	0.09703047480863045
51	0x3fd3b4a6cafe2b76	0.30790109466095517
52	0xbfe2d8d3533bdf27	-0.5889679551755521
53	0xbff4cf772c3e12d5	-1.3006507614347147
54	0xc005bfa75d08c166	-2.7185809391304927
55	0xc0002917dc318db4	-2.0200650408384835
56	0xbff35731ac2e0aac	-1.20878760583643
57	0xbfdef1c6fa9aa683	-0.4835069129281708
58	0x3f62569f0d2b0100	0.00223856987699389
59	0x3fd813784207fd72	0.37618833969459964
60	0xbfe2c0d13d4e3dbe	-0.5860372731566981
61	0xbff58f7517b7c70e	-1.3475237776260118
62	0xc00628e1680e8067	-2.769961178724816
63	0xbfff2c4f0d8c3ca9	-1.9483175782404862
64	0xbff33bc41da516f7	-1.2020913274768057
65	0xbfe00e6891d797a8	-0.501758847091641
66	0xbfb2d8830f7698e3	-0.07361621024628877
67	0x3fdaaba864ae68d5	0.4167271598067946
68	0xbfe3167f32adcde6	-0.5964961995909419
69	0xbff66ef112e50bdb	-1.4020853746485418
70	0xc006837908b96c8b	-2.8141956979357636
71	0xbffe0eddd71801b9	-1.8786295320606838
72	0xbff2ab39a9ec7a4e	-1.1668030393262998
73	0xbfdf75b28508d319	-0.4915586756863362
74	0xbfbdc7a7f6114e0a	-0.11632776029119199
75	0x3fdad40d35d615c9	0.4191926027054618
76	0xbfe460942692ef6e	-0.6367893937490245
77	0xbff7863f1cefd241	-1.4702750330299212
78	0xc00697d5bd70a117	-2.8241381454464647
79	0xbffd46bd061e807c	-1.8297701109914035
80	0xbff3560071e90eba	-1.208496518099237
81	0xbfdea397f0466355	-0.47873495544768235
82	0xbfc34926febc637c	-0.1506699317767718
83	0x3fddc460517e3178	0.4651108547048106
84	0xbfe47141c7e50f7e	-0.6388253120608025
85	0xbff8317f536ca624	-1.5120843180433292
86	0xc0066ea674dfc497	-2.8040284281529
87	0xbffc48aaaacd4831	-1.767740885920386
88	0xbff3f20fcc0afe2d	-1.2465970964839344
89	0xbfdc9cb5f5431e72	-0.4470648665560254
90	0xbfc55951dfd58a26	-0.16678832463647203
91	0x3fdfebfec54dad4e	0.49877900379097617
92	0xbfe4b0e999dcb6ed	-0.6465957646484789
93	0xbff8e1b3de845bc2	-1.5551031772681516
94	0xc0062a0aee486af1	-2.770528661332144
95	0xbffb6a7776d34a27	-1.7134928361525767
96	0xbff472487c836c26	-1.2779011596492267
97	0xbfdaf598210e2a52	-0.4212398836904515
98	0xbfc648b9fd18f0d9	-0.17409443720123965
99	0x3fe0c89420893461	0.5244846950023537
100	0xbfe536f4115bb179	-0.6629581774737253
101	0xbff99b0b956d49df	-1.6003528439510928
102	0xc005e8369b7b3072	-2.738385405251443
103	0xbffa9c222e905381	-1.663118535890334
104	0xbff4ee79edfd67f1	-1.3082217499236288
105	0xbfd9eafabef848e9	-0.4049670090618194
106	0xbfc7f19fdfa820f8	-0.18706129475345512
107	0x3fe1c643f5431b1f	0.5554523268009212
108	0xbfe59f12e1913167	-0.6756681829079242
109	0xbffa4f4eeb0ee14e	-1.6443623716314337
110	0xc005bfc59d2aa6e7	-2.7186386374131533
111	0xbff9dd2d08d47238	-1.6164980263630593
112	0xbff52d8ff3e15bea	-1.3236236120771943
113	0xbfd8d3887ea91550	-0.3879109608572735
114	0xbfc9f5c235af16ae	-0.20281245824133037
115	0x3fe2e34e5b7e7f5d	0.590247324656939
116	0xbfe5e2d224fcc19d	-0.6839380953224922
117	0xbffb1027dd4be82c	-1.691444267692087
118	0xc005afd7dd7dce9a	-2.7108609489458333
119	0xbff928422e7d6ca4	-1.5723287406934014
120	0xbff56b9d8a7a2d84	-1.338773289610658
121	0xbfd7c7f09c55eb6b	-0.3715783621516297
122	0xbfccc58b6930c989	-0.2247785819650512
123	0x3fe3fe01c34055c4	0.6247566998960612
124	0xbfe66e585abd65b0	-0.7009698650610314
125	0xbffbd2bd43691f94	-1.7389500268199969
126	0xc005b0c4c25fac5e	-2.711312788529127
127	0xbff888382098a2e1	-1.533256652192158
128	0xbff59560d2fd7c5d	-1.3489692918590415
129	0xbfd6d565681491ed	-0.3567746654901203
130	0xbfd0a95db514d5d1	-0.26033728297929054
131	0x3fe5208e3a722dfe	0.6602240697406498
132	0xbfe6d5fbdc509b3b	-0.7136210730576303
133	0xbffc6b225ac5265e	-1.776155809946793
134	0xc005c601b6dc95e3	-2.7216829572741843
135	0xbff8098663d65f1a	-1.5023254299066537
136	0xbff571f06291db85	-1.3403171396618927
137	0xbfd683100edb4bfa	-0.3517494340023287
138	0xbfd3daa3839887f6	-0.31021964884905573
139	0x3fe6111c9f17f20b	0.6895888430877347
140	0xbfe72dc5509a13b9	-0.724337251115336
141	0xbffcdd4e5e79102a	-1.8040298166606683
142	0xc005ea66bc8e7772	-2.7394537669160224
143	0xbff7a6dedaab365e	-1.4782398740529952
144	0xbff4d60f73fa5d0a	-1.3022608309163979
145	0xbfd6b7081d7b8384	-0.3549213684000778
146	0xbfd66c5b135fd86e	-0.3503635110095108
147	0x3fe6329ce4207e6c	0.6936783271411975
148	0xbfe7e450e2d36c7c	-0.7466206007187703
149	0xbffd6282496d76e5	-1.8365500324502417
150	0xc00614680fbf38c5	-2.759964106581807
151	0xbff75b8b3e745c83	-1.4598495902662598
152	0xbff42c6d66c07ece	-1.2608465207812745
153	0xbfd6e06bca6cf5e9	-0.35744757431152024
154	0xbfd731be8c045ecd	-0.36241115258733886
155	0x3fe591c0d92b3f38	0.6740421525555353
156	0xbfe8faf9f986f336	-0.7806367753579255
157	0xbffdf940e64197cc	-1.8733529085525218
158	0xc0061fb158239dd0	-2.7654749761456756
159	0xbff725457e57b0fe	-1.446599477315487
160	0xbff3ec1c2d316544	-1.245144058737723
161	0xbfd7058ffdf82f62	-0.359714506165565
162	0xbfd77e4f3fbab9f7	-0.367084324107878
163	0x3fe4f80baf647740	0.6552790094026264
164	0xbfe9d942fa5c83f4	-0.8077711953993671
165	0xbffe7912647e1dd1	-1.9045585561269613
166	0xc006111627858696	-2.7583430373786753
167	0xbff6fda0ae8325c4	-1.4369208161245846
168	0xbff3f4e01a772982	-1.2472840341384601
169	0xbfd7bd10c64f689c	-0.3709146439192723
170	0xbfd8a3089bd0df06	-0.3849507829322508
171	0x3fe4beaef616600d	0.648276787414035
172	0xbfea6881d52d50ba	-0.8252572215665375
173	0xbffed67b2be630ec	-1.9273635592281222
174	0xc006028a2e565e2e	-2.751240121851672
175	0xbff6d34b7da0a0ab	-1.4265856654474571
176	0xbff3fbaa05cd4a96	-1.248941443122623
177	0xbfd7d16b5558b906	-0.3721569379294042
178	0xbfd9015c3915c1ee	-0.39070802283006756
179	0x3fe4be2f07b26f49	0.648215785058235
180	0xbfea763d6991b044	-0.8269335805794147
181	0xbffee59b8d4a0c6b	-1.9310565489875227
182	0xc00601f2c99de86a	-2.7509513617815644
183	0xbff6c8902eb0514f	-1.4239656280306752
184	0xbff3f6116d13b323	-1.2475752125566906
185	0xbfd8c2cd5e928e14	-0.3868897841987018
186	0xbfdbc731659460e1	-0.4340327732075036
187	0x3fe4f9b821f4e519	0.6554833090987443
188	0xbfea93f910dbcc60	-0.8305630997914584
189	0xbfff34071d099c0d	-1.9502020963934712
190	0xc0061ee0b89ac919	-2.765077059005432
191	0xbff68cebfe2b0120	-1.4094047478138876
192	0xbff42c905d4293c5	-1.2608798640223864
193	0xbfd97af1b78fa5ee	-0.3981289188946836
194	0xbfde4dedf12f9cbe	-0.47350643685645
195	0x3fe56af8085eb3eb	0.6693077243304492
196	0xbfea9d7cd5d9f6fe	-0.8317245651994367
197	0xbfff6dcf7a6bd742	-1.9643091947632034
198	0xc00635467c5fd240	-2.7760133473150574
199	0xbff6563d7f1a9f1e	-1.3960547413825632
200	0xbff47e132358a6be	-1.280779970237219
201	0xbfd90bf388ff2a72	-0.3913544500216296
202	0xbfdfd888f681faee	-0.49759124825497636
203	0x3fe5c44651f0ba9b	0.6802093124768648
204	0xbfead0e19f17400a	-0.8379982096903416
205	0xbfffbdc7466319ba	-1.9838326215263877
206	0xc00638deff7931fa	-2.7777690848217818
207	0xbff60fb5cc6dc5d1	-1.3788354859828937
208	0xbff4c300cbf80dff	-1.2976081817186012
209	0xbfd7f5461340d253	-0.37434532051273556
210	0xbfe00b102eb21e85	-0.501350489809696
211	0x3fe5983ef652eab0	0.674834710217814
212	0xbfeb43e1aa591e9d	-0.8520363165962014
213	0xc000164b5f3cc36f	-2.0108859482210657
214	0xc0061dcad3dd9873	-2.764547019195612
215	0xbff5c938d3a4f160	-1.3616264598232064
216	0xbff4cded0fe5dc73	-1.3002749081622624
217	0xbfd6e1e5eecc7e19	-0.35753773040957665
218	0xbfdfeae39d8d3197	-0.49871149431126
219	0x3fe537391abefb72	0.6629910967238699
220	0xbfebc349ec757edc	-0.8675889604891966
221	0xc00059919c3ffae1	-2.043734760954394
222	0xc005f911175973ae	-2.7466146301435037
223	0xbff582555bafacfc	-1.3443196851247299
224	0xbff5229fd906f431	-1.3209532239554955
225	0xbfd605cdc8859ebb	-0.3441042383405876
226	0xbfdffb13552d513c	-0.49969943349903523
227	0x3fe557540d541bbf	0.666910196335145
228	0xbfebf5959c284063	-0.8737285661645838
229	0xc0008d2c07066f08	-2.0689316319311537
230	0xc005cc8a9fbb0689	-2.7248737791968023
231	0xbff55f0cd18d226e	-1.3357055841062464
232	0xbff576edba64bec6	-1.3415353089330195
233	0xbfd575c38eebd415	-0.3353127380099193
234	0xbfe026b09f794b57	-0.5047228922579546
235	0x3fe5a942b78d45a0	0.6769116959568926
236	0xbfec2d1280119a29	-0.8805019856779995
237	0xc000b9f3b0b1c02e	-2.090796833443185
238	0xc005b052d7188b9c	-2.7110955051770826
239	0xbff55e9b030bad2a	-1.3355970496148282
240	0xbff5a239b2903ceb	-1.3521058058866469
241	0xbfd51dda95a619f6	-0.32994713415283117
242	0xbfe06cd85deaf7a5	-0.5132867655117833
243	0x3fe5e5558eef2d1b	0.6842448989567943
244	0xbfec728c7199a81f	-0.8889829844240501
245	0xc000e459890eaad5	-2.111498900184737
246	0xc005a2d21c7688ee	-2.7045023177789664
247	0xbff56c9cf95d6768	-1.3390168896498498
248	0xbff5953f202deaf1	-1.3489371544844142
249	0xbfd51636fefbcf29	-0.32948088551278204
250	0xbfe0b9dfd48b6e14	-0.5226897383940377
251	0x3fe6018d4f26efb8	0.687689451784073
252	0xbfeccc59caa03975	-0.8999451596771865
253	0xc00117214bd5bd09	-2.1362939762690343
254	0xc0059d306fcc84cd	-2.7017525419511004
255	0xbff56bdf97fba97a	-1.338836282428558

poses f8 [666, 156]
0	0x3fed87d755c86deb	0.9228321719596669
1	0xbffa0bc25d125a38	-1.6278709064114434
2	0xbff878cafc98837d	-1.5294904582044346
3	0xbf863af5c44de9bf	-0.010854644826157831
4	0x3f833423697352a8	0.009376789718240033
5	0xbf9c427dc6bde2a6	-0.02759739423297227
6	0xbfb6fe1ba8b8de06	-0.08981488103096788
7	0xbfb2a76c462be5bd	-0.07286717141314276
8	0xbfb31aa1bc316c82	-0.07462511868054558
9	0xbfb782d989976dbe	-0.09184035882156302
10	0x3f92d1b4d088c830	0.01837809107582461
11	0xbfac0863bb321379	-0.05475150737860352
12	0xbf5b7f91599eca30	-0.0016783637461058702
13	0x3f73571f693eef1d	0.004721758556055081
14	0xbfac55db0ef32700	-0.055342526984146545
15	0x3fad2fead137b489	0.05700620464254153
16	0xbfc1731d423ff26b	-0.13632550940373575
17	0x3faf1396dc5eb4a5	0.060696329498889846
18	0x3fc08911fa531df0	0.12918305132755803
19	0xbfb350cac4d6b1d3	-0.07545153909331441
20	0x3fb52f83e39e0c50	0.08275627429070309
21	0xbfcd88d3e7177082	-0.23073815139548876
22	0x3fcda47aa222ee66	0.2315820018464933
23	0x3fc026145ec8d029	0.12616209629197897
24	0x3fd3cbbd44cd110a	0.30931026190616306
25	0xbfc1eeac30a15374	-0.1400962102367448
26	0x3fbc366fcbab355e	0.11020563814527892
27	0xbfb7ef4436349526	-0.09349466632246059
28	0xbf7ea4d963d4d65f	-0.007481431178623404
29	0xbf921a82543dd2f1	-0.017679249183362115
30	0x0000000000000000	0.0
31	0x0000000000000000	0.0
32	0x0000000000000000	0.0
33	0x0000000000000000	0.0
34	0x0000000000000000	0.0
35	0x0000000000000000	0.0
36	0x3fad43dc36da4c4e	0.05715835733021689
37	0xbfbb1f919fca7a53	-0.10595045233865479
38	0x3f82a5fd134fb5ac	0.009105660583339802
39	0x3fa97607027d7367	0.04972860246082327
40	0x3fa5cc4c815237f7	0.04257430151584168
41	0xbfde4259f5daad4a	-0.4727997685356128
42	0xbf8a1673b54f59fa	-0.012738136263505052
43	0xbf852738ee414204	-0.010328717013323725
44	0x3fd9e144e2e80fce	0.40437433394276645
45	0x3fbef03f0d636fbb	0.12085336758485614
46	0x3f8c98756ea16da0	0.013962666929890954
47	0x3faadb4dd0d7ea74	0.052454406493741695
48	0x3fd61949776a9d0b	0.34529339467776826
49	0xbfc7fc213eb25955	-0.18738189278946984
50	0xbfece30559efbf67	-0.9027125126431031
51	0x3fd0ec11506a616a	0.2644084248836608
52	0x3fb1a7188ba89d18	0.0689559308017248
53	0x3feea1e981a18861	0.9572646648268909
54	0x3f9d55102133f906	0.02864480211882727
55	0xbff56f5a6c6906ba	-1.3396858439231623
56	0x3fd045c9d42ae301	0.25425954551205626
57	0xbfb341a04d81b260	-0.07522012607814466
58	0x3ff6b901fc2fa0e0	1.4201679087655563
59	0xbfb8831fac6dd3b6	-0.09575078925793332
60	0xbfd67b3ded5f46e1	-0.3512720888221406
61	0xbfd542ccf1f243d1	-0.3322021830327318
62	0x3fc8d6888829d083	0.1940470375881241
63	0xbfdda40306b4d6d6	-0.46313548712656194
64	0x3fd379345e01a1c4	0.3042727392226221
65	0xbfc80c104a160e13	-0.18786815278518584
66	0x3fbc96f9ef8cbb80	0.1116787156904433
67	0x3fa5f5f69064a9d6	0.04289217484104639
68	0xbfdaa6fba972eb83	-0.416441836812446
69	0x3fbbdb0f1ae5f82d	0.10881132513711185
70	0xbfb0e46ffcc94db1	-0.06598567887822672
71	0xbfe832f44e70ffdb	-0.7562200100001023
72	0xbfb8ad3598d7589f	-0.09639296514009964
73	0xbfb7463fa70bc42f	-0.09091565922041477
74	0xbfc81f6f1d15e4ae	-0.1884592906970161
75	0xbfbe3b79fbcd3ee6	-0.11809503934386675
76	0x3faa155009c25400	0.05094385260705536
77	0xbfe0f25b317bb495	-0.529584499976084
78	0xbfc264b59ee920ae	-0.14369840869244882
79	0x3fac48a3dde1d317	0.05524170001527844
80	0xbfe68e308ff3effc	-0.7048571406917286
81	0xbf93a4afc1e05eba	-0.019182916839865817
82	0xbfb7a3633f4da757	-0.09233684821597642
83	0xbfd5a0600c25316a	-0.3379135244947721
84	0xbfdd4007452532a9	-0.4570329833266365
85	0xbfc91fd5129b446c	-0.196283945164882
86	0xbfe403bf84134bc5	-0.6254575328442732
87	0xbfcb79baa98028e5	-0.21465237881086022
88	0xbfb0e5438212e1b6	-0.06599828649166892
89	0xbfe0387a3333a1c9	-0.5068942070038754
90	0xbfd7a99059db1e75	-0.36972435736649994
91	0xbfaee57da96b62f6	-0.06034462636097786
92	0xbfb45978b9149bac	-0.07949022787634757
93	0xbfc228c941275414	-0.14186969453172138
94	0xbfb5fa702c5f7001	-0.08585263331718808
95	0xbfe4563f5ac553da	-0.6355282566897771
96	0xbfd369f2d570f6e5	-0.3033415874850632
97	0xbfada2933f55200b	-0.05788097522832921
98	0xbfe4345724f55f32	-0.6313892099233043
99	0xbfc68b2110a5f467	-0.1761208850183806
100	0xbfc0e86d094eb2c6	-0.13209307627166406
101	0xbfd7e50a97ee8c36	-0.37335457646458126
102	0x3feb3b197087c74e	0.8509642789706306
103	0x3fd1b91a2a2c0bae	0.2769227420650918
104	0xbfb76fb1bdba339c	-0.09154806978240376
105	0xbfdffd5e8d757e3f	-0.49983943762160615
106	0x3f9b319eadb48959	0.026556472160458842
107	0x3fab1333c84d4091	0.05288087673273013
108	0x3fe1234cf019ce3b	0.5355591477841196
109	0x3fa788349f95d372	0.04596104095518329
110	0xbfd1c03bdba5f53a	-0.2773580212595622
111	0x3fbc96f9ef8cbb80	0.1116787156904433
112	0xbfa5f5f69064a9d4	-0.04289217484104638
113	0x3fdaa6fba972eb84	0.41644183681244606
114	0x3fbbdb0f1ae5f82d	0.10881132513711185
115	0x3fb0e46ffcc94db0	0.0659856788782267
116	0x3fe832f44e70ffdb	0.7562200100001023
117	0xbfb8ad3598d7589f	-0.09639296514009964
118	0x3fb7463fa70bc42f	0.09091565922041477
119	0x3fc81f6f1d15e4af	0.18845929069701614
120	0xbfbe3b79fbcd3ee5	-0.11809503934386674
121	0xbfaa155009c25401	-0.05094385260705537
122	0x3fe0f25b317bb495	0.529584499976084
123	0xbfc264b59ee920af	-0.14369840869244885
124	0xbfac48a3dde1d318	-0.05524170001527845
125	0x3fe68e308ff3effc	0.7048571406917286
126	0xbf93a4afc1e05ebb	-0.01918291683986582
127	0x3fb7a3633f4da757	0.09233684821597642
128	0x3fd5a0600c25316a	0.3379135244947721
129	0xbfdd4007452532a9	-0.4570329833266365
130	0x3fc91fd5129b446d	0.19628394516488204
131	0x3fe403bf84134bc5	0.6254575328442732
132	0xbfcb79baa98028e7	-0.21465237881086027
133	0x3fb0e5438212e1b6	0.06599828649166892
134	0x3fe0387a3333a1c9	0.5068942070038754
135	0xbfd7a99059db1e75	-0.36972435736649994
136	0x3faee57da96b62f4	0.06034462636097784
137	0x3fb45978b9149bad	0.07949022787634759
138	0xbfc228c941275416	-0.14186969453172144
139	0x3fb5fa702c5f7001	0.08585263331718808
140	0x3fe4563f5ac553da	0.6355282566897771
141	0xbfd369f2d570f6e5	-0.3033415874850632
142	0x3fada2933f55200c	0.05788097522832922
143	0x3fe4345724f55f32	0.6313892099233043
144	0xbfc68b2110a5f468	-0.17612088501838064
145	0x3fc0e86d094eb2c6	0.13209307627166406
146	0x3fd7e50a97ee8c36	0.37335457646458126
147	0x3feb3b197087c74e	0.8509642789706306
148	0xbfd1b91a2a2c0bae	-0.2769227420650918
149	0x3fb76fb1bdba339d	0.09154806978240378
150	0xbfdffd5e8d757e3f	-0.49983943762160615
151	0xbf9b319eadb48959	-0.026556472160458842
152	0xbfab1333c84d4090	-0.05288087673273012
153	0x3fe1234cf019ce3a	0.5355591477841195
154	0xbfa788349f95d374	-0.0459610409551833
155	0x3fd1c03bdba5f53c	0.2773580212595623
156	0x3fedaa5c58836381	0.9270459870123063
157	0xbffa188c2fef5c4f	-1.6309930679760958
158	0xbff86b9e9c169cf9	-1.5262743088913437
159	0xbf92e88564a0b0a9	-0.018465122477366567
160	0x3f8135c70608f08c	0.008403353568717152
161	0xbf9b1e3b53ca462c	-0.02648251246370685
162	0xbfb8aeb282a8d9b4	-0.09641566934519724
163	0xbfb2af39760a288c	-0.07298621303394465
164	0xbfb2c6b7b719c713	-0.0733446905158213
165	0xbfb8920505a6f0f3	-0.09597808254233424
166	0x3f91e1d10aa37d8e	0.017462984346705172
167	0xbfaa7ef0e9dce834	-0.051749733493537425
168	0x3f5f6902cd4947e6	0.0019171264040278523
169	0x3f70be108b57b1aa	0.004087509752463006
170	0xbfacbec94849b7be	-0.05614308364316355
171	0x3fad94cd3874890b	0.05777589143896663
172	0xbfc20a280478e5d3	-0.1409349462353889
173	0x3fadc9a9ef63238d	0.058179197761609826
174	0x3fc015893c69bd72	0.12565722894531067
175	0xbfb346b9374a6d94	-0.07529790496703576
176	0x3fb4c6edde4d232a	0.08116041829374568
177	0xbfcd92d7c8ce04ce	-0.23104378991050684
178	0x3fcdc8b44e77a769	0.2326875098363488
179	0x3fbfbf4f6c6d2da0	0.12401291272288129
180	0x3fd341ee8a14be72	0.30089915737605744
181	0xbfc28acd836ef0b7	-0.14486092488903576
182	0x3fbbe54e45a3bf2b	0.1089676780718462
183	0xbfb71cd05c3be180	-0.09028341533474382
184	0xbf7d6ddd3cfe62ae	-0.007184852802219295
185	0xbf92496b6d37c87e	-0.01785819868195703
186	0x0000000000000000	0.0
187	0x0000000000000000	0.0
188	0x0000000000000000	0.0
189	0x0000000000000000	0.0
190	0x0000000000000000	0.0
191	0x0000000000000000	0.0
192	0x3fab85c55ef1d082	0.053754966583171374
193	0xbfba8a3a209073e1	-0.10367167754198149
194	0x3f86cd2e1ff825b9	0.011133537626863853
195	0x3faa0331ddfb018a	0.05080562433932119
196	0x3fa4e7a7a4471d57	0.040829886249009455
197	0xbfde3f8bcd1ebe14	-0.47262854605921345
198	0xbf868eaf22980030	-0.011014335864274555
199	0xbf842ea7630c330c	-0.009854610166735188
200	0x3fd9b6e8166a619f	0.40178873242396124
201	0x3fc0c43b34406d18	0.13098850299216092
202	0x3f93e5eebabfbcf0	0.019431810520413373
203	0x3fa9e8d8a9ce8c09	0.05060460160100184
204	0x3fd615071de90141	0.34503343506732526
205	0xbfc7c56034974e60	-0.1857109314720331
206	0xbfece4f8c3856bf7	-0.9029506510518094
207	0x3fd0d9c77956e695	0.2632921872096657
208	0x3fb1cabdbb0477a5	0.06949983421188095
209	0x3feec72a245e1907	0.9618120870880212
210	0x3fa1a7d38ef2aebe	0.034483538818077517
211	0xbff57ef0f79899aa	-1.3434915229532671
212	0x3fd0c151953597d7	0.2617992360231915
213	0xbfb22a77683cc3d8	-0.07096048636300567
214	0x3ff6bde5b95fbebd	1.4213616601154364
215	0xbfba76b66f885050	-0.10337391112290217
216	0xbfd6823049372209	-0.3516960825914173
217	0xbfd5549ad77d454b	-0.33328887027626725
218	0x3fc9c06ba28a9e18	0.20118470608325434
219	0xbfdda8a2c039aaa6	-0.46341770908353863
220	0x3fd393c1b9465aa2	0.3058933553051394
221	0xbfc921f540f33a6d	-0.1963488165988169
222	0x3fbc96f9ef8cbb80	0.1116787156904433
223	0x3fa5f5f69064a9d6	0.04289217484104639
224	0xbfdaa6fba972eb83	-0.416441836812446
225	0x3fbbdb0f1ae5f82d	0.10881132513711185
226	0xbfb0e46ffcc94db1	-0.06598567887822672
227	0xbfe832f44e70ffdb	-0.7562200100001023
228	0xbfb8ad3598d7589f	-0.09639296514009964
229	0xbfb7463fa70bc42f	-0.09091565922041477
230	0xbfc81f6f1d15e4ae	-0.1884592906970161
231	0xbfbe3b79fbcd3ee6	-0.11809503934386675
232	0x3faa155009c25400	0.05094385260705536
233	0xbfe0f25b317bb495	-0.529584499976084
234	0xbfc264b59ee920ae	-0.14369840869244882
235	0x3fac48a3dde1d317	0.05524170001527844
236	0xbfe68e308ff3effc	-0.7048571406917286
237	0xbf93a4afc1e05eba	-0.019182916839865817
238	0xbfb7a3633f4da757	-0.09233684821597642
239	0xbfd5a0600c25316a	-0.3379135244947721
240	0xbfdd4007452532a9	-0.4570329833266365
241	0xbfc91fd5129b446c	-0.196283945164882
242	0xbfe403bf84134bc5	-0.6254575328442732
243	0xbfcb79baa98028e5	-0.21465237881086022
244	0xbfb0e5438212e1b6	-0.06599828649166892
245	0xbfe0387a3333a1c9	-0.5068942070038754
246	0xbfd7a99059db1e75	-0.36972435736649994
247	0xbfaee57da96b62f6	-0.06034462636097786
248	0xbfb45978b9149bac	-0.07949022787634757
249	0xbfc228c941275414	-0.14186969453172138
250	0xbfb5fa702c5f7001	-0.08585263331718808
251	0xbfe4563f5ac553da	-0.6355282566897771
252	0xbfd369f2d570f6e5	-0.3033415874850632
253	0xbfada2933f55200b	-0.05788097522832921
254	0xbfe4345724f55f32	-0.6313892099233043
255	0xbfc68b2110a5f467	-0.1761208850183806
