data/amass/ACCAD/Male2Walking_c3d/B22 -  side step left_poses.npz (npz, 396984 bytes, 5 tensors)

trans f8 [296, 3]
00000000: b059 4e63 0afa c73f e4b4 a100 68e1 f4bf
00000010: 5fa0 a5c5 1833 ec3f df55 4ab7 0ae6 c73f
00000020: 84c1 8d1b f5e2 f4bf 7084 aace 4734 ec3f
00000030: 5bdf bc66 ebda c73f c1f9 297d a7e4 f4bf
00000040: 3b93 4b44 1235 ec3f 4a3e ac8c 15b5 c73f
00000050: 35d2 fe97 65e4 f4bf 18ee 63ae d73c ec3f
00000060: e984 8fa3 f4a3 c73f 3ffc d4b4 2ae6 f4bf
00000070: 6dbd 2a39 bd42 ec3f f040 2cc4 8e06 c83f
00000080: 25ba 3428 93e3 f4bf 8daa c757 124c ec3f
00000090: 756c 37e9 d2de c73f c58d 1df3 65e5 f4bf
000000a0: 9105 7735 2652 ec3f 617e d72a 8e39 c83f
000000b0: 4117 853a b5ee f4bf d1c1 8e80 d15b ec3f
000000c0: 3b85 4581 5f4e c83f 4769 989e 51f7 f4bf
000000d0: 5fdf 0be1 d65f ec3f 1ee0 3169 6261 c83f
000000e0: b75c cb71 0609 f5bf 1b69 7262 b767 ec3f
000000f0: 6d38 4448 d2e3 c73f 3a87 5444 8102 f5bf
00000100: 466d 89da 6264 ec3f 8ba2 413c 90f1 c73f
00000110: b699 dcb7 d90d f5bf b07c fe59 ed69 ec3f
00000120: 8f7b 1254 03d6 c73f c003 934d cb09 f5bf
00000130: 447a 5a09 0a66 ec3f 2cef cf92 45d1 c73f
00000140: 2bb6 435f 950d f5bf af81 e145 8365 ec3f
00000150: 80b2 8a32 36c8 c73f 5f1f 7713 6d10 f5bf
00000160: 9d35 957c a664 ec3f b83b 2e5b 60c0 c73f
00000170: b58c 0ab4 cf12 f5bf b865 3840 2364 ec3f
00000180: 4059 0554 44bf c73f 499c ca40 f716 f5bf
00000190: 252f 1ce4 b864 ec3f 7287 9eb1 37bf c73f
000001a0: 0d91 1090 661c f5bf 8ef2 808e a165 ec3f
000001b0: 6898 c4ba 50bf c73f 3bf7 23fa 2f21 f5bf
000001c0: ae92 b639 3966 ec3f 17e5 423e d5c3 c73f
000001d0: 6e9d 9be3 f024 f5bf 8bff 5609 d266 ec3f
000001e0: 7281 6ee8 8abb c73f 44a4 c234 5128 f5bf
000001f0: 5e62 52ef 1f67 ec3f 2a04 52e9 fdb0 c73f
00000200: 2e8f 1f10 792a f5bf 9081 2621 be67 ec3f
00000210: cab6 ee01 aaa5 c73f 719b 249f 202c f5bf
00000220: 4a62 142e b768 ec3f f65e 724e 1b9b c73f
00000230: 0145 cb22 992c f5bf b1b3 e6a4 0e69 ec3f
00000240: 9662 ef29 4e97 c73f fe46 6b84 c62d f5bf
00000250: 60d4 aaa8 5e69 ec3f c202 e413 1197 c73f
00000260: 09d6 3512 d72d f5bf dfb1 439d 6169 ec3f
00000270: ad41 b39b 9c8c c73f 4343 f22a 192f f5bf
00000280: 0887 e119 be69 ec3f 4c8f 38dc 8c8c c73f
00000290: 669c 0748 d330 f5bf 5bc6 156f 796a ec3f
000002a0: 8969 498c 858a c73f 9b71 36a1 7633 f5bf
000002b0: fc23 9b73 5c6b ec3f 5f47 3ed3 c78a c73f
000002c0: 0e9c 5af5 0334 f5bf 3ae5 defe 806b ec3f
000002d0: 4957 2eed 308b c73f 5f85 a7c3 9b34 f5bf
000002e0: 4502 9306 a96b ec3f b741 1afc e38e c73f
000002f0: 723a 7a20 d636 f5bf 0852 41dd 026b ec3f
00000300: 4f93 e0ac b88c c73f b763 7de1 5238 f5bf
00000310: 61c4 843b 166b ec3f bd1b 6dad 428d c73f
00000320: bf91 6f8e ef39 f5bf 6638 72ed de6a ec3f
00000330: 5320 aace 3f8d c73f cdd5 a2fc f939 f5bf
00000340: e430 1b4a de6a ec3f 5caa 792e 378d c73f
00000350: 9136 cdcf 013a f5bf b481 b281 de6a ec3f
00000360: c0e5 d85d dd80 c73f 8265 a72f 1e3c f5bf
00000370: cd64 ca80 ce6b ec3f fdb0 ce4b f381 c73f
00000380: f398 72a6 e83c f5bf dfad 6d71 c26b ec3f
00000390: b77c f71e 6e82 c73f af95 1747 143d f5bf
000003a0: c055 4ab3 c06b ec3f c6a7 64fe 6c82 c73f
000003b0: 1005 7bf5 193d f5bf f898 f2fe bf6b ec3f
000003c0: 2181 5177 3d78 c73f 53bb bc6c 373f f5bf
000003d0: c00d 8c7d 046c ec3f b0ab 4c51 2f79 c73f
000003e0: c98c 330e 0740 f5bf fcca e545 436d ec3f
000003f0: 5f80 3689 e27b c73f 634d aa78 6541 f5bf
00000400: 754f 0f70 b76e ec3f cd94 9ea0 947d c73f
00000410: 79ac 12e3 3243 f5bf 2308 a74f 6470 ec3f
00000420: 9c71 376c 877d c73f a29d 658e 1145 f5bf
00000430: d8f7 c8c2 9371 ec3f 5bba 5d43 1d79 c73f
00000440: d126 bf34 c746 f5bf 0572 4d60 5171 ec3f
00000450: 2642 465b f677 c73f 7958 ec38 4047 f5bf
00000460: 6faa 9d7a 6970 ec3f 11e4 61fd 1b74 c73f
00000470: 5086 b101 8047 f5bf d2b0 a86e 3470 ec3f
00000480: c35c d001 a271 c73f aa3e 3035 1448 f5bf
00000490: ee88 d08c d66f ec3f ef87 721b 5873 c73f
000004a0: ab0f 0948 a348 f5bf e9fe c88d 976f ec3f
000004b0: 6463 209a be73 c73f 1b91 e446 fc48 f5bf
000004c0: 253d 8660 b36f ec3f 0e6a c06e 9a6d c73f
000004d0: ab56 d69f d448 f5bf 59c0 0a98 726f ec3f
000004e0: dff8 647e eb67 c73f 12b5 c457 0749 f5bf
000004f0: 48bb b889 676f ec3f 87fc 964c 1460 c73f
00000500: 784d 7afd 9649 f5bf 95f2 e10a 6a6f ec3f
00000510: 725e 1fae 0f5c c73f a048 5cd0 fb49 f5bf
00000520: 251e 02f6 786f ec3f 59bf 8b0e b259 c73f
00000530: d986 2937 534a f5bf 839f c541 1970 ec3f
00000540: 4fc6 6825 8356 c73f b29e cc99 164a f5bf
00000550: 406e 75ac 8770 ec3f f510 aef4 7b51 c73f
00000560: b46c 0c4d 214a f5bf 1a03 3e6a 7070 ec3f
00000570: 6d3d d79d 5c4f c73f e57a f0cc 154a f5bf
00000580: d9a1 c982 cf70 ec3f 37f4 39c1 6152 c73f
00000590: 3e96 591c 0d4a f5bf f344 260d ed70 ec3f
000005a0: 77ab 3481 7a4f c73f a13b cae4 f549 f5bf
000005b0: 6385 9df6 6870 ec3f c101 c62f c64c c73f
000005c0: e59e ce85 224a f5bf 0ea6 c69a 5970 ec3f
000005d0: 01ce 91b1 1b51 c73f 254d c1c4 b84b f5bf
000005e0: ab53 7616 2671 ec3f 5df8 3540 e352 c73f
000005f0: c0b1 b736 d34c f5bf 280d 1c4d b471 ec3f
00000600: 17f5 846a f050 c73f 0ae6 d289 6a4c f5bf
00000610: d29d fb5e a471 ec3f e53b ec66 744f c73f
00000620: 9cbc eb9d 3b4c f5bf 0f9d e6ed b871 ec3f
00000630: 135f 8292 804b c73f 3e15 e19c ab4b f5bf
00000640: d55d 0476 ae71 ec3f 6fe5 ede7 6147 c73f
00000650: d483 e98a cb4a f5bf 51bc fb38 4871 ec3f
00000660: cf71 1bf4 4f41 c73f e074 325b 364a f5bf
00000670: dfcd 382d 5771 ec3f c133 76df 023b c73f
00000680: 6e83 0105 5549 f5bf c7d5 0b4b bb71 ec3f
00000690: 3e4d 6e90 0338 c73f cb31 cba9 a048 f5bf
000006a0: ebcc 4499 d171 ec3f 0205 42b3 4433 c73f
000006b0: df32 d8e0 5548 f5bf bd26 82d5 9f72 ec3f
000006c0: 486f 6d8b 9a2b c73f e7bf e694 db47 f5bf
000006d0: 04e8 f1dc 2573 ec3f fefb c458 7220 c73f
000006e0: 5454 46bb 8d47 f5bf dce5 d5eb ae72 ec3f
000006f0: 9430 5ad9 c912 c73f 3a65 86c4 1b47 f5bf
00000700: 7b85 b3ff 6172 ec3f 92aa 5a3e 7aff c63f
00000710: 0b5c eeaa 0d46 f5bf d3cb a9c5 8f72 ec3f
00000720: 76b4 5ec6 c5e8 c63f b91b cd3f 9445 f5bf
00000730: ddb3 5ab9 7473 ec3f a4a5 f99b b2d0 c63f
00000740: 8d3b ba7a 9145 f5bf a174 e6a9 c274 ec3f
00000750: dc5c 5d3b 7bb9 c63f 17a0 c90a ad45 f5bf
00000760: 16ff 67e7 ea75 ec3f e4d4 70d3 a89e c63f
00000770: affe 5ec9 a945 f5bf 47c1 956b 2b77 ec3f
00000780: 9025 79e0 377e c63f f83d 06b0 7745 f5bf
00000790: 6004 f822 bc78 ec3f f6b8 f433 bb5a c63f
000007a0: 19da db63 5045 f5bf ca58 2da3 107b ec3f
000007b0: fe1f 81c0 4b34 c63f 113d 6aaa 6d45 f5bf
000007c0: 886d 741f 977d ec3f 7f4e d5df a505 c63f
000007d0: 9023 c405 ff44 f5bf edfe 48c2 7380 ec3f
000007e0: e527 5f0d 5ad5 c53f ecc0 e465 3745 f5bf
000007f0: 8aff c75a d383 ec3f 9b66 228c 71a7 c53f
0.1873181328671314 -1.305030825107047 0.8812373981754823 0.18670782041287645 -1.3054095341031777 0.8813818966338101 0.18636839405530278 -1.3058237923829525
0.8814784368410992 0.18521375054159456 -1.3057609498329275 0.8824270635663565 0.1846910284648751 -1.3061930717228873 0.8831468693296479 0.18770012453797547
-1.3055602617784043 0.8842860903217385 0.18648754489445066 -1.3060054299065638 0.8850279850232018 0.18925644962199598 -1.3082783018048334 0.8862082968608381
0.18989175617302032 -1.3103805728083715 0.8866991420208982 0.19047193657365907 -1.3147034115880112 0.8876606867591222 0.18664005783688556 -1.3131115597866043
0.8872541683480584 0.1870594305248868 -1.3158814603899436 0.8879305608460495 0.18621865849578653 -1.3148911504979282 0.8874559576686996 0.18607396763388218
-1.3158162804860563 0.8873916973935162 0.18579747646198896 -1.316510273014465 0.8872864182719017 0.18555836155107186 -1.3170926125392672 0.8872238401701713
0.1855245027788417 -1.318106892673102 0.8872951941752701 0.18552299664321087 -1.3194337489631522 0.8874061377787983 0.18552598113564334 -1.3206023951638162
0.8874784590921843 0.1856638483057302 -1.321518792241331 0.8875513250750243 0.18541084622576026 -1.3223430691671334 0.8875884699110193 0.185088862348523
-1.3228693609061781 0.8876639029950173 0.1847431668697282 -1.3232732979319872 0.8877826595299407 0.1844209797898128 -1.3233882292882415 0.8878243656850967
0.1843049721490117 -1.3236756489390582 0.887862519672705 0.184297690117111 -1.3236914359416707 0.8878639289446787 0.1839786300902352 -1.3239986112204896
0.8879080300796156 0.1839767527864019 -1.3244202436124168 0.8879973573331869 0.18391484594287658 -1.3250643060083351 0.888105607789043 0.1839227467976867
-1.3251990875376154 0.8881230333273955 0.18393527585129224 -1.3253438608884023 0.8881421211627375 0.18404817399688309 -1.3258878010416564 0.8880628892316631
0.18398197594901908 -1.32625091630892 0.8880721247170521 0.183998427086605 -1.3266444744013908 0.8880457532520836 0.18399808493654976 -1.3266544216725038
0.8880454490077025 0.1839970566682777 -1.3266618840456526 0.8880455525541522 0.18362013895402463 -1.327177225254076 0.8881599917832773 0.18365327073605178
-1.3273703100072083 0.8881542411231144 0.18366791259811574 -1.327411916450142 0.8881534101262147 0.1836677782205795 -1.3274173344692066 0.8881530742117141
0.18335693670361145 -1.3279337165401628 0.8881857349483013 0.18338576764776127 -1.3281317286244294 0.8883377423465784 0.1834681673035474 -1.3284659112440174
0.8885152043026056 0.1835199150347421 -1.3289059515034565 0.8887197070801033 0.18351834091198505 -1.3293624460583051 0.8888644031901505 0.18338361539231837
-1.3297798214356826 0.8888327484997381 0.1833484597850809 -1.3298952315867878 0.8887221712914889 0.18323087570368604 -1.329956060996114 0.8886968766505794
0.18315529907770242 -1.330097396628768 0.8886521101269673 0.18320752468304088 -1.3302338422663336 0.8886220711937912 0.18321974302014177 -1.3303187150241402
0.8886353383294688 0.18303232581895695 -1.330280899395272 0.8886044473238243 0.1828588835869089 -1.3303292683079389 0.8885991754412794 0.18261960735069158
-1.3304662610506437 0.8886003696967061 0.182496986408967 -1.3305624140817045 0.8886074833725998 0.1824247904801222 -1.3306457667135219 0.888683918438787
0.18232764555573275 -1.330587960031988 0.8887365692457436 0.1821742005087185 -1.3305981645305964 0.8887254786533021 0.18210942942685496 -1.3305871968693108
0.8887708239026849 0.18220159468538252 -1.3305789096279024 0.8887849098993271 0.18211299237131204 -1.330556768141584 0.8887219254212763 0.18203046162308392
-1.3305993296470942 0.8887146017997922 0.18216272516620793 -1.330986755919022 0.888812106963646 0.18221703181547158 -1.3312561166195422 0.8888799196287538
0.1821575660814367 -1.3311562904112884 0.8888723235258402 0.18211226487662127 -1.331111542585666 0.8888821264744439 0.1819916453721296 -1.3309742096037804
0.8888771348019257 0.1818659193484495 -1.3307605196243815 0.8888283837276366 0.181680673783275 -1.3306182443987424 0.8888355143776002 0.18148837958542965
-1.3304033465903689 0.8888832536455816 0.1813969092587317 -1.3302313454215546 0.8888938897638615 0.18125208618952376 -1.3301600249280268 0.8889922304235466
0.1810181790159453 -1.330043393751106 0.8890561404543864 0.1806776936955145 -1.3299691501063267 0.8889994245684494 0.18026087868600327 -1.3298604656941522
0.8889627451100489 0.17967155499112103 -1.3296028782840519 0.8889845715151473 0.17897865472824365 -1.3294870846018354 0.8890937442971524 0.17824394813514488
-1.3294844430963366 0.8892529791225067 0.17753544233958152 -1.3295107289686763 0.8893942374852226 0.17671690296416565 -1.3295076242501798 0.8895470715779447
0.17572687588316827 -1.3294598461105789 0.8897381480202391 0.1746438983622693 -1.329422369073319 0.8900225817731322 0.17347094440106042 -1.3294502884708133
0.8903308500625124 0.17204736165387044 -1.329344770931332 0.8906801981574667 0.17057347920336877 -1.3293985347955255 0.8910919926711227 0.16917247145174916

mocap_framerate f8 []
00000000: 0000 0000 0000 5e40
120.0

betas f8 [16]
00000000: e01b 2de2 eb0d babf f9f4 c004 aee8 e8bf
00000010: 89c1 e0e5 f41f e93f cd4c d0b7 bbfa f03f
00000020: 9b4d f3ce 4592 e73f e5c7 22b4 317e e2bf
00000030: 02ec f27f f3b0 e03f 8e26 f10e 9ce3 d3bf
00000040: 8328 e612 a659 c93f c920 725a a5fd b03f
00000050: 2308 8452 b515 c1bf b9fd 94d5 6b35 a5bf
00000060: 68e5 eefd 862a f0bf 242b eba8 4aa8 d7bf
00000070: e687 abaa aecb df3f 1528 5832 51a2 c33f
-0.10177492401008648 -0.7784032910200543 0.7851509561351558 1.0612141781064566 0.7366055528640801 -0.5779045599249427 0.5216004847528668 -0.3107671876829067
0.19804836199574902 0.06637032945775724 -0.13347498444642367 -0.04142319662286859 -1.01038264458324 -0.36964670654258414 0.49680678050037697 0.15339102705212385

dmpls f8 [296, 8]
00000000: 626e f639 ba77 cdbf e950 bf68 4225 dbbf
00000010: c9e3 779e c3be dfbf 892f 166f 2411 c8bf
00000020: 5f79 f20c 7409 ffbf e403 5214 e4aa e83f
00000030: 8732 0e0f ef4b f0bf 9dee 673a 5f36 fcbf
00000040: 8cd3 80a3 4e90 cdbf 2a4d cfae ab20 dbbf
00000050: 36ad 531c 3cce dfbf bdd7 1731 192c c8bf
00000060: 57a7 c152 820c ffbf f422 93c2 4daf e83f
00000070: 8ef7 ac91 694f f0bf ea0e fcfb a336 fcbf
00000080: 444f e60f 1699 cdbf 7983 04fb ec13 dbbf
00000090: 258b 2417 22fc dfbf ac0d d3c6 66ca c8bf
000000a0: bf41 ad19 1215 ffbf 73ee f459 c6cb e83f
000000b0: 4e34 b060 655b f0bf 36f3 dd93 123b fcbf
000000c0: 76fb 89e7 aad5 d7bf a200 f841 f23c d4bf
000000d0: 5c62 0cea 1372 debf ba69 f22c f9cd c6bf
000000e0: 015f d30a 622d febf 3342 1b5d 79c1 eb3f
000000f0: 4a74 23b4 2570 efbf e874 299b 1cf3 fcbf
00000100: b44a 5bff c5c0 dcbf cf5c cd0b 766c ccbf
00000110: b755 afec f089 dcbf a457 e272 d68b c5bf
00000120: bb14 99bf 9995 fdbf c950 0b44 20e7 ed3f
00000130: 2192 22b7 f8dd eebf 3eba fe6a aab8 fdbf
00000140: 3ee2 d6f6 010e e0bf 9898 e2ca 1142 b3bf
00000150: 5bf0 5f6f 2f37 e0bf 0362 ea15 056c c2bf
00000160: 2517 40c7 0973 fcbf 207f 5ee5 8e53 f13f
00000170: 3570 51e2 ea01 f0bf 4982 ec5f cd98 febf
00000180: 74e5 af24 0f35 e1bf f0e9 0185 57cb 863f
00000190: ce5d 99cd e0ea dfbf d594 bd3e 7327 c2bf
000001a0: 71bd abb9 f737 fcbf c0d8 5bd9 b0c5 f23f
000001b0: f5be 5570 945d f0bf c731 387b 699f febf
000001c0: 1f4c 6f33 882d e1bf 3aba 3556 f413 b53f
000001d0: 4ecb 0c61 946c dcbf 2679 f820 e61f cabf
000001e0: 1373 4c2f b36f fbbf 64fa 8601 d773 f43f
000001f0: 1bf6 9faa ec83 f0bf 2bd6 768c ba97 febf
00000200: cf52 447c 1544 e0bf 1f6f a52b e46c ba3f
00000210: cfcb b9cc b057 d7bf 7a0f 6da1 b002 cebf
00000220: 3cde abab 12d7 fabf 4810 7c63 d378 f53f
00000230: 5f96 9163 2fc7 f0bf f700 c4b7 72ed febf
00000240: 1edb 184d 6e6e d3bf 6216 7cb3 360e b53f
00000250: ab70 699a 196a d7bf 89b6 96d2 3bfd d8bf
00000260: 42d5 1057 a52e fbbf 3b77 16ac 5735 f63f
00000270: f3bf 8066 363b f1bf 4336 9167 07b7 febf
00000280: 576f 0240 2cff d0bf e24b 52df 1f9f a63f
00000290: 85b5 0b52 0632 d8bf 5abf 7f00 d353 dcbf
000002a0: cace 37b9 9060 fbbf 29be c6e5 862c f63f
000002b0: 1ee7 d7e1 106b f1bf 610a 3fe7 303f fdbf
000002c0: 77bb b937 ed44 d0bf 4cda 3f09 d90a af3f
000002d0: 24e9 cd8c 07b4 d9bf 0565 7d0f 2658 e1bf
000002e0: d717 9ad3 1692 fbbf 2cab 484f 7974 f63f
000002f0: ed4a ecf1 66c2 f0bf e9e3 7484 d776 fbbf
00000300: 6eb7 ab62 0d33 cebf 6b9f 8cbb ace4 a93f
00000310: c763 9006 36f0 dcbf e6e3 94ba 08ab e1bf
00000320: 2a6c 3c2f a2f9 fbbf 475d 9f26 a637 f63f
00000330: 80aa 4e50 7809 f1bf eb01 96dd b409 fabf
00000340: 4d48 acf8 c88f ccbf bb97 45b7 4593 aa3f
00000350: f563 9e1a 3fe6 debf 29bd ff34 9147 e1bf
00000360: 0020 20ec c138 fcbf 34ef 8b5b d0de f53f
00000370: 3e1e a090 6f20 f1bf 17cc 803c 62a5 f8bf
00000380: 47ed aced f65b cbbf 141c 97b3 3aa0 aa3f
00000390: 0bcd 5c5d 53a3 dfbf 24c0 c471 5c77 e0bf
000003a0: 1afb 1f27 b669 fcbf a96e d688 4167 f53f
000003b0: 255a ea44 4b23 f1bf 3460 2919 f174 f7bf
000003c0: 3429 49d5 44b5 cabf 2150 713f e0c8 a63f
000003d0: 529c 036a 6109 e0bf 28c2 54d8 4069 dfbf
000003e0: 4965 9c4c 2775 fcbf 4951 1557 7209 f53f
000003f0: 7630 53e3 3f2f f1bf 5057 af72 bf8f f6bf
00000400: 8f84 86d3 c686 cabf 76ee bb7a 9ca3 a03f
00000410: 4111 5808 5f5d e0bf ebc6 3658 70a8 debf
00000420: 99a5 126f b358 fcbf 9fa1 4b42 8f09 f53f
00000430: 517e 37a5 6545 f1bf d6c6 fd3c 58e7 f5bf
00000440: ea2b 3541 4e3d cabf 04ba 90f5 fb96 963f
00000450: 4102 158f 27d2 e0bf 1f6a 1901 6964 debf
00000460: f15c f6f4 ab2a fcbf 1017 8688 6e4b f53f
00000470: a70c ebc2 3875 f1bf c64d 882a 6777 f5bf
00000480: 238a 17ec 66c8 cabf 6105 1fea 0d49 913f
00000490: fa96 27e5 5855 e1bf 5491 dae8 f42d debf
000004a0: 4932 ea5a f2eb fbbf 78f8 c799 2da0 f53f
000004b0: 5c9d 6967 64c0 f1bf 940e 3f93 aa32 f5bf
000004c0: 4bdc c780 52e0 cbbf cd22 f3e4 53f2 933f
000004d0: 25ed 94d2 ddf8 e1bf b12d 3afa 4a49 debf
000004e0: 90e3 8d7b 39aa fbbf ccfd 3083 e8e4 f53f
000004f0: 8e3d 8828 1415 f2bf 85f8 6fef 9c20 f5bf
00000500: a592 787a be51 ccbf 9f82 4cf5 4b61 933f
00000510: 62c7 afe6 1e16 e2bf d7b6 0674 b05a debf
00000520: ca3e 41e6 d89c fbbf 4a2f 9ebb cbe1 f53f
00000530: d8f4 58dc 0921 f2bf 8491 9584 e812 f5bf
00000540: baa8 159d 00cc ccbf 444a 34ab c16c 903f
00000550: a0e3 eb9f a1be e2bf 8495 3d79 2c5a debf
00000560: 5d40 97f5 df74 fbbf 62ea f5b5 fdc3 f53f
00000570: df80 9bc2 9d44 f2bf d108 228b f6cc f4bf
00000580: a88a 113f 3ddc ccbf 980e ef2c a9e0 8e3f
00000590: 61bd c280 2ae9 e2bf 751c f584 595c debf
000005a0: 9b81 4149 5d6b fbbf 54d5 ea8c 6bc1 f53f
000005b0: ddfe 4aaf 4848 f2bf bdd4 ca2a 69b8 f4bf
000005c0: 9c85 c1bf 1ef2 ccbf cf93 dd89 08b9 8d3f
000005d0: 27ea 2d50 6cf0 e2bf 7fcc 4b78 e15e debf
000005e0: 0759 2f4d 1869 fbbf db01 b876 35c1 f53f
000005f0: 39d6 d1b2 8a48 f2bf bffe dc13 f8b2 f4bf
00000600: 6707 4786 e3f3 ccbf d328 1ca8 004b 8d3f
00000610: 98ad aa52 52f0 e2bf 62b8 0775 d85e debf
00000620: 1608 731f 6768 fbbf 5d68 5002 21c1 f53f
00000630: 30d4 63a2 1149 f2bf 18bb e787 dab1 f4bf
00000640: 8202 bc7c 06f4 ccbf 0dbb f6e8 9e47 8d3f
00000650: 8ff5 8758 05f0 e2bf 7515 23ff b15e debf
00000660: 824b a579 5c68 fbbf c753 d515 0bc1 f53f
00000670: 5969 239d 2549 f2bf 60e5 d7b3 94b1 f4bf
00000680: 4acf 35ff 4038 cdbf 2058 12dc 6915 8f3f
00000690: bb5c 28ff 59d6 e2bf a633 0aef 6a5b debf
000006a0: f07f d259 186c fbbf fa93 bee8 24b9 f53f
000006b0: 4f81 ba1c 7049 f2bf 25bb 313a 7c99 f4bf
000006c0: 6411 a7ea 9b49 cdbf 089d af25 9c3f 8f3f
000006d0: 62c6 1026 98ce e2bf 6dd9 6108 695b debf
000006e0: fbdc 7ba2 a86b fbbf ad32 afc1 86b7 f53f
000006f0: ce1d 9985 b349 f2bf 71dc 62a7 f093 f4bf
00000700: 874b fead 4e59 cdbf d2ea e068 e69a 8f3f
00000710: 99a5 c5d7 6ac4 e2bf 6ab6 b7d6 985b debf
00000720: b845 b4bc 626a fbbf d5d9 0358 f3b5 f53f
00000730: 99ce 9ec1 d449 f2bf d02a 3893 788f f4bf
00000740: 5362 b47e f75c cdbf efb6 4879 f0d2 8f3f
00000750: e3da 3b54 1ec2 e2bf 25a0 19bb 9a5c debf
00000760: ca99 6ea0 686a fbbf aa9c ca02 87b5 f53f
00000770: 5f7b ae3d d549 f2bf 59c7 66d0 788e f4bf
00000780: d79a 9556 505e cdbf f811 3ed0 7721 903f
00000790: 14b6 5126 11c0 e2bf acf7 778b 325d debf
000007a0: cf89 d6e7 696a fbbf 708a 4875 1eb5 f53f
000007b0: f560 b49f 184a f2bf 8d17 c22a 9b8d f4bf
000007c0: 9ab8 3128 a963 cdbf 99a3 3087 e36d 903f
000007d0: 811a 5d6a d4be e2bf 5bd4 b745 1e5c debf
000007e0: 3d4b d460 366a fbbf 95db 9041 75b4 f53f
000007f0: 5de6 67a0 5e4a f2bf eb02 91fe aa8c f4bf
-0.23021629171568053 -0.4241491339610222 -0.4960183188955481 -0.18802314209130724 -1.9398079400776493 0.7708607098467124 -1.0185385311225745 -1.7632744103893068
-0.23096640571170857 -0.42386905738131253 -0.4969625736836919 -0.18884577653051152 -1.940553973452969 0.7713993835723998 -1.0193877878623172 -1.7633399813793695
-0.2312343194613452 -0.42309116853180445 -0.49976398716005327 -0.19367680271362298 -1.9426442149161713 0.7748748547523533 -1.022313478172936 -1.7644220138601674
-0.3724162350771886 -0.31621986810933767 -0.4757127557400389 -0.17816080755876645 -1.8860798285367653 0.8673674410329738 -0.982439853508944 -1.8093534527791295
-0.4492659562794572 -0.22205997062949343 -0.44591925729522636 -0.16833000764443995 -1.8490235790534786 0.9344636277187642 -0.9645961357933325 -1.8575843982213338
-0.50170992098635 -0.07522689059496412 -0.5067364859855944 -0.14392150468917472 -1.7780854972092552 1.0828999480945143 -1.0004681435157299 -1.9123052355790995
-0.5377269474549125 0.011130031343999897 -0.49871082380329035 -0.14182892383101967 -1.7636639836090036 1.1732643595292274 -1.022846640404109 -1.9139189542066661
-0.536808109720713 0.08233573059781288 -0.44412717320954165 -0.20409847841160306 -1.7147704932787675 1.2782812175425073 -1.0322081246407666 -1.9120431410677934
-0.5083110262954394 0.10322404923993787 -0.36472721092939947 -0.234457091161058 -1.6775080400383464 1.3419984708898642 -1.048629177990186 -1.9329707315774252
-0.30361516503346475 0.08224813348723495 -0.3658508308342429 -0.39045615735344846 -1.698888149357416 1.3880230638673783 -1.0769561771412526 -1.9196847959132277
-0.26557451487473344 0.044182773600503614 -0.37805326473502304 -0.442616224753683 -1.7110755190923777 1.3858708358419654 -1.088639146996179 -1.827927497201607
-0.2542069477266788 0.06062963712604538 -0.40161312818931294 -0.5420103361640548 -1.723166300363564 1.4034360024476866 -1.0474614572637464 -1.716514127167324
-0.23593299215229585 0.05057277478618868 -0.4521613182164938 -0.5521281856700824 -1.7484456868321652 1.3885861881916115 -1.0648120057109338 -1.6273697524740054
-0.22313797132716431 0.05190484869198949 -0.48280313109859146 -0.5399862322937327 -1.7638568137790571 1.366897924045543 -1.0704188966209496 -1.540376888599672
-0.21374403577088172 0.05200370256675782 -0.49434360616142276 -0.5145704481165052 -1.7758084801022904 1.3377089829654472 -1.071116704178743 -1.4660502417446084
-0.20865688719124764 0.04450131201215891 -0.5011450834835023 -0.49079915166933796 -1.7786019318212587 1.314806308907537 -1.074035537708395 -1.410094688404076
-0.20723805740729914 0.03249825475901684 -0.5113978541344651 -0.4790306912865236 -1.7716554964812075 1.3148338880219865 -1.0794426397113919 -1.3689806349251987
-0.2049959009549121 0.022060334075087354 -0.5256536287852854 -0.4748785505995858 -1.7604178971139925 1.3309159596405529 -1.091118585013456 -1.3416511212752638
-0.20924078491141626 0.01688024274313216 -0.5416683650662144 -0.4715549730265327 -1.7451041747437037 1.351605988223609 -1.1094707526734373 -1.3248697044190623
-0.2177832726299321 0.01947909436128974 -0.561629210751026 -0.47322344242339925 -1.7290587259614973 1.368385803667354 -1.1301461776054995 -1.32046216516713
-0.2212446306231374 0.0189258450001285 -0.5652002816770898 -0.4742852337902667 -1.725792788918556 1.367625935442407 -1.1330660445521996 -1.3171162776062326
-0.22497565908571976 0.01603987319419732 -0.585770428034369 -0.47425376739405345 -1.7160338967696795 1.3603493793331372 -1.141752014336866 -1.3000398096924537
-0.22547116832273173 0.015076944049617055 -0.5909626498086419 -0.4743865774548291 -1.7137120114858593 1.3597217087347717 -1.1426474425679125 -1.2950221702169948
-0.2261389194782567 0.014513079364130292 -0.591848522758771 -0.4745410609022613 -1.7131579413449474 1.3596701276256826 -1.1427103982108646 -1.2936936164768864
-0.22619289452091637 0.014303212290105815 -0.5918361296257215 -0.47453891209341326 -1.712988970612519 1.3596506204981076 -1.1428390830381083 -1.2934212979122943
-0.22619706240222476 0.014296761974802697 -0.5917994240877976 -0.4745297423908917 -1.7129788162025936 1.3596297123778969 -1.1428581369605892 -1.2933547043924918
-0.22827923261103883 0.015177561787179938 -0.588665960650267 -0.47432969421134386 -1.713890410297605 1.3577012149410153 -1.1429291841705724 -1.2874719880307535
-0.2288088699116414 0.015258045101246967 -0.5877190345256162 -0.47432924097611 -1.7137838694596315 1.3573062482638918 -1.1429934710193836 -1.2861181772730357
-0.22928794379967263 0.015432167125358918 -0.5864767278955468 -0.4743406388141468 -1.7134730693108917 1.356921523865471 -1.143025165872052 -1.2850270987279835
-0.22939962088345797 0.015539053632064063 -0.5861961026374413 -0.47440212508672835 -1.7134786860348066 1.3568182095566876 -1.1430256280361488 -1.2847831860239778
-0.2294407294059144 0.01575267036925429 -0.5859456776067327 -0.47443832035048206 -1.713479905717225 1.3567185002690643 -1.1430898893796073 -1.2845718069306458
-0.22960390532120273 0.016044192434637592 -0.5857946469703422 -0.47437245186239857 -1.7134307653802374 1.3565571366468465 -1.1431566491941318 -1.2843427604677184

poses f8 [296, 156]
00000000: bb65 36b2 c7a6 943f 5ece 5610 5b9c 0140
00000010: 4138 462a bba2 0140 cf82 94a7 dc70 b03f
00000020: a28c ff85 b9db b03f d80b 33fe a29e 863f
00000030: 454b 1a26 8172 623f 1e8e 4ee7 3df2 abbf
00000040: 0aa5 35a4 0d77 89bf 1feb f129 a3dc c13f
00000050: 7347 d5f1 d94b 373f 6a70 2ecf 45ae 7f3f
00000060: 9c8d 7f9e 37e9 ac3f 7e85 c209 15bc afbf
00000070: 63e8 f436 4464 a7bf 0d80 ebae 0511 b83f
00000080: 3711 c5df 80aa 7e3f 3877 0d2f d3f5 a93f
00000090: 74a7 5085 6b20 b43f e6bb 735f e784 b4bf
000000a0: a1c2 3850 655b ab3f 06ec 3f8b ab26 d1bf
000000b0: d484 b62e 2e52 cb3f 8578 666a 7f2d b83f
000000c0: 06a6 e265 7656 ccbf ee74 96c4 8028 bebf
000000d0: 5917 5270 bfc5 7b3f 3796 83f9 b77d b4bf
000000e0: 6bff 5cdb 235f 95bf 5048 18d7 ff6e 9a3f
000000f0: 0000 0000 0000 0000 0000 0000 0000 0000
00000100: 0000 0000 0000 0000 0000 0000 0000 0000
00000110: 0000 0000 0000 0000 0000 0000 0000 0000
00000120: 2a28 61da 4927 91bf bc56 1020 102c a73f
00000130: 98df efb0 5b4c 90bf 95c6 b813 2306 6fbf
00000140: 217c 230f 4578 b0bf 62c7 f585 af14 e0bf
00000150: 5c23 b2d2 6236 913f 1e5a 6c5b a700 c13f
00000160: 00ea 1c31 d5e1 df3f 1a2c eccd fae8 ac3f
00000170: a329 f6db f5f4 af3f 5c0e 4150 bb0e 9b3f
00000180: 4869 31a6 6fb3 ca3f 37b8 801d caca ccbf
00000190: 125f 4551 1e73 edbf 4298 cd23 c484 cd3f
000001a0: c256 2859 5483 c53f c087 af23 064e ed3f
000001b0: 9ae8 933b 720c bf3f 539e 59a0 a60b dbbf
000001c0: 2b37 6bff 43f6 ab3f 28aa 2ca5 60a3 7cbf
000001d0: 7051 9b66 c6ef d63f 980e 8de0 baed bcbf
000001e0: 8c98 5770 33b9 903f 0369 cffe e7f9 c7bf
000001f0: 5bf9 fffb cd72 b6bf 8e00 cf8f 4172 9bbf
00000200: a56e f611 4022 c43f e297 1f63 fb8c c23f
00000210: 80bb 8cef f996 bc3f d6a9 6490 f6f5 a53f
00000220: 83eb 72a9 fba6 dabf 2df8 e51a 0fdb bb3f
00000230: b14d c9fc 6fe4 b0bf dbff 704e f432 e8bf
00000240: 9f58 d798 35ad b8bf 2fc4 0ba7 3f46 b7bf
00000250: aee4 151d 6f1f c8bf e63e cdfb 793b bebf
00000260: 0054 c209 5015 aa3f 95b4 7b31 5bf2 e0bf
00000270: ae20 e99e b564 c2bf 17d3 e1dd a348 ac3f
00000280: fcef f38f 308e e6bf ba5e e0c1 afa4 93bf
00000290: 57a7 4d3f 63a3 b7bf 6a31 250c 60a0 d5bf
000002a0: a932 2545 0740 ddbf 6c44 9b12 d51f c9bf
000002b0: c54b 1384 bf03 e4bf e528 80a9 ba79 cbbf
000002c0: b6e1 1282 43e5 b0bf c9a1 3333 7a38 e0bf
000002d0: 751e db59 90a9 d7bf f662 6ba9 7de5 aebf
000002e0: ac9b 14b9 7859 b4bf 1454 2741 c928 c2bf
000002f0: 0170 5f2c 70fa b5bf da53 c55a 3f56 e4bf
00000300: e5f6 70d5 f269 d3bf 0b20 553f 93a2 adbf
00000310: 325f f524 5734 e4bf 67f4 a510 218b c6bf
00000320: c6b2 4e09 6de8 c0bf 368c ee97 0ae5 d7bf
00000330: 4ec7 8770 193b eb3f ae0b 2c2a 1ab9 d13f
00000340: 9c33 babd b16f b7bf 3f7e 758d 5efd dfbf
00000350: 5989 b4ad 9e31 9b3f 9140 4dc8 3313 ab3f
00000360: 3bce 19f0 4c23 e13f 72d3 959f 3488 a73f
00000370: 3af5 a5db 3bc0 d1bf 80bb 8cef f996 bc3f
00000380: d4a9 6490 f6f5 a5bf 84eb 72a9 fba6 da3f
00000390: 2df8 e51a 0fdb bb3f b04d c9fc 6fe4 b03f
000003a0: dbff 704e f432 e83f 9f58 d798 35ad b8bf
000003b0: 2fc4 0ba7 3f46 b73f afe4 151d 6f1f c83f
000003c0: e53e cdfb 793b bebf 0154 c209 5015 aabf
000003d0: 95b4 7b31 5bf2 e03f af20 e99e b564 c2bf
000003e0: 18d3 e1dd a348 acbf fcef f38f 308e e63f
000003f0: bb5e e0c1 afa4 93bf 57a7 4d3f 63a3 b73f
00000400: 6a31 250c 60a0 d53f a932 2545 0740 ddbf
00000410: 6d44 9b12 d51f c93f c54b 1384 bf03 e43f
00000420: e728 80a9 ba79 cbbf b6e1 1282 43e5 b03f
00000430: c9a1 3333 7a38 e03f 751e db59 90a9 d7bf
00000440: f462 6ba9 7de5 ae3f ad9b 14b9 7859 b43f
00000450: 1654 2741 c928 c2bf 0170 5f2c 70fa b53f
00000460: da53 c55a 3f56 e43f e5f6 70d5 f269 d3bf
00000470: 0c20 553f 93a2 ad3f 325f f524 5734 e43f
00000480: 68f4 a510 218b c6bf c6b2 4e09 6de8 c03f
00000490: 368c ee97 0ae5 d73f 4ec7 8770 193b eb3f
000004a0: ae0b 2c2a 1ab9 d1bf 9d33 babd b16f b73f
000004b0: 3f7e 758d 5efd dfbf 5989 b4ad 9e31 9bbf
000004c0: 9040 4dc8 3313 abbf 3ace 19f0 4c23 e13f
000004d0: 74d3 959f 3488 a7bf 3cf5 a5db 3bc0 d13f
000004e0: 8ce9 a5c1 a02c 903f e34d e63a 409c 0140
000004f0: fef9 ffba a6ad 0140 9ab0 7114 54fc b13f
00000500: be54 e5eb d198 b13f ce3f 52fb 2713 893f
00000510: fb62 6234 edc6 753f 2861 446e c9e2 abbf
00000520: 263a d86a 234a 8cbf bb18 bfca 8f87 c13f
00000530: ac1c 5f36 f52c 473f aa3c 1ccf c314 6b3f
00000540: bf43 7ac9 4c55 a93f 7538 b959 5629 b1bf
00000550: c894 f4ab 51d7 a8bf d26a e439 94e4 b73f
00000560: b871 a847 aaa6 763f 5d48 a424 d635 aa3f
00000570: 5054 12a9 0d49 b63f 7fee c930 f228 b5bf
00000580: 0108 8707 f8d5 ad3f 21cd 3898 5f2e d1bf
00000590: a4e1 ee7c a4ff ca3f 68f7 8ee2 d706 b83f
000005a0: c668 b11f d9a4 ccbf 9ea3 5b35 bcea bebf
000005b0: 5247 4e52 5f4b 7f3f e018 c952 148f b5bf
000005c0: 0634 923e 92bc 96bf c2cf e2a7 02ab 9c3f
000005d0: 0000 0000 0000 0000 0000 0000 0000 0000
000005e0: 0000 0000 0000 0000 0000 0000 0000 0000
000005f0: 0000 0000 0000 0000 0000 0000 0000 0000
00000600: 697d c4b0 5094 93bf 60c4 74b5 3d9f a63f
00000610: ce95 df85 55d1 92bf d576 89ba ff01 72bf
00000620: 0ae4 6631 4e50 b1bf 6d3b cc70 7a4f e0bf
00000630: 435b 68a2 54e9 903f 2b56 0ada 3734 bf3f
00000640: dff2 7830 2d60 e03f 6679 ecce 0f1b ad3f
00000650: d3bb 928e a966 ad3f 812b 900a 6369 983f
00000660: d0dd b590 ad00 cb3f d733 dccf 4d66 ccbf
00000670: 73f7 c96d a23a edbf fda1 fd7a 3707 cd3f
00000680: 8bce 26a9 3866 c23f 68e0 154f 6173 ed3f
00000690: 49ff faa7 4c46 be3f a21b 6e24 02ee dabf
000006a0: 2b6b bb42 962a ab3f 6f4e 466b 305d a5bf
000006b0: 2ae9 0a46 70f6 d83f a76e ff44 da9d c1bf
000006c0: a39b eb0a c98c 983f ec7e bb1b adef c7bf
000006d0: e1a6 4fe7 88d6 b6bf e286 5e5b 4e83 a1bf
000006e0: eae4 8f9a 403f c53f d15b 5947 59d7 c03f
000006f0: 80bb 8cef f996 bc3f d6a9 6490 f6f5 a53f
00000700: 83eb 72a9 fba6 dabf 2df8 e51a 0fdb bb3f
00000710: b14d c9fc 6fe4 b0bf dbff 704e f432 e8bf
00000720: 9f58 d798 35ad b8bf 2fc4 0ba7 3f46 b7bf
00000730: aee4 151d 6f1f c8bf e63e cdfb 793b bebf
00000740: 0054 c209 5015 aa3f 95b4 7b31 5bf2 e0bf
00000750: ae20 e99e b564 c2bf 17d3 e1dd a348 ac3f
00000760: fcef f38f 308e e6bf ba5e e0c1 afa4 93bf
00000770: 57a7 4d3f 63a3 b7bf 6a31 250c 60a0 d5bf
00000780: a932 2545 0740 ddbf 6c44 9b12 d51f c9bf
00000790: c54b 1384 bf03 e4bf e528 80a9 ba79 cbbf
000007a0: b6e1 1282 43e5 b0bf c9a1 3333 7a38 e0bf
000007b0: 751e db59 90a9 d7bf f662 6ba9 7de5 aebf
000007c0: ac9b 14b9 7859 b4bf 1454 2741 c928 c2bf
000007d0: 0170 5f2c 70fa b5bf da53 c55a 3f56 e4bf
000007e0: e5f6 70d5 f269 d3bf 0b20 553f 93a2 adbf
000007f0: 325f f524 5734 e4bf 67f4 a510 218b c6bf
0.0201674654505035 2.201345565461266 2.2044585516623845 0.06422213641463802 0.06585273286286733 0.011044762976217301 0.0022518656194931174 -0.054582533345890236
-0.012434107373979337 0.13954581783385664 0.0003554732409912699 0.007734558765971492 0.056466806505137884 -0.061981828156841154 -0.0456868474088459 0.09400973816400456
0.0074868234772263375 0.05070362042782367 0.07861968998682106 -0.0801529510533637 0.053431669275942235 -0.267985235200911 0.21344544678598842 0.09444424007094383
-0.22138862585897828 -0.11780552672867703 0.006780383880259888 -0.08004331437731414 -0.020870743049499135 0.025814054015491472 0.0 0.0
0.0 0.0 0.0 0.0 -0.016751436189487524 0.04525804892925353 -0.01591628329694536 -0.003787106046524278
-0.06433517093272247 -0.5025251022727668 0.01680902873025346 0.1328324505236233 0.49815873905359354 0.05646499408438661 0.062415774441507275 0.026423384450266915
0.20860095610516738 -0.22493864479605616 -0.9203025424312463 0.2306142020053717 0.16807035783192786 0.9157744118676803 0.12128366426978446 -0.42258611354052283
0.054613232544950506 -0.0069917464450477765 0.35838470478235873 -0.1130024717540955 0.016331485492536532 -0.18731403295425517 -0.08768927957860255 -0.026803039934521204
0.1572952354152807 0.14492742862711255 0.1116787156904433 0.04289217484104639 -0.416441836812446 0.10881132513711185 -0.06598567887822672 -0.7562200100001023
-0.09639296514009964 -0.09091565922041477 -0.1884592906970161 -0.11809503934386675 0.05094385260705536 -0.529584499976084 -0.14369840869244882 0.05524170001527844
-0.7048571406917286 -0.019182916839865817 -0.09233684821597642 -0.3379135244947721 -0.4570329833266365 -0.196283945164882 -0.6254575328442732 -0.21465237881086022
-0.06599828649166892 -0.5068942070038754 -0.36972435736649994 -0.06034462636097786 -0.07949022787634757 -0.14186969453172138 -0.08585263331718808 -0.6355282566897771
-0.3033415874850632 -0.05788097522832921 -0.6313892099233043 -0.1761208850183806 -0.13209307627166406 -0.37335457646458126 0.8509642789706306 0.2769227420650918
-0.09154806978240376 -0.49983943762160615 0.026556472160458842 0.05288087673273013 0.5355591477841196 0.04596104095518329 -0.2773580212595622 0.1116787156904433
-0.04289217484104638 0.41644183681244606 0.10881132513711185 0.0659856788782267 0.7562200100001023 -0.09639296514009964 0.09091565922041477 0.18845929069701614
-0.11809503934386674 -0.05094385260705537 0.529584499976084 -0.14369840869244885 -0.05524170001527845 0.7048571406917286 -0.01918291683986582 0.09233684821597642
0.3379135244947721 -0.4570329833266365 0.19628394516488204 0.6254575328442732 -0.21465237881086027 0.06599828649166892 0.5068942070038754 -0.36972435736649994
0.06034462636097784 0.07949022787634759 -0.14186969453172144 0.08585263331718808 0.6355282566897771 -0.3033415874850632 0.05788097522832922 0.6313892099233043
-0.17612088501838064 0.13209307627166406 0.37335457646458126 0.8509642789706306 -0.2769227420650918 0.09154806978240378 -0.49983943762160615 -0.026556472160458842
-0.05288087673273012 0.5355591477841195 -0.0459610409551833 0.2773580212595623 0.01579524213728116 2.2012943841489103 2.2097906693809355 0.07025647639392432
0.06873809823203467 0.012243568761078818 0.005316664295741398 -0.05446462126764323 -0.013813282678737226 0.1369495143864635 0.000707263691531864 0.0033057999033939316
0.04947891196673692 -0.06703700724139756 -0.04851775383057483 0.09333158887276774 0.005530038028635102 0.05119198987280591 0.0870522058269938 -0.08265603724606228
0.05827307788742076 -0.26845540872018786 0.2109265909218837 0.09385442048275439 -0.223780765986538 -0.12076927473721219 0.007640240049015494 -0.0842144682038426
-0.02220371729758954 0.027996102806994612 0.0 0.0 0.0 0.0 0.0 0.0
-0.019120465077432956 0.044183662796407175 -0.018376671119673386 -0.004396437587812681 -0.06763161378957264 -0.5097019389230418 0.016515085613799895 0.12189053605319404
0.511740297959104 0.056847089776271884 0.057423876432373476 0.023839519042705874 0.2109581905931308 -0.2218720688764779 -0.9134075302424506 0.22678273682983266
0.14374454745631157 0.9203344864499856 0.11826018429837605 -0.42077687795284124 0.05305928768731002 -0.041726601691291935 0.39004141655063285 -0.13762977952034314
0.02397455338623512 -0.1870018372928749 -0.08921104094738609 -0.03420491090152013 0.1659928087899865 0.13157192214813887 0.1116787156904433 0.04289217484104639
-0.416441836812446 0.10881132513711185 -0.06598567887822672 -0.7562200100001023 -0.09639296514009964 -0.09091565922041477 -0.1884592906970161 -0.11809503934386675
0.05094385260705536 -0.529584499976084 -0.14369840869244882 0.05524170001527844 -0.7048571406917286 -0.019182916839865817 -0.09233684821597642 -0.3379135244947721
-0.4570329833266365 -0.196283945164882 -0.6254575328442732 -0.21465237881086022 -0.06599828649166892 -0.5068942070038754 -0.36972435736649994 -0.06034462636097786
-0.07949022787634757 -0.14186969453172138 -0.08585263331718808 -0.6355282566897771 -0.3033415874850632 -0.05788097522832921 -0.6313892099233043 -0.1761208850183806
