data/amass/ACCAD/Male2Walking_c3d/B23 -  side step right_poses.npz (npz, 482488 bytes, 5 tensors)

trans f8 [360, 3]
000000 8e 02 72 66 60 d6 c0 3f 58 13 cb 30 ed 8c f8 bf
       0.13154225351538112 -1.534405890082061
000010 ef ac d5 3c d0 2c ec 3f b9 65 0e 4c c0 d8 c0 3f
       0.8804703891923092 0.13161472047504022
000020 e8 89 cc 68 f2 8e f8 bf de d8 a5 7e 6d 28 ec 3f
       -1.5348991483411911 0.8799350236502297
000030 9b 69 de 4e bc d8 c0 3f 03 35 dd 43 8a 8f f8 bf
       0.13161424494758198 -1.5350439692441007
000040 9d 6c 5e d8 64 27 ec 3f 94 24 ad eb 3c d5 c0 3f
       0.8798088289216995 0.13150750644334563
000050 9f 53 6e 96 da 8f f8 bf d4 e3 7c a1 fd 26 ec 3f
       -1.5351205707749853 0.8797596124705884
000060 2c ab fe d9 07 d0 c0 3f 28 8f 0d 8a 2d 90 f8 bf
       0.13134859222676576 -1.5351996796316119
000070 c5 ad 71 b5 21 27 ec 3f 2e bd 32 4c da f2 c0 3f
       0.8797768157796148 0.13241127701392358
000080 5f d7 e7 9a 70 6c f8 bf 8f ba e7 8a c5 3e ec 3f
       -1.5264745760918783 0.8826625550262451
000090 14 c8 97 56 ee ed c0 3f e6 f4 4f 89 73 73 f8 bf
       0.13226107814949783 -1.5281863559496798
0000a0 18 d7 2a 22 21 47 ec 3f b5 04 b5 2d 1a f6 c0 3f
       0.8836827914553593 0.13251044494430678
0000b0 ce 4f 11 1a 6e 72 f8 bf ed de 3c d8 88 4d ec 3f
       -1.5279370325342714 0.8844646666902612
0000c0 80 d3 e5 6c 39 e3 c0 3f ef 56 c7 45 1c 77 f8 bf
       0.1319343358733498 -1.5290796972016627
0000d0 96 44 ae 5e ed 4d ec 3f e0 2e 04 04 6e da c0 3f
       0.8845126008256041 0.13166594692335476
0000e0 a3 11 30 6b b6 75 f8 bf 5e b4 e8 fc 78 4e ec 3f
       -1.5287384211561423 0.8845791759137105
0000f0 35 1f 35 b4 23 df c0 3f 43 22 b7 e1 60 77 f8 bf
       0.13180967616266917 -1.5291451279646402
000100 a6 7a 57 61 a6 51 ec 3f b3 f6 c2 30 52 db c0 3f
       0.8849670315938354 0.1316931474774968
000110 a6 f3 85 59 db 78 f8 bf 22 93 d4 c7 c6 53 ec 3f
       -1.529506063175384 0.8852266219078937
000120 3f ca fb b5 2f d7 c0 3f e5 26 f8 71 e5 79 f8 bf
       0.13156696687618027 -1.5297598316123466
000130 39 d6 ff de f2 54 ec 3f 5b eb 09 8b 06 d3 c0 3f
       0.885369716210966 0.13143998898507445
000140 8d dc 52 e2 e9 7a f8 bf e9 3d 9b f8 52 56 ec 3f
       -1.530008205487124 0.8855376105875027
000150 2d 19 df cf e0 cc c0 3f b4 47 69 d9 e2 7b f8 bf
       0.13125238561605937 -1.5302456371905295
000160 35 ac 15 3d 34 57 ec 3f ec b3 56 05 c3 c4 c0 3f
       0.8856450264987702 0.13100469360998035
000170 26 6a 30 b7 eb 7b f8 bf 67 b4 e0 de 34 57 ec 3f
       -1.5302540927720059 0.8856453278618915
000180 96 ce f3 a3 6d ba c0 3f ff e4 c0 95 1d 7b f8 bf
       0.13068933969008317 -1.530057511305415
000190 4d 28 33 ba 59 56 ec 3f 61 2b 51 f5 05 b6 c0 3f
       0.8855408322062971 0.1305549094998595
0001a0 57 61 3d c2 93 7b f8 bf 63 03 82 e3 2b 56 ec 3f
       -1.5301702105990296 0.8855189746392224
0001b0 95 54 00 c7 db b7 c0 3f e9 c8 b4 06 88 7d f8 bf
       0.1306109162984838 -1.5306473028145382
0001c0 96 a3 4c c6 2a 57 ec 3f 79 a0 a9 97 2f b7 c0 3f
       0.8856405137095062 0.1305903902568877
0001d0 33 d3 f9 40 b4 7e f8 bf f9 e9 15 1c fc 57 ec 3f
       -1.5309336221809644 0.8857403324648764
0001e0 fe ac 12 b7 4c b3 c0 3f 10 a0 9a 7a 3d 7f f8 bf
       0.13047179164036743 -1.5310644902438106
0001f0 56 30 23 1f c6 58 ec 3f 42 f6 5b 65 7b af c0 3f
       0.8858366592553562 0.13035528611355757
000200 ac 39 a3 b9 82 7f f8 bf 44 c4 80 f1 cd 59 ec 3f
       -1.5311305285900785 0.8859624592643134
000210 e2 4a f3 03 1c ae c0 3f 15 87 5d 8e d3 7f f8 bf
       0.13031339829338778 -1.5312076150079907
000220 c7 e6 87 7c 32 5a ec 3f 21 0c a6 77 42 ae c0 3f
       0.886010401939722 0.13031798212259196
000230 49 06 43 42 0f 80 f8 bf e3 46 4e b4 16 5a ec 3f
       -1.5312645519592414 0.8859971543881467
000240 80 43 e9 9b 4f ad c0 3f 22 10 05 34 31 80 f8 bf
       0.1302890311513032 -1.531296923830276
000250 6c 19 fd 87 0e 5a ec 3f 69 66 aa 82 95 a9 c0 3f
       0.8859932571438498 0.13017529373319128
000260 40 a2 e5 09 83 80 f8 bf db a0 d2 62 ad 59 ec 3f
       -1.5313749682046733 0.8859469347126167
000270 b8 88 07 e5 34 a1 c0 3f 86 ec 55 5e 07 80 f8 bf
       0.1299196356113208 -1.5312570271478605
000280 c2 25 c9 0f 48 59 ec 3f 13 20 3d 95 ef 97 c0 3f
       0.8858986194911085 0.1296367148117957
000290 1c 5c 02 2f a2 7e f8 bf ef 54 ac 8d 5c 58 ec 3f
       -1.5309163891122415 0.8857863204053994
0002a0 22 a8 aa 59 b7 92 c0 3f 22 bf 04 6b 91 7e f8 bf
       0.12947742346051522 -1.5309004002010131
0002b0 66 84 8c 59 fe 57 ec 3f 75 b2 7c 55 ad 92 c0 3f
       0.8857414006234989 0.1294762294213744
0002c0 f1 01 bd 60 fc 7f f8 bf 63 5e dc 88 da 58 ec 3f
       -1.5312465456810254 0.8858463929236219
0002d0 06 00 2f 49 38 91 c0 3f 80 ab ed af 63 81 f8 bf
       0.12943175862710649 -1.531589209766679
0002e0 6f 70 67 ae cc 59 ec 3f e8 12 aa d8 aa 87 c0 3f
       0.8859618574456486 0.12914023951829923
0002f0 7b 3d e0 c1 ec 81 f8 bf ae 46 7e 7c 5a 5a ec 3f
       -1.5317199300078232 0.8860294753560163
000300 a8 d1 3e b7 71 7b c0 3f a0 ad 25 68 78 82 f8 bf
       0.12876721808937686 -1.53185311014645
000310 63 2d 9d 07 b9 5b ec 3f 1e 84 c2 39 18 73 c0 3f
       0.8861966274938989 0.1285124094038403
000320 18 38 a5 ce bf 82 f8 bf a8 83 6a 71 fd 5c ec 3f
       -1.5319212028584897 0.8863513198049207
000330 85 53 06 8b 56 6e c0 3f f9 bd 5a 4d 30 83 f8 bf
       0.12836725033107768 -1.5320284864100115
000340 b9 b0 26 5f b5 5d ec 3f f2 ad e7 24 57 6a c0 3f
       0.8864390238209331 0.12824525167466977
000350 f8 60 a8 72 03 83 f8 bf 10 07 e0 a1 3a 5d ec 3f
       -1.531985710031277 0.88638049713356
000360 5c 0e be 80 e1 62 c0 3f 1d 56 c8 d1 e0 81 f8 bf
       0.12801760469675372 -1.5317085451728254
000370 51 f6 53 e1 d8 5b ec 3f 2f ed 42 99 68 60 c0 3f
       0.8862118149697357 0.12794215663402883
000380 8e 03 48 dc 17 82 f8 bf 3e 21 40 23 b7 5b ec 3f
       -1.531761036371083 0.8861957252966375
000390 1e 6b bf 21 5d 62 c0 3f a7 e9 a5 aa 45 83 f8 bf
       0.1280018248351888 -1.5320488611165304
0003a0 50 5b 60 4a 41 5c ec 3f c0 5f 0d b5 74 61 c0 3f
       0.8862616017021114 0.1279741176647331
0003b0 c5 e6 df 90 bc 83 f8 bf 89 7c 60 c5 3e 5c ec 3f
       -1.5321622523464822 0.8862604002969344
0003c0 45 8a 35 d7 a3 5e c0 3f 87 39 4e b7 fe 83 f8 bf
       0.12788818367251245 -1.5322253380178112
0003d0 ff 10 0e c3 3e 5c ec 3f c3 c6 88 c0 06 5e c0 3f
       0.8862603959719592 0.1278694572552493
0003e0 80 b0 76 d4 12 84 f8 bf 25 26 45 4c 6b 5c ec 3f
       -1.5322445201263974 0.8862816323900843
0003f0 cc 2f d1 90 47 5f c0 3f aa ba 81 6d 9c 84 f8 bf
       0.12790770121716688 -1.5323757436378096
000400 93 44 eb 38 d4 5c ec 3f 89 3f 59 d4 fd 5d c0 3f
       0.8863316642474665 0.12786839359841576
000410 a9 7b d1 5a f3 84 f8 bf 2d a7 4f 52 63 5d ec 3f
       -1.5324586436833931 0.8863998992576164
000420 31 87 79 ea 5d 57 c0 3f 64 e4 a6 70 c0 84 f8 bf
       0.12766622494660276 -1.5324100876298639
000430 82 1c 61 61 d0 5d ec 3f 4f 8f 5c f3 b6 55 c0 3f
       0.8864519025745639 0.12761580355538135
000440 f1 54 da 78 e0 84 f8 bf 57 d8 30 d7 0c 5e ec 3f
       -1.5324406357588567 0.8864807322450002
000450 d5 d1 d4 4f 4d 54 c0 3f 8d 2c ec 0e 19 85 f8 bf
       0.1275726928521538 -1.5324946005737587
000460 ad 78 af eb 38 5e ec 3f 1d 7d 0c d1 6d 4d c0 3f
       0.8865017512541918 0.12736294467411194
000470 a6 0e 8e b5 96 85 f8 bf c4 9c 63 52 4e 5e ec 3f
       -1.5326144306172096 0.8865119561350174
000480 42 64 78 12 6e 45 c0 3f 77 fc 61 b9 02 85 f8 bf
       0.12711883451336986 -1.5324733010782248
000490 da 89 1a 31 b9 5d ec 3f 56 7c 04 b6 55 40 c0 3f
       0.8864408453994728 0.12696334254812552
0004a0 cf bb eb 50 a9 83 f8 bf 68 e3 68 5a 1f 5d ec 3f
       -1.5321438942880723 0.8863674894156306
0004b0 4b e2 c0 41 77 3e c0 3f 29 fb 88 95 5c 83 f8 bf
       0.1269063063680441 -1.5320707169737011
0004c0 5f 75 b2 f1 26 5d ec 3f d5 9a 19 5a 69 41 c0 3f
       0.886371109070449 0.12699620150961857
0004d0 57 0f c4 95 86 84 f8 bf d5 a6 fc 35 a1 5d ec 3f
       -1.5323549127797003 0.8864294104034466
0004e0 19 00 68 c6 49 42 c0 3f 9e e7 f4 d5 47 85 f8 bf
       0.12702295482449769 -1.5325392110521316
0004f0 8a 78 db 4f cf 5d ec 3f 32 c0 45 4f ab 42 c0 3f
       0.8864513931000755 0.12703458185888078
000500 fc 08 d0 88 9a 85 f8 bf 13 26 01 13 e9 5d ec 3f
       -1.5326180786365162 0.8864636775189773
000510 f4 96 ae d4 20 3e c0 3f 6e 19 28 48 9d 85 f8 bf
       0.12689600357878528 -1.5326206987970994
000520 86 b8 35 50 f1 5d ec 3f 37 db 44 03 8e 3a c0 3f
       0.8864676062201091 0.12678694877259897
000530 11 a6 4a 59 b6 85 f8 bf 75 91 ee f8 e9 5d ec 3f
       -1.532644604487704 0.8864641057921704
000540 59 2a 34 cb 9a 36 c0 3f 84 75 c2 75 70 85 f8 bf
       0.1266664020734705 -1.532577953337154
000550 3c 4d 3b 6c c1 5d ec 3f 91 04 17 7a c2 33 c0 3f
       0.886444770231186 0.1265795799390941
000560 68 c5 f5 6b 64 85 f8 bf 4d 62 e2 03 dd 5d ec 3f
       -1.532566472739143 0.8864579273095586
000570 92 bb b6 48 9f 30 c0 3f a9 a7 db 69 38 85 f8 bf
       0.1264838318870401 -1.5325245032386
000580 a5 87 63 9b db 5d ec 3f 15 bc 70 1a 91 2b c0 3f
       0.8864572558343197 0.12632955351861655
000590 9f 6c 08 a4 74 84 f8 bf 04 f9 77 93 e3 5c ec 3f
       -1.5323377997909018 0.8863389854666655
0005a0 40 80 78 17 88 1f c0 3f b3 b0 e1 e3 4a 83 f8 bf
       0.1259622683146535 -1.532053842699537
0005b0 49 c5 e8 d1 9d 5b ec 3f 20 ac 7d db ed 18 c0 3f
       0.8861836528578034 0.12576077668504215
0005c0 a3 1b b1 5b 60 83 f8 bf 92 a5 b7 42 b3 5b ec 3f
       -1.5320743161880521 0.8861938765596042
0005d0 24 d3 c7 22 6b 1d c0 3f 11 dc 74 65 62 84 f8 bf
       0.12589778135556984 -1.5323204005378595
0005e0 3e bc 70 43 b7 5c ec 3f bb 38 60 86 cd 1f c0 3f
       0.8863178555674336 0.1259705453998715
0005f0 8e b3 29 7d 9f 84 f8 bf 4f 0b cc 15 6a 5d ec 3f
       -1.532378662984431 0.8864031244014344
000600 b4 dd a9 14 29 20 c0 3f 9d 83 3b 32 b5 84 f8 bf
       0.12598145970308183 -1.5323993646818288
000610 2d 15 59 05 1f 5e ec 3f 09 a1 4d 6e aa 1b c0 3f
       0.8864894012882921 0.12584429155254664
000620 d0 cd 62 1b 9d 84 f8 bf 91 69 ec 1d eb 5e ec 3f
       -1.5323763913883006 0.8865867218440134
000630 7f a6 5b c1 64 19 c0 3f db 43 2e a4 6a 84 f8 bf
       0.1257749504214196 -1.5323282635983932
000640 c2 6b f3 72 5c 5f ec 3f dc 15 fa 3b db 17 c0 3f
       0.8866407628187221 0.12572803906020524
000650 22 d9 af 21 63 84 f8 bf 00 a1 4e 47 3d 5f ec 3f
       -1.5323211017508318 0.8866258995740566
000660 d4 25 ae 69 c4 11 c0 3f b9 f4 df 61 12 84 f8 bf
       0.12554221306008506 -1.5322440932498422
000670 05 ba 32 f3 c9 5e ec 3f d1 64 d1 04 86 06 c0 3f
       0.886570906635655 0.12519908175708008
000680 12 94 a6 d1 c4 82 f8 bf 1a b9 a5 8b 67 5c ec 3f
       -1.5319259824257228 0.8862798430907646
000690 4e b6 36 de 6f 04 c0 3f 18 12 03 b7 82 82 f8 bf
       0.1251354060199667 -1.5318629406839417
0006a0 f2 fb 6a ff ef 5b ec 3f cc 67 7c a0 fb 0a c0 3f
       0.8862228382712358 0.12533517204502542
0006b0 63 ba d4 cd d3 82 f8 bf 3f 1e bf 9d 40 5c ec 3f
       -1.5319402733108738 0.886261280153981
0006c0 14 f0 c8 2f e5 0c c0 3f 02 2c e5 03 cc 82 f8 bf
       0.12539353211639137 -1.531932845321308
0006d0 79 7a e9 8e b5 5c ec 3f f6 c8 0c 5e d0 10 c0 3f
       0.886317042470025 0.12551312057764336
0006e0 32 35 90 7a 04 83 f8 bf 0b ee 88 9c cc 5c ec 3f
       -1.5319866931561816 0.8863280350992125
0006f0 f1 56 0c 3d 77 12 c0 3f db d7 34 1d 70 83 f8 bf
       0.1255635307394907 -1.5320893422008257
000700 7b 38 83 65 88 5c ec 3f cb 98 88 96 70 0e c0 3f
       0.8862955076854314 0.125440667631841
000710 b8 59 17 5f 60 83 f8 bf d7 99 8c 9d bf 5c ec 3f
       -1.5320743288517473 0.8863218381055117
000720 df 12 54 c2 3d 0a c0 3f 69 e4 d2 05 0a 82 f8 bf
       0.12531253803913153 -1.5317478396885014
000730 0f 6b 88 b9 97 5c ec 3f b0 75 1f 09 ac 05 c0 3f
       0.8863028167428143 0.1251730961366042
000740 f2 fc 86 c1 6d 7f f8 bf c0 95 80 f5 15 5c ec 3f
       -1.5311105308208508 0.8862409396139626
000750 8b d6 73 47 6c 03 c0 3f 8f 55 e7 8d d9 7e f8 bf
       0.12510446061030608 -1.530969194708948
000760 ef b9 a2 27 86 5c ec 3f 20 a7 22 48 05 03 c0 3f
       0.8862944387563497 0.12509218237146857
000770 fc 20 01 34 b4 7f f8 bf f7 ea 34 44 73 5d ec 3f
       -1.5311777144834755 0.8864075023805914
000780 f2 2c 58 cb 57 08 c0 3f 6b 53 67 74 42 80 f8 bf
       0.12525460652282266 -1.5313133761421465
000790 fc 41 14 c2 6f 5f ec 3f c2 4c d3 a1 f5 14 c0 3f
       0.886649970112614 0.12563963319425936
0007a0 b4 69 0b b2 91 80 f8 bf 61 f2 66 f7 5e 61 ec 3f
       -1.5313889460436316 0.8868861038277595
0007b0 13 72 b5 ef 13 1e c0 3f 07 1f 5d a3 10 81 f8 bf
       0.12591790394334676 -1.531510007991473
0007c0 c1 9a 3f 33 bd 63 ec 3f 75 ff 56 a9 a5 1d c0 3f
       0.8871751786180867 0.12590475815340665
0007d0 fb 35 ee 99 64 81 f8 bf bd c4 ee 0f a3 66 ec 3f
       -1.5315900814924805 0.8875289260087339
0007e0 d4 73 c7 38 2c 26 c0 3f b4 84 de 4c fb 80 f8 bf
       0.12616493961732422 -1.5314896586135491
0007f0 92 c6 78 eb f6 67 ec 3f 53 f1 95 12 2f 2b c0 3f
       0.8876909827287867 0.1263178673506312

mocap_framerate f8 []
000000 00 00 00 00 00 00 5e 40
       120.0

betas f8 [16]
000000 e0 1b 2d e2 eb 0d ba bf f9 f4 c0 04 ae e8 e8 bf
       -0.10177492401008648 -0.7784032910200543
000010 89 c1 e0 e5 f4 1f e9 3f cd 4c d0 b7 bb fa f0 3f
       0.7851509561351558 1.0612141781064566
000020 9b 4d f3 ce 45 92 e7 3f e5 c7 22 b4 31 7e e2 bf
       0.7366055528640801 -0.5779045599249427
000030 02 ec f2 7f f3 b0 e0 3f 8e 26 f1 0e 9c e3 d3 bf
       0.5216004847528668 -0.3107671876829067
000040 83 28 e6 12 a6 59 c9 3f c9 20 72 5a a5 fd b0 3f
       0.19804836199574902 0.06637032945775724
000050 23 08 84 52 b5 15 c1 bf b9 fd 94 d5 6b 35 a5 bf
       -0.13347498444642367 -0.04142319662286859
000060 68 e5 ee fd 86 2a f0 bf 24 2b eb a8 4a a8 d7 bf
       -1.01038264458324 -0.36964670654258414
000070 e6 87 ab aa ae cb df 3f 15 28 58 32 51 a2 c3 3f
       0.49680678050037697 0.15339102705212385

dmpls f8 [360, 8]
000000 02 d5 21 ba 79 1e c4 bf b8 30 6d 4c 80 8a ed bf
       -0.15718003834232525 -0.9231568806367454
000010 80 f1 ac 47 ae 91 b3 bf 0d fc b8 10 cf 02 e3 bf
       -0.07644166231052019 -0.5940928770650103
000020 a2 ae 6a e5 a6 e6 e8 bf 60 75 7d 9c 02 a2 cb 3f
       -0.7781557541652158 0.2158816589461976
000030 f2 34 7c a3 e8 ac ef bf 51 0b 6f 5a f1 c4 fb bf
       -0.989857024485586 -1.7355817349022866
000040 bc 96 38 a3 af 38 c7 bf 7c ad da f8 4d 85 ee bf
       -0.18141742200639566 -0.9537725315507681
000050 67 5b 10 4b f6 89 b3 bf ba d9 50 7c 32 be e2 bf
       -0.07632388432135216 -0.5857174327891734
000060 57 00 d7 a0 2d 92 e9 bf db 99 73 1d 94 0f cb 3f
       -0.7990940228846836 0.21141292036118284
000070 93 32 58 78 a2 60 f0 bf 63 47 ae b5 1f d6 fb bf
       -1.023592443557537 -1.7397763344674437
000080 3e 56 4e d1 d8 66 c7 bf 6e 2e ab 2a ed 9d ee bf
       -0.18282613964099598 -0.9567781289455988
000090 6e 8b 85 40 b5 91 b3 bf 64 5c c5 1d d1 b6 e2 bf
       -0.07644207787738619 -0.5848165112937633
0000a0 a4 28 71 45 41 b4 e9 bf d5 b3 3b bb 1e f8 ca 3f
       -0.8032537800111368 0.2106970228409454
0000b0 63 a9 bc 8c 96 76 f0 bf f9 d6 32 cb 41 dc fb bf
       -1.0289521691834913 -1.7412736833043125
0000c0 4c 56 4e d1 d8 66 c7 bf 80 2e ab 2a ed 9d ee bf
       -0.18282613964099637 -0.9567781289456008
0000d0 5b 8b 85 40 b5 91 b3 bf 63 5c c5 1d d1 b6 e2 bf
       -0.07644207787738592 -0.5848165112937632
0000e0 b1 28 71 45 41 b4 e9 bf c3 b3 3b bb 1e f8 ca 3f
       -0.8032537800111382 0.2106970228409449
0000f0 6c a9 bc 8c 96 76 f0 bf fb d6 32 cb 41 dc fb bf
       -1.0289521691834933 -1.741273683304313
000100 4c 56 4e d1 d8 66 c7 bf 80 2e ab 2a ed 9d ee bf
       -0.18282613964099637 -0.9567781289456008
000110 5b 8b 85 40 b5 91 b3 bf 63 5c c5 1d d1 b6 e2 bf
       -0.07644207787738592 -0.5848165112937632
000120 b1 28 71 45 41 b4 e9 bf c3 b3 3b bb 1e f8 ca 3f
       -0.8032537800111382 0.2106970228409449
000130 6c a9 bc 8c 96 76 f0 bf fb d6 32 cb 41 dc fb bf
       -1.0289521691834933 -1.741273683304313
000140 51 f7 84 a0 bb 23 c6 bf 04 26 f2 89 f3 66 e6 bf
       -0.17296548211919086 -0.700067300248691
000150 0e 8a 43 36 7b ff cd bf 89 4c a5 fb c2 23 e5 bf
       -0.2343591704330525 -0.6606154360728321
000160 1c 04 0c 62 d8 5d e4 bf 15 87 93 f1 ec ca de 3f
       -0.6364557185153248 0.48113559333261097
000170 eb fa 39 93 96 9c ef bf e1 0b 86 8c 85 0a f9 bf
       -0.9878647685544285 -1.5650687684253557
000180 14 ca b9 52 e8 d2 ca bf 74 dc 19 38 ed 98 e3 bf
       -0.20956138648360023 -0.6124178024027871
000190 30 c0 4a cb 43 81 d2 bf 1f 15 fd 5e c0 4f e6 bf
       -0.28913969853147403 -0.6972352843519366
0001a0 15 77 62 57 81 3d e2 bf 57 ca 3f 54 2f fd e3 3f
       -0.5700079638224645 0.6246563573352643
0001b0 af 1e ad 74 5f 7e ef bf 23 d2 db f8 fe 7b f6 bf
       -0.9841763762314794 -1.4052724572221755
0001c0 7e 15 f5 06 3f 5c cd bf af 84 63 c1 10 76 e2 bf
       -0.22937763061251454 -0.576912286484136
0001d0 39 cb 04 1b 4d 8c d3 bf 23 5b d5 e3 70 14 e8 bf
       -0.3054383052687402 -0.7524952363845369
0001e0 08 5a 18 5a c7 fd e0 bf a2 11 f0 08 71 45 e7 3f
       -0.5309788474722277 0.7272267508092691
0001f0 39 cc c9 11 b8 9a ef bf b0 12 99 b8 a7 20 f4 bf
       -0.9876365992953487 -1.25797245129176
000200 38 22 ac 27 3b 5a ce bf b7 b0 4e 07 e1 44 e2 bf
       -0.23712863385323302 -0.570908083221659
000210 36 f6 7b c3 80 a6 d3 bf ca d1 57 73 08 82 e8 bf
       -0.3070375355744973 -0.7658731701654287
000220 b7 a6 ca a8 e2 14 e1 bf 16 5b 30 7f ae 43 e9 3f
       -0.5337994858466207 0.7895119175107961
000230 aa 0c 5e 0d e4 44 f0 bf d7 6c 78 a8 0a 2c f2 bf
       -1.0168190500415144 -1.1357523518443509
000240 0a ab fe b6 5b ae ce bf 48 f4 0c 94 cc 34 e2 bf
       -0.23969599185269203 -0.5689452067960099
000250 57 35 1b 7b 2c c4 d3 bf 1e 16 30 57 ee 84 e8 bf
       -0.3088484956941406 -0.7662269308936549
000260 ce 15 61 47 c3 af e1 bf b6 c1 c2 84 45 c1 ea 3f
       -0.5527054208875428 0.8360927193626171
000270 2b 1e d7 22 e4 e5 f0 bf 25 01 bb 70 43 9b f0 bf
       -1.0561257706593874 -1.0379061130079859
000280 3c 99 47 64 af 69 d0 bf 19 e2 9d b2 40 d0 e1 bf
       -0.2564505080503243 -0.556671475277713
000290 48 41 45 57 17 14 d3 bf ad b7 42 95 ec 3c e9 bf
       -0.29810126802933157 -0.7886870303388968
0002a0 b9 7b 94 c9 05 4a e2 bf 08 f0 68 83 86 6c ec 3f
       -0.5715359627828241 0.8882477346992355
0002b0 de 72 54 50 1c 37 f1 bf 7e ec 4f 77 b5 52 ee bf
       -1.0759547365079736 -0.9475962953869297
0002c0 5a 2e 61 57 f1 79 d1 bf 68 18 0c 10 e2 91 e1 bf
       -0.2730677941624201 -0.5490579904005815
0002d0 5c 6c df c1 4e d5 d1 bf 8c 66 7e 1c a0 f8 e9 bf
       -0.278644265488486 -0.8115997845190619
0002e0 42 e3 5d af eb ea e2 bf 1d 42 ed 6f 9e 25 ee 3f
       -0.591176836503202 0.9420921503133887
0002f0 b1 e9 12 c2 28 7c f1 bf fc 58 e2 13 12 cc eb bf
       -1.0928123074541924 -0.868660963856001
000300 3e 00 cb 03 c7 fc d1 bf 62 db d6 c3 68 7f e1 bf
       -0.2810533082047221 -0.5468028855310474
000310 79 ff b7 95 11 dd d0 bf 05 3a db 62 b5 73 ea bf
       -0.26349296208353895 -0.8266245775974431
000320 a9 5f 49 69 8f 85 e3 bf 00 c8 ea 32 f7 aa ef 3f
       -0.6100537353877274 0.9896198267435921
000330 06 6a 7c e9 a4 ed f1 bf fd 2b 62 c6 97 87 e9 bf
       -1.1205186005159944 -0.7978018641164223
000340 01 99 2c 11 1a 41 d2 bf 5a 75 98 15 d8 70 e1 bf
       -0.2852235000340358 -0.5450249120510009
000350 ab f8 aa 5f 33 32 d0 bf dd ee df 06 40 e3 ea bf
       -0.25306400625766895 -0.8402404913208233
000360 38 45 9f 82 3a 29 e4 bf 53 1d 4a 62 b7 82 f0 3f
       -0.6300327826703898 1.0319131698068602
000370 bd 3e 66 40 b1 62 f2 bf b1 f8 56 a9 e8 8f e7 bf
       -1.1490948215104446 -0.7363169963280339
000380 74 e1 84 d2 fe cd d2 bf 19 a2 e4 6a 5a 5d e1 bf
       -0.29382296141149955 -0.5426456535106495
000390 45 04 98 59 03 8d cf bf ce ba 3e 36 f4 2c eb bf
       -0.24649087786386495 -0.8492375430558583
0003a0 a4 a2 37 44 04 ba e4 bf 45 f4 e2 01 82 21 f1 3f
       -0.6477071125383032 1.070680625314041
0003b0 9e 13 27 ee ec a8 f2 bf 22 8f 88 a7 0e bc e5 bf
       -1.1662415793264027 -0.6792062065255531
0003c0 92 f5 0e 28 ca 1a d3 bf bd 23 9f ba 60 4f e1 bf
       -0.29851011192280297 -0.5409396786645783
0003d0 b3 9b 37 6a ca 1f cf bf 5a 15 ef 8a 40 21 eb bf
       -0.24315767465961144 -0.8478090966752163
0003e0 c3 92 fb d9 8a 68 e5 bf c1 c8 f5 b4 75 9d f1 3f
       -0.669011522052266 1.100942332148904
0003f0 37 fb 6d 19 c2 ed f2 bf 68 6e 6e a4 3c 20 e4 bf
       -1.183046435675079 -0.6289351665067899
000400 c4 7d 4e 39 dc 18 d3 bf 36 bb 07 e3 01 6f e1 bf
       -0.2983923492083387 -0.5448007044013596
000410 4b 27 00 2e 8a 1a cf bf d6 1e 2d ee 5b ba ea bf
       -0.24299742933390642 -0.8352489139442365
000420 0b e8 bc ee da 21 e6 bf 08 4d d4 86 95 04 f2 3f
       -0.6916327154970089 1.1261191622514293
000430 75 74 87 92 c9 5e f3 bf 5b 8f 3f c0 29 dc e2 bf
       -1.2106414531511096 -0.5893753771638147
000440 83 e8 9b c0 3d 39 d3 bf bb f0 55 b1 86 7a e1 bf
       -0.3003687268207004 -0.546206804617689
000450 83 e5 cd 35 b4 68 ce bf 03 0a c0 6d 23 59 ea bf
       -0.23757031085169097 -0.8233811515386268
000460 cc 71 8d 41 23 c5 e6 bf 10 19 28 27 90 50 f2 3f
       -0.7115646629641161 1.1446687249713854
000470 b2 cd de 89 8d da f3 bf 02 d4 c8 88 cf da e1 bf
       -1.2408576379356018 -0.5579602881977055
000480 94 97 86 fe bd 5b d3 bf 0d 54 8c 1f c5 4f e1 bf
       -0.30247449737577736 -0.5409875503706886
000490 ee e8 6f a3 f7 30 cc bf f0 a4 ca 59 80 88 ea bf
       -0.22024436455087176 -0.8291627649060995
0004a0 e2 f2 2d 16 e4 14 e7 bf aa 06 bc 66 50 b7 f2 3f
       -0.7213001664345848 1.1697544110360618
0004b0 41 90 08 26 6b 2f f4 bf d5 f7 a0 9e 85 e5 e0 bf
       -1.261576794212502 -0.5280178163736716
0004c0 28 74 63 73 2d 7d d3 bf c6 bd 50 26 4b 01 e1 bf
       -0.30451523083121623 -0.5314079044673512
0004d0 00 5f 7e 37 f9 0a cb bf 97 f7 b3 f7 a1 c5 ea bf
       -0.21127238473558663 -0.8366250837277559
0004e0 8e be 11 a3 f7 37 e7 bf ee 4d d8 0e 65 26 f3 3f
       -0.7255819497058427 1.1968737201576647
0004f0 89 90 e2 bd f6 78 f4 bf 5e 4e 1a 69 b4 ac df bf
       -1.279532186258651 -0.49491606010380973
000500 60 d2 ba 64 80 cb d3 bf ec c2 1b f1 25 00 e1 bf
       -0.30929574810878613 -0.5312680920743253
000510 1b 73 96 ea 9f 4c ca bf a1 b8 0a 24 fe e6 ea bf
       -0.2054633994529461 -0.840697355646416
000520 7e 4f 5d 0b ad 5d e7 bf bc 75 66 43 b1 90 f3 3f
       -0.7301850530588891 1.2228253014394417
000530 02 33 c4 68 ff bf f4 bf de 94 5e 9f 1e af dd bf
       -1.2968744366109495 -0.46381345332549795
000540 22 d8 a5 f2 b6 f5 d3 bf 6d 18 07 ee 58 0a e1 bf
       -0.3118722314460475 -0.5325131081560933
000550 46 3a bc ae 9c 05 c9 bf dd 92 cb 67 94 10 eb bf
       -0.19548376590724298 -0.8457738902330579
000560 5e 1f b1 0e 9a a9 e7 bf a7 a8 4a 20 1d fb f3 3f
       -0.7394533431006314 1.2488070737258938
000570 7b 3b ba 05 af fd f4 bf 8d 9d 1d 3b 5a f3 db bf
       -1.31193449246686 -0.43672805569664136
000580 eb e6 99 ef ac 36 d4 bf e9 b2 85 80 f9 1c e1 bf
       -0.3158371295790931 -0.534786940593759
000590 3b a8 f4 a1 42 23 c8 bf ee 49 b5 77 9c 06 eb bf
       -0.18857605846398137 -0.844557031445502
0005a0 cd ea 84 77 c2 03 e8 bf 84 1f 06 97 fb 6c f4 3f
       -0.750458939968064 1.276607122361356
0005b0 ab cf d5 5f 30 23 f5 bf 1a 97 9b d4 c4 8f da bf
       -1.3210910552561284 -0.4150249553916737
0005c0 5e 96 f6 a8 1c 51 d4 bf 6f 93 73 a5 20 1d e1 bf
       -0.317450680735737 -0.5348056060289376
0005d0 02 30 d2 90 07 0a c8 bf aa ca b2 1f ad f5 ea bf
       -0.18780607768383112 -0.8424897784337493
0005e0 4b 6a 91 f5 67 1e e8 bf 49 ff 52 56 15 7f f4 3f
       -0.7537116810083914 1.2810262081183785
0005f0 76 01 c3 62 e0 28 f5 bf 07 aa e1 a1 b6 44 da bf
       -1.3224796159630308 -0.41044393357029246
000600 f5 01 96 33 c2 6a d4 bf ea 38 34 90 6e 20 e1 bf
       -0.31901602781002164 -0.5352089706882712
000610 d7 b2 99 68 d6 03 c8 bf b2 55 7e 52 1e ec ea bf
       -0.18761711223068886 -0.8413230525208546
000620 b4 c0 cf fb 8a 41 e8 bf bb f4 d0 67 da 8f f4 3f
       -0.7580008428758647 1.285120397121587
000630 b5 9f 70 ff 94 30 f5 bf 5e 4b 4a 32 9a 00 da bf
       -1.324360845386747 -0.40628676329759184
000640 61 e5 b5 3c c5 70 d4 bf 40 3e a2 6d 01 2c e1 bf
       -0.3193829625011713 -0.5366217747959539
000650 f9 25 4d 91 55 ee c7 bf fb 35 e8 4a 7f e3 ea bf
       -0.18696088404458047 -0.8402706587818892
000660 6b ea b1 22 ca 68 e8 bf 40 03 a2 a3 00 9b f4 3f
       -0.7627916982303992 1.2878424064549137
000670 17 ba 39 e6 74 39 f5 bf 2f c1 12 7f 76 b3 d9 bf
       -1.326527499502509 -0.4015785447072799
000680 6d 93 35 ed 52 b6 d4 bf a9 05 46 7e 12 62 e1 bf
       -0.32362816967934444 -0.5432217088966144
000690 30 76 11 76 a7 4e c7 bf 2c 06 4e 92 a8 a1 ea bf
       -0.18208783402489948 -0.83223370146897
0006a0 28 80 86 6d 05 13 e9 bf 85 ec c3 ea 1d d4 f4 3f
       -0.783571924130233 1.3017863436241737
0006b0 71 2d 5d 23 d1 4f f5 bf e7 5f ad 44 9c 5e d8 bf
       -1.3319865590482005 -0.3807745619465081
0006c0 ec 60 ff da e9 78 d4 bf 45 cd 99 67 ad 90 e1 bf
       -0.31987997423631387 -0.5489108107998751
0006d0 80 78 80 b9 85 70 c7 bf 98 04 2f f6 9a 2f ea bf
       -0.18312140996653525 -0.8183111961626706
0006e0 48 a7 73 56 92 b2 e9 bf 82 8e b3 2c 30 12 f5 3f
       -0.80304829487907 1.316940474142854
0006f0 2f 1c bc 4c 40 6f f5 bf 2e 8d 9b 42 44 7a d7 bf
       -1.3396609303906748 -0.36683756355906183
000700 d7 eb ac 6f 3d 2b d4 bf 02 fe 72 16 05 c8 e1 bf
       -0.3151391592579648 -0.5556664885006628
000710 14 25 02 c0 62 1f c7 bf 0a 41 bb 23 76 c1 e9 bf
       -0.18064531684311957 -0.8048659036522008
000720 94 b7 23 f5 61 45 ea bf 3b 6a 8f 0d 75 39 f5 3f
       -0.8209695613747834 1.3265276460357558
000730 79 26 23 12 fb 88 f5 bf d6 40 2e 59 71 6b d6 bf
       -1.3459425648201473 -0.350307786074166
000740 f7 ae fc 78 57 36 d4 bf 14 20 95 85 de d6 e1 bf
       -0.31581675353184785 -0.5574791535409553
000750 91 76 c4 ab 35 20 c7 bf 28 99 a3 85 82 b1 e9 bf
       -0.1806704605777907 -0.8029186830652053
000760 4a ee 8b fb 6b 5d ea bf 94 cf 08 d5 39 49 f5 3f
       -0.8239040291804909 1.3303774186760835
000770 f0 6a ba 8a d6 88 f5 bf b7 d0 9a ad 7c 12 d6 bf
       -1.345907728106507 -0.34487835839832875
000780 7d 4e d5 49 d9 67 d4 bf 5d 7c 6f 5e bf fd e1 bf
       -0.31883842668796786 -0.5622250408595267
000790 a6 fe 77 a4 6c a6 c6 bf bb 23 e4 16 0f a4 e9 bf
       -0.17695386915874173 -0.8012767264455002
0007a0 9a 0a c6 b9 0e 7d ea bf 2b 8f 08 30 51 98 f5 3f
       -0.8277658108130084 1.3496868015581167
0007b0 ec b3 dd fe 47 80 f5 bf ef 74 f5 b6 fc be d4 bf
       -1.3438186603264013 -0.3241569315631087
0007c0 02 cb da cc fa 29 d4 bf e2 fa 3f ea 0a f0 e1 bf
       -0.3150622368367949 -0.5605520796960628
0007d0 4e e6 b2 5d 9a 73 c4 bf 6c 8d d9 05 7f ca e9 bf
       -0.15977792334688207 -0.8059687723402198
0007e0 9d 42 e8 a3 1e 7f ea bf d7 e5 92 1a 7a e4 f5 3f
       -0.8280175401033208 1.3682805097617938
0007f0 c5 5d 07 24 a2 78 f5 bf ed 5e 1b 62 de 42 d3 bf
       -1.3419515044569021 -0.30095634060624726

poses f8 [360, 156]
000000 8d 2f 91 b1 0a e6 7f 3f f2 af d9 b6 41 7d 01 40
       0.007787744304618272 2.1861604962523353
000010 cc a4 e4 b5 42 06 02 40 b9 18 c8 46 7b a5 b9 3f
       2.2530569277192622 0.1001812980467517
000020 53 79 5c 1f 4b f4 b7 3f 16 2f 73 29 e0 0a b1 3f
       0.09357137218146265 0.06657219898187025
000030 0a 7b dc a5 c9 7d 93 3f 77 93 e8 36 cb 69 b4 bf
       0.01903452944599863 -0.07973928537883333
000040 79 9e 64 7d f5 3e bb bf f2 cf 29 b2 8a f9 bd 3f
       -0.1064294272551879 0.11708895539942413
000050 5f da 66 de 88 2c a2 3f 6c 68 e4 04 d1 85 75 3f
       0.03549602236619331 0.0052545704659455565
000060 73 0f 32 0c e6 4f aa bf cf b4 c9 ae a8 86 83 bf
       -0.05139082812186659 -0.009534185251335007
000070 fd f7 41 da fa 61 b0 bf e0 33 b4 96 8a 36 a1 3f
       -0.06399505451733485 0.03361924256942195
000080 dd 62 6c 46 2e 2e a8 bf 6c 6e 1d 14 e8 52 b0 3f
       -0.04722733125362819 0.06376505366409341
000090 c2 b4 1a 33 21 a6 97 3f 7e a5 5b 74 dd 73 96 bf
       0.023094671959076114 -0.021926365115097372
0000a0 fd 17 09 a2 a8 54 71 3f b0 d2 bb 54 97 8c c6 bf
       0.004231127474275451 -0.17616550099741835
0000b0 1c 80 d8 8c 00 f8 c9 3f 9d 12 64 df 48 a5 ac 3f
       0.2028809249613922 0.05594852187099273
0000c0 ef a6 1e b7 1b 3b c4 bf d1 05 b3 e5 84 80 bd bf
       -0.15805384103196427 -0.11524229629414796
0000d0 69 00 51 69 39 ce aa 3f b7 04 ee a3 90 dd ad bf
       0.052354616266257654 -0.05833103180976578
0000e0 20 2a 54 32 5e fe 84 bf ba 0f 27 32 c4 e7 7e 3f
       -0.01025079337207041 0.007545248403804489
0000f0 00 00 00 00 00 00 00 00 00 00 00 00 00 00 00 00
       0.0 0.0
000100 00 00 00 00 00 00 00 00 00 00 00 00 00 00 00 00
       0.0 0.0
000110 00 00 00 00 00 00 00 00 00 00 00 00 00 00 00 00
       0.0 0.0
000120 a6 96 b0 ae c1 3f 84 bf d8 68 f3 b1 39 13 a1 3f
       -0.009887231010064678 0.03334980294467166
000130 02 c6 56 2c 60 8f 8c 3f d8 0e 8e ba f2 69 a8 3f
       0.013945342400663033 0.047683320305649424
000140 21 15 31 f3 48 13 b2 bf dc 44 70 3a 06 29 e0 bf
       -0.07060676514909804 -0.5050078526857322
000150 86 43 0b 3a 04 07 ab 3f 00 3b 83 60 8c 5b c2 3f
       0.05278790672821913 0.14341883385210252
000160 86 71 e6 82 b3 53 df 3f db ca 8b ff 1c 7c bd 3f
       0.48948371680469227 0.1151750682727583
000170 98 aa 2a 7d 20 f9 98 3f a6 e8 1f 1a bd 13 9c 3f
       0.024387843741957654 0.027419047088166913
000180 b8 92 78 ed 25 43 c8 3f ad 35 eb cf 8e af ce bf
       0.1895491990591347 -0.23973260071072158
000190 f9 00 77 22 02 b3 ed bf c6 9b a2 e3 ea 61 cb 3f
       -0.9281016038076181 0.21392570605277522
0001a0 5c 5e 5c 6e bd 6e cd 3f 90 ed 59 0e cf 88 ee 3f
       0.2299420155402342 0.9542002945230923
0001b0 80 eb 5a c0 74 6b c6 3f b2 fc c2 11 68 ea d6 bf
       0.17515429870931243 -0.35805703863656924
0001c0 55 aa 63 ce b0 33 a7 3f 8e a5 3b 2e 7b e5 90 3f
       0.04531624335671284 0.01650040120776946
0001d0 5b 17 bc 3c b5 9a d0 3f eb 5e fe ac 2c 83 b8 bf
       0.2594426243889438 -0.0957515642497772
0001e0 2c 35 6c a1 9c 7e 90 bf 2f 0b 11 55 f4 99 c9 bf
       -0.01610798583265198 -0.2000108161319871
0001f0 a6 17 fc 28 a0 d5 b5 bf 6f 82 c9 c9 13 da b4 bf
       -0.08529091835597899 -0.08145259548610694
000200 2b fd 0e 45 8d 88 bc 3f 74 16 4e e5 c1 4e bd 3f
       0.1114586156463601 0.1144829926325544
000210 80 bb 8c ef f9 96 bc 3f d6 a9 64 90 f6 f5 a5 3f
       0.1116787156904433 0.04289217484104639
000220 83 eb 72 a9 fb a6 da bf 2d f8 e5 1a 0f db bb 3f
       -0.416441836812446 0.10881132513711185
000230 b1 4d c9 fc 6f e4 b0 bf db ff 70 4e f4 32 e8 bf
       -0.06598567887822672 -0.7562200100001023
000240 9f 58 d7 98 35 ad b8 bf 2f c4 0b a7 3f 46 b7 bf
       -0.09639296514009964 -0.09091565922041477
000250 ae e4 15 1d 6f 1f c8 bf e6 3e cd fb 79 3b be bf
       -0.1884592906970161 -0.11809503934386675
000260 00 54 c2 09 50 15 aa 3f 95 b4 7b 31 5b f2 e0 bf
       0.05094385260705536 -0.529584499976084
000270 ae 20 e9 9e b5 64 c2 bf 17 d3 e1 dd a3 48 ac 3f
       -0.14369840869244882 0.05524170001527844
000280 fc ef f3 8f 30 8e e6 bf ba 5e e0 c1 af a4 93 bf
       -0.7048571406917286 -0.019182916839865817
000290 57 a7 4d 3f 63 a3 b7 bf 6a 31 25 0c 60 a0 d5 bf
       -0.09233684821597642 -0.3379135244947721
0002a0 a9 32 25 45 07 40 dd bf 6c 44 9b 12 d5 1f c9 bf
       -0.4570329833266365 -0.196283945164882
0002b0 c5 4b 13 84 bf 03 e4 bf e5 28 80 a9 ba 79 cb bf
       -0.6254575328442732 -0.21465237881086022
0002c0 b6 e1 12 82 43 e5 b0 bf c9 a1 33 33 7a 38 e0 bf
       -0.06599828649166892 -0.5068942070038754
0002d0 75 1e db 59 90 a9 d7 bf f6 62 6b a9 7d e5 ae bf
       -0.36972435736649994 -0.06034462636097786
0002e0 ac 9b 14 b9 78 59 b4 bf 14 54 27 41 c9 28 c2 bf
       -0.07949022787634757 -0.14186969453172138
0002f0 01 70 5f 2c 70 fa b5 bf da 53 c5 5a 3f 56 e4 bf
       -0.08585263331718808 -0.6355282566897771
000300 e5 f6 70 d5 f2 69 d3 bf 0b 20 55 3f 93 a2 ad bf
       -0.3033415874850632 -0.05788097522832921
000310 32 5f f5 24 57 34 e4 bf 67 f4 a5 10 21 8b c6 bf
       -0.6313892099233043 -0.1761208850183806
000320 c6 b2 4e 09 6d e8 c0 bf 36 8c ee 97 0a e5 d7 bf
       -0.13209307627166406 -0.37335457646458126
000330 4e c7 87 70 19 3b eb 3f ae 0b 2c 2a 1a b9 d1 3f
       0.8509642789706306 0.2769227420650918
000340 9c 33 ba bd b1 6f b7 bf 3f 7e 75 8d 5e fd df bf
       -0.09154806978240376 -0.49983943762160615
000350 59 89 b4 ad 9e 31 9b 3f 91 40 4d c8 33 13 ab 3f
       0.026556472160458842 0.05288087673273013
000360 3b ce 19 f0 4c 23 e1 3f 72 d3 95 9f 34 88 a7 3f
       0.5355591477841196 0.04596104095518329
000370 3a f5 a5 db 3b c0 d1 bf 80 bb 8c ef f9 96 bc 3f
       -0.2773580212595622 0.1116787156904433
000380 d4 a9 64 90 f6 f5 a5 bf 84 eb 72 a9 fb a6 da 3f
       -0.04289217484104638 0.41644183681244606
000390 2d f8 e5 1a 0f db bb 3f b0 4d c9 fc 6f e4 b0 3f
       0.10881132513711185 0.0659856788782267
0003a0 db ff 70 4e f4 32 e8 3f 9f 58 d7 98 35 ad b8 bf
       0.7562200100001023 -0.09639296514009964
0003b0 2f c4 0b a7 3f 46 b7 3f af e4 15 1d 6f 1f c8 3f
       0.09091565922041477 0.18845929069701614
0003c0 e5 3e cd fb 79 3b be bf 01 54 c2 09 50 15 aa bf
       -0.11809503934386674 -0.05094385260705537
0003d0 95 b4 7b 31 5b f2 e0 3f af 20 e9 9e b5 64 c2 bf
       0.529584499976084 -0.14369840869244885
0003e0 18 d3 e1 dd a3 48 ac bf fc ef f3 8f 30 8e e6 3f
       -0.05524170001527845 0.7048571406917286
0003f0 bb 5e e0 c1 af a4 93 bf 57 a7 4d 3f 63 a3 b7 3f
       -0.01918291683986582 0.09233684821597642
000400 6a 31 25 0c 60 a0 d5 3f a9 32 25 45 07 40 dd bf
       0.3379135244947721 -0.4570329833266365
000410 6d 44 9b 12 d5 1f c9 3f c5 4b 13 84 bf 03 e4 3f
       0.19628394516488204 0.6254575328442732
000420 e7 28 80 a9 ba 79 cb bf b6 e1 12 82 43 e5 b0 3f
       -0.21465237881086027 0.06599828649166892
000430 c9 a1 33 33 7a 38 e0 3f 75 1e db 59 90 a9 d7 bf
       0.5068942070038754 -0.36972435736649994
000440 f4 62 6b a9 7d e5 ae 3f ad 9b 14 b9 78 59 b4 3f
       0.06034462636097784 0.07949022787634759
000450 16 54 27 41 c9 28 c2 bf 01 70 5f 2c 70 fa b5 3f
       -0.14186969453172144 0.08585263331718808
000460 da 53 c5 5a 3f 56 e4 3f e5 f6 70 d5 f2 69 d3 bf
       0.6355282566897771 -0.3033415874850632
000470 0c 20 55 3f 93 a2 ad 3f 32 5f f5 24 57 34 e4 3f
       0.05788097522832922 0.6313892099233043
000480 68 f4 a5 10 21 8b c6 bf c6 b2 4e 09 6d e8 c0 3f
       -0.17612088501838064 0.13209307627166406
000490 36 8c ee 97 0a e5 d7 3f 4e c7 87 70 19 3b eb 3f
       0.37335457646458126 0.8509642789706306
0004a0 ae 0b 2c 2a 1a b9 d1 bf 9d 33 ba bd b1 6f b7 3f
       -0.2769227420650918 0.09154806978240378
0004b0 3f 7e 75 8d 5e fd df bf 59 89 b4 ad 9e 31 9b bf
       -0.49983943762160615 -0.026556472160458842
0004c0 90 40 4d c8 33 13 ab bf 3a ce 19 f0 4c 23 e1 3f
       -0.05288087673273012 0.5355591477841195
0004d0 74 d3 95 9f 34 88 a7 bf 3c f5 a5 db 3b c0 d1 3f
       -0.0459610409551833 0.2773580212595623
0004e0 d4 68 ad f4 99 84 84 3f a9 37 1b 32 ff 89 01 40
       0.010018542079411587 2.1923812784725283
0004f0 57 f1 ae ba 28 f8 01 40 6b 32 7d d1 e5 8a b7 3f
       2.246171434844807 0.09196316112974905
000500 df 53 5e 56 ca 6c b7 3f af f2 17 df f6 c9 b0 3f
       0.09150375946622046 0.06558173128719134
000510 9c 7b d5 4d 59 82 85 3f bf 94 56 53 de 09 b4 bf
       0.010502526939203886 -0.07827558073639106
000520 08 7e a2 92 3a 51 bb bf f0 00 e1 c1 10 45 bc 3f
       -0.10670820312451934 0.11042885526058277
000530 99 6d 1a c5 10 46 a2 3f fb 2a 09 9f 6d a1 73 3f
       0.03569080740018222 0.004792621810859594
000540 f4 d0 80 28 4c 30 a9 bf 92 d0 67 e2 83 a0 81 bf
       -0.049196605629193174 -0.008606939646576248
000550 36 a9 6c d5 b7 3b b0 bf bc 6c e6 10 75 45 a2 3f
       -0.06341122589643508 0.0356861670618058
000560 0a 4e f7 89 a8 05 a8 bf cd c3 ce 03 14 3f b0 3f
       -0.046918169824177694 0.06346249669037647
000570 46 74 27 16 05 25 98 3f 62 d7 7f d7 9b 57 95 bf
       0.02357871959417348 -0.020842013385809273
000580 ce fb 39 4d c7 08 70 3f 94 ef bb 92 e2 99 c6 bf
       0.003914621851094103 -0.17657119908096475
000590 7b 56 11 99 8f 25 ca 3f eb 98 3c 0e 73 79 ac 3f
       0.20427126859674502 0.05561408566272682
0005a0 25 4d 76 c8 22 1f c4 bf b7 7e f3 c0 fa b6 bd bf
       -0.15720019138516608 -0.11607329569550982
0005b0 bb ed 7a 58 a8 cb ab 3f 96 71 0e a8 0f 3f ad bf
       0.054288159180454675 -0.057121743454646864
0005c0 9b 9b 92 ab 7f 32 83 bf 54 24 bf 28 e9 89 7b 3f
       -0.009373662398798823 0.0067233188419289665
0005d0 00 00 00 00 00 00 00 00 00 00 00 00 00 00 00 00
       0.0 0.0
0005e0 00 00 00 00 00 00 00 00 00 00 00 00 00 00 00 00
       0.0 0.0
0005f0 00 00 00 00 00 00 00 00 00 00 00 00 00 00 00 00
       0.0 0.0
000600 01 ae 1f 92 56 71 8e bf bd 28 21 be 79 e2 a0 3f
       -0.01486461289819996 0.03297787137906159
000610 69 b8 78 88 ac 82 8f 3f ec 1e bd 31 5b 53 a8 3f
       0.015385959543973553 0.04751095754778398
000620 4f f1 ef 73 40 ca b1 bf 3a 56 22 33 7f 11 e0 bf
       -0.06949236708164118 -0.5021358488763277
000630 18 91 74 22 e1 ab ab 3f da bc 8a 17 e4 23 c2 3f
       0.054045710998510355 0.1417203059149646
000640 5a d7 04 ed 48 2f df 3f 53 df ea c1 93 93 be 3f
       0.48726103922250774 0.11943934902489887
000650 2d fc 6a 09 f7 15 98 3f fa df a6 f3 fb fb 9a 3f
       0.02352128977758754 0.026351868387536094
000660 d0 ab 06 72 a6 21 c8 3f 52 2b 0f 2b f6 e8 ce bf
       0.18852692191771192 -0.2414844236612575
000670 e5 44 c1 a8 85 c3 ed bf a7 b5 c6 33 dd 66 cb 3f
       -0.930117444610144 0.214076662331917
000680 62 0e d3 d6 47 bb cd 3f 63 38 e1 06 0e a1 ee 3f
       0.23227785100435755 0.9571600088472788
000690 9d a8 97 12 a4 02 c6 3f 64 9f a0 21 98 de d6 bf
       0.17195559413750497 -0.3573360756295101
0006a0 bc ee 68 e1 76 bd a5 3f 47 a1 df 3f 76 c3 90 3f
       0.04246112348161321 0.01637062802174796
0006b0 e0 4c 0d cd 81 c3 d0 3f b1 50 9a 8b 46 87 b8 bf
       0.2619328024349681 -0.0958141413523801
0006c0 bc 93 73 86 e0 03 94 bf 0c 24 f1 8e c6 86 c9 bf
       -0.019546039778010046 -0.19942552547061643
0006d0 b0 03 28 59 75 9f b4 bf 8f 92 5f 1a d9 73 b5 bf
       -0.0805581419626964 -0.08379895109062317
0006e0 9c 30 34 8a 55 67 bc 3f 13 2d 5d 32 32 54 bc 3f
       0.11095175384633865 0.1106597302397641
0006f0 80 bb 8c ef f9 96 bc 3f d6 a9 64 90 f6 f5 a5 3f
       0.1116787156904433 0.04289217484104639
000700 83 eb 72 a9 fb a6 da bf 2d f8 e5 1a 0f db bb 3f
       -0.416441836812446 0.10881132513711185
000710 b1 4d c9 fc 6f e4 b0 bf db ff 70 4e f4 32 e8 bf
       -0.06598567887822672 -0.7562200100001023
000720 9f 58 d7 98 35 ad b8 bf 2f c4 0b a7 3f 46 b7 bf
       -0.09639296514009964 -0.09091565922041477
000730 ae e4 15 1d 6f 1f c8 bf e6 3e cd fb 79 3b be bf
       -0.1884592906970161 -0.11809503934386675
000740 00 54 c2 09 50 15 aa 3f 95 b4 7b 31 5b f2 e0 bf
       0.05094385260705536 -0.529584499976084
000750 ae 20 e9 9e b5 64 c2 bf 17 d3 e1 dd a3 48 ac 3f
       -0.14369840869244882 0.05524170001527844
000760 fc ef f3 8f 30 8e e6 bf ba 5e e0 c1 af a4 93 bf
       -0.7048571406917286 -0.019182916839865817
000770 57 a7 4d 3f 63 a3 b7 bf 6a 31 25 0c 60 a0 d5 bf
       -0.09233684821597642 -0.3379135244947721
000780 a9 32 25 45 07 40 dd bf 6c 44 9b 12 d5 1f c9 bf
       -0.4570329833266365 -0.196283945164882
000790 c5 4b 13 84 bf 03 e4 bf e5 28 80 a9 ba 79 cb bf
       -0.6254575328442732 -0.21465237881086022
0007a0 b6 e1 12 82 43 e5 b0 bf c9 a1 33 33 7a 38 e0 bf
       -0.06599828649166892 -0.5068942070038754
0007b0 75 1e db 59 90 a9 d7 bf f6 62 6b a9 7d e5 ae bf
       -0.36972435736649994 -0.06034462636097786
0007c0 ac 9b 14 b9 78 59 b4 bf 14 54 27 41 c9 28 c2 bf
       -0.07949022787634757 -0.14186969453172138
0007d0 01 70 5f 2c 70 fa b5 bf da 53 c5 5a 3f 56 e4 bf
       -0.08585263331718808 -0.6355282566897771
0007e0 e5 f6 70 d5 f2 69 d3 bf 0b 20 55 3f 93 a2 ad bf
       -0.3033415874850632 -0.05788097522832921
0007f0 32 5f f5 24 57 34 e4 bf 67 f4 a5 10 21 8b c6 bf
       -0.6313892099233043 -0.1761208850183806
