data/amass/ACCAD/Male2Walking_c3d/B24 -  walk to crouch_poses.npz (npz, 980816 bytes, 5 tensors)

trans f8 [733, 3]
3.4775289705681423 -2.974589889494762 0.8591967969582199 3.4774186403078495 -2.9748599799730773 0.8591295878008397 3.4774070816065734 -2.974959461902511
0.8592019880848473 3.4772094368556923 -2.975047047967745 0.8592582051442716 3.476714701509282 -2.975017670579065 0.8591064124414456 3.476194712671296
-2.975001543751284 0.8587815041371207 3.4757532002249087 -2.9748419477695323 0.8586177101948101 3.4751222013081846 -2.9745289298398925 0.8584571694234578
3.4746234997882848 -2.9744685163862608 0.857966744544577 3.474049273002485 -2.9744715375520157 0.8578739046972393 3.4733195212116894 -2.974636686987168
0.857985339224652 3.4730662343894494 -2.9744568220860397 0.8579410784522425 3.4725463644935344 -2.9748806363774687 0.857894264183738 3.4724157002359197
-2.9750579997090743 0.8578361130079741 3.4723940609775568 -2.975287169235301 0.8578975663848464 3.4721179559201425 -2.975457699870478 0.8579533575180716
3.471954447566939 -2.97522860343991 0.8576441006038843 3.4715110375884595 -2.9752973323741467 0.8576858547297688 3.471123400661219 -2.975183799119252
0.8575965615251708 3.4676774414502023 -2.9750670343238115 0.8574059171073957 3.4672573417504067 -2.97545779072539 0.8578082040666001 3.4668058137455766
-2.975883021040416 0.8579201133593684 3.466179402017854 -2.976509050551015 0.8580526724428639 3.46559082029288 -2.976882383018348 0.8580387063720577
3.4652900407804506 -2.977196049345276 0.8579014646490187 3.4646979735542964 -2.9775453174949207 0.857828597835548 3.463797523292833 -2.97785396148852
0.8572125582568658 3.4628543934891733 -2.9782433137312427 0.8572508394306491 3.461606226377123 -2.9784702506272858 0.8573553451406641 3.4604035692916986
-2.9787051017804447 0.8573511653414756 3.459612519768945 -2.978871899135642 0.8575020347022299 3.458673713305691 -2.9788937025037883 0.8573297557231647
3.457028817032577 -2.978664503007711 0.8570273178856773 3.455251530872594 -2.9784581213941004 0.8570291564266876 3.4537985149945034 -2.978672308934101
0.8572370989886509 3.452676743536813 -2.9790480514893227 0.8573827247794358 3.4515378767187674 -2.9792419497424563 0.8575251612498389 3.4504919949556307
-2.979380025377597 0.8575148080616185 3.449221899697978 -2.97974083815802 0.8573760714755937 3.448013792755134 -2.980437963759909 0.857402840611999
3.44667754501595 -2.9801672247736333 0.857236319373759 3.445729879059202 -2.980232883046163 0.8570146007075343 3.4431856986080724 -2.9795846659100107
0.8567198931601434 3.441569427750945 -2.9797572926673617 0.856631691142743 3.4408047628094742 -2.9800668254757343 0.8567265159533703 3.439607013315145
-2.9801468857658517 0.8566550512699322 3.4381353399777774 -2.980536159389453 0.8563846681189968 3.4368908198424855 -2.9812029234524817 0.8561111700923697
3.435290573833848 -2.9816401944918205 0.8562945203008332 3.4337437993252506 -2.982093062444225 0.8568271943102036 3.432212346690594 -2.982620304465521
0.8570413905288046 3.429628906035843 -2.9822087102889867 0.8567247442558868 3.42828099916952 -2.9818607869219504 0.8563039923660757 3.427102015678222
-2.9821808439165425 0.8560971986556861 3.4256025224495588 -2.9828542905788935 0.8559673516968966 3.4243317313034365 -2.9831962991868104 0.8557720042895957
3.4225248487831683 -2.983112194506535 0.8551161936506773 3.420819381430048 -2.9832863830259466 0.8550576311119847 3.420169335319533 -2.983676703708329
0.8547103957377158 3.4191792358954323 -2.983385871106456 0.8546166554885131 3.417914727609606 -2.9832680322482132 0.8549307388851008 3.4171941136510493
-2.9827510053392183 0.8555381733587138 3.415541698226633 -2.9815661294369384 0.8553402597781468 3.4133956752036405 -2.980753171059618 0.8550036347079417
3.4116627817514185 -2.9807231111957733 0.8549699843200902 3.410274261509824 -2.9796372940542932 0.8549121178044422 3.408434911237211 -2.978586526827892
0.8551383060855549 3.4062756662909806 -2.9777688687914674 0.85530959693251 3.4037370667900935 -2.976939612689559 0.8550721475087693 3.4013530894988233
-2.9755116705314006 0.8548923247859102 3.3990138393577447 -2.9742971523519453 0.8546065308129533 3.396709265137112 -2.9733178633316064 0.8544869982858737
3.393618158465801 -2.9724499884866495 0.8544660819215211 3.390530577987631 -2.9713860500552727 0.8546583113348141 3.3872193346906974 -2.9697942078902724
0.854759276292532 3.384191804264732 -2.968150256543936 0.8546051151781896 3.382147762232848 -2.9672208492792 0.8545999209338241 3.378618859848561
-2.9653273388337187 0.8543422333078137 3.376362777308525 -2.9637979147284077 0.8542213260588105 3.37353859514417 -2.9616926163759874 0.8539066573553056
3.370057791618082 -2.9596945779977157 0.8532891093196798 3.3672854917324506 -2.957882547742338 0.8527255100201536 3.3600669479235687 -2.950512613734487
0.8516271013549233 3.3566262766761947 -2.9510111855940004 0.8508423324667373 3.3528098591485387 -2.95023375996877 0.8499662644110086 3.3486851918147376
00000000: 9bdc 7bb5 fad1 0b40 5823 b3c8 f5cb 07c0
00000010: a66e f847 8a7e eb3f e8fb 34dd c0d1 0b40
00000020: 044f a163 83cc 07c0 9b2d 5455 fd7d eb3f
00000030: 4408 d3cd bad1 0b40 5860 de8b b7cc 07c0
00000040: 7771 ef2a 957e eb3f 2a1a 652e 53d1 0b40
00000050: 97a9 7877 e5cc 07c0 fe41 3d10 0b7f eb3f
00000060: c409 24cc 4fd0 0b40 0346 8110 d6cc 07c0
00000070: 6409 27bb cc7d eb3f 559c 6b2c 3fcf 0b40
00000080: b2b0 ff9b cdcc 07c0 46b7 5559 237b eb3f
00000090: 7277 9fb1 57ce 0b40 3d83 63ef 79cc 07c0
000000a0: 1fb3 21d9 cb79 eb3f 07c7 61de 0ccd 0b40
000000b0: 8258 d5d2 d5cb 07c0 6f18 762b 7b78 eb3f
000000c0: ac07 cc67 07cc 0b40 92e2 4626 b6cb 07c0
000000d0: 45fc 9bac 7674 eb3f efe7 6158 daca 0b40
000000e0: 9659 c5bb b7cb 07c0 df86 98f9 b373 eb3f
000000f0: f94c c1be 5bc9 0b40 c0bb c051 0ecc 07c0
00000100: e75a 8dab 9d74 eb3f 405b 2cf3 d6c8 0b40
00000110: ffc9 b104 b0cb 07c0 821d 3bd9 4074 eb3f
00000120: 56bf 6a63 c6c7 0b40 8cf5 1538 8ecc 07c0
00000130: 610b 03ac de73 eb3f ae0a f5e1 81c7 0b40
00000140: 14a1 6335 ebcc 07c0 e64d 56b8 6473 eb3f
00000150: 30c9 9589 76c7 0b40 a097 005c 63cd 07c0
00000160: e31b de98 e573 eb3f 4540 64c7 e5c6 0b40
00000170: c799 3cc4 bccd 07c0 8a12 8199 5a74 eb3f
00000180: 9503 ac0d 90c6 0b40 722f 6fa7 44cd 07c0
00000190: bb6e 760a d271 eb3f e729 3194 a7c5 0b40
000001a0: 4f62 13b0 68cd 07c0 18cc 099b 2972 eb3f
000001b0: 0dc3 7158 dcc4 0b40 2473 e629 2dcd 07c0
000001c0: 8434 1d58 6e71 eb3f 37d8 a0ab cdbd 0b40
000001d0: baa0 fef1 efcc 07c0 dbf0 ab88 de6f eb3f
000001e0: 3612 cd6a f1bc 0b40 095a 6ed0 bccd 07c0
000001f0: fd9b d630 2a73 eb3f 98f5 bcaf 04bc 0b40
00000200: deb8 e0c1 9bce 07c0 f2b0 aee1 1474 eb3f
00000210: 58e2 2d44 bcba 0b40 beea 22fa e3cf 07c0
00000220: 6866 cce0 2a75 eb3f 4dce 13ae 87b9 0b40
00000230: 9dd1 f8b5 a7d0 07c0 8b3e d296 0d75 eb3f
00000240: cc73 22fc e9b8 0b40 35bf 8d29 4cd1 07c0
00000250: 0775 bbc5 ed73 eb3f 2577 3792 b3b7 0b40
00000260: 2dfd 8747 03d2 07c0 f2de a8f5 5473 eb3f
00000270: 7111 d479 dbb5 0b40 9fdb 0619 a5d2 07c0
00000280: 25e1 ed07 496e eb3f 6fc4 1601 edb3 0b40
00000290: 040d 003b 71d3 07c0 8857 fa4f 996e eb3f
000002a0: 945b ef9a 5eb1 0b40 c86c f435 e8d3 07c0
000002b0: 1cc2 0d7a 746f eb3f 5e8e 0811 e8ae 0b40
000002c0: 579a 2457 63d4 07c0 3488 0ab6 6b6f eb3f
000002d0: 0eeb 2954 49ad 0b40 8416 4eca bad4 07c0
000002e0: c995 691b a870 eb3f 6c76 b11f 5dab 0b40
000002f0: ed1c b438 c6d4 07c0 46ff d6cf 3e6f eb3f
00000300: 3ae0 73b9 fea7 0b40 c964 110e 4ed4 07c0
00000310: 601f c38d c46c eb3f ef69 24ea 5aa4 0b40
00000320: 6525 ffd9 e1d3 07c0 6246 d268 c86c eb3f
00000330: 81ff a61d 61a1 0b40 70fb c225 52d4 07c0
00000340: 9a5f 227f 7c6e eb3f 0034 09fc 149f 0b40
00000350: 92df 1225 17d5 07c0 4fa8 62e5 ad6f eb3f
00000360: 914c ebe3 bf9c 0b40 fa1e a8cd 7cd5 07c0
00000370: fe15 629b d870 eb3f c98d 0b8c 9b9a 0b40
00000380: c6d1 da31 c5d5 07c0 57bb 0ee5 c270 eb3f
00000390: 68cc bea6 0198 0b40 fa8d 535d 82d6 07c0
000003a0: 4f8a 6bf1 9f6f eb3f 6052 6041 8895 0b40
000003b0: 5bd8 f0db efd7 07c0 17a2 fd14 d86f eb3f
000003c0: cc9b 3dad cb92 0b40 561c f8e9 61d7 07c0
000003d0: 29eb 94dc 7a6e eb3f 4346 abd3 da90 0b40
000003e0: 2f2d 7956 84d7 07c0 ac77 47e2 a96c eb3f
000003f0: d89c 8cf1 a48b 0b40 00f9 3d7c 30d6 07c0
00000400: e292 5ed6 3f6a eb3f 78d4 588d 5588 0b40
00000410: c830 d0fd 8ad6 07c0 ae9b 45dd 8669 eb3f
00000420: 7880 c1a5 c486 0b40 a780 9a46 2dd7 07c0
00000430: 0c58 f4b9 4d6a eb3f 0c3f 8aae 5084 0b40
00000440: e91f 1d40 57d7 07c0 c00a a5da b769 eb3f
00000450: 4269 e319 4d81 0b40 33fc 8857 23d8 07c0
00000460: b0bd cbd1 8067 eb3f 382b 399d c07e 0b40
00000470: 77be 17eb 80d9 07c0 472f a940 4365 eb3f
00000480: d4fc d69f 797b 0b40 6840 9e2c 66da 07c0
00000490: 6cf4 0dc4 c366 eb3f d38e 47ab 4e78 0b40
000004a0: 889c 869b 53db 07c0 2958 3cdd 206b eb3f
000004b0: 47b5 2fbf 2b75 0b40 1285 c008 68dc 07c0
000004c0: 7077 f410 e26c eb3f bcb8 a647 e16f 0b40
000004d0: e04c 843d 90db 07c0 8f18 c802 4a6a eb3f
000004e0: 4973 a796 1e6d 0b40 d36f 08d4 d9da 07c0
000004f0: 5db0 54a1 d766 eb3f 2e26 2b76 b46a 0b40
00000500: aa08 5ba1 81db 07c0 638c cdf3 2565 eb3f
00000510: b020 984b a267 0b40 3328 d6b5 e2dc 07c0
00000520: bc6b bfa4 1564 eb3f 99d3 e408 0865 0b40
00000530: d571 7405 96dd 07c0 ab32 68f8 7b62 eb3f
00000540: 1e2b 3ab5 5461 0b40 87a2 1ded 69dd 07c0
00000550: 264f c0a2 1c5d eb3f bb1e 468d d65d 0b40
00000560: ac96 4d40 c5dd 07c0 5347 3ad2 a15c eb3f
00000570: ebd5 8fbd 815c 0b40 661d 42e4 91de 07c0
00000580: a4d4 a79d c959 eb3f 4baa aaa4 7a5a 0b40
00000590: 6f01 5e69 f9dd 07c0 fe14 3e07 0559 eb3f
000005a0: d0cc 3cad e357 0b40 b3aa 4da1 bbdd 07c0
000005b0: 7669 7bb5 975b eb3f 3fb8 11de 6956 0b40
000005c0: 3258 208f acdc 07c0 a5c4 6197 9160 eb3f
000005d0: c00f a086 0753 0b40 f857 c657 3fda 07c0
000005e0: 8a60 5689 f25e eb3f b575 4a64 a24e 0b40
000005f0: e031 591e 95d8 07c0 0404 2195 305c eb3f
00000600: 63d2 44db 154b 0b40 4323 c85b 85d8 07c0
00000610: eaec 3603 ea5b eb3f 1a9a 3cdf 3d48 0b40
00000620: b23d df13 4cd6 07c0 df92 5da8 705b eb3f
00000630: c777 d285 7944 0b40 9541 482c 25d4 07c0
00000640: ac37 4602 4b5d eb3f 000b df74 0d40 0b40
00000650: d60c 147c 78d2 07c0 5af6 583b b25e eb3f
00000660: 115f d07f da3a 0b40 3759 35b7 c5d0 07c0
00000670: 2ea9 a843 c05c eb3f 395e cc9b f835 0b40
00000680: b963 0e10 d9cd 07c0 14d2 1126 475b eb3f
00000690: 158b f52a 2e31 0b40 1280 2f4e 5ccb 07c0
000006a0: d244 99cb ef58 eb3f d045 3ee8 752c 0b40
000006b0: 8bf9 3ce0 5ac9 07c0 55d7 0f1e f557 eb3f
000006c0: 65c7 ed46 2126 0b40 ab5d 0cdc 93c7 07c0
000006d0: 349d ac40 c957 eb3f dc5b e47e ce1f 0b40
000006e0: 6039 a60c 66c5 07c0 ec00 0e63 5c59 eb3f
000006f0: de00 5773 0619 0b40 5ce9 3577 23c2 07c0
00000700: 3421 3420 305a eb3f 83aa 1527 d312 0b40
00000710: 00c3 cb8f c5be 07c0 8de8 95d3 ec58 eb3f
00000720: c23c 687c a30e 0b40 de4e dd48 debc 07c0
00000730: 1366 f2ee e158 eb3f 4796 2553 6907 0b40
00000740: e4cd 318a fdb8 07c0 d6c1 f485 c556 eb3f
00000750: 57c6 df7c ca02 0b40 2bb1 5dae dbb5 07c0
00000760: acfc 5ef6 c755 eb3f 0381 8fcd 01fd 0a40
00000770: c71d 01e6 8bb1 07c0 d8af e50d 3453 eb3f
00000780: 8309 05dc e0f5 0a40 8f30 d559 74ad 07c0
00000790: a9f3 51f6 244e eb3f 0b4a 3a60 33f0 0a40
000007a0: 33b3 3f53 bea9 07c0 200c 4002 8749 eb3f
000007b0: 3c9e adc7 6ae1 0a40 9c66 735b a69a 07c0
000007c0: 109d 967a 8740 eb3f 7fbf 99e0 5eda 0a40
000007d0: 250d a2c0 ab9b 07c0 64e7 ffb2 193a eb3f
000007e0: a6fe b5f9 8dd2 0a40 c5f7 5428 149a 07c0
000007f0: 7e27 8b73 ec32 eb3f df8c 3b76 1bca 0a40

mocap_framerate f8 []
120.0
00000000: 0000 0000 0000 5e40

betas f8 [16]
-0.10177492401008648 -0.7784032910200543 0.7851509561351558 1.0612141781064566 0.7366055528640801 -0.5779045599249427 0.5216004847528668 -0.3107671876829067
0.19804836199574902 0.06637032945775724 -0.13347498444642367 -0.04142319662286859 -1.01038264458324 -0.36964670654258414 0.49680678050037697 0.15339102705212385
00000000: e01b 2de2 eb0d babf f9f4 c004 aee8 e8bf
00000010: 89c1 e0e5 f41f e93f cd4c d0b7 bbfa f03f
00000020: 9b4d f3ce 4592 e73f e5c7 22b4 317e e2bf
00000030: 02ec f27f f3b0 e03f 8e26 f10e 9ce3 d3bf
00000040: 8328 e612 a659 c93f c920 725a a5fd b03f
00000050: 2308 8452 b515 c1bf b9fd 94d5 6b35 a5bf
00000060: 68e5 eefd 862a f0bf 242b eba8 4aa8 d7bf
00000070: e687 abaa aecb df3f 1528 5832 51a2 c33f

dmpls f8 [733, 8]
-0.056450364090181525 -0.4444807963143116 -0.4880219770462409 -0.4939984019964926 -0.18925404239075283 0.6529338075602669 -1.0312503955683754 0.18555714055025074
-0.056585335691342574 -0.5613484224813488 -0.5449543396231666 -0.5770561681555 -0.17991989611829853 0.7381853485976959 -1.1730222619486677 0.14748092627775827
-0.07775543923669938 -0.6127983316325094 -0.6095435339244197 -0.6310798056079856 -0.18843732855788523 0.7917301337055306 -1.2898646473675168 0.14483480886078728
-0.08492175289596549 -0.6062752953532009 -0.6511455859230071 -0.6656767784498736 -0.19605088196149353 0.8111627249719006 -1.3587447869733713 0.16302193137923027
-0.14283423444559673 -0.6618362357540107 -0.5780855830879025 -0.6970549906310656 -0.29342768175090683 0.7816334924021168 -1.3957083908331795 0.18346759673236257
-0.1689543855411709 -0.6813759260509337 -0.5510274480488055 -0.7276480920924249 -0.37575993305473837 0.7739537143241139 -1.4233915658387295 0.20316456269529373
-0.18148803158692253 -0.6826398474156166 -0.5310390369976139 -0.7558924360678736 -0.43300264064836763 0.7826351636395887 -1.442674325082913 0.2121879750729008
-0.22448310727684445 -0.6699718340413308 -0.5479998705565897 -0.7669615412286209 -0.5207776521362306 0.780224162192039 -1.4575379184710013 0.2405869102568477
-0.23659270584675227 -0.6563156502689977 -0.545351992056132 -0.7720520366694508 -0.5410857212522888 0.7765812588805784 -1.4497994434255836 0.251681160366784
-0.24502040203137654 -0.6430784103130484 -0.5435473396115932 -0.7842782201145114 -0.5624483613171704 0.7759536731641582 -1.442269353399593 0.2596164023213379
-0.2324670377433986 -0.6001575283333772 -0.5058037750977046 -0.8454450489185024 -0.6010061410561193 0.7743718946390443 -1.417705351772089 0.2526353253581434
-0.25238338033376767 -0.5492173208547958 -0.5286970733234267 -0.843710653206101 -0.6585375489849133 0.7517573652489041 -1.4031808101447054 0.2728583438478404
-0.24664290773711905 -0.5470399389339115 -0.5196244146712523 -0.8846404443696088 -0.6895590668284388 0.7710782637831749 -1.407461216339241 0.26851250001520366
-0.26620552747668014 -0.537928585625249 -0.5299528266970792 -0.8754046146517235 -0.7049961523948393 0.7698299837849258 -1.4032836405807436 0.27559201485006135
-0.2709695493940066 -0.5349558241477618 -0.5329031599293393 -0.872821977599459 -0.7073803433955647 0.7706680907870478 -1.4012017315687222 0.2772097490283032
-0.2748047130403299 -0.5325081836519875 -0.5372359213587848 -0.8705116533508771 -0.7105304587004568 0.7717288571651622 -1.4001811009196692 0.27917155030799956
-0.274816273707143 -0.532502384083565 -0.5372326881183155 -0.8705055868433077 -0.7105278270428297 0.7717302963630244 -1.4001729246530112 0.2791726338980386
-0.27486002540989474 -0.5324732395238871 -0.5372400695485919 -0.8704836432254218 -0.7105417757598479 0.7717353391713754 -1.4001442820927053 0.27918531123777024
-0.27490408706759284 -0.532448051155565 -0.537274672338768 -0.8704880925936453 -0.7105894204373556 0.7717384216825806 -1.4001325676599452 0.27922115339702247
-0.43657975618102024 -0.5330763040166286 -0.4707408325637194 -0.8261304693783739 -0.6684864392012431 0.8633191562628401 -1.3070649832140915 0.31227603507592394
-0.4654061429004392 -0.5132883503940652 -0.37020583738691354 -0.7755807470839187 -0.6197241845079272 0.9219797645482223 -1.2604077466219565 0.3190494926992351
-0.4163130847661388 -0.5103604469199352 -0.280891435357721 -0.7500111110738183 -0.6013954116181722 0.9793288980048265 -1.2400229727551115 0.3146072255492344
-0.32364158098082374 -0.530344496996581 -0.251172284920844 -0.7335487148889115 -0.637109467354034 1.0094419595543913 -1.2733011852014742 0.34148119794946036
-0.25900529398522554 -0.5879451129748205 -0.24862740679800563 -0.7273289072850223 -0.6842304616734003 1.0248541521410772 -1.3037643197743038 0.3805703843609186
-0.24543423155316457 -0.5926781941209769 -0.25927088376791324 -0.7294409415297622 -0.703091090484506 1.0330776733060623 -1.311324663645354 0.3932037520469004
-0.21997008048402406 -0.5612456995376273 -0.24744036290181182 -0.7489776169344458 -0.7354216854688121 1.0671349385998992 -1.302773664713649 0.39297051991508014
-0.19347292080132197 -0.4994227588315464 -0.14416043535598655 -0.8347232049382474 -0.7993214137036355 1.0839101589335298 -1.2048388213666483 0.41756123154936897
-0.207969719745945 -0.4663991364412915 -0.0659503282167484 -0.8851403936803597 -0.826891854404248 1.0953978855818474 -1.1063387998521217 0.4347969843855206
-0.21406454459963303 -0.4675573318295493 -0.03106757858604528 -0.9232293303079105 -0.8655761151014062 1.1149630785987792 -1.0371502713453107 0.442345420947523
-0.2149380333097949 -0.4648470112198471 -0.004258615292517632 -0.9566630283308932 -0.9007659097497721 1.1453885195041436 -0.9787069776756003 0.44445756631701344
-0.23146892576093708 -0.43033136841317227 0.040007868260189955 -0.9355789949698098 -0.913449365917201 1.1561351820316852 -0.9408593386293099 0.44448332237916083
-0.22677220003201828 -0.3934811522130168 0.09182451967476539 -0.9298496203761357 -0.9465244798357162 1.1658442763210632 -0.9014393221469197 0.4416758223858121
00000000: cbaf 3ae7 0fe7 acbf 2cae f794 5f72 dcbf
00000010: bd24 c987 c03b dfbf 027a 3679 ab9d dfbf
00000020: 541f 5af9 7939 c8bf 4292 bd70 d5e4 e43f
00000030: 7440 2f6a 0080 f0bf e0ee 191d 56c0 c73f
00000040: 9b7a 74cc c0f8 acbf a4fe 86f7 90f6 e1bf
00000050: 38d5 4f15 4470 e1bf b8da 457f 3e77 e2bf
00000060: dd28 dd7a 9d07 c7bf 7ea1 53e1 369f e73f
00000070: a4ca c8fd b2c4 f2bf fec8 92ad a7e0 c23f
00000080: c994 9bcc c7e7 b3bf aef5 2c3f 0b9c e3bf
00000090: 6032 f670 6181 e3bf 2213 c846 ce31 e4bf
000000a0: 7d38 c0e1 b61e c8bf 19bc f06e da55 e93f
000000b0: 655c cb1c 49a3 f4bf 3593 b06f f289 c23f
000000c0: f83b 6897 6ebd b5bf 8a45 bd72 9b66 e3bf
000000d0: 9c2b 8f44 2fd6 e4bf 56c3 2463 394d e5bf
000000e0: 7b33 30ff 3118 c9bf 3fa2 ef87 0bf5 e93f
000000f0: ef93 7a2c 6bbd f5bf 80fb e613 e7dd c43f
00000100: 5cb5 d866 6448 c2bf 0de1 7b2f c32d e5bf
00000110: 2bda 3456 ad7f e2bf b7c4 8844 464e e6bf
00000120: 921e 37e6 84c7 d2bf 5169 ea3d 2403 e93f
00000130: c619 5652 d254 f6bf e4ac ebbf dd7b c73f
00000140: 2322 351c 4ca0 c5bf 8774 d5e2 d4cd e5bf
00000150: b82c 9250 04a2 e1bf 9214 d1a6 e448 e7bf
00000160: 0981 e763 730c d8bf 3579 7494 3ac4 e83f
00000170: 89df 0a3c 36c6 f6bf 35c0 3de0 4b01 ca3f
00000180: e9ff 23f4 ff3a c7bf 8e16 7385 2fd8 e5bf
00000190: 12bb 1994 45fe e0bf b891 8655 4530 e8bf
000001a0: f5a5 2ab5 50b6 dbbf 3603 11e6 580b e93f
000001b0: e528 50ac 3115 f7bf 0173 c5be f928 cb3f
000001c0: be16 21ca dcbb ccbf 625b 8ec5 6870 e5bf
000001d0: d316 4806 3789 e1bf ddbb 1bee f28a e8bf
000001e0: 7435 0de5 35aa e0bf e93d 85a9 98f7 e83f
000001f0: b234 c847 1352 f7bf 720d b347 8dcb ce3f
00000200: d7be 0a77 ab48 cebf 2644 b8ad 8900 e5bf
00000210: b410 5605 8673 e1bf 86c6 0979 a6b4 e8bf
00000220: 908e a300 9350 e1bf d783 b2f0 c0d9 e83f
00000230: a359 b4e6 6032 f7bf dadb 324c 8b1b d03f
00000240: a4ec c91a d45c cfbf dfdc a12c 1994 e4bf
00000250: 07b5 ee63 bd64 e1bf db6b 4ba3 ce18 e9bf
00000260: 2579 b1b4 93ff e1bf ad6f 2ecc 9cd4 e83f
00000270: 35fd 8d07 8913 f7bf b96b 5e1d 8e9d d03f
00000280: 28c1 40da 7ac1 cdbf 477b 948f 7d34 e3bf
00000290: 899d 0766 8b2f e0bf 5c71 75c6 e20d ebbf
000002a0: 8dff 103b 713b e3bf f251 4d91 a7c7 e83f
000002b0: d29a 93ce ebae f6bf 1b90 0e5b 2d2b d03f
000002c0: f998 259f 0c27 d0bf 91fa ee33 3093 e1bf
000002d0: f147 ed1f 16eb e0bf f4d2 d97b adff eabf
000002e0: 9f80 8256 bd12 e5bf 6dad 4876 650e e83f
000002f0: 0624 9fb8 6d73 f6bf c319 d1d7 8276 d13f
00000300: 08b9 42ab fe91 cfbf ad76 eae6 5981 e1bf
00000310: e0ea 6661 c3a0 e0bf 002a 297a f94e ecbf
00000320: 9007 162d de10 e6bf c75d b352 acac e83f
00000330: f70b 690d f684 f6bf de7a 880d 4f2f d13f
00000340: 9cb6 a1e8 8209 d1bf e301 5b02 b636 e1bf
00000350: 56c6 62a1 5ff5 e0bf d54a d689 5003 ecbf
00000360: efee 4a17 548f e6bf 56c4 7a7d 72a2 e83f
00000370: d6e5 f48b d973 f6bf f276 b4b0 4ca3 d13f
00000380: bdfb 36aa 9057 d1bf a19e 30ad 5b1e e1bf
00000390: 399c 7aed 8a0d e1bf 8ea1 205b 28ee ebbf
000003a0: 4df3 161a dca2 e6bf 4009 c020 50a9 e83f
000003b0: cffa c281 526b f6bf 1c5f 8df5 cdbd d13f
000003c0: 57df d281 6696 d1bf 9d67 349a 4e0a e1bf
000003d0: f91d 0f63 0931 e1bf 99b9 3d41 3bdb ebbf
000003e0: 5ac5 5d5f aabc e6bf 26ec 5cb7 00b2 e83f
000003f0: 09d6 4e4c 2467 f6bf 7af9 a259 f2dd d13f
00000400: d6c4 fefe 9696 d1bf 48ca 9570 420a e1bf
00000410: 3fee 399b 0231 e1bf ff45 4f88 2edb ebbf
00000420: 3080 81da a4bc e6bf 3ec5 06bc 03b2 e83f
00000430: d711 82b9 1b67 f6bf baef 21e5 f6dd d13f
00000440: 1c3f 0781 4e97 d1bf 3602 b851 050a e1bf
00000450: a4fb 1916 1231 e1bf 5365 6b83 00db ebbf
00000460: eb91 2a1b c2bc e6bf a312 5d4f 0eb2 e83f
00000470: 2650 d4b0 fd66 f6bf 288c 5211 2cde d13f
00000480: b67d df4f 0798 d1bf db06 d17e d009 e1bf
00000490: 8240 55a7 5a31 e1bf 76e8 27d8 09db ebbf
000004a0: 672f 3506 26bd e6bf d92f 46c6 14b2 e83f
000004b0: a19f 4268 f166 f6bf 5a43 8c66 c2de d13f
000004c0: 2329 b937 ecf0 dbbf 64c4 8009 f60e e1bf
000004d0: ef30 3028 9e20 debf 23b2 862a a96f eabf
000004e0: e80a 46ac 3d64 e5bf 4318 c57e 4fa0 eb3f
000004f0: c66b caf8 bce9 f4bf ec70 7e9f 54fc d33f
00000500: 575a c7d8 36c9 ddbf 9187 cbb0 db6c e0bf
00000510: 995d 17d3 73b1 d7bf e63e 04b7 8ed1 e8bf
00000520: e30e 20d0 c7d4 e3bf 5fde 09b5 db80 ed3f
00000530: 9adc 3550 a12a f4bf f4b5 3c90 4e6b d43f
00000540: 92ea fda2 dfa4 dabf 982d 966e df54 e0bf
00000550: 50a0 2512 20fa d1bf 885b 364d 1700 e8bf
00000560: 0daa 1b97 a13e e3bf 9eab 9e8e a956 ef3f
00000570: b759 2454 22d7 f3bf b76e 3458 8622 d43f
00000580: 500e 7c2d 8bb6 d4bf 27d8 c605 95f8 e0bf
00000590: 3462 59eb 3413 d0bf 0010 8f27 3b79 e7bf
000005a0: e53d c864 3363 e4bf b4f0 b79c ac26 f03f
000005b0: ba5f 4610 715f f4bf d113 59f4 d3da d53f
000005c0: fe12 caf0 8a93 d0bf 743c 0245 72d0 e2bf
000005d0: b719 8bda 05d3 cfbf d12f c745 4746 e7bf
000005e0: 380e fa47 37e5 e5bf 0dda a977 cd65 f03f
000005f0: 07f5 b1f9 37dc f4bf be00 aae2 435b d83f
00000600: 607c eb8e 636a cfbf 74a9 9942 38f7 e2bf
00000610: 25a5 a5e7 e497 d0bf 1a7b 8787 9457 e7bf
00000620: 82ad f7e2 b87f e6bf a93c 5174 7c87 f03f
00000630: 4db8 0c92 2ffb f4bf f62d ed11 402a d93f
00000640: e680 e3c6 fa27 ccbf af1c 918a b9f5 e1bf
00000650: e0d3 2f35 20ac cfbf 386c 45e8 9ff7 e7bf
00000660: a972 fb0e 9388 e7bf df49 db15 fc12 f13f
00000670: 2590 c032 29d8 f4bf e4f3 d4d2 6d26 d93f
00000680: 596b c07d b8c3 c8bf 46d0 03e0 8af6 dfbf
00000690: 2c94 9d61 d973 c2bf aa81 4d70 0db6 eabf
000006a0: ee2f 5b80 0a94 e9bf 2cbf c62d b257 f13f
000006b0: f988 6b12 0547 f3bf de3f 65be 52b9 da3f
000006c0: c3fd 6e74 c09e cabf a678 79c3 7bd9 ddbf
000006d0: 60f5 d9e6 1ee2 b0bf 0439 67f2 1153 ecbf
000006e0: 5bd7 ffe7 e575 eabf c5e7 eaee bf86 f13f
000006f0: 7192 3a50 90b3 f1bf 7874 15bb b6d3 db3f
00000700: 72ef 248d 7766 cbbf b6a0 4d96 75ec ddbf
00000710: 48ce f8e7 2dd0 9fbf b52c 8c3c 188b edbf
00000720: 8de5 51ae ccb2 ebbf 8b44 6d86 e3d6 f13f
00000730: 3e73 07e2 2a98 f0bf 5751 202b 634f dc3f
00000740: 5db6 dde7 1683 cbbf 2149 b5ad 0dc0 ddbf
00000750: b490 8556 7b71 71bf fa26 7fc8 fb9c eebf
00000760: 3f43 7707 13d3 ecbf 19bf 87e9 8253 f23f
00000770: 847a af4b 9151 efbf 0da5 f225 fe71 dc3f
00000780: 2a7c 1715 c6a0 cdbf 99c2 7194 8c8a dbbf
00000790: ec37 854b e97b a43f 4509 475c 43f0 edbf
000007a0: 7552 252a fa3a edbf 2a4c c99a 877f f23f
000007b0: 0792 310b 851b eebf 5319 4f2d 6a72 dc3f
000007c0: 49c6 6317 df06 cdbf 403a 1692 cb2e d9bf
000007d0: c359 f9cc cf81 b73f 24d5 b6fd 53c1 edbf
000007e0: 0040 b8b4 ed49 eebf ae71 f053 4ca7 f23f
000007f0: b861 fe46 97d8 ecbf 932e 25ab 6a44 dc3f

poses f8 [733, 156]
0.8191744529009255 -1.6163708166095518 -1.7057146609718703 0.12662785656948886 0.07229999716481897 0.012322665055643413 0.09212363907327326 -0.07671250350677063
-0.04875823540994071 0.09641605969996413 0.028341847572803544 0.0029691087185262184 -0.06557961298417708 -0.020340351398872924 -0.0529353944682344 -0.01693851657184103
-0.05884385623706558 0.046266884127580364 0.09316792234607323 -0.0423571027906868 0.017862115329990186 -0.07111369024000068 0.17565996752188864 0.01741489208386553
-0.16542041943643176 -0.12933922605367185 0.022724450643580942 -0.05664967473832354 -0.01448454033722469 0.012407576169060661 0.0 0.0
0.0 0.0 0.0 0.0 0.029943703031442823 0.010639268784118137 0.012743989598381841 0.051617070285826766
-0.010778659741359518 -0.533372417950787 0.04835352644501651 0.1051220358249413 0.5249136756014212 0.12358978773490488 -0.005692630067383832 0.03506036967423131
0.16885755222162138 -0.18529415166323235 -0.9255364361926379 0.18804360147838542 0.18245533644151757 0.9296411031398661 0.12991578913412602 -0.41501353438150246
0.1010467005171491 -0.044444852136050456 0.4034700018441326 -0.15597968938059517 0.01094367635316223 -0.21738230816493612 -0.12016061916861565 -0.041145736841584124
0.1664739710531041 0.09252338633142501 0.1116787156904433 0.04289217484104639 -0.416441836812446 0.10881132513711185 -0.06598567887822672 -0.7562200100001023
-0.09639296514009964 -0.09091565922041477 -0.1884592906970161 -0.11809503934386675 0.05094385260705536 -0.529584499976084 -0.14369840869244882 0.05524170001527844
-0.7048571406917286 -0.019182916839865817 -0.09233684821597642 -0.3379135244947721 -0.4570329833266365 -0.196283945164882 -0.6254575328442732 -0.21465237881086022
-0.06599828649166892 -0.5068942070038754 -0.36972435736649994 -0.06034462636097786 -0.07949022787634757 -0.14186969453172138 -0.08585263331718808 -0.6355282566897771
-0.3033415874850632 -0.05788097522832921 -0.6313892099233043 -0.1761208850183806 -0.13209307627166406 -0.37335457646458126 0.8509642789706306 0.2769227420650918
-0.09154806978240376 -0.49983943762160615 0.026556472160458842 0.05288087673273013 0.5355591477841196 0.04596104095518329 -0.2773580212595622 0.1116787156904433
-0.04289217484104638 0.41644183681244606 0.10881132513711185 0.0659856788782267 0.7562200100001023 -0.09639296514009964 0.09091565922041477 0.18845929069701614
-0.11809503934386674 -0.05094385260705537 0.529584499976084 -0.14369840869244885 -0.05524170001527845 0.7048571406917286 -0.01918291683986582 0.09233684821597642
0.3379135244947721 -0.4570329833266365 0.19628394516488204 0.6254575328442732 -0.21465237881086027 0.06599828649166892 0.5068942070038754 -0.36972435736649994
0.06034462636097784 0.07949022787634759 -0.14186969453172144 0.08585263331718808 0.6355282566897771 -0.3033415874850632 0.05788097522832922 0.6313892099233043
-0.17612088501838064 0.13209307627166406 0.37335457646458126 0.8509642789706306 -0.2769227420650918 0.09154806978240378 -0.49983943762160615 -0.026556472160458842
-0.05288087673273012 0.5355591477841195 -0.0459610409551833 0.2773580212595623 0.8206450016132781 -1.618685710068568 -1.7031769557817447 0.12230626370473832
0.07158050106544128 0.012062635417865727 0.0896757354453581 -0.07701617103877992 -0.04882038522654624 0.09403397957874142 0.029886748317304066 0.002394692450045883
-0.0625014728075139 -0.017957778953027803 -0.05439065298081659 -0.017344518274154713 -0.058874983872121305 0.04669038324395258 0.08963663467359181 -0.04119524722210585
0.017028942422573287 -0.07224035901633524 0.17695331498940645 0.018452549674461284 -0.15982382475243975 -0.1305930903774129 0.027154639287915144 -0.053662046679226576
-0.015272510763723764 0.011976117016834239 0.0 0.0 0.0 0.0 0.0 0.0
0.024179522101099138 0.012515717464131026 0.016167884177316908 0.05454043790905391 -0.014156710633244127 -0.5293907710566528 0.049755776817787416 0.10489890246464893
0.5210193012698335 0.13151284425767235 -0.0033449238751529194 0.03510015271675365 0.1711227566821809 -0.18758275443011868 -0.9240259913580677 0.18962037254791164
0.18454532978774174 0.9361545457369075 0.13829649663343813 -0.41755046114147915 0.09585960364919506 -0.04273719762619083 0.40577519983736254 -0.15755471887278755
0.009048740359535094 -0.2154044725485165 -0.11769830860619605 -0.04948037701357481 0.16413140449000324 0.091443970204122 0.1116787156904433 0.04289217484104639
-0.416441836812446 0.10881132513711185 -0.06598567887822672 -0.7562200100001023 -0.09639296514009964 -0.09091565922041477 -0.1884592906970161 -0.11809503934386675
0.05094385260705536 -0.529584499976084 -0.14369840869244882 0.05524170001527844 -0.7048571406917286 -0.019182916839865817 -0.09233684821597642 -0.3379135244947721
-0.4570329833266365 -0.196283945164882 -0.6254575328442732 -0.21465237881086022 -0.06599828649166892 -0.5068942070038754 -0.36972435736649994 -0.06034462636097786
-0.07949022787634757 -0.14186969453172138 -0.08585263331718808 -0.6355282566897771 -0.3033415874850632 -0.05788097522832921 -0.6313892099233043 -0.1761208850183806
00000000: 8cb3 9d57 ad36 ea3f dabf 38a5 a7dc f9bf
00000010: 1be9 d274 9b4a fbbf 9540 5d73 5735 c03f
00000020: eae3 52ab 4082 b23f 8ef3 4e1b a03c 893f
00000030: 781a 0231 6a95 b73f 6180 c13d 6ea3 b3bf
00000040: 7d23 fee4 d6f6 a8bf 9f74 380f b9ae b83f
00000050: 5ccf bb31 a505 9d3f 56d2 041b ac52 683f
00000060: 1427 0d55 d3c9 b0bf 4371 30e0 19d4 94bf
00000070: 5577 1518 591a abbf 0f10 e09a 5458 91bf
00000080: 73aa 372c c820 aebf 9b7a 6e04 4bb0 a73f
00000090: 2b3d 835b dad9 b73f dc86 7a86 d4af a5bf
000000a0: 2800 b844 724a 923f fff0 e0bd 8134 b2bf
000000b0: 1989 dc9b 067c c63f 8db2 da9f 35d5 913f
000000c0: 4af8 c80d 7f2c c5bf c7c7 fe10 308e c0bf
000000d0: 97c1 5511 1445 973f b607 a9a8 2f01 adbf
000000e0: 0427 5e18 12aa 8dbf 5230 f3ae 2469 893f
000000f0: 0000 0000 0000 0000 0000 0000 0000 0000
00000100: 0000 0000 0000 0000 0000 0000 0000 0000
00000110: 0000 0000 0000 0000 0000 0000 0000 0000
00000120: acf8 f6e4 8fa9 9e3f 7f60 d97b 0aca 853f
00000130: f86a 5d54 8519 8a3f c4fe 9579 8d6d aa3f
00000140: 0cba ab38 1f13 86bf 82fc 7508 6311 e1bf
00000150: 398a 741d cbc1 a83f 1902 f519 47e9 ba3f
00000160: dccc bdc3 17cc e03f 45e5 7090 94a3 bf3f
00000170: e873 7bbf 2751 77bf 7fe2 45ca 6ef3 a13f
00000180: a1bb 3cd0 1f9d c53f 8b4e c400 b8b7 c7bf
00000190: 4a85 9696 fe9d edbf 352e 490f d011 c83f
000001a0: 889d 7f4b b25a c73f 4c19 e0b2 9ebf ed3f
000001b0: 4f55 c8a0 14a1 c03f 1c38 64ed 948f dabf
000001c0: 2d01 1752 32de b93f b4be ccc4 79c1 a6bf
000001d0: 649b b5d7 73d2 d93f 316d 5d78 24f7 c3bf
000001e0: 5d5a 4760 a369 863f 0511 26f8 2ed3 cbbf
000001f0: 18a8 98a9 d8c2 bebf 5877 35d4 0d11 a5bf
00000200: 7377 a7e2 044f c53f e29c 68d6 9caf b73f
00000210: 80bb 8cef f996 bc3f d6a9 6490 f6f5 a53f
00000220: 83eb 72a9 fba6 dabf 2df8 e51a 0fdb bb3f
00000230: b14d c9fc 6fe4 b0bf dbff 704e f432 e8bf
00000240: 9f58 d798 35ad b8bf 2fc4 0ba7 3f46 b7bf
00000250: aee4 151d 6f1f c8bf e63e cdfb 793b bebf
00000260: 0054 c209 5015 aa3f 95b4 7b31 5bf2 e0bf
00000270: ae20 e99e b564 c2bf 17d3 e1dd a348 ac3f
00000280: fcef f38f 308e e6bf ba5e e0c1 afa4 93bf
00000290: 57a7 4d3f 63a3 b7bf 6a31 250c 60a0 d5bf
000002a0: a932 2545 0740 ddbf 6c44 9b12 d51f c9bf
000002b0: c54b 1384 bf03 e4bf e528 80a9 ba79 cbbf
000002c0: b6e1 1282 43e5 b0bf c9a1 3333 7a38 e0bf
000002d0: 751e db59 90a9 d7bf f662 6ba9 7de5 aebf
000002e0: ac9b 14b9 7859 b4bf 1454 2741 c928 c2bf
000002f0: 0170 5f2c 70fa b5bf da53 c55a 3f56 e4bf
00000300: e5f6 70d5 f269 d3bf 0b20 553f 93a2 adbf
00000310: 325f f524 5734 e4bf 67f4 a510 218b c6bf
00000320: c6b2 4e09 6de8 c0bf 368c ee97 0ae5 d7bf
00000330: 4ec7 8770 193b eb3f ae0b 2c2a 1ab9 d13f
00000340: 9c33 babd b16f b7bf 3f7e 758d 5efd dfbf
00000350: 5989 b4ad 9e31 9b3f 9140 4dc8 3313 ab3f
00000360: 3bce 19f0 4c23 e13f 72d3 959f 3488 a73f
00000370: 3af5 a5db 3bc0 d1bf 80bb 8cef f996 bc3f
00000380: d4a9 6490 f6f5 a5bf 84eb 72a9 fba6 da3f
00000390: 2df8 e51a 0fdb bb3f b04d c9fc 6fe4 b03f
000003a0: dbff 704e f432 e83f 9f58 d798 35ad b8bf
000003b0: 2fc4 0ba7 3f46 b73f afe4 151d 6f1f c83f
000003c0: e53e cdfb 793b bebf 0154 c209 5015 aabf
000003d0: 95b4 7b31 5bf2 e03f af20 e99e b564 c2bf
000003e0: 18d3 e1dd a348 acbf fcef f38f 308e e63f
000003f0: bb5e e0c1 afa4 93bf 57a7 4d3f 63a3 b73f
00000400: 6a31 250c 60a0 d53f a932 2545 0740 ddbf
00000410: 6d44 9b12 d51f c93f c54b 1384 bf03 e43f
00000420: e728 80a9 ba79 cbbf b6e1 1282 43e5 b03f
00000430: c9a1 3333 7a38 e03f 751e db59 90a9 d7bf
00000440: f462 6ba9 7de5 ae3f ad9b 14b9 7859 b43f
00000450: 1654 2741 c928 c2bf 0170 5f2c 70fa b53f
00000460: da53 c55a 3f56 e43f e5f6 70d5 f269 d3bf
00000470: 0c20 553f 93a2 ad3f 325f f524 5734 e43f
00000480: 68f4 a510 218b c6bf c6b2 4e09 6de8 c03f
00000490: 368c ee97 0ae5 d73f 4ec7 8770 193b eb3f
000004a0: ae0b 2c2a 1ab9 d1bf 9d33 babd b16f b73f
000004b0: 3f7e 758d 5efd dfbf 5989 b4ad 9e31 9bbf
000004c0: 9040 4dc8 3313 abbf 3ace 19f0 4c23 e13f
000004d0: 74d3 959f 3488 a7bf 3cf5 a5db 3bc0 d13f
000004e0: b7c1 714e b942 ea3f def3 b3fc 22e6 f9bf
000004f0: 8922 c67a 3640 fbbf 9232 b59a 764f bf3f
00000500: 2c7c 1b87 1953 b23f 1e87 fc84 4bb4 883f
00000510: 1f89 fb2e fdf4 b63f 7aec dfef 54b7 b3bf
00000520: b72e da4b fcfe a8bf 8be0 0063 9c12 b83f
00000530: 9929 6dba a19a 9e3f 28bb 38b8 089e 633f
00000540: adfc a8b5 1800 b0bf 708a 3f25 8663 92bf
00000550: 7279 8577 17d9 abbf fb6c 02eb c2c2 91bf
00000560: 2f0b 91a4 dc24 aebf 5016 244a cde7 a73f
00000570: d652 722e 6df2 b63f ec9f 231f 8b17 a5bf
00000580: ac63 29fb 0870 913f 642c 6d1b 587e b2bf
00000590: 472e 66fe 67a6 c63f dabc 84a5 39e5 923f
000005a0: 7978 376a 1b75 c4bf 7295 203e 46b7 c0bf
000005b0: b880 b4fe 6cce 9b3f df22 0c7f 9779 abbf
000005c0: 1e63 10b2 3147 8fbf 11ec 5c37 ef86 883f
000005d0: 0000 0000 0000 0000 0000 0000 0000 0000
000005e0: 0000 0000 0000 0000 0000 0000 0000 0000
000005f0: 0000 0000 0000 0000 0000 0000 0000 0000
00000600: b0e6 a042 84c2 983f 732b 8e29 d7a1 893f
00000610: 71fb 2557 508e 903f dcff 416a b9ec ab3f
00000620: 187f 8289 31fe 8cbf f2c2 0fea c4f0 e0bf
00000630: 9f5e 70d4 9679 a93f 6fd2 788b a7da ba3f
00000640: 153d 71ab 30ac e03f 3a9a 8bb2 69d5 c03f
00000650: ba32 d854 d066 6bbf 6891 01b0 a5f8 a13f
00000660: 1092 c6b9 59e7 c53f 2e15 c931 b602 c8bf
00000670: 1e2e b1f4 9e91 edbf acd2 5ff9 7a45 c83f
00000680: 78b0 086e 2e9f c73f d922 be60 faf4 ed3f
00000690: 2893 1819 b3b3 c13f 6112 c291 25b9 dabf
000006a0: e549 ae46 418a b83f 891d 4164 a6e1 a5bf
000006b0: da13 358b 38f8 d93f eacd 71c6 c02a c4bf
000006c0: 4f47 505f 2588 823f 6906 81ae 5f92 cbbf
000006d0: a314 42f2 7921 bebf e554 22f2 7d55 a9bf
000006e0: 76fb 4303 4202 c53f 296f 713d df68 b73f
000006f0: 80bb 8cef f996 bc3f d6a9 6490 f6f5 a53f
00000700: 83eb 72a9 fba6 dabf 2df8 e51a 0fdb bb3f
00000710: b14d c9fc 6fe4 b0bf dbff 704e f432 e8bf
00000720: 9f58 d798 35ad b8bf 2fc4 0ba7 3f46 b7bf
00000730: aee4 151d 6f1f c8bf e63e cdfb 793b bebf
00000740: 0054 c209 5015 aa3f 95b4 7b31 5bf2 e0bf
00000750: ae20 e99e b564 c2bf 17d3 e1dd a348 ac3f
00000760: fcef f38f 308e e6bf ba5e e0c1 afa4 93bf
00000770: 57a7 4d3f 63a3 b7bf 6a31 250c 60a0 d5bf
00000780: a932 2545 0740 ddbf 6c44 9b12 d51f c9bf
00000790: c54b 1384 bf03 e4bf e528 80a9 ba79 cbbf
000007a0: b6e1 1282 43e5 b0bf c9a1 3333 7a38 e0bf
000007b0: 751e db59 90a9 d7bf f662 6ba9 7de5 aebf
000007c0: ac9b 14b9 7859 b4bf 1454 2741 c928 c2bf
000007d0: 0170 5f2c 70fa b5bf da53 c55a 3f56 e4bf
000007e0: e5f6 70d5 f269 d3bf 0b20 553f 93a2 adbf
000007f0: 325f f524 5734 e4bf 67f4 a510 218b c6bf
