data/amass/ACCAD/Male2Walking_c3d/B26 -  walk to skip_poses.npz (npz, 943408 bytes, 5 tensors)

trans f8 [705, 3]
0	0x400db286dc9924e5	3.7121712908016087
1	0xc009f7b4eabe3c5b	-3.2459505404763553
2	0x3feb4fd664e859cd	0.8534957857944449
3	0x400db1b6220953c8	3.7117731722923715
4	0xc009f6dff9adf8ec	-3.2455443865029476
5	0x3feb52572677144a	0.853801322104695
6	0x400d9d99f4480540	3.7019538006285586
7	0xc009d28f4d693607	-3.2278123901112425
8	0x3feb6d34999b2193	0.8570807457081621
9	0x400d9cd73cf434ce	3.7015824090982283
10	0xc009d13d70f0a940	-3.2271679709857892
11	0x3feb6bfca127a779	0.8569319865757584
12	0x400d9bfc1df860e3	3.7011644689010708
13	0xc009d00ca86a38f7	-3.226586642972616
14	0x3feb6c8e5371a2a9	0.8570014600528185
15	0x400d940daeae7e22	3.6972917220116566
16	0xc009d885c6a1c2a5	-3.2307239072909675
17	0x3feb4bd414a1fdd1	0.8530064013465851
18	0x400d91a7fb6f3174	3.696121181803557
19	0xc009d6ed856066a4	-3.2299452228588326
20	0x3feb4b2efcf5dd7e	0.8529276791222598
21	0x400d90ab22f05997	3.6956389169310557
22	0xc009d66a8149bf64	-3.2296953297263133
23	0x3feb48f15f9185b5	0.8526541582652302
24	0x400d918ee4b0db22	3.696073328635422
25	0xc009d74bfd8621b9	-3.230125408798099
26	0x3feb488df258a765	0.8526067479444747
27	0x400d90bef473f4c2	3.6956767175566663
28	0xc009d52a2d088b16	-3.229084350417348
29	0x3feb4802574d70f5	0.8525401787879036
30	0x400d908735fd70ca	3.695570394322293
31	0xc009d68361547639	-3.2297427753353785
32	0x3feb4e68a98f9258	0.8533213912711046
33	0x400d8ce2f0432a6c	3.6937922258851383
34	0xc009db2691778040	-3.2320071568101696
35	0x3feb4eec7ce382f3	0.8533842505676986
36	0x400d8ada44832003	3.692799124957675
37	0xc009d9f757f43107	-3.231428801669725
38	0x3feb4b2b807b427a	0.852926016750714
39	0x400d8972f0bdd15c	3.6921137626579092
40	0xc009d814055fe698	-3.2305069370166386
41	0x3feb46828b62852b	0.8523571703300709
42	0x400d8809c8709674	3.6914249095305482
43	0xc009d59a89942210	-3.2292986629802343
44	0x3feb412d469315c6	0.8517061594399642
45	0x400d8598fbd63e41	3.6902331995732145
46	0xc009d85bd0c53c8d	-3.2306438741866885
47	0x3feb2f951ce7afb4	0.8495584072638764
48	0x400d82e5e17c2d10	3.6889150253315464
49	0xc009d657468bd51c	-3.2296586524413566
50	0x3feb2aa1fb05aec3	0.84895419147275
51	0x400d808595b97dba	3.687754792903175
52	0xc009d5879367c235	-3.2292624965705508
53	0x3feb22e48759e94d	0.8480093616083565
54	0x400d7c58da363d78	3.6857163474848527
55	0xc009d58f4cecf925	-3.229277230245446
56	0x3feb1dfa997adeef	0.8474095342307616
57	0x400d743fa39c5739	3.681762006958618
58	0xc009d17e9770a123	-3.2272922354933526
59	0x3feb19a48a753abd	0.8468802170044324
60	0x400d719082d72bd7	3.68045141429091
61	0xc009cfbb0e4fb568	-3.2264309995722904
62	0x3feb1786387cb18a	0.8466216185820923
63	0x400d6eb274135246	3.679051310386316
64	0xc009cd9dba4a9281	-3.2253984979636816
65	0x3feb165852dadd2a	0.8464776628742687
66	0x400d6baf1401762b	3.677580028814892
67	0xc009ca8095b2c04e	-3.2238780684638533
68	0x3feb17c17abbea65	0.8466498753690074
69	0x400d6865095d0b95	3.6759739619751124
70	0xc009cb81b3010e86	-3.2243684754083146
71	0x3feb11716b630c22	0.8458792779350726
72	0x400d661e47d42288	3.6748624431241446
73	0xc009cc834ee84f80	-3.2248598255773118
74	0x3feb0e6114031998	0.845505274854804
75	0x400d643c1507bf21	3.673942722605617
76	0xc009cb3d7789b85e	-3.2242383326438775
77	0x3feb0d14cd9ce8e9	0.8453468337895887
78	0x400d622e13d4b8d5	3.6729394482891657
79	0xc009ca32ec3659ee	-3.223729939850492
80	0x3feb0bb8f52a6e72	0.8451809681314002
81	0x400d5f20095c37df	3.6714478236453796
82	0xc009c8d1845139e3	-3.223055871704888
83	0x3feb0c2dfc346f07	0.8452367711902021
84	0x400d5d3dd0363d6b	3.670528055815955
85	0xc009c744e8b1b673	-3.22229940216385
86	0x3feb0c591e9fc754	0.8452573392989771
87	0x400d5c7fb0db453c	3.670165425960162
88	0xc009c942a1f18b21	-3.223271622833082
89	0x3feb08d213b99643	0.8448267350438033
90	0x400d59c02a3771f7	3.668823556725552
91	0xc009c9c5e7b9ab20	-3.2235220054184452
92	0x3feb054f3800c2a2	0.8443981260116582
93	0x400d55ecfbd1f6c5	3.6669559167338286
94	0xc009c7dac19e58ab	-3.222585213322494
95	0x3feb05e6fcc29ecc	0.8444704949115134
96	0x400d549da7fbe4e7	3.666316330313396
97	0xc009c862d789509f	-3.2228447760372343
98	0x3feb05e8ec00749a	0.8444714173707724
99	0x400d53147c840a9f	3.6655664184375634
100	0xc009c7918d763cf8	-3.2224455882748053
101	0x3feb0668fc40d481	0.8445324827977317
102	0x400d4ecc8cb4efe3	3.6634760849683388
103	0xc009c4e92f53788e	-3.2211478898380568
104	0x3feb07d4e6420ac5	0.8447060105539427
105	0x400d4b2f61451ce2	3.661711463853508
106	0xc009c56a3e9fe407	-3.221394051794508
107	0x3feb0686debc4bb7	0.8445467329314543
108	0x400d48279b59192c	3.660231794029775
109	0xc009c5e0247b8eb8	-3.221618924160648
110	0x3feb072dcfc2f4af	0.8446263368456551
111	0x400d43d3bbc94cd1	3.658118693428698
112	0xc009c4fad6e56971	-3.2211815632592153
113	0x3feb08d4f2fc95cf	0.8448281045754643
114	0x400d3d1effef63b1	3.6548442835741857
115	0xc009c42d7901b514	-3.220789857258419
116	0x3feb07aaf208f2c3	0.844686005329628
117	0x400d39ac12716e9c	3.653160232626602
118	0xc009c41877dde4bc	-3.220749794444229
119	0x3feb094000a387b3	0.8448791515804629
120	0x400d393799706272	3.652938078634457
121	0xc009c566bf6b86d4	-3.221387382000879
122	0x3feb09ad91e0376b	0.8449313973558054
123	0x400d43be6c02cb1f	3.6580780447342387
124	0xc009d419a9d55436	-3.2285645740726308
125	0x3feb021c2ebda4aa	0.8440075791269426
126	0x400d41a92c2ec254	3.6570609523553603
127	0xc009d292c83658ce	-3.227819027098213
128	0x3feb00ad36d8267d	0.843832594983908
129	0x400d3e7bec40e6dc	3.6555098016077476
130	0xc009d0ff80252a32	-3.2270498286573224
131	0x3feafe59f8e6de62	0.8435487614978678
132	0x400d3a39de231422	3.6534306864218857
133	0xc009d0851dfc15b0	-3.2268164007716322
134	0x3feaf7cf1481a6ed	0.8427501106754939
135	0x400d34dc2ef70a7c	3.6508105916157643
136	0xc009cf3f0222b495	-3.2261943976250884
137	0x3feaf1fd1d8c6b0c	0.8420396401519112
138	0x400d30f7596ff5a9	3.6489092814724313
139	0xc009cddcb3679a42	-3.225518609618377
140	0x3feaed3ac60f3c21	0.8414586895322637
141	0x400d2ddc283dca72	3.6473925727707917
142	0xc009cc4323e922be	-3.2247374349138616
143	0x3feaea394fe4b3f3	0.8410917816560172
144	0x400d2afdc1e450d7	3.6459918163110205
145	0xc009cbbfc3d4bf80	-3.2244868563938667
146	0x3feaea315fe93ac6	0.8410879967940097
147	0x400d288bda46e488	3.64479799774978
148	0xc009caca7aa69c27	-3.2240190107436493
149	0x3feae59d51400aea	0.8405291163365665
150	0x400d27a85e062a2f	3.6443641038543073
151	0xc009cbd0a1bf9195	-3.2245190273844835
152	0x3feae489bfdbff8c	0.8403977153065951
153	0x400d24d6af689423	3.642987604502666
154	0xc009cd63601c1c0f	-3.225287199838483
155	0x3feae3f0b556914e	0.8403247396241029
156	0x400d227e315c45b9	3.6418422561916626
157	0xc009ceb3e9793107	-3.2259290924176898
158	0x3feae0c2705d1fda	0.8399364657025175
159	0x400d20a1e547eb3e	3.6409337914059554
160	0xc009cdf062a02386	-3.225556154739425
161	0x3feadbee202a9da4	0.8393469455958678
162	0x400d1e833b4f4c5f	3.6398987420630387
163	0xc009ce288eab1866	-3.225663294407286
164	0x3fead9e94d21877b	0.839100504537995
165	0x400d1bca649836ec	3.638569627661914
166	0xc009ce91de24a6eb	-3.2258641581473646
167	0x3fead7545705a4da	0.8387853335999822
168	0x400d1a9219b75192	3.63797397700018
169	0xc009cfd5c19c0b5b	-3.226481926512333
170	0x3fead429c9e1cb69	0.838398832608033
171	0x400d18108ce49c7a	3.6367503173128712
172	0xc009ce0f1561b468	-3.225614707035266
173	0x3fead1a633e436a5	0.8380919469361358
174	0x400d15a58dd376e5	3.635569675460703
175	0xc009cd7c660fce66	-3.225334927899712
176	0x3feacd6d88e2f2f5	0.8375766442837561
177	0x400d137b938e4441	3.634513047007687
178	0xc009cf174d4b0731	-3.2261186636468655
179	0x3feacc0d4f831635	0.837408690735805
180	0x400d1064a205291a	3.63300444200753
181	0xc009d00156d6a996	-3.2265650543460636
182	0x3feac9a0f7c71907	0.8371128882797912
183	0x400d0d00266b03bb	3.6313479424865966
184	0xc009cf89082d3f78	-3.226335586434228
185	0x3feaca003900bd03	0.8371583093011455
186	0x400d09cb4e264c2b	3.6297823052823524
187	0xc009ce1670c4f7da	-3.225628739367477
188	0x3feac8b4401159ff	0.8370000125240152
189	0x400d05d4e5e8e2a0	3.627847477120966
190	0xc009cde29a6b7c10	-3.2255298675586417
191	0x3feac912b707866b	0.8370450568001621
192	0x400d02647f737322	3.6261682469470466
193	0xc009cd09c6d294cc	-3.225116303731374
194	0x3feacb24ced2a310	0.8372978248126817
195	0x400cfc3a242b6339	3.6231577707043496
196	0xc009caca9625180b	-3.2240192155904928
197	0x3feace5bb42c0f1a	0.8376902121530947
198	0x400cf3fc021f4f60	3.6191330114178726
199	0xc009c6bc1eaf08b1	-3.222038497654545
200	0x3fead08defaaec4f	0.8379583054551264
201	0x400cee251c9c447e	3.616281722563655
202	0xc009c3b82557d4a2	-3.2205660741261264
203	0x3feacfa81d362cfd	0.8378487177409678
204	0x400ce8fda41725c9	3.6137650317730032
205	0xc009c0f57cc515ac	-3.2192182300229515
206	0x3feacdf2a175a2db	0.8376401093965699
207	0x400ce25e6409da25	3.6105315986162787
208	0xc009bcdaa10a604a	-3.2172138768474143
209	0x3fead078406e26a1	0.8379479654697272
210	0x400cdcd9be73c78c	3.60783718863326
211	0xc009ba7c49e277cc	-3.2160573742139373
212	0x3fead0ce6a76d69f	0.8379890517596386
213	0x400cd8a2e8f6f757	3.6057794762008757
214	0xc009b8c71782c178	-3.2152234875467762
215	0x3fead170a1a8b2fa	0.8380664021875355
216	0x400cd2a908429ebb	3.6028614659624885
217	0xc009b7332f0820b1	-3.2144530939441087
218	0x3fead1bd9ca238db	0.8381031092883647
219	0x400cccc79d9d812d	3.5999901117030704
220	0xc009b43ad9d21028	-3.213002874110334
221	0x3fead0e3344ede00	0.8379989644662942
222	0x400cc9824d6d1b49	3.598393063442391
223	0xc009b24f9eacb4c6	-3.212065925260137
224	0x3fead0ec1ffefa32	0.8380032181665398
225	0x400cc380843a00f1	3.595459969539768
226	0xc009b2c64560072c	-3.212292234414141
227	0x3fead117786fd871	0.8380238868983395
228	0x400cbbc450411ece	3.59168303202373
229	0xc009b079dc319b13	-3.2111699297560192
230	0x3fead19572f2bb90	0.8380839581567319
231	0x400cac0a7086cf9f	3.584004286874872
232	0xc009b446ef2f385d	-3.2130259214673473
233	0x3feb05d80988126b	0.8444633661425319
234	0x400cb17c842b777a	3.586663277222155
235	0xc009af88163ec8a0	-3.2107087839040815
236	0x3feb0aaec16a80ed	0.8450540330559569
237	0x400caf47bfae73e5	3.585586068641066
238	0xc009ae7b2834530f	-3.2101958409279017
239	0x3feb13308907ff61	0.8460924793616692
240	0x400cc1ee96f3d2f0	3.5946933549079105
241	0xc009cfe05093ea28	-3.2265020651950813
242	0x3feb2b34c352a411	0.8490241827868222
243	0x400cbcadee52ea25	3.592128621964792
244	0xc009cc04906bf838	-3.2246180804204663
245	0x3feb2ccc97196c5d	0.8492186499746698
246	0x400cb3ef94dcf6e6	3.5878593091900823
247	0xc009c53f66430107	-3.2213123311231615
248	0x3feb2a4c32ba8585	0.8489132872384039
249	0x400cab0ede6133c4	3.5835244534887085
250	0xc009be4b9f89fa12	-3.2179176773054303
251	0x3feb29a4570cd377	0.848833246249895
252	0x400c62f47dcccb77	3.5483178928492936
253	0xc0098d89e480cd1c	-3.19411066549368
254	0x3feaec8ade985957	0.8413748118935399
255	0x400c5a03e136773a	3.543952712511694

mocap_framerate f8 []
0	0x405e000000000000	120.0

betas f8 [16]
0	0xbfba0debe22d1be0	-0.10177492401008648
1	0xbfe8e8ae04c0f4f9	-0.7784032910200543
2	0x3fe91ff4e5e0c189	0.7851509561351558
3	0x3ff0fabbb7d04ccd	1.0612141781064566
4	0x3fe79245cef34d9b	0.7366055528640801
5	0xbfe27e31b422c7e5	-0.5779045599249427
6	0x3fe0b0f37ff2ec02	0.5216004847528668
7	0xbfd3e39c0ef1268e	-0.3107671876829067
8	0x3fc959a612e62883	0.19804836199574902
9	0x3fb0fda55a7220c9	0.06637032945775724
10	0xbfc115b552840823	-0.13347498444642367
11	0xbfa5356bd594fdb9	-0.04142319662286859
12	0xbff02a86fdeee568	-1.01038264458324
13	0xbfd7a84aa8eb2b24	-0.36964670654258414
14	0x3fdfcbaeaaab87e6	0.49680678050037697
15	0x3fc3a25132582815	0.15339102705212385

dmpls f8 [705, 8]
0	0xbfb74ead37d714a8	-0.09104426015172129
1	0x3f88bb1e0b566848	0.012075648041719358
2	0x3fb950d887b23fb4	0.09888985932252475
3	0x3fb3b1c612f94996	0.07693136180140522
4	0xbfd1422e816c0ad4	-0.2696644081008064
5	0x3fc7a123948d5d54	0.18460507157827044
6	0x3fc4529cb01eb84c	0.15877112006768568
7	0xbfd38cee86560c48	-0.3054767906070919
8	0xbfd382261132f057	-0.304818646236304
9	0xbf9e9aaf258957be	-0.02988694826702675
10	0x3fc01c07fadbf536	0.1258554434679497
11	0x3fb43345dea6cf79	0.0789073628027931
12	0xbfd700b55ece1260	-0.35941824205682416
13	0x3fd115b7ae7ebf0b	0.2669505313924538
14	0x3fc868ea35102bb3	0.19070174780821744
15	0xbfdc142bf0fbf67f	-0.4387311795579549
16	0xbfe48100f3eed5a4	-0.6407475246730212
17	0x3fc7753c305b2bef	0.18326523171558004
18	0x3fbf4845a4e74d87	0.12219653392758377
19	0x3fb2795ef77b293a	0.07216447393435468
20	0xbfe0bb6a208c4adc	-0.522877753801676
21	0x3fdb420f14e0daa7	0.4259069160356525
22	0x3fd41f929bc9a55a	0.3144270440448814
23	0xbfe2d2cf28021eae	-0.5882335454379779
24	0xbfee184cefa4a700	-0.9404663734942176
25	0x3fdb5549ba7bc031	0.4270805665137259
26	0x3fbfc16df8d49c88	0.12404525113071163
27	0x3fb12f30c5869eff	0.06712632009896068
28	0xbfe698b4bca7b26f	-0.7061408695859209
29	0x3fe24cb1a4b87982	0.5718620507430361
30	0x3fdcaeb30a56a991	0.4481628037416608
31	0xbfe7fc7e91f38caf	-0.7495720720875364
32	0xbff382f9ff28f857	-1.2194766967000044
33	0x3fe5ebb15ffd278c	0.6850211024077324
34	0x3fc244db6974b2f3	0.14272635125362107
35	0x3fb21af011567c46	0.07072353766715009
36	0xbfed376c6a2cb646	-0.9130155633662944
37	0x3fe68314b9ff13fc	0.7035010941259539
38	0x3fe2d20dd14e2426	0.5881413543694449
39	0xbfecf4aeed5e649e	-0.9048685680492274
40	0xbffd50d85f2315ed	-1.8322375980654855
41	0x3fe8d806fd76bb02	0.77637052063605
42	0x3fc7b84b69df2f8e	0.185311724372124
43	0x3fab27bf4264660f	0.05303762135936207
44	0xbff246b5ba47c5cd	-1.1422631527496947
45	0x3fec5a0cff557b78	0.8859925257673771
46	0x3fe3110616837435	0.5958280982700958
47	0xbfef5747af7586ba	-0.9794042994437497
48	0xc001e146ec593afc	-2.2349985565882644
49	0x3fedbc05e44183a7	0.9292020280955641
50	0x3fca11b37b8c57ae	0.20366519482257445
51	0x3fa553e3550b4738	0.04165563977370684
52	0xbff558a9b3bd0e6a	-1.3341462155375674
53	0x3ff0836897c9e35e	1.0320821694606006
54	0x3fe39f860c83e85b	0.6132230991781954
55	0xbff099372d8cac70	-1.0374061373975358
56	0xc004c65d6e75d427	-2.5968578939159843
57	0x3ff1b30118fe655b	1.1062022186582314
58	0x3fcb4347492373c7	0.21299067565169436
59	0x3fa1397b87f0b309	0.03364168199946078
60	0xbff83b6968e58ade	-1.514504823448696
61	0x3ff2d64b4e44bab5	1.177317910896517
62	0x3fe4521a3da05963	0.6350222781791611
63	0xbff135ac0a8825f3	-1.0756035243415425
64	0xc0070d540e97fe04	-2.8815079822668412
65	0x3ff4b42396dc155e	1.293979253097255
66	0x3fce22b5ae2a970d	0.23543425564019352
67	0x3fa14984d0d4de9a	0.033764029018525224
68	0xbffb0a435e94059b	-1.6900056547604894
69	0x3ff4ac61fb23895b	1.292085629473681
70	0x3fe4cf8cf248f295	0.6503357631805381
71	0xbff1b0327eb24063	-1.1055169056962988
72	0xc00914ff2785b14f	-3.1352522933649776
73	0x3ff77d8a8f8c52b2	1.4681497199391456
74	0x3fd0b4c81c170cd2	0.2610340380017081
75	0x3fa165580d13cf24	0.033976317974433706
76	0xbffdb18d4966bf49	-1.8558476321449737
77	0x3ff63db454e89fae	1.3900645558114593
78	0x3fe566782622e9d3	0.6687584633685283
79	0xbff1fd52162e1c03	-1.1243458620463123
80	0xc00a9c3d046a8475	-3.3262882561689886
81	0x3ffa8ea968667089	1.659829528630356
82	0x3fd4d43641142e7e	0.3254523883376591
83	0x3f989f851802c8b0	0.024046020117290012
84	0xc0007e4e29ca0f2c	-2.0616725220478624
85	0x3ff6c02adcaabad6	1.4219158763696007
86	0x3fe54bd53a3ff19c	0.6655069482508682
87	0xbff2c70d4489981c	-1.1735966374631124
88	0xc00aa68cb61bd622	-3.33132307312441
89	0x3ffe2ce044b3ee52	1.885956066484955
90	0x3fda35b959c32a20	0.40952905431609743
91	0xbfacd16cc0028c86	-0.056285284460750026
92	0xc00286cc48241c5e	-2.3158193241138596
93	0x3ff5afff6a5f8623	1.355468192596512
94	0x3fe09d86c68d3112	0.5192293050727435
95	0xbff380c57d165cbd	-1.218938339827033
96	0xc00b04429fd98023	-3.377080200982179
97	0x4000338d1186fa9c	2.025171410495501
98	0x3fde08283d9d43dc	0.4692478753759681
99	0xbfbe627a1be11faa	-0.11869013958596378
100	0xc00468042473ce9e	-2.550789150985863
101	0x3ff5208bd2ad7e60	1.320445845565608
102	0x3fda691d2ad2f780	0.4126656454280848
103	0xbff41993014c1f1b	-1.2562437105825157
104	0xc00b921f15ad6c9f	-3.446348351817121
105	0x40012ae2433b2540	2.1459393742012765
106	0x3fe07a39e03000c5	0.5149201754247988
107	0xbfc6abda56c13496	-0.17711953388280638
108	0xc0062b0e6ed9612f	-2.7710236225213047
109	0x3ff4b6fcba2f848a	1.2946746132732039
110	0x3fd50ef337588e44	0.32903747944712713
111	0xbff4a3aaebe05a46	-1.2899579252167697
112	0xc00c22bfaa9a09b4	-3.5169671371706617
113	0x400267b5157bc605	2.300638358917015
114	0x3fe1dd91cb5b3911	0.5582970592311388
115	0xbfce8b0bbade312b	-0.2386183416787245
116	0xc007d72e567abaf2	-2.9800688511089612
117	0x3ff42acb203667bf	1.2604476221372207
118	0x3fd091e20e6face0	0.25890399369991535
119	0xbff5309a76302c0f	-1.3243660561299782
120	0xc00bc6c2d30019a7	-3.472051285210188
121	0x400335bec11f399c	2.4012427413610578
122	0x3fe38aa370a5a6f3	0.6106736374033218
123	0xbfd7add197e82b0a	-0.3699840529886137
124	0xc00a03d0be43a95d	-3.2518629898451494
125	0x3ff31f325752ac4f	1.195116368394128
126	0x3fab2c01587c1644	0.05307010846267393
127	0xbff5bbf4764380d6	-1.3583874339747601
128	0xc00bc35150e04702	-3.4703699415630362
129	0x4003b7009c3a6300	2.4643566327398503
130	0x3fe3fed1bad02517	0.6248558663075156
131	0xbfde576695de9812	-0.4740845168656743
132	0xc00bc19b5448dba5	-3.4695345482573026
133	0x3ff29718f282789c	1.1618890259774508
134	0xbfb035734ae961ea	-0.06331558779618943
135	0xbff5f94903508485	-1.3733606461976546
136	0xc00ba85789944655	-3.457198214375959
137	0x4003d0c5a656b93c	2.4769394870010313
138	0x3fe3f7cb2c309c05	0.6239982474406821
139	0xbfe1675f8835cf48	-0.5438687954287866
140	0xc00d498e5ad27a64	-3.6609160514338317
141	0x3ff27ed985d6a099	1.1559691646635086
142	0xbfc2cf8ced0e0dbe	-0.1469589383597007
143	0xbff65a453c69acb3	-1.3970386848330179
144	0xc00bdabc05cbcffb	-3.481803937227594
145	0x4003ab9762b74a6d	2.4587848388849154
146	0x3fe432cf3c9d3e9f	0.6312023338195621
147	0xbfe36351fdd2bac0	-0.6058740575297961
148	0xc00e939cd033104f	-3.8220764413436323
149	0x3ff27e33ebb9da1e	1.1558112342878597
150	0xbfce291eb3f4dfcd	-0.23562988078060557
151	0xbff64d284d3b6a19	-1.3938372628096032
152	0xc00bfcd7688e7569	-3.4984577339625287
153	0x4003a4a9956151a8	2.455401579887809
154	0x3fe3e877b8349497	0.6221273992311066
155	0xbfe562267b35b79b	-0.6682312399332092
156	0xc00fc08200a19f43	-3.9689979600260883
157	0x3ff2ab20863e3131	1.16677906454704
158	0xbfd3f212c57ae4a8	-0.31164998326455384
159	0xbff66bba0ddfa860	-1.4013004819812735
160	0xc00c154611441450	-3.5103875492955368
161	0x4003dd7d19b66670	2.4831487664021594
162	0x3fe3556d8d160c58	0.6041782146061321
163	0xbfe7e8d75cdf54a5	-0.7471730054773117
164	0xc01081312e58d17b	-4.126164173289335
165	0x3ff34abf8c1ce799	1.2057490800056938
166	0xbfd8e700f54a188c	-0.38909934953734004
167	0xbff6ddaf5d58f911	-1.4291223188770952
168	0xc00c47e88ba7950a	-3.535111514140799
169	0x40041a9abcd98164	2.5129904512288466
170	0x3fe29cdd62547ccc	0.5816485329159149
171	0xbfe9b731d5f3505f	-0.8036126307220107
172	0xc0110d7d4b9867ae	-4.263173276116431
173	0x3ff3e676395b5e66	1.2437650909904732
174	0xbfdb46209d8493ca	-0.4261552370319889
175	0xbff73c12d97e8345	-1.4521664138666932
176	0xc00c58bcb09e6c0a	-3.5433286474558416
177	0x40049985f9c6134a	2.574962569577484
178	0x3fe3109d43c137a4	0.5957781146369041
179	0xbfeb259bf9c7e964	-0.8483409765752126
180	0xc01194f2dc9ffdbf	-4.395457694306457
181	0x3ff3e24ed3a2b8e6	1.2427509562508532
182	0xbfdc53b989112aeb	-0.44261015305953205
183	0xbff79a57b2ec8006	-1.4751812924587298
184	0xc00c795beb4f5fe0	-3.5592573531721285
185	0x4004a4cc6c2ecd94	2.580468030145946
186	0x3fe311a989997c5a	0.5959060370913776
187	0xbfed25fffa528c9f	-0.9108886612997543
188	0xc01213004b3c0996	-4.518555808581729
189	0x3ff45d4955de1bf9	1.2727750162318883
190	0xbfdfbe987291007b	-0.4960080260098107
191	0xbff7bd344f70cff9	-1.483692465129023
192	0xc00cda3964e80492	-3.6065547831827383
193	0x4004ab4901eba71f	2.5836353445091755
194	0x3fe2b85f3effcf38	0.5850063543752873
195	0xbfef1345e4b32970	-0.9711026636880842
196	0xc012817335007d82	-4.626416042475627
197	0x3ff535e6bc8fcec9	1.3256595006650278
198	0xbfe1b98b898c3eda	-0.5538995443802961
199	0xbff7c6382b1c2a9c	-1.4858934101090773
200	0xc00d153a98158bc8	-3.6353656655860256
201	0x4004cbd0e05c6829	2.5995194938850728
202	0x3fe1da3784d0a4f2	0.5578878015559481
203	0xbff0882017e61076	-1.033233731607678
204	0xc012ee1f6ce6824e	-4.732541753358033
205	0x3ff60bcc2cd84c73	1.3778802634958793
206	0xbfe376157a09d9c0	-0.6081645377697029
207	0xbff7d70db95411a4	-1.4900033225431821
208	0xc00d34ad0d5822fe	-3.6507206957361396
209	0x4005006072a9b5d3	2.6251839597741564
210	0x3fe16a41038a95da	0.5442204541365598
211	0xbff173dc6811d730	-1.090786367914415
212	0xc013560e2f58499e	-4.834038486255308
213	0x3ff6b46bf78b22d1	1.4190482778232545
214	0xbfe5377bf35aec87	-0.6630229714422889
215	0xbff7fb06430ac5d7	-1.4987852686721135
216	0xc00d6c8571bdf468	-3.6779888998121812
217	0x40055d7690fc37e0	2.6706363036127954
218	0x3fe1996c4ec2bc78	0.5499784029288
219	0xbff2389a1ab24ff9	-1.1388188402970612
220	0xc013ac39c71683af	-4.918189154385728
221	0x3ff743cdac0d3827	1.4540535660521614
222	0xbfe6a49718cfc80f	-0.7075915798761815
223	0xbff82468d67f5d17	-1.508889043694415
224	0xc00daf2118579aee	-3.710512342618464
225	0x400601ce3e502281	2.7508816593365855
226	0x3fe20209b00945c3	0.5627487600524365
227	0xbff2e7a9e0c02158	-1.1815584925953626
228	0xc013f4fb1f2d5abb	-4.989239203589643
229	0x3ff7a4423b2a215e	1.4776022254100876
230	0xbfe79726970d4dc4	-0.7372010183557269
231	0xbff8232d90ea5d3d	-1.5085883770714894
232	0xc00e1ed57204853c	-3.7650555522565394
233	0x40060d93e83df9f2	2.756629766837471
234	0x3fe19434be76cb4a	0.5493415565491457
235	0xbff33c173d56097c	-1.2021706005039894
236	0xc0142a7f1f6d1700	-5.041500559838596
237	0x3ff8708a05e68fb4	1.5274753790372246
238	0xbfe72b5815e50a9c	-0.7240410258894658
239	0xbff7f709761f6013	-1.4978117574846734
240	0xc00e8db031699ae2	-3.8191837177613346
241	0x40061004988c0cc5	2.75782126595877
242	0x3fe0d890b5b7a40d	0.5264361905257161
243	0xbff369b0d4e15471	-1.2133034053452116
244	0xc0145024550b2250	-5.07826359634835
245	0x3ff94fc9cb6a9ea6	1.5819795556980494
246	0xbfe5ee512688b6a2	-0.6853414299600511
247	0xbff7a4619f184eff	-1.4776321615835852
248	0xc00ed7f77e2f1aad	-3.8554525240063726
249	0x40068fac56bedbed	2.8201529290195055
250	0x3fe024196fb15e05	0.5044066602230833
251	0xbff3c5ac5b3c02ee	-1.2357600749821205
252	0xc0146f74e8c11374	-5.108844410690711
253	0x3ff9e7139cbb4c0b	1.618915188057829
254	0xbfe4e3796c058550	-0.6527678594394875
255	0xbff72359d8d875b1	-1.4461306067017683

poses f8 [705, 156]
0	0x3fe76ba7bb622855	0.731891504271753
1	0xbffd064b0c101e29	-1.814036414261759
2	0xbffc0eafcf55944c	-1.7535856341358054
3	0xbfb563247fca3c25	-0.08354404563782276
4	0x3fad565e5edf6496	0.05729956539261953
5	0xbf8ae34baed4db42	-0.013128844521458686
6	0xbfd3649f48a925b4	-0.30301649184965673
7	0xbfb8385f59cc8153	-0.09461017553667732
8	0xbfc1ede3c351e1a4	-0.14007231747724547
9	0x3fa1cde7a8d4dbe6	0.03477405486994893
10	0x3f9875b5f7ccfadb	0.02388653111415349
11	0xbf734323900fdb6a	-0.004702700535736829
12	0x3fb338b73b140874	0.0750841635927218
13	0x3fa75b76658593ba	0.045619678395076815
14	0xbfb14c078c9d580e	-0.06756636794065704
15	0x3fd417b8fb226eb1	0.3139479114995352
16	0xbfc20e3c491e02f2	-0.14105943269898763
17	0x3fb1dd67b5d5e48d	0.06978462399810521
18	0x3fb83dcfa50c8a28	0.09469316272274197
19	0xbf8f908e6288280a	-0.015412437803224339
20	0x3fb0afe25b656c0f	0.06518378001548818
21	0xbfd10043b6aa9395	-0.26564114416606205
22	0x3fd239c553840bdd	0.2847760501464885
23	0x3fc0fa1f59b8196a	0.13263313179795527
24	0x3fd2bda3faceee16	0.29282474034309425
25	0xbfc30546b0290fd2	-0.1485985145719711
26	0x3fbd92f638fda1f6	0.11552370921493335
27	0xbfb82ea0928c548e	-0.09446147516094269
28	0x3f97c1345abef21e	0.02319795421475323
29	0xbf97fae946b82e8a	-0.02341808790337877
30	0x0000000000000000	0.0
31	0x0000000000000000	0.0
32	0x0000000000000000	0.0
33	0x0000000000000000	0.0
34	0x0000000000000000	0.0
35	0x0000000000000000	0.0
36	0xbf6f0416240f9918	-0.003786128276703892
37	0xbfc1c061afcab5ac	-0.13868352016053842
38	0x3fa2c3e6f8ae0721	0.036650865417881436
39	0xbf7153f1351aea52	-0.004230444161005114
40	0x3fb2f0c73301e24f	0.07398648257538663
41	0xbfdf5f58e55e62f4	-0.49019453429495674
42	0x3f89985f4330b4be	0.012497658002838082
43	0x3fac5740876f00d0	0.05535318043939841
44	0x3fdf0fb2927f0203	0.48533310228597787
45	0x3fb915bcaf985ac6	0.0979879311274586
46	0xbfb166031b4d5ab8	-0.0679628316550901
47	0x3f97bb873473cf96	0.023176300598563758
48	0x3fd482c6edeba4f5	0.3204819987718815
49	0xbfc812863cfbc3c1	-0.1880653188486843
50	0xbfee0fa1f08381fa	-0.9394082734616511
51	0x3fcc0406d44b4fce	0.21887288442542147
52	0x3fc21a0c053ee16d	0.14141988998541014
53	0x3feadf6d8cd6b2b2	0.8397739172701988
54	0x3f9b753ce61c7e7b	0.026814414543990566
55	0xbfdf452c2a08dfb7	-0.4885969553465616
56	0x3fafc20266c48136	0.06202704910743011
57	0x3f7632f52887e3f5	0.005419690751744523
58	0x3fd9de9c07a511f4	0.4042120051056195
59	0x3f8f0d31a4fa626f	0.01516188416216943
60	0x3fa421e5e87b2c1a	0.03932112181572496
61	0xbfc613b8a8f28279	-0.1724768471658711
62	0xbfc1b2b8ea70084a	-0.13826667258405428
63	0x3fa50d23b84cd59d	0.04111587166554929
64	0x3fbd13e0f33ddfff	0.11358457506673857
65	0x3fbb8eb2c142b93a	0.10764615267064395
66	0x3fbc96f9ef8cbb80	0.1116787156904433
67	0x3fa5f5f69064a9d6	0.04289217484104639
68	0xbfdaa6fba972eb83	-0.416441836812446
69	0x3fbbdb0f1ae5f82d	0.10881132513711185
70	0xbfb0e46ffcc94db1	-0.06598567887822672
71	0xbfe832f44e70ffdb	-0.7562200100001023
72	0xbfb8ad3598d7589f	-0.09639296514009964
73	0xbfb7463fa70bc42f	-0.09091565922041477
74	0xbfc81f6f1d15e4ae	-0.1884592906970161
75	0xbfbe3b79fbcd3ee6	-0.11809503934386675
76	0x3faa155009c25400	0.05094385260705536
77	0xbfe0f25b317bb495	-0.529584499976084
78	0xbfc264b59ee920ae	-0.14369840869244882
79	0x3fac48a3dde1d317	0.05524170001527844
80	0xbfe68e308ff3effc	-0.7048571406917286
81	0xbf93a4afc1e05eba	-0.019182916839865817
82	0xbfb7a3633f4da757	-0.09233684821597642
83	0xbfd5a0600c25316a	-0.3379135244947721
84	0xbfdd4007452532a9	-0.4570329833266365
85	0xbfc91fd5129b446c	-0.196283945164882
86	0xbfe403bf84134bc5	-0.6254575328442732
87	0xbfcb79baa98028e5	-0.21465237881086022
88	0xbfb0e5438212e1b6	-0.06599828649166892
89	0xbfe0387a3333a1c9	-0.5068942070038754
90	0xbfd7a99059db1e75	-0.36972435736649994
91	0xbfaee57da96b62f6	-0.06034462636097786
92	0xbfb45978b9149bac	-0.07949022787634757
93	0xbfc228c941275414	-0.14186969453172138
94	0xbfb5fa702c5f7001	-0.08585263331718808
95	0xbfe4563f5ac553da	-0.6355282566897771
96	0xbfd369f2d570f6e5	-0.3033415874850632
97	0xbfada2933f55200b	-0.05788097522832921
98	0xbfe4345724f55f32	-0.6313892099233043
99	0xbfc68b2110a5f467	-0.1761208850183806
100	0xbfc0e86d094eb2c6	-0.13209307627166406
101	0xbfd7e50a97ee8c36	-0.37335457646458126
102	0x3feb3b197087c74e	0.8509642789706306
103	0x3fd1b91a2a2c0bae	0.2769227420650918
104	0xbfb76fb1bdba339c	-0.09154806978240376
105	0xbfdffd5e8d757e3f	-0.49983943762160615
106	0x3f9b319eadb48959	0.026556472160458842
107	0x3fab1333c84d4091	0.05288087673273013
108	0x3fe1234cf019ce3b	0.5355591477841196
109	0x3fa788349f95d372	0.04596104095518329
110	0xbfd1c03bdba5f53a	-0.2773580212595622
111	0x3fbc96f9ef8cbb80	0.1116787156904433
112	0xbfa5f5f69064a9d4	-0.04289217484104638
113	0x3fdaa6fba972eb84	0.41644183681244606
114	0x3fbbdb0f1ae5f82d	0.10881132513711185
115	0x3fb0e46ffcc94db0	0.0659856788782267
116	0x3fe832f44e70ffdb	0.7562200100001023
117	0xbfb8ad3598d7589f	-0.09639296514009964
118	0x3fb7463fa70bc42f	0.09091565922041477
119	0x3fc81f6f1d15e4af	0.18845929069701614
120	0xbfbe3b79fbcd3ee5	-0.11809503934386674
121	0xbfaa155009c25401	-0.05094385260705537
122	0x3fe0f25b317bb495	0.529584499976084
123	0xbfc264b59ee920af	-0.14369840869244885
124	0xbfac48a3dde1d318	-0.05524170001527845
125	0x3fe68e308ff3effc	0.7048571406917286
126	0xbf93a4afc1e05ebb	-0.01918291683986582
127	0x3fb7a3633f4da757	0.09233684821597642
128	0x3fd5a0600c25316a	0.3379135244947721
129	0xbfdd4007452532a9	-0.4570329833266365
130	0x3fc91fd5129b446d	0.19628394516488204
131	0x3fe403bf84134bc5	0.6254575328442732
132	0xbfcb79baa98028e7	-0.21465237881086027
133	0x3fb0e5438212e1b6	0.06599828649166892
134	0x3fe0387a3333a1c9	0.5068942070038754
135	0xbfd7a99059db1e75	-0.36972435736649994
136	0x3faee57da96b62f4	0.06034462636097784
137	0x3fb45978b9149bad	0.07949022787634759
138	0xbfc228c941275416	-0.14186969453172144
139	0x3fb5fa702c5f7001	0.08585263331718808
140	0x3fe4563f5ac553da	0.6355282566897771
141	0xbfd369f2d570f6e5	-0.3033415874850632
142	0x3fada2933f55200c	0.05788097522832922
143	0x3fe4345724f55f32	0.6313892099233043
144	0xbfc68b2110a5f468	-0.17612088501838064
145	0x3fc0e86d094eb2c6	0.13209307627166406
146	0x3fd7e50a97ee8c36	0.37335457646458126
147	0x3feb3b197087c74e	0.8509642789706306
148	0xbfd1b91a2a2c0bae	-0.2769227420650918
149	0x3fb76fb1bdba339d	0.09154806978240378
150	0xbfdffd5e8d757e3f	-0.49983943762160615
151	0xbf9b319eadb48959	-0.026556472160458842
152	0xbfab1333c84d4090	-0.05288087673273012
153	0x3fe1234cf019ce3a	0.5355591477841195
154	0xbfa788349f95d374	-0.0459610409551833
155	0x3fd1c03bdba5f53c	0.2773580212595623
156	0x3fe7688bdc5f1fc6	0.7315120033390421
157	0xbffd0b38f2d20308	-1.8152398572130455
158	0xbffc117640cdbe94	-1.7542631656068908
159	0xbfb59158e503ee83	-0.08424907294459598
160	0x3fada9d02d8fbef2	0.05793619686289543
161	0xbf88c100d5a73e8a	-0.012086874504262175
162	0xbfd326984d4cdba1	-0.2992306475529692
163	0xbfb83decdce18fa0	-0.09469490425686766
164	0xbfc1b8601502ed4e	-0.13843918825100804
165	0x3fa1523bb114c72a	0.03383051430354407
166	0x3f99045539fd2999	0.024430591263163135
167	0xbf77c54a2a197d12	-0.005803384499443414
168	0x3fb46d57b9f03ab5	0.07979343690406433
169	0x3fa9a5385ef75c09	0.050088655083236296
170	0xbfb1967e6b47ee1b	-0.06870260352291561
171	0x3fd3fee7b540a71a	0.31243317318386377
172	0xbfc242214fc134a4	-0.14264313120148586
173	0x3fb1e23b3dd1e527	0.06985826739573452
174	0x3fb84a1308342fa4	0.09488028478898386
175	0xbf8fc8b0c65679c5	-0.015519505551137134
176	0x3fb0a9c3f640cdfd	0.06509041559257152
177	0xbfd0dc598e96ac6a	-0.2634490864244926
178	0x3fd24dc6489b4459	0.2859969815299955
179	0x3fc0ebce2966fe41	0.13219620725247874
180	0x3fd2b9d941cbd1a7	0.2925933020153714
181	0xbfc314cbab86ff49	-0.14907213092191743
182	0x3fbd926562c765cd	0.11551507627100151
183	0xbfb7cbbd62769dcf	-0.09295257238283415
184	0x3f9758bfaa2f0d20	0.0227994868871636
185	0xbf97c3b343ea5279	-0.023207474727842545
186	0x0000000000000000	0.0
187	0x0000000000000000	0.0
188	0x0000000000000000	0.0
189	0x0000000000000000	0.0
190	0x0000000000000000	0.0
191	0x0000000000000000	0.0
192	0xbf10aa0d4fe763a0	-6.35691285205812e-05
193	0xbfc156d1c53fe601	-0.13546201831177032
194	0x3fa34fd2964190c8	0.0377183731477842
195	0xbf673bb8a3b9a8bc	-0.0028360944977992835
196	0x3fb3474e6c956bbe	0.07530679846733698
197	0xbfdf0d92d48a780f	-0.48520346408793186
198	0x3f8bc3f80d63b2a3	0.013557374867070598
199	0x3fab6d78dc787389	0.05356958094873849
200	0x3fdebb396a48437c	0.4801772630608452
201	0x3fb7eb55075c4513	0.09343463353822683
202	0xbfb136bdbff7d151	-0.06724153458327932
203	0x3f9879613c1df73a	0.0239005272810495
204	0x3fd4a6521978f5c4	0.3226514099841007
205	0xbfc7ca197a5556e8	-0.18585508797939743
206	0xbfee1d00f86bcb98	-0.941040501782811
207	0x3fcc8aed7387eaba	0.22298973218115298
208	0x3fc1c5c927b6312d	0.1388484424500204
209	0x3feb00a241efc0c1	0.8438273704359959
210	0x3fa25401a8f089ca	0.03579716861010558
211	0xbfdfda1fac6b7a8a	-0.4976882156169401
212	0x3faf63874e553b4b	0.06130621749127004
213	0x3f90a7d2152d1572	0.016265184919821825
214	0x3fdad61df575e08a	0.41931866617915914
215	0x3f91b8b71f66ead7	0.017306195537211657
216	0x3fa2a54f52798326	0.036417464082438664
217	0xbfc65500f47b28a3	-0.17446910798600354
218	0xbfc1f1a07b7a2403	-0.14018636731296405
219	0x3fa1ea65e94596ee	0.034991440511289315
220	0x3fbdb0f8a5f9424e	0.11598161747066024
221	0x3fbbe3f70044aac6	0.10894721752689937
222	0x3fbc96f9ef8cbb80	0.1116787156904433
223	0x3fa5f5f69064a9d6	0.04289217484104639
224	0xbfdaa6fba972eb83	-0.416441836812446
225	0x3fbbdb0f1ae5f82d	0.10881132513711185
226	0xbfb0e46ffcc94db1	-0.06598567887822672
227	0xbfe832f44e70ffdb	-0.7562200100001023
228	0xbfb8ad3598d7589f	-0.09639296514009964
229	0xbfb7463fa70bc42f	-0.09091565922041477
230	0xbfc81f6f1d15e4ae	-0.1884592906970161
231	0xbfbe3b79fbcd3ee6	-0.11809503934386675
232	0x3faa155009c25400	0.05094385260705536
233	0xbfe0f25b317bb495	-0.529584499976084
234	0xbfc264b59ee920ae	-0.14369840869244882
235	0x3fac48a3dde1d317	0.05524170001527844
236	0xbfe68e308ff3effc	-0.7048571406917286
237	0xbf93a4afc1e05eba	-0.019182916839865817
238	0xbfb7a3633f4da757	-0.09233684821597642
239	0xbfd5a0600c25316a	-0.3379135244947721
240	0xbfdd4007452532a9	-0.4570329833266365
241	0xbfc91fd5129b446c	-0.196283945164882
242	0xbfe403bf84134bc5	-0.6254575328442732
243	0xbfcb79baa98028e5	-0.21465237881086022
244	0xbfb0e5438212e1b6	-0.06599828649166892
245	0xbfe0387a3333a1c9	-0.5068942070038754
246	0xbfd7a99059db1e75	-0.36972435736649994
247	0xbfaee57da96b62f6	-0.06034462636097786
248	0xbfb45978b9149bac	-0.07949022787634757
249	0xbfc228c941275414	-0.14186969453172138
250	0xbfb5fa702c5f7001	-0.08585263331718808
251	0xbfe4563f5ac553da	-0.6355282566897771
252	0xbfd369f2d570f6e5	-0.3033415874850632
253	0xbfada2933f55200b	-0.05788097522832921
254	0xbfe4345724f55f32	-0.6313892099233043
255	0xbfc68b2110a5f467	-0.1761208850183806
