data/amass/ACCAD/Male2Walking_c3d/B27 -  skip to walk a_poses.npz (npz, 733656 bytes, 5 tensors)

trans f8 [548, 3]
00000000: bcbd 49bd 1d2b 0840 7a61 8cc5 ccf5 05c0
00000010: 8dca 1fe5 0bce e93f 72db 06b1 8c14 0840
00000020: 75d5 a4df 36e4 05c0 ba5b 80cf e88b e93f
00000030: 913c 5e17 c3fe 0740 0516 6b16 24d3 05c0
00000040: 04e4 e6cc 8650 e93f 260a ab20 4be7 0740
00000050: cd8c a048 42c1 05c0 7405 5467 611a e93f
00000060: 588f 95ad 0ed0 0740 9820 7079 f7ae 05c0
00000070: 7871 1f5a 3eed e83f 4e6d 05ac d2b7 0740
00000080: b5d4 af04 8c9b 05c0 8379 444b e2c6 e83f
00000090: 76aa 2e40 af9e 0740 d7c1 0e73 6986 05c0
000000a0: 8402 8755 4ca9 e83f 8ea2 5cbe 2985 0740
000000b0: 257d a856 7774 05c0 1fb4 82a2 c08f e83f
000000c0: 8b2f 19b0 2b6b 0740 4f96 9299 405f 05c0
000000d0: 3bb1 cd5a cd7c e83f c868 88ba 6b50 0740
000000e0: 2ef3 1155 8b49 05c0 9f44 f592 9870 e83f
000000f0: e404 a86e ba33 0740 8985 240d c433 05c0
00000100: b078 25da 7969 e83f 1a3d 4205 5a16 0740
00000110: 6b94 00af 1a1f 05c0 6372 1b78 756b e83f
00000120: 2eec 595c d900 0740 f963 e1f8 0416 05c0
00000130: 92b5 613d bc89 e83f 3534 6eaa efdf 0640
00000140: 4d4c 2cf4 deff 04c0 a945 e3c2 829a e83f
00000150: 32e7 6349 45c4 0640 d221 232e aee7 04c0
00000160: 10d5 9ec2 62af e83f 9710 55ca 4aa5 0640
00000170: ef6e a758 2dd0 04c0 b12c 149d 9aba e83f
00000180: 3bb7 3077 5487 0640 bed3 378b 21b9 04c0
00000190: a095 1edd 4ec9 e83f f715 b5c3 8a6a 0640
000001a0: 176e af83 6ca2 04c0 063c eb4e b2da e83f
000001b0: be8c e480 2c4e 0640 a07d 89f4 ee8a 04c0
000001c0: f1ef 6585 03ed e83f 07d3 3ddc 0d30 0640
000001d0: 4486 3f2e b572 04c0 cd00 439e a0fb e83f
000001e0: c84b 3493 4512 0640 3499 aae4 8a59 04c0
000001f0: b8f1 acfd 340c e93f 6bb8 2f2e 69f5 0540
00000200: daff 3bbf 1543 04c0 8c3d 2476 7420 e93f
00000210: 6453 32f8 79d5 0540 c2bb cbe2 772b 04c0
00000220: 8ab6 3928 202a e93f 4bb4 067d 17b8 0540
00000230: a589 3f0a 7d16 04c0 9839 b2b3 f536 e93f
00000240: 9e27 600a 369e 0540 4660 0fdb 2603 04c0
00000250: 667b dbdd 3140 e93f 7f32 6b56 8080 0540
00000260: cc94 9e7f 04ed 03c0 2c19 8ad9 af47 e93f
00000270: 1697 331b f564 0540 f040 1535 acd8 03c0
00000280: ca0d 2cbf 6054 e93f 6eec a5e5 ae49 0540
00000290: 2d80 6b3c 3dc3 03c0 98ef 0fc6 8f61 e93f
000002a0: 7c94 3de1 ff2d 0540 32bf f462 b4ab 03c0
000002b0: 79fe 6b5b b875 e93f e2d4 4479 a414 0540
000002c0: 11f8 c360 6b95 03c0 87c3 5a66 918b e93f
000002d0: bf03 89ea 14f5 0440 5f13 854c 7d7f 03c0
000002e0: eab5 1130 34a5 e93f 1af5 521f 6eda 0440
000002f0: 5380 8a8e 3364 03c0 333c 31e6 45c1 e93f
00000300: e293 78e8 3cc1 0440 3aa1 353e 5a50 03c0
00000310: 6e1a 1d05 8ddd e93f f15c da83 3ca8 0440
00000320: e9a0 8236 7642 03c0 1c11 02be 93fd e93f
00000330: 9238 8af6 a88e 0440 1e0e c64b d529 03c0
00000340: 832a 1116 3526 ea3f b584 ebbd c374 0440
00000350: 5a1b d2d0 8315 03c0 188b ca9b 774c ea3f
00000360: 50aa 302a ae5b 0440 25e7 8d73 e601 03c0
00000370: fe17 4efe 9c7c ea3f 00f4 9ce9 973e 0440
00000380: 12d0 addc f5ee 02c0 4402 b223 78af ea3f
00000390: 691a 0dcf 7b26 0440 8634 0c09 8bdb 02c0
000003a0: 6474 19f9 2ee5 ea3f db2a 1457 070e 0440
000003b0: d9e0 e381 efc7 02c0 05db 3753 051d eb3f
000003c0: df68 840d 3cf3 0340 2ba2 738a 9fb5 02c0
000003d0: 924a 1f2a 2e5f eb3f 0826 fcf7 58d5 0340
000003e0: 30b8 155b 93a0 02c0 e4e3 0bd6 feab eb3f
000003f0: 88e2 0988 edb7 0340 1b93 3577 f98b 02c0
00000400: 83ef de79 a802 ec3f c0b4 7c55 ad9b 0340
00000410: dfda 96fa cf76 02c0 d9a6 4527 1456 ec3f
00000420: 5ca0 1f51 797f 0340 742f b419 9f60 02c0
00000430: 5972 fea3 c4aa ec3f 5907 7fee de60 0340
00000440: 070d 5794 5849 02c0 3ada 5412 4006 ed3f
00000450: 78b3 ccd3 8b45 0340 0560 16e9 4734 02c0
00000460: a957 193e 2761 ed3f 9386 4de9 8629 0340
00000470: 1a04 50c5 751f 02c0 3e25 6185 09bb ed3f
00000480: 251e d6c5 540d 0340 9dde a863 3c0b 02c0
00000490: 4e3e 44c5 bb12 ee3f f796 4a51 18f2 0240
000004a0: b2fa 7719 a4f8 01c0 88ea 79b2 9c68 ee3f
000004b0: 7739 2833 90d7 0240 3437 04e7 7ce6 01c0
000004c0: 540b 5611 38bd ee3f b6c9 8ee3 c4bc 0240
000004d0: 25b8 c51e c3d3 01c0 b7e7 7741 210f ef3f
000004e0: 80b8 8fcf c1a2 0240 08a6 90bc 67c1 01c0
000004f0: 9c8e 3d94 7f5c ef3f 85c3 2842 3d89 0240
00000500: 7642 6785 44af 01c0 8dcc 33fe fca2 ef3f
00000510: a1d9 f243 ae6f 0240 842e a10d b79b 01c0
00000520: a1ed 0556 34e3 ef3f c690 b346 fd55 0240
00000530: 2172 b3d6 5788 01c0 a7fb a89e 300d f03f
00000540: 05ed edb1 2d3c 0240 3bb1 b6e4 3d75 01c0
00000550: 586c b0e1 4b24 f03f 7c89 d6bf d022 0240
00000560: c9f8 c8b6 6561 01c0 c589 00ea eb39 f03f
00000570: 4c6b f8fb 2c09 0240 a4f2 21f2 b74d 01c0
00000580: 1175 a997 cf4c f03f e2b8 c437 b2ef 0140
00000590: 76ef 7c23 4e3a 01c0 fdc7 b5bb 055d f03f
000005a0: e7d2 6197 c4d6 0140 348f 8fec 2b26 01c0
000005b0: d0e7 1328 2d6a f03f 2921 6e80 74bd 0140
000005c0: 01e7 ddbe 5f11 01c0 a376 7873 1674 f03f
000005d0: 749e ba94 40a4 0140 d6c3 2d7f a8fc 00c0
000005e0: 7adb 4b0a af7a f03f d480 1517 2d8b 0140
000005f0: 4d7e 8e98 e3e7 00c0 16f4 f2f0 847e f03f
00000600: 52c4 6e18 c271 0140 3ff7 4b61 96d3 00c0
00000610: 8996 f1b9 2380 f03f 17e7 5393 2958 0140
00000620: 1fcd be11 92bf 00c0 a6a6 3eb9 d07f f03f
00000630: cee2 6573 463e 0140 f26c 7cac 4aac 00c0
00000640: bb6a 837b e67c f03f 91b1 8670 8224 0140
00000650: f316 0d37 ab9a 00c0 ee42 b6a4 5176 f03f
00000660: 1bea 1d99 3a0d 0140 463e c4f9 3f87 00c0
00000670: 6b88 a471 a66c f03f dbe6 9120 fcf4 0040
00000680: 2d61 3e27 1d70 00c0 5ec3 4262 6c61 f03f
00000690: 492f 7aa6 8edc 0040 f668 9146 da5c 00c0
000006a0: 5b1c 63ee 4752 f03f e7b4 94e1 77c5 0040
000006b0: e975 7f45 6449 00c0 e66c 4251 4b40 f03f
000006c0: 61c4 7599 c0ac 0040 0682 d065 f335 00c0
000006d0: 821d dbc7 422c f03f fdd6 e9b7 1093 0040
000006e0: ef41 313c 7c22 00c0 4e01 354d a914 f03f
000006f0: 6d99 c366 0479 0040 67f9 9e17 890f 00c0
00000700: 3dec 7745 fcf3 ef3f e0be d27b 335f 0040
00000710: 80ce 80d3 4ff8 ffbf 5c29 ff36 ecb9 ef3f
00000720: 8ed4 c08d 6446 0040 d7f1 03c9 97d1 ffbf
00000730: 41cb 3a64 e97b ef3f 6136 2ad8 1e2d 0040
00000740: 7519 01fb 04ab ffbf e847 f516 6d35 ef3f
00000750: 8f9d cfed 5c13 0040 0b51 427b c683 ffbf
00000760: 6801 d774 e5e7 ee3f 36f1 51e4 9af3 ff3f
00000770: 73bc 8f60 b95a ffbf 7308 f175 5895 ee3f
00000780: e023 abe0 ecc2 ff3f ee06 04c7 2737 ffbf
00000790: fefa ab06 bd3f ee3f 9a5f 2c0b 6988 ff3f
000007a0: ab61 3ba0 0019 ffbf b5b1 cc5d f0e3 ed3f
000007b0: 7373 d742 1356 ff3f d743 1ba0 7fef febf
000007c0: 7389 305b d187 ed3f 54c3 7ad1 9023 ff3f
000007d0: 0da5 85ef bec8 febf e2e0 90ae 1f27 ed3f
000007e0: 9e8c 81dc d1f0 fe3f f0a4 053c a6a4 febf
000007f0: 1a1d ac04 76c5 ec3f 068d 6027 9bbd fe3f
3.0210528171662343 -2.7450194772210894 0.8064021563607909 3.0100339727609304 -2.7364327881029404 0.7983287861596786 2.999395544589398 -2.7280961753301676
0.7910799028387605 2.987936263293949 -2.7193647073741887 0.7844702737931315 2.9765904961840697 -2.7104329573958914 0.7789603958331517 2.964757293620699
-2.7009506574782685 0.7742778272693588 2.9524827017060558 -2.6906308163527046 0.7706662817436869 2.9400210258502915 -2.681868245140907 0.767547910121383
2.9273294217763968 -2.6715099332675787 0.7652346395021036 2.914267976081735 -2.660910286531723 0.7637446279787986 2.9002579350495683 -2.650276282002498
0.7628754864379257 2.8859138880576554 -2.6401876136829308 0.7631175371021296 2.8754145827238267 -2.6357516711982467 0.7668133925305247 2.8593438448793003
-2.624936969377393 0.7688611799623476 2.8458352788556107 -2.613125191161296 0.7714093972378198 2.8307090575418203 -2.6016489912125205 0.7727788036294411
2.816079074072062 -2.5903960110103688 0.7745737379779492 2.802022484744835 -2.579308537284088 0.7766963521370378 2.788170821165834 -2.5678385834177817
0.7789323430474707 2.7734639364592826 -2.556009637178052 0.780716237168258 2.7589217663130263 -2.5437219490587726 0.7827401117897841 2.7448295219719987
-2.532756322878396 0.7852117831661629 2.7292365446432303 -2.5212247579979428 0.7863922868397861 2.7148885505362492 -2.510980682434097 0.7879589566889988
2.7022515116304495 -2.5015389551227 0.7890862782622718 2.687744784494782 -2.4907312364835885 0.7900008438889805 2.674295628082187 -2.4807972094641784
0.791550038702945 2.660978120924077 -2.470331642180119 0.7931593769458116 2.647460708324216 -2.4588401537838758 0.795620134886078 2.635079333699296
-2.447958713512897 0.7982871054756381 2.6196688006461666 -2.4372507074462386 0.8014164866305553 2.606655354231987 -2.4239264617936356 0.8048429008430332
2.594354454211939 -2.4142346248737825 0.8082947826267863 2.582146673299228 -2.4074520357718154 0.8122042380423724 2.5696582089358992 -2.395426361066497
0.8171639853474776 2.5570139729976185 -2.3855053247565765 0.821834377555521 2.5447657867528406 -2.3759278323822337 0.8277115790267542 2.530563187696771
-2.366679882101388 0.8339195916342494 2.518790834033372 -2.3571987826204035 0.8404765000556265 2.5068499377278903 -2.347624792830271 0.847292578254241
2.4937668853791446 -2.3386832062281164 0.8553686926555477 2.479173600561584 -2.328406058883978 0.8647455387682581 2.464808523942626 -2.3183469117378883
0.8753244762697111 2.451014201992251 -2.3080138757025987 0.885507656768108 2.437243112352048 -2.2971784599412164 0.8958457186705103 2.4223002083316882
-2.28581348314913 0.9070129735981205 2.4089581057400515 -2.275527783389409 0.9181095326300596 2.39527685420837 -2.2653613486331894 0.929081688410555
2.3815093475311806 -2.2554862771901996 0.9397868016112143 2.368210444535062 -2.2464067449321528 0.9502700315345729 2.3552555081034217 -2.237542919937278
0.9605980242343812 2.3421724107695026 -2.2283995060052058 0.9705969122580801 2.3294712272391394 -2.219436143078159 0.9800413031884605 2.317011372441302
-2.210579912389501 0.9886460270776226 2.304531603668878 -2.2010327400983574 0.996484916700343 2.291986992220788 -2.191573788977863 1.0032201955470812
2.279384031365796 -2.1822469585660236 1.0088614288313433 2.266999720320369 -2.1725572853166324 1.0141410008151166 2.2544803319155218 -2.1629485050783206
1.0187526630682593 2.242039142313943 -2.153469350099779 1.0227105457711325 2.2298671557167498 -2.14363846600636 1.0259219708955136 2.217507365570914
-2.1334834014386392 1.0283417234963188 2.205201303429755 -2.1233682571259846 1.0299520876121435 2.192957096427657 -2.113227073525002 1.0308885013648754
2.1805459889224403 -2.1033141709621357 1.031284071295348 2.168048048971183 -2.093540323863308 1.0312049137232093 2.155407811686337 -2.0841268039199514
1.030493242715848 2.1428269187073927 -2.0755218792791026 1.028886454969491 2.1314594232801602 -2.0660399926198663 1.0265259207885957 2.1196215195203485
-2.05474310549848 1.0237850035011529 2.1076939588582815 -2.045338202774583 1.0200881301878073 2.096420061445872 -2.0358357839129337 1.0156968282888612
2.084351729303805 -2.0263431505447924 1.010805874526199 2.071809231590008 -2.016838522198888 1.0050442710781513 2.0590904262964416 -2.007585701502808
0.9985333782964357 2.0464849160851912 -1.9981230031816324 0.9914456438212187 2.0343714785072455 -1.98867014428753 0.9838759381876586 2.0220314872629364
-1.9792527966361295 0.9752717445755907 2.0094545916542255 -1.9696717085653883 0.9658076555279367 1.996973888278331 -1.9596494457180398 0.9557306579156503
1.9850891853441155 -1.9509656690647108 0.9452805643375937 1.9708033024271345 -1.9436041125355625 0.9340745765708137 1.9585144625663957 -1.9334713224563893
0.9228293210074255 1.9461830313486717 -1.9240102154092853 0.9110258492937897 1.9337938893811848 -1.9151975960360765 0.8991041270500404 1.9212905443353647

mocap_framerate f8 []
00000000: 0000 0000 0000 5e40
120.0

betas f8 [16]
00000000: e01b 2de2 eb0d babf f9f4 c004 aee8 e8bf
00000010: 89c1 e0e5 f41f e93f cd4c d0b7 bbfa f03f
00000020: 9b4d f3ce 4592 e73f e5c7 22b4 317e e2bf
00000030: 02ec f27f f3b0 e03f 8e26 f10e 9ce3 d3bf
00000040: 8328 e612 a659 c93f c920 725a a5fd b03f
00000050: 2308 8452 b515 c1bf b9fd 94d5 6b35 a5bf
00000060: 68e5 eefd 862a f0bf 242b eba8 4aa8 d7bf
00000070: e687 abaa aecb df3f 1528 5832 51a2 c33f
-0.10177492401008648 -0.7784032910200543 0.7851509561351558 1.0612141781064566 0.7366055528640801 -0.5779045599249427 0.5216004847528668 -0.3107671876829067
0.19804836199574902 0.06637032945775724 -0.13347498444642367 -0.04142319662286859 -1.01038264458324 -0.36964670654258414 0.49680678050037697 0.15339102705212385

dmpls f8 [548, 8]
00000000: 93fc f466 3ccf e6bf af83 23be 42b6 fe3f
00000010: 5372 2d74 36ca 01c0 76fd a86b 12e3 f5bf
00000020: 880b cb7e fbb6 00c0 d697 4f40 6612 f3bf
00000030: 3714 7751 885c e93f c045 2a53 762b c23f
00000040: d1ec b05c eb98 e7bf abaa 6378 13bc fe3f
00000050: c131 bbae ecf7 01c0 70ca a05d 2622 f6bf
00000060: f7a4 c1cf 3788 00c0 4fb9 8be3 0db8 f2bf
00000070: 7093 9835 3220 ea3f 5a43 365b 2208 c63f
00000080: 5763 1228 f71d e8bf 2768 2202 dd1d fe3f
00000090: 79ab df62 436c 02c0 4b95 23b2 5ea1 f5bf
000000a0: 8d14 a004 9626 00c0 08dd dac0 ca31 f2bf
000000b0: 83a0 0b71 d3f0 e93f 0bcc 43e4 860c cb3f
000000c0: bf05 7223 d8af e7bf 47d6 89d5 5565 fd3f
000000d0: 6bb9 5e16 dffb 02c0 7a02 4a02 0ef6 f4bf
000000e0: e9d0 9811 d974 ffbf 96d3 098c b1a3 f1bf
000000f0: 2015 fc62 7b4f e93f af3f ab61 bf11 cf3f
00000100: 29ba 3a3d ad5c e7bf 0bca a990 8f3e fd3f
00000110: 1d5c b1eb 1f43 03c0 3e94 366b bfcf f4bf
00000120: 0144 28d7 c44b febf a3f8 960c bece f0bf
00000130: f861 4768 9b46 ea3f 510d 215d df1c d23f
00000140: 3676 afbc 04ef e4bf 41be db3f 496c fc3f
00000150: d029 93f9 b57d 03c0 faea 4ce5 5539 f5bf
00000160: b5d3 b324 3f9e fdbf 3c72 ffd2 a1ca efbf
00000170: 3df0 1da9 5d81 ea3f 0c1b 25c4 284e d43f
00000180: ce22 025e b1ac e2bf b509 5fe2 337b fb3f
00000190: 86c9 1be9 3acf 03c0 7adb 385f 7db6 f5bf
000001a0: bd06 a81c e4c9 fcbf 5f09 68cf bd8f edbf
000001b0: fe37 b30e 26df ea3f 0b6a 3790 8dd3 d73f
000001c0: d185 6747 d07a e2bf cc4c bf97 74cc fa3f
000001d0: a54c 8960 e2e9 03c0 788d e8c3 4ada f5bf
000001e0: 0c13 98c4 5fa9 fbbf c175 6884 b563 ebbf
000001f0: c3b0 14be 154f eb3f 5dbd 2af4 b7b8 d93f
00000200: cacd 962b 0c2c e2bf 0e64 ea50 095b fa3f
00000210: cafb f705 c626 04c0 790f 1fbf 8276 f6bf
00000220: 08ef 9e40 58c3 fabf fbe2 cb0f da22 e9bf
00000230: c3ef 1c91 8689 eb3f a24e 365b e9e1 db3f
00000240: 7bb9 9f5f cca1 e1bf d33c aa85 0145 fa3f
00000250: 5a98 0e4d df7b 04c0 d04d 0024 0219 f7bf
00000260: a68b b553 29ad f9bf 4878 1922 1784 e6bf
00000270: e0eb 8a01 7650 ec3f ef62 995f b095 de3f
00000280: c819 0fb6 a24a e0bf 0fcc b0bf 918b fa3f
00000290: df6d 1576 72d5 04c0 2995 6e0c d90b f8bf
000002a0: 51cb c291 cb8c f8bf 40f9 6c84 28a0 e3bf
000002b0: e94a dbe0 0b06 ee3f 151d f1cf c187 e03f
000002c0: c855 cec1 62d3 debf e648 98fb 6c83 fc3f
000002d0: 1c9a e8a9 299d 04c0 f29f fb13 95b0 f8bf
000002e0: c4ee 3bb0 7f27 f6bf a27c 45a4 d828 e2bf
000002f0: 34da 600f 3f1b ee3f 8e56 7c0b e59f e03f
00000300: 4b40 4e7a 4bed dfbf 592d 1e11 7cd5 ff3f
00000310: 29af a5aa 0712 03c0 b395 f199 f2e4 fbbf
00000320: 2b1f ab9f bba6 f3bf 3fb6 53d7 217b d0bf
00000330: 2b71 556b 9a5b ee3f ba50 8645 5f4b d93f
00000340: 4d9f c0ca bf08 debf 926e de87 f217 0140
00000350: 8305 d0ba 89c0 01c0 138a 00ba cbd7 febf
00000360: 5b0d 794d 3c8a f1bf fa87 4e94 d421 9c3f
00000370: 47f7 c027 4e08 ee3f 5206 86e7 a8cd d13f
00000380: c31b adc2 89de e0bf 8dc1 b699 9863 0240
00000390: 2169 aa83 a280 00c0 d2da 2392 527f 00c0
000003a0: 709f 6e86 f256 efbf 4d3e 3bd0 df05 d43f
000003b0: 95af 4fdc 622d ed3f b2b7 03ad c803 c73f
000003c0: 0a30 6caa 4964 e2bf d88f 75bc 08d0 0240
000003d0: 864e 056a 1110 ffbf c542 17b6 473f 01c0
000003e0: 82d9 21f3 f083 edbf f92f 2a91 7128 e03f
000003f0: 490a af9b 90ef eb3f 66ec b0fa ff92 bf3f
00000400: b4cd 9664 c8ce e1bf c1f5 0142 6779 0240
00000410: 3904 a5aa bc93 febf 8892 0442 eff3 01c0
00000420: 2f1c 9c93 ac27 edbf 979d 199e ad5a e63f
00000430: c0b5 f515 390f ea3f de08 b90b 03f3 b73f
00000440: 0964 4d69 dbef e0bf 1997 289f dde1 0140
00000450: 6dff 4550 d3e8 fdbf 8468 27cc 6c7a 02c0
00000460: 89f2 ebe7 fa86 ecbf c181 d4c6 9952 ec3f
00000470: 916c 5e90 0606 e83f 5d58 10ca 2476 aa3f
00000480: 27eb 3fe9 dec4 debf 576d 33b8 9940 0140
00000490: 6e3f b064 4915 fdbf df10 1023 a012 03c0
000004a0: 5b57 65cd 11a3 ebbf c019 a39a 7522 f13f
000004b0: ec2f 1be9 730a e63f a0fd fac7 f9d1 69bf
000004c0: 82b9 0157 d43e dcbf fc9c e3b5 c29a 0040
000004d0: 1463 1ef2 ca55 fcbf ac9a 4a2e 025c 03c0
000004e0: 1311 87ce 4adf eabf bef0 e7e4 bfbc f33f
000004f0: e136 a994 43b4 e23f e261 676e 3ec8 b4bf
00000500: ed5c 4c95 f9bc d8bf 2af0 3aad 8cab 0040
00000510: ca0f 62e3 3b9a fabf a4ee a5e3 f3f1 03c0
00000520: 6823 6f5d 3fab eabf 0c36 7074 8e16 f63f
00000530: dee8 d058 3387 e03f 6043 c8a3 1b30 c6bf
00000540: 5195 916e 6159 d6bf 36a3 f29e 29fa 0040
00000550: d6e6 1fd8 fbfb f7bf 6974 fa47 e7c2 04c0
00000560: bbaf e847 ce99 eabf 7327 7dde 5525 f83f
00000570: 4ec7 2dd3 a6d8 e03f ee7b 36f8 efcd cebf
00000580: d309 07b5 20aa d4bf 32b9 28c3 bcf1 0040
00000590: 6f6c b3ab e236 f7bf 23ac 6b9a 0d9d 04c0
000005a0: 8469 a0b7 83fc eabf bfba 39d0 bf5d fa3f
000005b0: 4071 a66a 54b0 de3f 1af5 76b1 e0f3 d5bf
000005c0: 0427 e875 63e2 d4bf 5022 afd9 e4d3 0040
000005d0: 1ee1 292c 138c f7bf fef4 a538 27fa 03c0
000005e0: 57c3 5aa0 fcbc ebbf 76be ab7a 37f7 fc3f
000005f0: 4f66 99c5 4b90 db3f 74d4 589d 8ac0 ddbf
00000600: f707 c541 ba7c d5bf 3742 d600 96a2 0040
00000610: 4f40 3ff6 598a f8bf 778e a3e9 8520 03c0
00000620: 06b7 46b9 390a eebf b3b2 8138 6e15 ff3f
00000630: b910 bb01 24f2 d83f 24d6 8d33 f1a0 e3bf
00000640: 4318 534a acc4 d3bf eea0 dea0 a9d5 0040
00000650: b62b d645 8d8f f9bf 2b0f 336a 1142 02c0
00000660: 25a6 093d 1f6f f0bf 3091 4ec6 d29d 0040
00000670: c614 9945 5784 d73f ee2f 5498 9bf5 e8bf
00000680: 885c e7bc 3f72 cfbf 1066 6c09 3ce9 0040
00000690: f6ac 828c 8a0c fbbf 11ba da49 e106 01c0
000006a0: a889 d9c8 47a9 f1bf a0bd d328 12c4 0140
000006b0: fcd2 248f 434b d33f 6310 e13b 2ab2 efbf
000006c0: d676 9bf0 6956 c6bf a884 6565 f5cf 0040
000006d0: 5116 e0a0 cd2a fbbf 7099 20b1 dcc1 ffbf
000006e0: 70ef 1faa f7d5 f2bf d9c9 7b45 09a2 0240
000006f0: 7245 52b1 9a7e cf3f 6e2e a97a 0630 f3bf
00000700: c2df d20b 7eb2 c2bf 8c3d 18ff 2371 0040
00000710: 554b 0137 aa7f fabf f8dd 964f c659 fdbf
00000720: fa6c a9bc f82d f4bf 5f23 9bb5 0232 0340
00000730: 33eb 4ee8 68a3 c93f daf3 30f4 4b57 f6bf
00000740: 0082 7c16 73f6 bebf c8f7 369d a6c2 ff3f
00000750: e97c 0ee7 ee0a f9bf e84c 1103 df8f fbbf
00000760: f436 e89d 872f f6bf eb28 1dbc 7784 0340
00000770: ddd8 2c25 e003 c23f c43b 04d0 9a7c f9bf
00000780: f284 aedc 4835 c1bf 688a a8c6 b94c fe3f
00000790: a8f5 db83 2bfd f6bf 3621 a406 33f9 f8bf
000007a0: b8d4 a8f2 265f f8bf 41a1 6f0c 62e7 0240
000007b0: 4c0a ce07 74ae b43f e6c3 9ad5 c880 fcbf
000007c0: bfa5 d78c dae5 c5bf 2737 a83a ecc2 fc3f
000007d0: 0e16 84e5 812b f4bf 423f cdc8 9f9c f6bf
000007e0: 75b9 6190 970e fabf 6a37 b9b2 7afa 0140
000007f0: f865 003f 5b46 aa3f a2c5 ecd2 580d ffbf
-0.7127973566893097 1.919497244576842 -2.2237366749161906 -1.3679374890778866 -2.0893468766893797 -1.1919920456070847 0.7925454703441862 0.141951361282322
-0.7374169168828307 1.9209170057971885 -2.2460569048764403 -1.3833373696658349 -2.066512702080782 -1.1699351204402608 0.816430191688239 0.17212323621472586
-0.7536578924801728 1.8822908481001919 -2.3028629040249453 -1.3518969496302187 -2.0188408242561935 -1.137156251277533 0.8106476982038803 0.2113197912763954
-0.7402153675358746 1.8372400609345207 -2.37298409916473 -1.3100719537179928 -1.9660273253803615 -1.1024642439126402 0.7909523900313253 0.24272911328307376
-0.7300630756270198 1.8277736330898076 -2.4077757276059075 -1.3007196605697255 -1.893498268564372 -1.0504742137705214 0.8211190258689944 0.2830122384513816
-0.6541770634900732 1.7764370436160706 -2.4363822458301243 -1.3264979321526753 -1.8511344369592113 -0.993485366921568 0.8282917311730739 0.31727046160487826
-0.5835806690311871 1.717578777563728 -2.476186581764696 -1.3570531577695122 -1.7992898101223738 -0.9237965632349122 0.8397398268805316 0.37228716930044986
-0.5774918932549388 1.6749158790233194 -2.489201311292691 -1.3657939579651082 -1.728851097054931 -0.8559215150923408 0.8534039223209436 0.4018993267481699
-0.5678768969868824 1.6472256813779071 -2.518932386999471 -1.4039332833935687 -1.6726915859462128 -0.7855043705486361 0.8605377992857871 0.43566354663310325
-0.5510007732062115 1.6418471547402091 -2.560484506614597 -1.4436055570885067 -1.6047757406129022 -0.7036243120198913 0.8848218946580992 0.47788628898483315
-0.5091107898559182 1.6590745437540624 -2.6042222237863224 -1.5028925405143332 -1.5343738263879525 -0.6133005701483754 0.9382380859118175 0.5165719090809114
-0.4816519634854015 1.7820863559650717 -2.576739623461675 -1.5431109219152828 -1.3846432575364114 -0.5674861153055597 0.9408259678228377 0.5195183967905039
-0.4988583273307127 1.9896202725093046 -2.3838036853611766 -1.743395425169507 -1.2282062756584746 -0.257515392570756 0.9486820312845671 0.39522535123365865
-0.4692840080265242 2.136693059421142 -2.2190126986249097 -1.9276845231730746 -1.0962489153178783 0.027472802688528454 0.9385138298455126 0.2781774769756328
-0.5271652986783625 2.29863090599992 -2.0628099714641768 -2.062169210166169 -0.979363691866622 0.31285853705501127 0.9117903044657277 0.17980297515845006
-0.574742157799393 2.351579162919716 -1.9414228574213737 -2.1558984971855772 -0.9223561047245286 0.5049369654893773 0.8729937592218643 0.12333679075611456
-0.5564920391683956 2.309278979954542 -1.9110685983471412 -2.2441086919446356 -0.9110930331233983 0.6985691154376806 0.814358275308841 0.09355181728554693
-0.5292794281659791 2.2352859911214975 -1.869342149322587 -2.309777827217717 -0.8914770631523236 0.8850830920601355 0.7507355518058764 0.05168261496162139
-0.4807660367802548 2.156543196744376 -1.8176969464438701 -2.38409449951915 -0.8636559497487996 1.0709129372131514 0.688775973592326 -0.0031518820322557622
-0.4413348054576077 2.0755666933142702 -1.7709454972993557 -2.4199260345952407 -0.8397573503248473 1.2335814420357987 0.5845048812422783 -0.08118047900587258
-0.38653411464606685 2.0837644132243627 -1.662654770102551 -2.4931409630788313 -0.8334042382131033 1.380506949269491 0.5165039763153592 -0.1733431386678843
-0.3492053584835349 2.1221496980473615 -1.4990194742553533 -2.595167696314594 -0.8312751202079122 1.5091150942775726 0.5264467358194709 -0.2406597101189329
-0.3228837745520227 2.1180358168413926 -1.4508997637811054 -2.576686102305318 -0.8433245264489391 1.6478880056198901 0.4795123139863513 -0.34301011400732906
-0.3263176585611378 2.103463841111342 -1.4716979718342098 -2.4971451211591775 -0.8668196803974791 1.8103556434470227 0.43068212792204447 -0.4648767983047215
-0.33573776648347525 2.0793876710306693 -1.5337772006059998 -2.390880418113564 -0.9387482279468891 1.9427320678034163 0.3897790924932099 -0.6133962637820258
-0.308878967840773 2.1043274467411868 -1.5975468376152384 -2.282259778674321 -1.0271294006619283 2.0770621769644535 0.36745244785954545 -0.7799814200566269
-0.24567410205665774 2.113884042378011 -1.6905618179978865 -2.1283593912005547 -1.103828224725115 2.2207377614610806 0.3014687440766435 -0.9904986543192645
-0.17451214073564952 2.1015422746282475 -1.6979500087922086 -1.9848296088253754 -1.177238144445223 2.329119246330475 0.24605115564603924 -1.1992249289932277
-0.14607215478258523 2.0552444390556897 -1.6561681889185895 -1.8344176396329868 -1.2612235421755131 2.3994192302674686 0.2002993711774593 -1.3963126696319166
-0.12094802187903753 1.9850221768569885 -1.5651692414901908 -1.7226247901751837 -1.3866039436574598 2.43968150104512 0.14074327292627845 -1.5929210782667136
-0.13443861747240465 1.8937318573086035 -1.436809077334468 -1.5608396777552804 -1.523230502976089 2.3629799815718404 0.08078694525287594 -1.7814415306022453
-0.1710770786005877 1.797588566903366 -1.2606219258754012 -1.4132383197611067 -1.6285625114356581 2.247304340627058 0.05131802696287119 -1.9407585372212925

poses f8 [548, 156]
00000000: a8f8 39d4 0f87 ed3f 29c2 ab92 1cc5 f3bf
00000010: a5e4 da81 e6c5 f9bf a029 950e e27e d93f
00000020: 0791 6e76 6eb8 af3f 4a44 6e91 d7de 76bf
00000030: 38e7 0eb8 fb3b e4bf e7bf b2e3 6dae 9c3f
00000040: 286a 5eac 33a9 c1bf 8434 50c2 3335 d33f
00000050: 1148 c691 7933 c8bf f24e 7139 cf54 9ebf
00000060: c386 d65d 5c4a de3f bfc1 8022 adeb d4bf
00000070: 2172 1af0 fade b9bf df4d 4486 fb9f e23f
00000080: 7744 6b33 b1d2 bfbf 19cc c904 e60b bf3f
00000090: cbf0 004c 66cf c53f 7273 4db4 2af5 b6bf
000000a0: 699d e01f 271c b03f 39e5 d670 0936 e4bf
000000b0: 02ab 88fe f5c1 d43f fe50 209c c0a3 b83f
000000c0: b6ab fceb 38be d2bf b856 ca63 6518 cebf
000000d0: 68e7 0155 1845 afbf 6ea4 40ff 2834 a5bf
000000e0: e5f8 f97b 58fb b6bf 0dc1 e982 af12 84bf
000000f0: 0000 0000 0000 0000 0000 0000 0000 0000
00000100: 0000 0000 0000 0000 0000 0000 0000 0000
00000110: 0000 0000 0000 0000 0000 0000 0000 0000
00000120: 7e42 b66c b763 b43f 01d6 8a58 adcb 793f
00000130: df4b 0ea0 4580 a2bf 84d4 55e1 2c37 923f
00000140: 6a1e 4d09 b887 a3bf fa4f a484 7bcc ddbf
00000150: b539 9986 59d3 a83f 14b6 1cc7 f412 b1bf
00000160: a18b 577e d0c6 db3f 25fb 3b70 2703 a8bf
00000170: 22c5 d918 1a7e 963f 9396 5fc8 3b2c bb3f
00000180: e11b d1ac 9abf b83f 9bf3 77db a8f5 e1bf
00000190: 5c86 7ea2 456e e8bf 1698 bf1c bef3 d13f
000001a0: fd51 ef52 89b2 c7bf cbb2 fc69 1244 f03f
000001b0: f83f cc39 f7ad b9bf 9466 69f4 dc08 f5bf
000001c0: 5c07 dda3 78f3 c93f db6c 8c20 4489 ab3f
000001d0: c917 1ccb ac34 d53f e401 01e5 013c c5bf
000001e0: c908 4a34 8201 aabf 0f14 6e8b b96b d9bf
000001f0: 3015 57d5 730c b53f 105f cdc4 e7b3 86bf
00000200: 08df 90dd 3512 c73f 4623 3e61 ed1a b33f
00000210: 80bb 8cef f996 bc3f d6a9 6490 f6f5 a53f
00000220: 83eb 72a9 fba6 dabf 2df8 e51a 0fdb bb3f
00000230: b14d c9fc 6fe4 b0bf dbff 704e f432 e8bf
00000240: 9f58 d798 35ad b8bf 2fc4 0ba7 3f46 b7bf
00000250: aee4 151d 6f1f c8bf e63e cdfb 793b bebf
00000260: 0054 c209 5015 aa3f 95b4 7b31 5bf2 e0bf
00000270: ae20 e99e b564 c2bf 17d3 e1dd a348 ac3f
00000280: fcef f38f 308e e6bf ba5e e0c1 afa4 93bf
00000290: 57a7 4d3f 63a3 b7bf 6a31 250c 60a0 d5bf
000002a0: a932 2545 0740 ddbf 6c44 9b12 d51f c9bf
000002b0: c54b 1384 bf03 e4bf e528 80a9 ba79 cbbf
000002c0: b6e1 1282 43e5 b0bf c9a1 3333 7a38 e0bf
000002d0: 751e db59 90a9 d7bf f662 6ba9 7de5 aebf
000002e0: ac9b 14b9 7859 b4bf 1454 2741 c928 c2bf
000002f0: 0170 5f2c 70fa b5bf da53 c55a 3f56 e4bf
00000300: e5f6 70d5 f269 d3bf 0b20 553f 93a2 adbf
00000310: 325f f524 5734 e4bf 67f4 a510 218b c6bf
00000320: c6b2 4e09 6de8 c0bf 368c ee97 0ae5 d7bf
00000330: 4ec7 8770 193b eb3f ae0b 2c2a 1ab9 d13f
00000340: 9c33 babd b16f b7bf 3f7e 758d 5efd dfbf
00000350: 5989 b4ad 9e31 9b3f 9140 4dc8 3313 ab3f
00000360: 3bce 19f0 4c23 e13f 72d3 959f 3488 a73f
00000370: 3af5 a5db 3bc0 d1bf 80bb 8cef f996 bc3f
00000380: d4a9 6490 f6f5 a5bf 84eb 72a9 fba6 da3f
00000390: 2df8 e51a 0fdb bb3f b04d c9fc 6fe4 b03f
000003a0: dbff 704e f432 e83f 9f58 d798 35ad b8bf
000003b0: 2fc4 0ba7 3f46 b73f afe4 151d 6f1f c83f
000003c0: e53e cdfb 793b bebf 0154 c209 5015 aabf
000003d0: 95b4 7b31 5bf2 e03f af20 e99e b564 c2bf
000003e0: 18d3 e1dd a348 acbf fcef f38f 308e e63f
000003f0: bb5e e0c1 afa4 93bf 57a7 4d3f 63a3 b73f
00000400: 6a31 250c 60a0 d53f a932 2545 0740 ddbf
00000410: 6d44 9b12 d51f c93f c54b 1384 bf03 e43f
00000420: e728 80a9 ba79 cbbf b6e1 1282 43e5 b03f
00000430: c9a1 3333 7a38 e03f 751e db59 90a9 d7bf
00000440: f462 6ba9 7de5 ae3f ad9b 14b9 7859 b43f
00000450: 1654 2741 c928 c2bf 0170 5f2c 70fa b53f
00000460: da53 c55a 3f56 e43f e5f6 70d5 f269 d3bf
00000470: 0c20 553f 93a2 ad3f 325f f524 5734 e43f
00000480: 68f4 a510 218b c6bf c6b2 4e09 6de8 c03f
00000490: 368c ee97 0ae5 d73f 4ec7 8770 193b eb3f
000004a0: ae0b 2c2a 1ab9 d1bf 9d33 babd b16f b73f
000004b0: 3f7e 758d 5efd dfbf 5989 b4ad 9e31 9bbf
000004c0: 9040 4dc8 3313 abbf 3ace 19f0 4c23 e13f
000004d0: 74d3 959f 3488 a7bf 3cf5 a5db 3bc0 d13f
000004e0: d3fc da47 0d6b ed3f 2b89 6fbf 31d8 f3bf
000004f0: 9a3b 9ac5 6caf f9bf 90a1 05ac ddb0 da3f
00000500: 44d4 7739 d4ef b13f ce49 e648 14c4 7ebf
00000510: f0c7 fda1 0d33 e4bf b4e4 88aa a3b3 a03f
00000520: 1da9 ea33 8142 c2bf a3f2 df0a 4911 d33f
00000530: a3c0 d942 4903 c8bf 6c5e a085 f068 a1bf
00000540: d3fb 904a aa14 de3f 3b49 c8b2 d1d4 d4bf
00000550: 6382 8a4c e0ec b8bf 48a0 660e 8b87 e13f
00000560: d537 6e2e b988 bcbf fda3 6c81 673d bd3f
00000570: 0d33 d355 6ac2 c63f 8519 14ff 39ef b6bf
00000580: 3507 3b7b 6966 b03f e241 2417 8700 e5bf
00000590: 7fc4 ee3d 69f0 d43f b5c9 58be cbea b93f
000005a0: 4a7e eb0a d8ae d2bf 150e 20f2 8e53 cebf
000005b0: 15e3 0027 d0d4 afbf cad1 f517 2c58 aabf
000005c0: ebf0 1150 5e85 b6bf e586 28fe 0f25 8abf
000005d0: 0000 0000 0000 0000 0000 0000 0000 0000
000005e0: 0000 0000 0000 0000 0000 0000 0000 0000
000005f0: 0000 0000 0000 0000 0000 0000 0000 0000
00000600: 46f1 eb23 3540 b33f 074a d906 4478 7e3f
00000610: 7903 78cf b4fb 9ebf a2bf 9e83 6b17 953f
00000620: 5dba 88b4 1ecb a1bf e1d7 2bea 3e40 debf
00000630: cc90 a6d3 6297 a83f 7c6a 1d9c 89fd aebf
00000640: e885 1bdd 456a dc3f 4a26 fed6 1645 a5bf
00000650: 7a42 25ee 0d14 913f 8ee7 79a2 a3d6 ba3f
00000660: 748e 0992 ee70 ba3f 7612 0226 b02e e2bf
00000670: 5b60 691d d676 e8bf ae74 75d8 af5b d23f
00000680: 6581 8478 50bf c5bf ea57 2d36 a661 f03f
00000690: 71b8 bc69 8259 bcbf 32af caff fb99 f4bf
000006a0: fa48 9a9d d3bd c73f fc97 3625 4268 a63f
000006b0: 36b7 f198 da30 d43f 4bec 38e7 8b40 c6bf
000006c0: 5722 17ae 28f0 abbf b8da e436 5a40 d9bf
000006d0: 2b41 4891 4e91 b13f 6c5d d86b c23f 91bf
000006e0: 63c8 262d 16bf c63f 5eff bd34 8c9e b23f
000006f0: 80bb 8cef f996 bc3f d6a9 6490 f6f5 a53f
00000700: 83eb 72a9 fba6 dabf 2df8 e51a 0fdb bb3f
00000710: b14d c9fc 6fe4 b0bf dbff 704e f432 e8bf
00000720: 9f58 d798 35ad b8bf 2fc4 0ba7 3f46 b7bf
00000730: aee4 151d 6f1f c8bf e63e cdfb 793b bebf
00000740: 0054 c209 5015 aa3f 95b4 7b31 5bf2 e0bf
00000750: ae20 e99e b564 c2bf 17d3 e1dd a348 ac3f
00000760: fcef f38f 308e e6bf ba5e e0c1 afa4 93bf
00000770: 57a7 4d3f 63a3 b7bf 6a31 250c 60a0 d5bf
00000780: a932 2545 0740 ddbf 6c44 9b12 d51f c9bf
00000790: c54b 1384 bf03 e4bf e528 80a9 ba79 cbbf
000007a0: b6e1 1282 43e5 b0bf c9a1 3333 7a38 e0bf
000007b0: 751e db59 90a9 d7bf f662 6ba9 7de5 aebf
000007c0: ac9b 14b9 7859 b4bf 1454 2741 c928 c2bf
000007d0: 0170 5f2c 70fa b5bf da53 c55a 3f56 e4bf
000007e0: e5f6 70d5 f269 d3bf 0b20 553f 93a2 adbf
000007f0: 325f f524 5734 e4bf 67f4 a510 218b c6bf
0.9227370400474415 -1.2356229523976572 -1.6108155319655364 0.39836932586754337 0.06195397563650045 -0.005583612501952004 -0.6323221773993515 0.028009144804570865
-0.1379761306423728 0.30012220359714825 -0.18907088868996927 -0.02962039745427964 0.4732886234652193 -0.3268845402663167 -0.10105865823647565 0.5820291159056373
-0.12430865769717224 0.12127530686284195 0.17039183341137795 -0.08967844869535016 0.06292957809693224 -0.6315962985892504 0.3243384347612591 0.09624866305995636
-0.29286025090794554 -0.2351195084817641 -0.06107402837456172 -0.04141357532382349 -0.08977273012894534 -0.009801264937067811 0.0 0.0
0.0 0.0 0.0 0.0 0.07964655307865517 0.006297757274912553 -0.03613488749319748 0.017788602116941124
-0.038144827971845555 -0.4656056208925744 0.04848747032211823 -0.066695498095861 0.43400966966708593 -0.04689906353995913 0.02196541573215883 0.10614370004585742
0.09667364806328706 -0.5612377439971284 -0.7634609388080196 0.2805018692728266 -0.18513599919846505 1.0166191234704225 -0.10031075631218289 -1.3146638438542242
0.20274265290395987 0.05378163239785191 0.33134002528128953 -0.16589378053505677 -0.050792759783705295 -0.3971999990101844 0.08222125967502758 -0.011085329717090114
0.1802432376732599 0.07462962745752319 0.1116787156904433 0.04289217484104639 -0.416441836812446 0.10881132513711185 -0.06598567887822672 -0.7562200100001023
-0.09639296514009964 -0.09091565922041477 -0.1884592906970161 -0.11809503934386675 0.05094385260705536 -0.529584499976084 -0.14369840869244882 0.05524170001527844
-0.7048571406917286 -0.019182916839865817 -0.09233684821597642 -0.3379135244947721 -0.4570329833266365 -0.196283945164882 -0.6254575328442732 -0.21465237881086022
-0.06599828649166892 -0.5068942070038754 -0.36972435736649994 -0.06034462636097786 -0.07949022787634757 -0.14186969453172138 -0.08585263331718808 -0.6355282566897771
-0.3033415874850632 -0.05788097522832921 -0.6313892099233043 -0.1761208850183806 -0.13209307627166406 -0.37335457646458126 0.8509642789706306 0.2769227420650918
-0.09154806978240376 -0.49983943762160615 0.026556472160458842 0.05288087673273013 0.5355591477841196 0.04596104095518329 -0.2773580212595622 0.1116787156904433
-0.04289217484104638 0.41644183681244606 0.10881132513711185 0.0659856788782267 0.7562200100001023 -0.09639296514009964 0.09091565922041477 0.18845929069701614
-0.11809503934386674 -0.05094385260705537 0.529584499976084 -0.14369840869244885 -0.05524170001527845 0.7048571406917286 -0.01918291683986582 0.09233684821597642
0.3379135244947721 -0.4570329833266365 0.19628394516488204 0.6254575328442732 -0.21465237881086027 0.06599828649166892 0.5068942070038754 -0.36972435736649994
0.06034462636097784 0.07949022787634759 -0.14186969453172144 0.08585263331718808 0.6355282566897771 -0.3033415874850632 0.05788097522832922 0.6313892099233043
-0.17612088501838064 0.13209307627166406 0.37335457646458126 0.8509642789706306 -0.2769227420650918 0.09154806978240378 -0.49983943762160615 -0.026556472160458842
-0.05288087673273012 0.5355591477841195 -0.0459610409551833 0.2773580212595623 0.9193178561617067 -1.2402818181950106 -1.6053283423277436 0.4170450382139501
0.07006575015096056 -0.007511214482649865 -0.6312320865529255 0.03262053925249955 -0.14265456233017285 0.2979300123404675 -0.18760028614224664 -0.03400375014478815
0.4700113037287654 -0.32548944911208694 -0.0973644434802821 0.5477957993762255 -0.11146123298223583 0.11421820554518543 0.1778080863063213 -0.08958780744078439
0.06406268366393138 -0.6563144161210028 0.32717352913011405 0.10123895070208884 -0.2919216257705314 -0.23692499945183046 -0.06217051006428257 -0.05145395081027322
-0.0879725404246902 -0.012766003555103331 0.0 0.0 0.0 0.0 0.0 0.0
0.07519847990983405 0.007438913087371996 -0.030257058298960502 0.02059715262265594 -0.03475280717645 -0.47267125004088767 0.04802998384119092 -0.0605280879087404
0.44398638336687535 -0.04154273390220149 0.016678064022303186 0.10483763424590917 0.10328570428242206 -0.568199228510436 -0.7645063948102789 0.28684612406307053
-0.16990095028541954 1.023840152387033 -0.11074080544924116 -1.2875938407768897 0.18548054881518522 0.04376417831672083 0.31548180519063196 -0.1738448027625473
-0.054566642047181695 -0.3945527587961055 0.06862345740251345 -0.01684478553042139 0.17770650105154848 0.07273174560213877 0.1116787156904433 0.04289217484104639
-0.416441836812446 0.10881132513711185 -0.06598567887822672 -0.7562200100001023 -0.09639296514009964 -0.09091565922041477 -0.1884592906970161 -0.11809503934386675
0.05094385260705536 -0.529584499976084 -0.14369840869244882 0.05524170001527844 -0.7048571406917286 -0.019182916839865817 -0.09233684821597642 -0.3379135244947721
-0.4570329833266365 -0.196283945164882 -0.6254575328442732 -0.21465237881086022 -0.06599828649166892 -0.5068942070038754 -0.36972435736649994 -0.06034462636097786
-0.07949022787634757 -0.14186969453172138 -0.08585263331718808 -0.6355282566897771 -0.3033415874850632 -0.05788097522832921 -0.6313892099233043 -0.1761208850183806
