data/amass/ACCAD/Male2Walking_c3d/B4 - Stand to Walk backwards_poses.npz (npz, 740336 bytes, 5 tensors)

trans f8 [553, 3]
0.04771695780501582 0.2617424274884399 0.882516759559601 0.04757155088370898 0.26161383562242824 0.8825024739286845 0.0475526296866857 0.2614246461880274
0.8824329152965779 0.04729283172631165 0.26133520813877675 0.882275108478095 0.04690638356673518 0.26125986724761446 0.8825354292597906 0.046377504593677295
0.26323627166602814 0.8820564498338281 0.04617302512165499 0.26328560069260465 0.882153706084773 0.046043683472850296 0.2633170250427585 0.8822700617712713
0.045862549066265385 0.2632944138042369 0.8824416173141089 0.04579393949701074 0.2631813584950399 0.8825300399499624 0.0457058555926679 0.2630038914839208
0.8825543577137396 0.045617941746504 0.2629569454599139 0.8825311409357273 0.04539905839255207 0.26290973562529457 0.8824917866623176 0.04532067045225901
0.26268230383578167 0.8824932400865716 0.04538190172119876 0.26249509602431187 0.8824868755713593 0.0452838036650725 0.26247947346034567 0.8825297635350153
0.044948510550892835 0.26248652051715393 0.8825840367839796 0.04485388278613394 0.2623812728692334 0.8825257967423826 0.044720771526517954 0.26212387419317934
0.8826048648002218 0.044595420868364155 0.2619218325440167 0.882651936056654 0.04454122802703746 0.26168052134973285 0.8826644399091296 0.04452560820994319
0.2615344983354996 0.8827278007394153 0.044361923328447635 0.26137861143232793 0.88276202344988 0.044194642775134206 0.2610600196654485 0.8826928782728088
0.04397353946588244 0.26077905672211465 0.8826522587197166 0.04367808704617587 0.260604514750593 0.8826616029761681 0.04342589152586962 0.26038546175891925
0.8827749160654337 0.04335269506903744 0.25998334792578487 0.8829035586267013 0.04348735514373768 0.2595063204652874 0.8829891951866061 0.04349563570553486
0.2590646752505859 0.8830093892336409 0.04333660445005734 0.2586190362210296 0.8830281019960913 0.0432802525119817 0.2582899052537073 0.8830989091385735
0.043412289111340575 0.2578968992255241 0.8831378868410225 0.04357263267712603 0.25736498000431784 0.8831455669337221 0.043665894514726654 0.25676225400030744
0.8832126318859834 0.04332766817825662 0.2562099770922273 0.8834208506894053 0.04308207844432951 0.25568412180131667 0.8835356407995159 0.042945913318927935
0.2550043157517854 0.8836728089742036 0.04289152192629685 0.25434177836738797 0.8838973196343438 0.04296828988955739 0.2537416637897046 0.8842249789276003
0.04319302172125659 0.2531123018337163 0.8845453911851365 0.043427471543717885 0.25226302048313004 0.8846938478467227 0.04355064285815911 0.25127783042802
0.8847468658779614 0.04370834298285507 0.25028359539140455 0.8848129316747995 0.04402042683694537 0.24948736118893042 0.8849091138845739 0.04447801630134423
0.24856745604822728 0.8849787240786875 0.045096539356534016 0.24746917036665417 0.885151491325809 0.04576169501450139 0.2464416718485909 0.8852617390747526
0.04644132022596319 0.24536907191864474 0.885306937431258 0.047098631177184574 0.24414511742113143 0.8854205982000223 0.047729512134046075 0.24291340732698477
0.885542444723044 0.04855381127991294 0.24161208008158286 0.8857124571818945 0.04971882732455622 0.2401883975670414 0.8858414870632442 0.05082529757832086
0.23863735102394482 0.8858649861259315 0.051824005075174706 0.237225108176929 0.8859747546908812 0.052960540039925834 0.23589832941132202 0.8861290835160004
0.05469490749290206 0.23451161068188572 0.8862896821478878 0.05619777306495626 0.23261893316474042 0.8864295274141616 0.05761784834058595 0.2309950695722295
0.8866280791563719 0.059420241396139495 0.22929999217496794 0.8869999846557283 0.061198911022729084 0.22750594400973498 0.8873138135254235 0.06285563399027257
0.22589254888892465 0.8874989289566402 0.06436739709408423 0.22430795112165522 0.8876791558076558 0.06602634717687546 0.22275315001274118 0.887855513720621
0.0676456821260969 0.22127470357209597 0.8880923437393359 0.0690209372316091 0.21974578288612556 0.8883411837602422 0.07041190783127921 0.2181961694122905
0.8885904724486466 0.07209848496769607 0.2169868641314307 0.8886683191369887 0.07389049004275092 0.215913116306116 0.8886156454071771 0.07577562949655903
0.21466446307825074 0.8886455048593275 0.07763037147055932 0.21339995158571456 0.8887574410436908 0.07930348158798795 0.21201344422839707 0.8886262697098265
0.08115717590231496 0.2101972724550338 0.8884187015492614 0.0830979180128828 0.20836875213532477 0.8883768689004302 0.08479171530131495 0.20676946458773973
0.888356122518876 0.08600924694923531 0.20562671140058678 0.8881562614482779 0.08735126584983875 0.2043288218313478 0.8879939724429168 0.08892943020624938
0.20297276343257398 0.8879408379240378 0.09064279738420325 0.20156468680758446 0.8878453627399011 0.09239302871369603 0.19992197002933487 0.8875867871505068
0.09427290907240575 0.19834689219741128 0.8875140934981093 0.09620382133842817 0.196589045660902 0.8874277961880958 0.09815151114312429 0.1949381739975498
0.8871538839039818 0.10013360237388026 0.19328597143073267 0.8868060271526517 0.10226300660309201 0.1916650331223403 0.8865994219454948 0.10460293519546136
00000000: 5e6c 796a 5b6e a83f cc76 824f 63c0 d03f
00000010: 495f 8fc9 933d ec3f 8bf3 875e 4c5b a83f
00000020: 187c 0bf5 47be d03f 9935 05d4 753d ec3f
00000030: 9dac af7a d158 a83f a0bd 6f70 2ebb d03f
00000040: 919b 03f4 e33c ec3f 1711 331b c436 a83f
00000050: 28f6 0f4f b7b9 d03f e99f 1f02 993b ec3f
00000060: c417 c90e 1d04 a83f d77d 654e 7bb8 d03f
00000070: 8b6d c7f0 ba3d ec3f 51f7 ffd2 cabe a73f
00000080: cc4c 7bf2 dcd8 d03f 9663 a872 ce39 ec3f
00000090: bfb4 b5a1 fda3 a73f 7ee0 1ed9 abd9 d03f
000000a0: cbbc b568 9a3a ec3f b512 68a5 0993 a73f
000000b0: 6b79 c2a6 2fda d03f 3485 b16c 8e3b ec3f
000000c0: bc9c b3c8 4b7b a73f 5a8e 20d0 d0d9 d03f
000000d0: 4dca df33 f63c ec3f 9344 fda0 4d72 a73f
000000e0: 8acb e99f f6d7 d03f 3f53 6aa3 af3d ec3f
000000f0: 9b2d 0306 c266 a73f 203a 2946 0ed5 d03f
00000100: 5a54 eaa2 e23d ec3f 8dfa d21f 3c5b a73f
00000110: a068 405e 49d4 d03f 10a8 80f2 b13d ec3f
00000120: 9d62 219e 8b3e a73f a1e1 135b 83d3 d03f
00000130: 2281 566a 5f3d ec3f d7b9 d95a 4534 a73f
00000140: 879b 0d70 c9cf d03f e39c a376 623d ec3f
00000150: 6717 72ef 4b3c a73f 263a 323b b8cc d03f
00000160: 7e4d b71d 553d ec3f 6758 8f4f 702f a73f
00000170: 038b 98b4 76cc d03f e624 040f af3d ec3f
00000180: 79d6 a3bd 7d03 a73f c2c4 5043 94cc d03f
00000190: edae bee0 203e ec3f 1783 548f 16f7 a63f
000001a0: f098 83d2 daca d03f e950 5cbd a63d ec3f
000001b0: 6b0a 5116 a4e5 a63f 0546 ca36 a3c6 d03f
000001c0: 4470 b38e 4c3e ec3f 68a9 5c04 36d5 a63f
000001d0: dca2 38ca 53c3 d03f 44a9 e345 af3e ec3f
000001e0: c64c 669b 1bce a63f 18a1 4ca8 5fbf d03f
000001f0: 4f0f d87e c93e ec3f 1b43 317e 0fcc a63f
00000200: 761c 4831 fbbc d03f f043 6e5f 4e3f ec3f
00000210: 6945 c423 9bb6 a63f 8772 fe5a 6dba d03f
00000220: d1c6 9b24 963f ec3f 5355 c122 aea0 a63f
00000230: e165 b015 35b5 d03f 9900 9322 053f ec3f
00000240: bf68 ca23 b383 a63f 049b 06a4 9ab0 d03f
00000250: 8522 1ef3 af3e ec3f b890 d466 f95c a63f
00000260: becc 028f bead d03f 67f6 c68b c33e ec3f
00000270: 4077 ce1f eb3b a63f 4df0 a6c8 27aa d03f
00000280: a85d 472e b13f ec3f f8aa 070f 5332 a63f
00000290: 2b22 3632 91a3 d03f c25b baf6 be40 ec3f
000002a0: 2e87 4380 f943 a63f b33c e065 c09b d03f
000002b0: db87 818e 7241 ec3f 347d bf59 0f45 a63f
000002c0: 1502 f000 8494 d03f b538 1ae8 9c41 ec3f
000002d0: 9a55 aa25 3730 a63f a74f acdb 368d d03f
000002e0: 92b5 7026 c441 ec3f b802 344a d428 a63f
000002f0: 34e7 fc61 d287 d03f 3645 bca4 5842 ec3f
00000300: b595 f4b3 223a a63f b375 fafe 6181 d03f
00000310: 58e7 ba62 aa42 ec3f 09a0 b2f0 264f a63f
00000320: 7445 10f7 aa78 d03f 91ce f27d ba42 ec3f
00000330: 4b5d c849 605b a63f 05d4 f1f2 ca6e d03f
00000340: 0ca9 2b23 4743 ec3f a0d3 ac4b 0b2f a63f
00000350: 1948 2188 be65 d03f 8918 cacd fb44 ec3f
00000360: 9b98 ecab da0e a63f 898f 4fef 205d d03f
00000370: c8b2 4289 ec45 ec3f 2f3e 67ba 01fd a53f
00000380: a489 1f9f fd51 d03f be13 dd32 0c47 ec3f
00000390: fef1 e5a7 e0f5 a53f d70a 06bd 2247 d03f
000003a0: 0640 1b08 e348 ec3f c46f ae8f f0ff a53f
000003b0: 8d00 e7ac 4d3d d03f 539c d92e 924b ec3f
000003c0: 1d9b 6a4f 651d a63f 75d4 a5f0 fd32 d03f
000003d0: 4df7 de22 324e ec3f 5675 0e24 203c a63f
000003e0: 31c6 bdcb 1325 d03f 9d2b ef78 694f ec3f
000003f0: dd54 9715 454c a63f c67b f99b ef14 d03f
00000400: 22e6 c5a8 d84f ec3f fef0 589f f060 a63f
00000410: b69b 3b7c a504 d03f 6ee0 9335 6350 ec3f
00000420: abc4 3d6b d889 a63f 9b30 89ac 33ef cf3f
00000430: 7621 02eb 2c51 ec3f 177a cf92 d2c5 a63f
00000440: e4dc 49f3 0ed1 cf3f 545c b2e6 be51 ec3f
00000450: 30ef 65c3 e416 a73f ac1b bfdc 11ad cf3f
00000460: d0ff 6738 2953 ec3f d85d feae 136e a73f
00000470: a00a 7b94 668b cf3f 9a3c 376d 1054 ec3f
00000480: 366e 1b1f 28c7 a73f e793 abf5 4068 cf3f
00000490: b10d e636 6f54 ec3f 9c4b 2fd1 4f1d a83f
000004a0: aca2 66af 2540 cf3f cc29 0f94 5d55 ec3f
000004b0: 2feb 56ab 0070 a83f 915a 1d5a c917 cf3f
000004c0: 86c5 e91b 5d56 ec3f 2a36 168f 0bdc a83f
000004d0: 586c 2207 25ed ce3f 7531 a8a6 c157 ec3f
000004e0: 2e79 b502 bf74 a93f 62ec 3650 7ebe ce3f
000004f0: 710d 0c3f d058 ec3f 0d14 d1fd c505 aa3f
00000500: c13e 2031 ab8b ce3f c5a2 0287 0159 ec3f
00000510: 7027 e40d ad88 aa3f f879 b470 645d ce3f
00000520: 9e53 8fba e759 ec3f c763 e6d6 a41d ab3f
00000530: 4357 009d ea31 ce3f a58a 3761 2b5b ec3f
00000540: 2f28 e18d f800 ac3f 1b9b 34f9 7904 ce3f
00000550: ee6f f32d 7c5c ec3f 9712 d85a f4c5 ac3f
00000560: 7abd 2f0b 75c6 cd3f 5e7b ce74 a15d ec3f
00000570: 14d1 932c 1680 ad3f d5cb ac16 3f91 cd3f
00000580: 2e24 76d9 415f ec3f d89f 0873 546c ae3f
00000590: 5aa9 aebf b359 cd3f 6bc3 b4ca 4d62 ec3f
000005a0: 5b70 c9b2 7655 af3f fb6d 952e ea1e cd3f
000005b0: fe2e 4cf0 df64 ec3f 7d89 5b8c 4e17 b03f
000005c0: 65aa f10a 0cea cc3f 4e52 6327 6466 ec3f
000005d0: e89e 72b9 617a b03f 6f6f 2679 1fb6 cc3f
000005e0: d61c f11d de67 ec3f b58c cc49 1ae7 b03f
000005f0: cb5e 31db 2c83 cc3f 6a1b 60f7 4f69 ec3f
00000600: 907b 7238 3a51 b13f 831a a3bf ba52 cc3f
00000610: af07 86a2 406b ec3f d226 262c 5bab b13f
00000620: 8804 773b a120 cc3f d815 7e7d 4a6d ec3f
00000630: 2c62 62c9 8306 b23f 697f de21 daed cb3f
00000640: 3488 5649 556f ec3f d503 07db 0b75 b23f
00000650: 5e94 8dbe 39c6 cb3f b7e8 f58a f86f ec3f
00000660: 4612 38b6 7cea b23f 95f6 a77e 0aa3 cb3f
00000670: b79b f713 8a6f ec3f 4083 851a 0866 b33f
00000680: 0d6a 4408 207a cb3f 8b76 a3b2 c86f ec3f
00000690: 4273 a482 95df b33f 10aa 838a b050 cb3f
000006a0: 637f eb71 b370 ec3f d81c e1a3 3b4d b43f
000006b0: 04fb a2ac 4123 cb3f 51a5 d85b a06f ec3f
000006c0: b70e 5678 b7c6 b43f 078e 7385 bee7 ca3f
000006d0: 33e2 890e ed6d ec3f 3024 3bb8 e745 b53f
000006e0: 7ffb f6c7 d3ab ca3f 4368 ce53 956d ec3f
000006f0: 33de 30ec e8b4 b53f 6d9e 1bfc 6b77 ca3f
00000700: 2970 add1 696d ec3f 12f1 ccb6 b304 b63f
00000710: 7924 53e0 f951 ca3f 2a0e 15ae c66b ec3f
00000720: afd9 160e a75c b63f 33ab b263 7227 ca3f
00000730: 9dff d555 726a ec3f f443 6342 14c4 b63f
00000740: a0f8 75f2 02fb c93f 9d54 75e7 026a ec3f
00000750: 5213 62ca 5d34 b73f c1fb ee24 dfcc c93f
00000760: b3f0 9bad 3a69 ec3f 9026 b4cc 11a7 b73f
00000770: c091 8309 0b97 c93f 5c8a e567 1c67 ec3f
00000780: 3361 5df5 4422 b83f ab24 a053 6e63 c93f
00000790: e907 caf4 8366 ec3f 2e16 664a d0a0 b83f
000007a0: 3dc6 ee70 d429 c93f 210e 46fa ce65 ec3f
000007b0: 9aa6 691a 7520 b93f 12dd 07ed bbf3 c83f
000007c0: 2962 bc8a 9063 ec3f 092e 6d13 5ba2 b93f
000007d0: 0009 093f 98bd c83f c085 9008 b760 ec3f
000007e0: fc6e f38c e82d ba3f ec0a 86d4 7a88 c83f
000007f0: a711 3dc0 055f ec3f bfe8 ba09 42c7 ba3f

mocap_framerate f8 []
120.0
00000000: 0000 0000 0000 5e40

betas f8 [16]
-0.10177492401008648 -0.7784032910200543 0.7851509561351558 1.0612141781064566 0.7366055528640801 -0.5779045599249427 0.5216004847528668 -0.3107671876829067
0.19804836199574902 0.06637032945775724 -0.13347498444642367 -0.04142319662286859 -1.01038264458324 -0.36964670654258414 0.49680678050037697 0.15339102705212385
00000000: e01b 2de2 eb0d babf f9f4 c004 aee8 e8bf
00000010: 89c1 e0e5 f41f e93f cd4c d0b7 bbfa f03f
00000020: 9b4d f3ce 4592 e73f e5c7 22b4 317e e2bf
00000030: 02ec f27f f3b0 e03f 8e26 f10e 9ce3 d3bf
00000040: 8328 e612 a659 c93f c920 725a a5fd b03f
00000050: 2308 8452 b515 c1bf b9fd 94d5 6b35 a5bf
00000060: 68e5 eefd 862a f0bf 242b eba8 4aa8 d7bf
00000070: e687 abaa aecb df3f 1528 5832 51a2 c33f

dmpls f8 [553, 8]
0.35485106537183175 -1.1381419424890695 -0.23557428330464908 0.8985839719207191 -0.5499827030375216 0.9016421451207324 -0.6985288458503722 -1.7070867099021845
0.35485106537183325 -1.138141942489071 -0.23557428330464855 0.898583971920718 -0.5499827030375221 0.9016421451207328 -0.698528845850373 -1.7070867099021854
0.37790954287971823 -1.166301921281496 -0.23920386342316313 0.8808656726454858 -0.544163600548936 0.9047978880160404 -0.7117976166214066 -1.7169092125174066
0.37719213474033675 -1.186433053366679 -0.2501141903080627 0.8646054610574764 -0.5175490288914056 0.9065531960732113 -0.7260419328485415 -1.707408519165101
0.17890901308444265 -1.1371360750554746 -0.28154747757319387 0.7366871703162791 -0.5557079874824746 1.010754672684257 -0.7420311331227397 -1.7317715167425043
0.10381280830760725 -1.0628334733282432 -0.220013661461066 0.5980012387153006 -0.5660939075016974 1.033145853119435 -0.8346478054947699 -1.7063395672907675
0.034316709766847794 -1.009306772598068 -0.19288381108107053 0.4978783884543036 -0.584583725409634 1.0450422656005685 -0.9213771280318825 -1.6841519381125514
-0.025426406145959972 -0.9646813647352095 -0.18704385313627442 0.4116632369374172 -0.5945961024136576 1.0601153929669127 -1.0101158030852142 -1.6714337637925625
-0.07564060309122426 -0.936958668773954 -0.19065963932458688 0.3374700494290982 -0.5981920638636372 1.0751494427836092 -1.1011070725493326 -1.6594935394088128
-0.11533611621616868 -0.9212950753951336 -0.1892859828755115 0.2757258755333636 -0.6014831078616435 1.0860400829442654 -1.184577432033252 -1.647033195328677
-0.1414426941650297 -0.9095895288868422 -0.18952062055783517 0.2248865280243759 -0.6058122758688305 1.0926353302576315 -1.2563529394560167 -1.6328976027647757
-0.16087268791727685 -0.8944031581255698 -0.19401263458285092 0.18498137473040108 -0.6087997419019636 1.0970492652089303 -1.3148060549677534 -1.6200292826739138
-0.17871060604243014 -0.8816482357207938 -0.18789110959729063 0.15446173235804517 -0.612865083479721 1.0962837160155532 -1.3610811429459 -1.6042033563144948
-0.19665026290760246 -0.8769409400754917 -0.169963890549896 0.12758405588419042 -0.6200064197718388 1.0907292448138133 -1.396054815912884 -1.5868202944540823
-0.21238073274822833 -0.8784523151306346 -0.16333871376737286 0.10229112300511947 -0.6280082434285618 1.0877880815303858 -1.4312825665035294 -1.5747609220136258
-0.22784105876985702 -0.8737565671453369 -0.1625831167305621 0.07922656208668381 -0.6339456696913138 1.094213161837085 -1.46104116470026 -1.5677823867029355
-0.23506740188955375 -0.864953157865169 -0.16264226751205088 0.06139634169478689 -0.6362740612691784 1.1021720967846678 -1.4911176827357755 -1.5618365991884144
-0.23516863721479214 -0.8642266882260183 -0.16306421124679574 0.060894009718229856 -0.6362822047639946 1.1027555027783056 -1.4926415924885956 -1.5615020704667608
-0.2374071949330188 -0.8433763736993173 -0.1709725236748542 0.05166788123867474 -0.6332650644295746 1.1140878733775252 -1.5160939043056334 -1.553615632786199
-0.24617674091841835 -0.830227717813534 -0.1632831674330871 0.03494832132319546 -0.6338876329709585 1.122079923139104 -1.5238256927071634 -1.5439738830962646
-0.255973445188162 -0.8163417826609233 -0.14719485128092613 0.018346484209379975 -0.635267599891015 1.1218901196929678 -1.5224123744739761 -1.5359794733979684
-0.26282878810792415 -0.8151648135485355 -0.1421725906059088 0.007919026308403663 -0.6329492073726125 1.1235031772474675 -1.5280329536845587 -1.5350314627173134
-0.2658330613188425 -0.8196730721112204 -0.14837228734800098 0.006176613828470781 -0.6272381459941104 1.1260537846905048 -1.5402558213950188 -1.537626731257713
-0.26786411059296505 -0.8252229970345701 -0.15518533095049936 0.006132768309862035 -0.6237321448496896 1.1235839366690836 -1.5532450346146964 -1.5394258604305566
-0.2733832234957291 -0.8305807499042153 -0.15305432296323476 0.004360425858780423 -0.6261941743843971 1.1179496628900745 -1.564281455407415 -1.5404020828409644
-0.27860740852097 -0.8312532624456035 -0.1543436730131685 0.00340844634215592 -0.6244503661328858 1.1205588087930416 -1.5695619167223234 -1.5429357083435955
-0.2809544917188004 -0.822501106629933 -0.15680708148165268 -0.004495325937772589 -0.6173472775293107 1.132280846194051 -1.5677413613183788 -1.5459125413531365
-0.28232200144379255 -0.8126945703230758 -0.16255505367732626 -0.014005372169596502 -0.6129851533655308 1.1405548538204864 -1.567156868777557 -1.5431568341205644
-0.28947862250487655 -0.8073835277474295 -0.16402803958350173 -0.019763198228934485 -0.6096052344310455 1.1419700599753997 -1.5693280615246705 -1.537469425782288
-0.29228671022833336 -0.7991053105911426 -0.1614910062610149 -0.026190887673309356 -0.6065529532808882 1.1430869531961285 -1.5762952981187546 -1.5301101630244327
-0.29337695376198814 -0.7930552684728952 -0.15639372802219367 -0.029024629560916827 -0.6098514150791399 1.1414288860096506 -1.5850202824030435 -1.5225342357347813
-0.29111228354383917 -0.7842271665126828 -0.1573398521334544 -0.026291620490754876 -0.6165598887303358 1.1345870350197922 -1.593154499309021 -1.5151057803916173
00000000: f441 2e3e e1b5 d63f ba24 5353 d435 f2bf
00000010: ca3a 4951 4c27 cebf 267f 832c 33c1 ec3f
00000020: c12d 5d53 7599 e1bf 82a4 bfa0 40da ec3f
00000030: dead 872a 595a e6bf 3c75 6727 3a50 fbbf
00000040: 0f42 2e3e e1b5 d63f c124 5353 d435 f2bf
00000050: b73a 4951 4c27 cebf 1c7f 832c 33c1 ec3f
00000060: c52d 5d53 7599 e1bf 86a4 bfa0 40da ec3f
00000070: e5ad 872a 595a e6bf 4075 6727 3a50 fbbf
00000080: d6f0 e081 ab2f d83f e7a7 1234 2ca9 f2bf
00000090: e45a 3d71 3b9e cebf 0ece 0535 0d30 ec3f
000000a0: 4f00 81c8 c969 e1bf b799 50b3 1af4 ec3f
000000b0: 5c4f 98cb 0bc7 e6bf fc69 5fcb 7578 fbbf
000000c0: ba29 c17a ea23 d83f 27a7 b139 a1fb f2bf
000000d0: a2df e8f2 de01 d0bf 65ea 6512 d9aa eb3f
000000e0: e148 25fb c28f e0bf bdff 26d9 7b02 ed3f
000000f0: dc7d a34a bc3b e7bf 479d 6b98 8b51 fbbf
00000100: f922 1494 7de6 c63f e870 d798 b531 f2bf
00000110: acae 1cb6 df04 d2bf b784 fcf8 f092 e73f
00000120: 629f 0b1e 5cc8 e1bf 3f54 7717 0d2c f03f
00000130: 1b08 2c13 b8be e7bf 9dda c80c 56b5 fbbf
00000140: 8c4b 96e8 7993 ba3f 4e9f 10ac 5d01 f1bf
00000150: da01 535c 6829 ccbf 96fd 677e d322 e33f
00000160: 91e8 65f8 701d e2bf fd55 32f2 c387 f03f
00000170: 10e7 8850 6fb5 eabf 7a27 d6b7 2a4d fbbf
00000180: a653 4fb4 f591 a13f 490a bfdb 1e26 f0bf
00000190: 73b1 42ae 6ab0 c8bf 83f8 f250 3ddd df3f
000001a0: 2810 cded e8b4 e2bf 3313 1b3d 7eb8 f03f
000001b0: 28bd 05e3 eb7b edbf c903 7b4d 49f2 fabf
000001c0: 0e27 683b 6109 9abf de25 1374 abde eebf
000001d0: 1aae 1190 0df1 c7bf 3126 e7c2 b058 da3f
000001e0: 6343 c667 ee06 e3bf 1b77 ec8e 3bf6 f03f
000001f0: c4c7 3630 6f29 f0bf 3ab5 8e54 31be fabf
00000200: 53ca 86bc 2e5d b3bf 7ecf 02bf 90fb edbf
00000210: 157b c8f9 8867 c8bf d65b 6bfa 1b99 d53f
00000220: 91ac e0ae 6324 e3bf 7317 f1e6 cf33 f13f
00000230: 20e6 1f73 229e f1bf 3bf2 fa18 498d fabf
00000240: 9833 32ef aa86 bdbf e936 59cf 3f7b edbf
00000250: 1d51 05e9 853a c8bf b0e9 8424 7ea5 d13f
00000260: 2397 ab80 593f e3bf 8040 e690 6b60 f13f
00000270: 8599 2277 07f4 f2bf 0bcf d57a 3f5a fabf
00000280: 1635 d950 cb1a c2bf 0f4c eb7f 5b1b edbf
00000290: dd54 9b31 3642 c8bf bf7c 96ed 14c9 cc3f
000002a0: 12e7 0b6d d062 e3bf 2c92 1e2f 6f7b f13f
000002b0: 2827 338a 051a f4bf d476 993c 5920 fabf
000002c0: 1150 b6ea 7997 c4bf 7ed4 325f f39e ecbf
000002d0: 7da6 45f0 67d5 c8bf 6308 6b3d 78ad c73f
000002e0: 9307 a998 497b e3bf 5fc5 c287 838d f13f
000002f0: 5eb5 ea12 7209 f5bf 4a59 3ad3 a3eb f9bf
00000300: 1f46 3338 fddf c6bf ace6 5f5c 7636 ecbf
00000310: 59fa 76dd d00c c8bf 2c0c 7bec 66c5 c33f
00000320: 97fb 4c3c 979c e3bf 54c9 36cb 608a f13f
00000330: a47a 4205 fdc6 f5bf 2a11 7823 d1aa f9bf
00000340: e40e f8f7 d52b c9bf 3aba 4472 e60f ecbf
00000350: 3bd4 b473 60c1 c5bf c4be c1a1 ac54 c03f
00000360: f15c 07b4 17d7 e3bf f841 3482 a073 f13f
00000370: 634e 1c93 3d56 f6bf 32f3 54ad 9d63 f9bf
00000380: d021 bab6 4a2f cbbf 279c 9207 481c ecbf
00000390: e499 e670 48e8 c4bf da64 fa43 c02f ba3f
000003a0: 4d9c 64be a418 e4bf e86c b279 9467 f13f
000003b0: 4e7b 678c 88e6 f6bf c813 3182 3832 f9bf
000003c0: 5b20 0d54 e529 cdbf 0ebe 1155 d0f5 ebbf
000003d0: 6ba8 9e08 86cf c4bf ab06 2325 3148 b43f
000003e0: f97a d86d 4849 e4bf ac16 0fa9 e581 f13f
000003f0: 36f5 47b3 6c60 f7bf 9724 e2fb a215 f9bf
00000400: 4754 bc49 b016 cebf 5a4a b33e b2ad ebbf
00000410: 67ad f439 76d1 c4bf 3ca7 585f 576f af3f
00000420: 1037 8e6b 5b5c e4bf f40f 6435 7fa2 f13f
00000430: 3c66 1d37 9edb f7bf 925c b35f 48fd f8bf
00000440: 2af3 f082 011a cebf 3c5b 48ba bea7 ebbf
00000450: a9fc 39bf 49df c4bf 6b32 86e8 7f2d af3f
00000460: c79e 8f7f 6c5c e4bf 75ab 3ef4 e2a4 f13f
00000470: bf34 8626 dce1 f7bf 0aa8 5498 e9fb f8bf
00000480: d144 09e5 5b63 cebf 9b3e e872 f0fc eabf
00000490: d55a d97a 6de2 c5bf d3f1 5868 3674 aa3f
000004a0: 5394 ad18 b543 e4bf 336d 50ce 4dd3 f13f
000004b0: bb85 8aae eb41 f8bf e7ef d510 9cdb f8bf
000004c0: 80e6 a32d b882 cfbf 32bd 07b8 3991 eabf
000004d0: 2b63 0e7c 76e6 c4bf ee35 4412 bfe4 a13f
000004e0: 2d5f 9eb7 ce48 e4bf 2017 d613 0af4 f13f
000004f0: 81b5 af0c 9761 f8bf e36c 5cf5 1db4 f8bf
00000500: 1291 ee71 de61 d0bf 5962 5ccd 781f eabf
00000510: 9411 32e8 47d7 c2bf 9616 b4b6 6bc9 923f
00000520: b9b0 b7b7 1c54 e4bf d396 dc0d 43f3 f13f
00000530: 4f43 f613 cd5b f8bf 2d25 5936 5f93 f8bf
00000540: f9bb 57d6 2fd2 d0bf 094f e184 d415 eabf
00000550: e81d 8521 b632 c2bf f207 16b8 d937 803f
00000560: 4939 36b2 1e41 e4bf efad b377 def9 f13f
00000570: 4191 b4ae d272 f8bf 003b ab26 7d8f f8bf
00000580: e5d6 23ac 6803 d1bf 3425 c405 c33a eabf
00000590: ab6c e5f4 dcfd c2bf 76f8 4a26 a64c 793f
000005a0: e925 7bbb 5512 e4bf 1e86 2cf9 5004 f23f
000005b0: f4d7 c549 e3a4 f8bf ee50 c37c 1e9a f8bf
000005c0: db35 b182 af24 d1bf 6c75 050f 3a68 eabf
000005d0: a02b a0e8 1cdd c3bf 3f64 3275 ac1e 793f
000005e0: bdfc 721d 9df5 e3bf d8df 6426 33fa f13f
000005f0: 1c83 2577 17da f8bf 88a7 d202 7da1 f8bf
00000600: 1a1c 0c59 1c7f d1bf 06d3 b014 1e94 eabf
00000610: ddba d1b7 4897 c3bf 308c 5ce7 3cdc 713f
00000620: 94a7 7d5d c809 e4bf 57fe 8a2f 1fe3 f13f
00000630: 136d cbfd 4b07 f9bf 27e0 87a7 7ca5 f8bf
00000640: 1056 012b b4d4 d1bf a2b5 1c71 a099 eabf
00000650: 5bd1 f791 88c1 c3bf 763b 3bb2 07ec 6b3f
00000660: d582 9055 7ffb e3bf 5d2c d012 cfed f13f
00000670: 49e9 d5f4 ec1c f9bf 51a9 725a ddaf f8bf
00000680: e22d 668c 28fb d1bf a6c7 3cd7 ed51 eabf
00000690: 1059 5f23 4112 c4bf 8f95 33de b069 72bf
000006a0: b46a e813 4fc1 e3bf 86a6 4485 d21d f23f
000006b0: ed2e 37f7 7715 f9bf 5268 f9c9 0ebc f8bf
000006c0: 531c c94c 9011 d2bf 8b94 250b 9801 eabf
000006d0: 6cfc ab9f 9ace c4bf f669 7e3b d9ae 8cbf
000006e0: 966e 540a 939d e3bf b13f 4772 b63f f23f
000006f0: 379f b114 1313 f9bf f858 7238 c5b0 f8bf
00000700: 3a2c 2358 d186 d2bf 6023 e0fa 15d6 e9bf
00000710: 5bae d1ec defe c4bf a605 3bc8 cd3c 94bf
00000720: 9141 2bd6 e281 e3bf 21b0 c965 8245 f23f
00000730: b918 cfbd f71b f9bf 735b 658a 7999 f8bf
00000740: 991c 5f51 d3b4 d2bf 6d90 e14c 4592 e9bf
00000750: c99d 3ebf bcab c4bf a250 0ab8 c8d1 9abf
00000760: b446 34bd e168 e3bf f062 878b 154a f23f
00000770: 5023 246b 8138 f9bf 8479 57cb 547b f8bf
00000780: b4b3 7321 b0c6 d2bf e75e 4071 b560 e9bf
00000790: d1d1 93ad b504 c4bf ed79 f8ea a1b8 9dbf
000007a0: 30e5 651d e783 e3bf 47f0 81ef 4a43 f23f
000007b0: 21af 463a 3e5c f9bf 0057 d8db 4c5c f8bf
000007c0: 0138 526a 95a1 d2bf a4d0 1992 6318 e9bf
000007d0: 11a5 a257 b623 c4bf 8aa2 aac8 30ec 9abf
000007e0: fee8 c3cd dbba e3bf 8402 1ebc 4427 f23f
000007f0: b81e 8092 8f7d f9bf 6c33 0c8f df3d f8bf

poses f8 [553, 156]
0.8181038434990633 -1.612002876448425 -1.693000431171142 0.11762997311630796 0.059191790682512846 -0.01701988273199122 0.05028776808112872 -0.05312264708980764
-0.013547742031648666 0.07792441372123046 0.036021606985493226 -0.010804460647941817 -0.04917153748654237 -0.056529103801869256 -0.05066312060663883 0.011451189164490509
0.01347484300009688 0.06167891438139707 0.12405946191112192 -0.054497173281913946 0.043098310747439965 -0.1898040175383226 0.19319171147458034 0.07809878349598205
-0.12495865138091951 -0.10534770658982978 0.02842728892190639 -0.08528099918986498 -0.01282035683314996 0.009544084071965529 0.0 0.0
0.0 0.0 0.0 0.0 -0.07351004464906079 -0.0583305882001758 0.017995511883262257 0.026561344943593142
-0.10194396081386117 -0.5674670567714964 0.03873600361322823 0.1734924020746689 0.568085160518419 0.10451906941628923 -0.07056950233859896 0.07108617382921525
0.2098148176768771 -0.23071524368324844 -0.8580522373124423 0.22946326801036665 0.17684022661814372 0.8468034984711544 0.19148376645747886 -0.38018326533686714
0.033047179873405726 0.027455816756568264 0.38010920291137057 -0.14262962353221428 0.12465047937186921 -0.21699887160603337 -0.12963256749034854 0.062206977833572694
0.18616152832296257 0.1179394958537135 0.1116787156904433 0.04289217484104639 -0.416441836812446 0.10881132513711185 -0.06598567887822672 -0.7562200100001023
-0.09639296514009964 -0.09091565922041477 -0.1884592906970161 -0.11809503934386675 0.05094385260705536 -0.529584499976084 -0.14369840869244882 0.05524170001527844
-0.7048571406917286 -0.019182916839865817 -0.09233684821597642 -0.3379135244947721 -0.4570329833266365 -0.196283945164882 -0.6254575328442732 -0.21465237881086022
-0.06599828649166892 -0.5068942070038754 -0.36972435736649994 -0.06034462636097786 -0.07949022787634757 -0.14186969453172138 -0.08585263331718808 -0.6355282566897771
-0.3033415874850632 -0.05788097522832921 -0.6313892099233043 -0.1761208850183806 -0.13209307627166406 -0.37335457646458126 0.8509642789706306 0.2769227420650918
-0.09154806978240376 -0.49983943762160615 0.026556472160458842 0.05288087673273013 0.5355591477841196 0.04596104095518329 -0.2773580212595622 0.1116787156904433
-0.04289217484104638 0.41644183681244606 0.10881132513711185 0.0659856788782267 0.7562200100001023 -0.09639296514009964 0.09091565922041477 0.18845929069701614
-0.11809503934386674 -0.05094385260705537 0.529584499976084 -0.14369840869244885 -0.05524170001527845 0.7048571406917286 -0.01918291683986582 0.09233684821597642
0.3379135244947721 -0.4570329833266365 0.19628394516488204 0.6254575328442732 -0.21465237881086027 0.06599828649166892 0.5068942070038754 -0.36972435736649994
0.06034462636097784 0.07949022787634759 -0.14186969453172144 0.08585263331718808 0.6355282566897771 -0.3033415874850632 0.05788097522832922 0.6313892099233043
-0.17612088501838064 0.13209307627166406 0.37335457646458126 0.8509642789706306 -0.2769227420650918 0.09154806978240378 -0.49983943762160615 -0.026556472160458842
-0.05288087673273012 0.5355591477841195 -0.0459610409551833 0.2773580212595623 0.8172404473715612 -1.6120480526966339 -1.6910436907195068 0.11636327979654948
0.057165111772242476 -0.01875983283245063 0.05036443081613336 -0.052271729966215895 -0.016074577667931526 0.07658946361220945 0.0357477204748288 -0.012075247842317009
-0.047641249825685225 -0.05652846802968066 -0.051245152889416494 0.010762913046745096 0.014044070043674934 0.06223045601518587 0.12579305023537035 -0.05474575833695562
0.042437464274014125 -0.18917142249951377 0.19420334600408018 0.07753796648966804 -0.12467901934892418 -0.1064424200316525 0.03282846162785499 -0.08497617228208337
-0.013353159754378736 0.00930490933951476 0.0 0.0 0.0 0.0 0.0 0.0
-0.08104385846214601 -0.05833478668381875 0.022398090014436184 0.02840684815353163 -0.10229560897409856 -0.5676168068777969 0.04076916943372612 0.17344335364607197
0.5694286740115013 0.11183706042581225 -0.07003888115414943 0.07164676491213637 0.20813943501668208 -0.2304839449234248 -0.8559683825191233 0.22847798738635414
0.1789210798252745 0.8452046165254185 0.19329958805037128 -0.38421297421484396 0.031625970328927215 0.027579660744434985 0.3810404382545302 -0.14219860686186825
0.12111754454328894 -0.21635982075942078 -0.1251556139226344 0.06302694307548795 0.18456847513845276 0.11394652836968074 0.1116787156904433 0.04289217484104639
-0.416441836812446 0.10881132513711185 -0.06598567887822672 -0.7562200100001023 -0.09639296514009964 -0.09091565922041477 -0.1884592906970161 -0.11809503934386675
0.05094385260705536 -0.529584499976084 -0.14369840869244882 0.05524170001527844 -0.7048571406917286 -0.019182916839865817 -0.09233684821597642 -0.3379135244947721
-0.4570329833266365 -0.196283945164882 -0.6254575328442732 -0.21465237881086022 -0.06599828649166892 -0.5068942070038754 -0.36972435736649994 -0.06034462636097786
-0.07949022787634757 -0.14186969453172138 -0.08585263331718808 -0.6355282566897771 -0.3033415874850632 -0.05788097522832921 -0.6313892099233043 -0.1761208850183806
00000000: a0ee 911c e82d ea3f 6f76 3687 c3ca f9bf
00000010: 3ce7 bf9e 8716 fbbf e05b 9077 ff1c be3f
00000020: a89c 58ea 624e ae3f 4dd5 dcfe a86d 91bf
00000030: 2735 987e 51bf a93f 02f8 da3f e432 abbf
00000040: 4542 af27 ebbe 8bbf de1e 7eb8 daf2 b33f
00000050: 3874 e78f 6c71 a23f fa14 1229 a620 86bf
00000060: 5327 cc02 032d a9bf cfd2 33f8 61f1 acbf
00000070: a4d5 3c3c 84f0 a9bf 42c2 b197 b873 873f
00000080: 1f80 08d0 b298 8b3f 92e4 3df0 6094 af3f
00000090: 8fe9 aa63 5cc2 bf3f a0c6 f0b1 0de7 abbf
000000a0: 8fa0 5856 fb10 a63f 26fe fc7f 7f4b c8bf
000000b0: a31f 5289 81ba c83f 1dfe f828 48fe b33f
000000c0: 4d87 0849 4afd bfbf 5c0d 833a 11f8 babf
000000d0: c322 ef10 0b1c 9d3f b89c 7dbe f9d4 b5bf
000000e0: 7a49 922a 8f41 8abf 52c8 ac47 d98b 833f
000000f0: 0000 0000 0000 0000 0000 0000 0000 0000
00000100: 0000 0000 0000 0000 0000 0000 0000 0000
00000110: 0000 0000 0000 0000 0000 0000 0000 0000
00000120: abf9 b1e5 8dd1 b2bf b336 5ac1 81dd adbf
00000130: 4fb6 0d5c 6a6d 923f 5266 7baf e532 9b3f
00000140: 9a61 b8d9 ff18 babf af82 4cac b028 e2bf
00000150: 9ba2 6499 34d5 a33f 99f1 81c0 ff34 c63f
00000160: e89f 38ee c02d e23f 7389 f300 c3c1 ba3f
00000170: baa7 a3c8 d710 b2bf 0254 cb17 b432 b23f
00000180: c2b6 1142 36db ca3f d773 27bd 1388 cdbf
00000190: bf87 30f7 2975 ebbf 7c70 de67 0d5f cd3f
000001a0: 9198 f856 b3a2 c63f c74d 82a6 0319 eb3f
000001b0: c72b 5341 8a82 c83f f5ee c630 ec54 d8bf
000001c0: 7907 9059 8feb a03f 5dbc 37ac 601d 9c3f
000001d0: 036e da8c b553 d83f d37d 4100 b041 c2bf
000001e0: fe38 5504 18e9 bf3f 708d 6878 9ec6 cbbf
000001f0: 330c efca cc97 c0bf 56a2 c1ce 97d9 af3f
00000200: 02d3 f515 24d4 c73f 8432 9965 4831 be3f
00000210: 80bb 8cef f996 bc3f d6a9 6490 f6f5 a53f
00000220: 83eb 72a9 fba6 dabf 2df8 e51a 0fdb bb3f
00000230: b14d c9fc 6fe4 b0bf dbff 704e f432 e8bf
00000240: 9f58 d798 35ad b8bf 2fc4 0ba7 3f46 b7bf
00000250: aee4 151d 6f1f c8bf e63e cdfb 793b bebf
00000260: 0054 c209 5015 aa3f 95b4 7b31 5bf2 e0bf
00000270: ae20 e99e b564 c2bf 17d3 e1dd a348 ac3f
00000280: fcef f38f 308e e6bf ba5e e0c1 afa4 93bf
00000290: 57a7 4d3f 63a3 b7bf 6a31 250c 60a0 d5bf
000002a0: a932 2545 0740 ddbf 6c44 9b12 d51f c9bf
000002b0: c54b 1384 bf03 e4bf e528 80a9 ba79 cbbf
000002c0: b6e1 1282 43e5 b0bf c9a1 3333 7a38 e0bf
000002d0: 751e db59 90a9 d7bf f662 6ba9 7de5 aebf
000002e0: ac9b 14b9 7859 b4bf 1454 2741 c928 c2bf
000002f0: 0170 5f2c 70fa b5bf da53 c55a 3f56 e4bf
00000300: e5f6 70d5 f269 d3bf 0b20 553f 93a2 adbf
00000310: 325f f524 5734 e4bf 67f4 a510 218b c6bf
00000320: c6b2 4e09 6de8 c0bf 368c ee97 0ae5 d7bf
00000330: 4ec7 8770 193b eb3f ae0b 2c2a 1ab9 d13f
00000340: 9c33 babd b16f b7bf 3f7e 758d 5efd dfbf
00000350: 5989 b4ad 9e31 9b3f 9140 4dc8 3313 ab3f
00000360: 3bce 19f0 4c23 e13f 72d3 959f 3488 a73f
00000370: 3af5 a5db 3bc0 d1bf 80bb 8cef f996 bc3f
00000380: d4a9 6490 f6f5 a5bf 84eb 72a9 fba6 da3f
00000390: 2df8 e51a 0fdb bb3f b04d c9fc 6fe4 b03f
000003a0: dbff 704e f432 e83f 9f58 d798 35ad b8bf
000003b0: 2fc4 0ba7 3f46 b73f afe4 151d 6f1f c83f
000003c0: e53e cdfb 793b bebf 0154 c209 5015 aabf
000003d0: 95b4 7b31 5bf2 e03f af20 e99e b564 c2bf
000003e0: 18d3 e1dd a348 acbf fcef f38f 308e e63f
000003f0: bb5e e0c1 afa4 93bf 57a7 4d3f 63a3 b73f
00000400: 6a31 250c 60a0 d53f a932 2545 0740 ddbf
00000410: 6d44 9b12 d51f c93f c54b 1384 bf03 e43f
00000420: e728 80a9 ba79 cbbf b6e1 1282 43e5 b03f
00000430: c9a1 3333 7a38 e03f 751e db59 90a9 d7bf
00000440: f462 6ba9 7de5 ae3f ad9b 14b9 7859 b43f
00000450: 1654 2741 c928 c2bf 0170 5f2c 70fa b53f
00000460: da53 c55a 3f56 e43f e5f6 70d5 f269 d3bf
00000470: 0c20 553f 93a2 ad3f 325f f524 5734 e43f
00000480: 68f4 a510 218b c6bf c6b2 4e09 6de8 c03f
00000490: 368c ee97 0ae5 d73f 4ec7 8770 193b eb3f
000004a0: ae0b 2c2a 1ab9 d1bf 9d33 babd b16f b73f
000004b0: 3f7e 758d 5efd dfbf 5989 b4ad 9e31 9bbf
000004c0: 9040 4dc8 3313 abbf 3ace 19f0 4c23 e13f
000004d0: 74d3 959f 3488 a7bf 3cf5 a5db 3bc0 d13f
000004e0: 89bc 4d70 d526 ea3f b699 1ee6 f2ca f9bf
000004f0: 6ff5 3bd4 830e fbbf 5075 2ee1 fbc9 bd3f
00000500: ff63 11db be44 ad3f 5da7 f911 c735 93bf
00000510: 2a51 79de 5dc9 a93f a3a4 6b35 5cc3 aabf
00000520: a1ea 85a5 da75 90bf 4ac0 6ef9 5d9b b33f
00000530: f41e b174 864d a23f a23c 9754 e8ba 88bf
00000540: 963e e213 6f64 a8bf dafe f5a2 4cf1 acbf
00000550: 0725 7aff cd3c aabf 221b 5dbc dd0a 863f
00000560: ca91 522c 23c3 8c3f e4ff cc9a abdc af3f
00000570: a099 6996 fc19 c03f 92cb 4dd3 a207 acbf
00000580: d836 5d02 5dba a53f 2792 7ce8 c436 c8bf
00000590: f83e eebd a7db c83f f07e 4536 87d9 b33f
000005a0: ddd9 99d6 f6ea bfbf 406b f178 cf3f bbbf
000005b0: 4ca6 2362 e4ce a03f 1c0c e498 ffc0 b5bf
000005c0: 64eb 8bc3 e658 8bbf 7695 71ca 730e 833f
000005d0: 0000 0000 0000 0000 0000 0000 0000 0000
000005e0: 0000 0000 0000 0000 0000 0000 0000 0000
000005f0: 0000 0000 0000 0000 0000 0000 0000 0000
00000600: 40f6 a251 4abf b4bf f061 0da2 0ede adbf
00000610: 6862 6b60 86ef 963f d419 354f af16 9d3f
00000620: c472 1187 0b30 babf 1a67 c6b8 ea29 e2bf
00000630: b24d ce52 b2df a43f 1729 cf4d 6433 c63f
00000640: e216 897b c238 e23f bb77 0285 5aa1 bc3f
00000650: 9d68 0170 11ee b1bf 6e6d 2940 7157 b23f
00000660: d8c8 3321 50a4 ca3f 8f7e d976 7f80 cdbf
00000670: 848c 2ace 1764 ebbf cb13 d745 c43e cd3f
00000680: 4810 35cd e2e6 c63f e3f4 4c8d ea0b eb3f
00000690: d4d8 8078 0abe c83f c5e7 bc03 f296 d8bf
000006a0: 5fb5 8878 4731 a03f 867e bab3 d73d 9c3f
000006b0: 036e 306f f762 d83f 0c16 015f 9033 c2bf
000006c0: 1806 c934 8f01 bf3f d641 2ab9 adb1 cbbf
000006d0: b0b0 5a62 1905 c0bf d0ac 46a3 8822 b03f
000006e0: a4ce 4b96 f09f c73f fd2b d784 992b bd3f
000006f0: 80bb 8cef f996 bc3f d6a9 6490 f6f5 a53f
00000700: 83eb 72a9 fba6 dabf 2df8 e51a 0fdb bb3f
00000710: b14d c9fc 6fe4 b0bf dbff 704e f432 e8bf
00000720: 9f58 d798 35ad b8bf 2fc4 0ba7 3f46 b7bf
00000730: aee4 151d 6f1f c8bf e63e cdfb 793b bebf
00000740: 0054 c209 5015 aa3f 95b4 7b31 5bf2 e0bf
00000750: ae20 e99e b564 c2bf 17d3 e1dd a348 ac3f
00000760: fcef f38f 308e e6bf ba5e e0c1 afa4 93bf
00000770: 57a7 4d3f 63a3 b7bf 6a31 250c 60a0 d5bf
00000780: a932 2545 0740 ddbf 6c44 9b12 d51f c9bf
00000790: c54b 1384 bf03 e4bf e528 80a9 ba79 cbbf
000007a0: b6e1 1282 43e5 b0bf c9a1 3333 7a38 e0bf
000007b0: 751e db59 90a9 d7bf f662 6ba9 7de5 aebf
000007c0: ac9b 14b9 7859 b4bf 1454 2741 c928 c2bf
000007d0: 0170 5f2c 70fa b5bf da53 c55a 3f56 e4bf
000007e0: e5f6 70d5 f269 d3bf 0b20 553f 93a2 adbf
000007f0: 325f f524 5734 e4bf 67f4 a510 218b c6bf
