data/amass/ACCAD/Male2Walking_c3d/B9 -  Walk turn left 90_poses.npz (npz, 808472 bytes, 5 tensors)

trans f8 [604, 3]
-0.3655582576403348 -2.537920353997381 0.8853322305614892 -0.3662517005476819 -2.5370130532698196 0.8846778348780397 -0.36654104612152766 -2.5356887330260585
0.8842302914786327 -0.3669110194838412 -2.53440946486771 0.8839346417873933 -0.3677410007605962 -2.533165176951766 0.8837268083713473 -0.369350837459333
-2.5333881425933162 0.8834541646893348 -0.3700442730559681 -2.5325713521054993 0.8837012168903173 -0.3703857797787658 -2.529856163405107 0.8833621955376072
-0.3713589635982172 -2.5293750843865714 0.88347404791539 -0.37193240865322036 -2.5274872943421216 0.8832602973370705 -0.3726494917751114 -2.5257251585758596
0.8829791395589167 -0.37256655394733534 -2.520849756670124 0.8819831089565714 -0.372408434186926 -2.516697251717511 0.8812134628621192 -0.37165565802668277
-2.5158823148498644 0.881136016680042 -0.37299789231452096 -2.5154516445710784 0.8813217525324901 -0.37627409351518293 -2.5156528261882216 0.8816486992332807
-0.37707727802409025 -2.513524989490271 0.8814237125791717 -0.37805094518184645 -2.511850773247554 0.8811817948193814 -0.3788094410101082 -2.509183746658193
0.8806739535228852 -0.37950446185467246 -2.5072311477869835 0.8802582706405953 -0.3802590522852717 -2.504598818197991 0.8796875440035169 -0.3811572297089983
-2.50229043904025 0.8790646760222595 -0.3820039693946344 -2.5003191317242117 0.8782284685892585 -0.38271570852916664 -2.4976093959776846 0.8773466001651097
-0.38358734701610936 -2.4958134855611314 0.8765653002419721 -0.38482529592318476 -2.4940290124348667 0.8757217647916146 -0.38583083908112237 -2.491156655085914
0.8747955310273391 -0.38672215844985625 -2.4883308868914162 0.8740115057846514 -0.3870032701950956 -2.484103438831117 0.87388326901462 -0.38771467165433676
-2.4808233679155367 0.8734436653475044 -0.38821755785269924 -2.4780006293919152 0.8732465258272512 -0.38891194913085453 -2.4756497198887937 0.8732053266016099
-0.38981533445289085 -2.473423658861111 0.873411673749304 -0.39041559810476045 -2.469154906659347 0.8733214464372606 -0.39107376185267495 -2.4652089852248373
0.8732458695202476 -0.3917763239625619 -2.4608141925675846 0.8731879726016855 -0.3925220326488706 -2.4569914366303687 0.8733144438249523 -0.39341183124544366
-2.453430385087058 0.8735336353373291 -0.394454528282716 -2.4496611013033833 0.8738245314684553 -0.39521706008829177 -2.4465780713114103 0.8737470544616052
-0.3959201508928432 -2.4440056929296596 0.8736613615657939 -0.3967365971335027 -2.4407760547293473 0.8739309188729901 -0.39727132447306585 -2.4356031484146374
0.8738593639733339 -0.39736678972596695 -2.4300645899483 0.8737834699231611 -0.397664695858515 -2.425687234258058 0.874133119659474 -0.39778762602624157
-2.420533218013188 0.8737048334793361 -0.39782486048630133 -2.4164045206181526 0.8731791426467331 -0.39770001770679686 -2.4123050264037977 0.8726139366773558
-0.3978326368462748 -2.407154090221366 0.8716161249342315 -0.3978860461828814 -2.401648545527874 0.8711126461790765 -0.39793836161127244 -2.398163310781934
0.8707323300475722 -0.3981294107214608 -2.3940178731124715 0.8699408797213711 -0.39864563469857367 -2.387510257552056 0.8684216199000452 -0.3988991810205425
-2.3824235008059644 0.8674949432217749 -0.3992863954552861 -2.377465338844426 0.8663389779572033 -0.3992654594707861 -2.3728464895610273 0.8650178909253808
-0.39946899191023955 -2.36708366355383 0.8635993825409214 -0.39944042517492856 -2.361315291325752 0.8620397615862724 -0.3997580766416672 -2.35636921757763
0.8606914140086102 -0.399583339653275 -2.349966552314015 0.8589111596823282 -0.39940864235237 -2.343893297422616 0.857070145970941 -0.39958139746645727
-2.3376808757531 0.8554904669924814 -0.39918952776814065 -2.3327707520124985 0.8536685010218622 -0.39913612687767885 -2.3265174843476415 0.8519857195490794
-0.39930596930290096 -2.3192250162042627 0.8503986518998161 -0.39922641987030644 -2.311901126393837 0.8486770899777392 -0.39919403670086695 -2.3043575243775085
0.8471070630508833 -0.3991209203822562 -2.2970671952151798 0.8455482398026161 -0.3990585814812025 -2.2899780884494394 0.8438828691366664 -0.39864437891993165
-2.28217083861431 0.84264749122805 -0.39839907148388976 -2.27409293358995 0.8412302322658304 -0.3984900116078701 -2.2655739519929723 0.8397715575239354
-0.3978024606225107 -2.2571764126768237 0.8382432796927939 -0.39734123563032 -2.248705137516635 0.8370352852506687 -0.39689867481878194 -2.240181893468216
0.8358566829061969 -0.3958004510685642 -2.2317172287165645 0.8347267219940112 -0.3952471986430403 -2.22307628440968 0.8351893969981886 -0.3946604954017224
-2.214210761330217 0.8349365118442061 -0.39408591637387874 -2.2050233461617705 0.8349128576601247 -0.3932538673221327 -2.195652308573336 0.8348293289739206
-0.3921681690608215 -2.1853903117127396 0.8347724859839433 -0.3911382780753049 -2.1748652709514373 0.8350495461667803 -0.3900371804240194 -2.164995421445738
0.8372837172270372 -0.38900018738278147 -2.155332319937933 0.8385833953892956 -0.38790632300141137 -2.145563595089975 0.8395405603373607 -0.38676478540087217
00000000: 4e45 5676 4e65 d7bf 052c c22f a94d 04c0
00000010: 0a67 0b42 a454 ec3f 3b3a fdf8 aa70 d7bf
00000020: 468d ea7f cd4b 04c0 3a83 09e4 474f ec3f
00000030: 1ff3 6e93 6875 d7bf f575 a92c 1749 04c0
00000040: 9710 0153 9d4b ec3f 5068 4e5b 787b d7bf
00000050: c63c 3278 7846 04c0 13e8 484d 3149 ec3f
00000060: 8990 ea8c 1189 d7bf b9fd b21a ec43 04c0
00000070: 6bb5 9171 7d47 ec3f c3d5 e8b1 71a3 d7bf
00000080: 8e19 a400 6144 04c0 d261 1bab 4145 ec3f
00000090: 103d b62c ceae d7bf 10a3 e0c4 b442 04c0
000000a0: 8e56 3fc6 4747 ec3f 9168 c38e 66b4 d7bf
000000b0: 9045 6b3a 253d 04c0 be6a 8bcb 8044 ec3f
000000c0: 62c5 ee62 58c4 d7bf 7e0f 1601 293c 04c0
000000d0: ac29 d55d 6b45 ec3f d93c df96 bdcd d7bf
000000e0: 1d0a 3242 4b38 04c0 e05f 5d19 ab43 ec3f
000000f0: 52e3 0241 7dd9 d7bf 5024 5664 af34 04c0
00000100: a595 ee77 5d41 ec3f e561 3263 21d8 d7bf
00000110: d038 f846 b32a 04c0 ddf8 12a4 3439 ec3f
00000120: 3798 652f 8ad5 d7bf 737a 302b 3222 04c0
00000130: f134 7993 e632 ec3f 0445 26d0 34c9 d7bf
00000140: 67eb 36e8 8620 04c0 e1fd de28 4432 ec3f
00000150: 64f0 3d8d 32df d7bf 4dd1 a01c a51f 04c0
00000160: a62c 0cad c933 ec3f 54b4 7eef df14 d8bf
00000170: 0d8c c496 0e20 04c0 7b92 3855 7736 ec3f
00000180: 1767 4bbc 0822 d8bf cf50 5cfd b21b 04c0
00000190: 4a49 6e80 9f34 ec3f 6ec9 7197 fc31 d8bf
000001a0: 943e dc37 4518 04c0 ee8d d229 a432 ec3f
000001b0: 357c 23f4 693e d8bf dc69 9ced ce12 04c0
000001c0: ef3b 9a24 7b2e ec3f 7e85 1615 cd49 d8bf
000001d0: a40f 3a34 cf0e 04c0 7cea 8d64 132b ec3f
000001e0: 3eaf 6410 2a56 d8bf c015 ee1a 6b09 04c0
000001f0: 8332 067e 6626 ec3f 9dfb 0e4b e164 d8bf
00000200: bc2b 86d9 b004 04c0 bbb3 523e 4c21 ec3f
00000210: 377f dfc6 c072 d8bf 818c 2251 a700 04c0
00000220: 9439 e096 721a ec3f 5916 f306 6a7e d8bf
00000230: 7340 8fa2 1afb 03c0 efe8 5e2d 3913 ec3f
00000240: 6dfd a5f1 b18c d8bf e534 8b0f 6df7 03c0
00000250: 4920 2bac d20c ec3f 6f78 2a47 faa0 d8bf
00000260: a476 9d7b c5f3 03c0 c99c 85a6 e905 ec3f
00000270: f210 e9d4 73b1 d8bf 3b74 568a e3ed 03c0
00000280: 4761 8e32 53fe eb3f fa8f cb4b 0ec0 d8bf
00000290: 3b9a 2606 1ae8 03c0 8487 35fa e6f7 eb3f
000002a0: 10b6 3b5d a9c4 d8bf 4949 ad9f 71df 03c0
000002b0: 430f 9e0b daf6 eb3f 05d3 bb32 51d0 d8bf
000002c0: 67cc 02ec b9d8 03c0 da1b 3221 40f3 eb3f
000002d0: 1176 ad74 8ed8 d8bf 42a5 75fe f1d2 03c0
000002e0: d9c1 b8b2 a2f1 eb3f c799 a2f1 eee3 d8bf
000002f0: 0231 ba70 21ce 03c0 1d4d 0e4c 4cf1 eb3f
00000300: 0216 3d04 bcf2 d8bf 66b0 df57 92c9 03c0
00000310: 0d55 d609 fdf2 eb3f 9253 6db4 91fc d8bf
00000320: ede0 a649 d4c0 03c0 8bfd 6ad1 3ff2 eb3f
00000330: 94c7 5e3e 5a07 d9bf a8c4 0a7d bfb8 03c0
00000340: 089c 5e52 a1f1 eb3f 220b b100 dd12 d9bf
00000350: 25e2 f459 bfaf 03c0 8bb6 32e7 27f1 eb3f
00000360: 0ded 4bbb 141f d9bf 3209 5720 eba7 03c0
00000370: 7e48 eb21 31f2 eb3f f2c0 43d1 a82d d9bf
00000380: 5bb1 171c a0a0 03c0 ac5a 77cf fcf3 eb3f
00000390: 92ef ae34 be3e d9bf 0e0d 63eb e798 03c0
000003a0: 6b2f 23dd 5ef6 eb3f 77a1 f97e 3c4b d9bf
000003b0: 6725 1b86 9792 03c0 1372 fc61 bcf5 eb3f
000003c0: 9d60 fa78 c156 d9bf 35f7 52db 528d 03c0
000003d0: 7b86 f6ab 08f5 eb3f 6524 74e5 2164 d9bf
000003e0: 2f61 9f98 b586 03c0 23ba 70f9 3df7 eb3f
000003f0: eb06 90b4 e46c d9bf d4cd e380 1d7c 03c0
00000400: da33 b2e9 a7f6 eb3f 2cee 981d 756e d9bf
00000410: fdf6 27b4 c570 03c0 3f5f 63c0 08f6 eb3f
00000420: 671c df9f 5673 d9bf 54b4 6bb5 ce67 03c0
00000430: 7136 2905 e6f8 eb3f df50 223b 5a75 d9bf
00000440: 7bfc 1185 405d 03c0 f7d3 c4d6 63f5 eb3f
00000450: 69c3 5467 f675 d9bf 33b1 afe4 cb54 03c0
00000460: f9f1 a662 15f1 eb3f 08d6 6ac6 ea73 d9bf
00000470: bb0b e393 664c 03c0 9204 0210 74ec eb3f
00000480: 0451 2205 1776 d9bf 9b77 ef00 da41 03c0
00000490: e147 e87f 47e4 eb3f 63f9 f808 f776 d9bf
000004a0: ba39 3c83 9336 03c0 af13 cfa0 27e0 eb3f
000004b0: 616e 3c76 d277 d9bf 3434 f23e 702f 03c0
000004c0: 74f9 230c 0add eb3f 98f6 a7c7 f37a d9bf
000004d0: d975 b8d7 f226 03c0 916a 7b41 8ed6 eb3f
000004e0: 6d4e eefa 6883 d9bf aa67 58fa 9e19 03c0
000004f0: 6c85 1323 1cca eb3f 3d9a 386e 9087 d9bf
00000500: b377 690d 340f 03c0 1ea7 52c1 84c2 eb3f
00000510: 9cf6 8d86 e88d d9bf d5ae 2d8c 0c05 03c0
00000520: aa70 3285 0cb9 eb3f 395d b6b6 908d d9bf
00000530: 80be b8f0 96fb 02c0 4b57 ffff 39ae eb3f
00000540: fa50 0164 e690 d9bf 65e0 4e8f c9ef 02c0
00000550: 587d 1b2c 9ba2 eb3f e3e7 b492 6e90 d9bf
00000560: 7f4f 7e45 f9e3 02c0 6fab fb68 d495 eb3f
00000570: 7a38 5fe6 a295 d9bf 5160 b61a d8d9 02c0
00000580: e4ad 63b8 c88a eb3f ef95 f5ff c592 d9bf
00000590: 800f 8743 bbcc 02c0 3c29 a041 337c eb3f
000005a0: 052a 2944 e98f d9bf 2cf3 0d21 4bc0 02c0
000005b0: 2557 ea5e 1e6d eb3f 9c56 8dda bd92 d9bf
000005c0: eec0 ee07 92b3 02c0 1eb8 388b 2d60 eb3f
000005d0: cade aa3b 528c d9bf 0cac 47b6 83a9 02c0
000005e0: a974 b09a 4051 eb3f 06df e540 728b d9bf
000005f0: 33c3 e632 b59c 02c0 14ea 438e 7743 eb3f
00000600: fe39 d09f 3a8e d9bf 8d4c 65d8 c58d 02c0
00000610: 401c cf3b 7736 eb3f 45b2 42f8 ec8c d9bf
00000620: a593 8b04 c67e 02c0 ee33 4adb 5c28 eb3f
00000630: 52dc 1825 658c d9bf 81f1 6bff 526f 02c0
00000640: f373 8045 801b eb3f ca3c 0c79 328b d9bf
00000650: 254f 01c4 6460 02c0 3190 a42e bb0e eb3f
00000660: 3998 2901 2d8a d9bf 5493 3308 e051 02c0
00000670: 9817 93a5 1601 eb3f 6c80 8cb6 6383 d9bf
00000680: e9dd ddc8 e241 02c0 8330 1cdf f7f6 ea3f
00000690: b6ec b1d1 5e7f d9bf 14ab cea2 5731 02c0
000006a0: 8b9f ffa9 5beb ea3f 92dc e83f dc80 d9bf
000006b0: 96d5 733c e51f 02c0 21a4 f599 68df ea3f
000006c0: b616 a973 9875 d9bf 18ff cd81 b20e 02c0
000006d0: 22ea 0b92 e3d2 ea3f e69a 18ef 096e d9bf
000006e0: 5bd9 7f1e 59fd 01c0 29fd f738 fec8 ea3f
000006f0: b808 0bb3 c966 d9bf 7b4c 0c7c e4eb 01c0
00000700: 7e34 a783 56bf ea3f d037 456a cb54 d9bf
00000710: 260f fa8f 8eda 01c0 51f8 81d0 14b6 ea3f
00000720: 737a 00e8 ba4b d9bf 136c 1038 dcc8 01c0
00000730: 7f57 421d dfb9 ea3f f181 3118 1e42 d9bf
00000740: 96ea b221 b4b6 01c0 096e 93c6 ccb7 ea3f
00000750: c3f5 a822 b438 d9bf 4973 b547 e3a3 01c0
00000760: db1f 552b 9bb7 ea3f 2d24 cb44 122b d9bf
00000770: cfac 5528 b290 01c0 5ce8 35ff ebb6 ea3f
00000780: d67f 2985 4819 d9bf 6569 6eea ad7b 01c0
00000790: 5bda dcc9 74b6 ea3f 2205 23d8 6808 d9bf
000007a0: 738a 5fc3 1f66 01c0 4b6e 6ad3 b9b8 ea3f
000007b0: 334b 8981 5ef6 d8bf 20cb 981e e951 01c0
000007c0: 79d4 de38 07cb ea3f 4f9a bc0a 61e5 d8bf
000007d0: 6f29 11df 1e3e 01c0 1a4d 45d8 acd5 ea3f
000007e0: 9ef8 cc0a 75d3 d8bf 7132 033f 1d2a 01c0
000007f0: 3610 4a2a 84dd ea3f 17a3 2216 c1c0 d8bf

mocap_framerate f8 []
120.0
00000000: 0000 0000 0000 5e40

betas f8 [16]
-0.10177492401008648 -0.7784032910200543 0.7851509561351558 1.0612141781064566 0.7366055528640801 -0.5779045599249427 0.5216004847528668 -0.3107671876829067
0.19804836199574902 0.06637032945775724 -0.13347498444642367 -0.04142319662286859 -1.01038264458324 -0.36964670654258414 0.49680678050037697 0.15339102705212385
00000000: e01b 2de2 eb0d babf f9f4 c004 aee8 e8bf
00000010: 89c1 e0e5 f41f e93f cd4c d0b7 bbfa f03f
00000020: 9b4d f3ce 4592 e73f e5c7 22b4 317e e2bf
00000030: 02ec f27f f3b0 e03f 8e26 f10e 9ce3 d3bf
00000040: 8328 e612 a659 c93f c920 725a a5fd b03f
00000050: 2308 8452 b515 c1bf b9fd 94d5 6b35 a5bf
00000060: 68e5 eefd 862a f0bf 242b eba8 4aa8 d7bf
00000070: e687 abaa aecb df3f 1528 5832 51a2 c33f

dmpls f8 [604, 8]
-0.7364451212601452 -0.37337088732354307 0.13799506339183254 -0.8015725538748676 0.3349575461248135 0.1512398547717057 -1.4961549373204837 -1.2780444832158229
-0.7238296860180985 -0.4150427676651357 0.19099829549642264 -0.7991088778419517 0.32585747523710945 0.14919533399217316 -1.5225095679428857 -1.3163951410256791
-0.718162791692854 -0.4357725867696327 0.20289893706738674 -0.7897243970060043 0.3266788289042712 0.14826038998997 -1.5322337097642813 -1.3300398419533817
-0.7123532966387394 -0.48283524848316534 0.1965600720731488 -0.7745063163629962 0.33425494624009433 0.15739192766492927 -1.5664996287828274 -1.3680849937709356
-0.7181346833511799 -0.49100910059305247 0.16843189520623114 -0.7829763765442163 0.34587828597039927 0.17415697252836201 -1.5830624302298446 -1.3922019202386005
-0.7176526044579231 -0.4564680463634956 0.04398492220705877 -0.7926039474221753 0.3629806256780433 0.25182134368756814 -1.6373057268016673 -1.398792047657591
-0.7160619641981004 -0.4194576825885824 -0.04023417197545151 -0.8007845034777146 0.3598227883121377 0.3059490084171108 -1.665945046844891 -1.3982159924857378
-0.7033500668275827 -0.4095047887489103 -0.0848750295144908 -0.779411752755855 0.3427862920639128 0.3282563708994402 -1.7113473972963316 -1.4142505316372838
-0.695393366970441 -0.38057013061816614 -0.10338214819913928 -0.7705121977913035 0.3399247879908266 0.3424590182808362 -1.7309649928984987 -1.414971976958004
-0.6936635136194262 -0.3429786881957564 -0.11307107425906894 -0.7592498184035394 0.34715616718670766 0.3492677079840766 -1.7508114977137128 -1.4195101363732257
-0.692120977007336 -0.2967767743286567 -0.12627418826960135 -0.7576169787729279 0.3584752163864955 0.3573943296608918 -1.7580422310021409 -1.43214473318717
-0.6891150092556616 -0.29521167168103146 -0.1580160998701902 -0.7150072120380194 0.3536418041631535 0.35472532271435514 -1.8154203489615632 -1.4872191652001798
-0.6925896923244808 -0.2955346616595182 -0.18753917391113095 -0.6624767322860075 0.34223254963659855 0.35331517104837 -1.8932051105891206 -1.561522151774083
-0.6983224731358927 -0.2711345686213302 -0.2271864563366194 -0.6342861179919317 0.34229820065384575 0.3569201919224675 -1.950708777019226 -1.639524027885257
-0.7071993302094165 -0.2245917713436511 -0.24867512690228552 -0.6348249631986935 0.3634118252241988 0.3756838648456087 -1.9567400521917435 -1.6833761818109343
-0.7154123637150113 -0.1388762645907166 -0.23230428051230206 -0.6761355351560443 0.37748325549967005 0.3710854268806046 -1.8625990695506869 -1.6398395527281908
-0.7203752719184636 -0.08395379546529774 -0.2301621649210568 -0.7120730468502768 0.3844368600538126 0.3590558766373317 -1.7801056183908506 -1.6007388853493827
-0.729743509466898 -0.043802907939071004 -0.25115999962425833 -0.741200275198739 0.3932428216111912 0.35877431626587186 -1.725363578491358 -1.5733923794873839
-0.739194222217071 0.014403486338376396 -0.25985945645032843 -0.774740657653413 0.3846850711871429 0.3295032739838608 -1.6614969522013974 -1.5254654603165956
-0.7465519683906559 0.08079839929303415 -0.27549326991396583 -0.8089772090200282 0.3842097429101863 0.308515577323459 -1.62002131109351 -1.4898489766574838
-0.7465922367002924 0.15308299679246135 -0.29028134309561454 -0.844785613768701 0.3692748594970945 0.272825236356052 -1.5634965874581888 -1.4295527941262662
-0.7445640862055265 0.2081041486315626 -0.3208299030208259 -0.8743474682268659 0.35843342169231307 0.24434692694730734 -1.5084097296716277 -1.344719465373452
-0.7481766719169111 0.2806530406742811 -0.3399940992121525 -0.8918183535926646 0.3637325314987367 0.2265233831573134 -1.459075517134147 -1.252185782725646
-0.7685979634821799 0.353497100984315 -0.33481479454565377 -0.9212122031556917 0.34657899476135157 0.18044275451747382 -1.3889151653111322 -1.1766096078527497
-0.7646381276138192 0.37199210075517714 -0.37197261967923556 -0.9248969208719797 0.3299035122396514 0.1535468697741728 -1.3495747672909 -1.0994355360850394
-0.762154563411984 0.390006723171463 -0.4013652841231377 -0.939998019860519 0.29802474507896015 0.1244844802420061 -1.3034522941247775 -1.0278115191135415
-0.754484985699771 0.4003029040909142 -0.4251687205038932 -0.9433246438929631 0.26287625292159295 0.08366962052712733 -1.2734244384397289 -0.9746487321262824
-0.7496272097713976 0.41091398362906323 -0.45406500496952507 -0.9412177875853625 0.2297906075146624 0.041123462128714136 -1.2404722674373745 -0.9252478211622159
-0.6835786786205568 0.42920610407808935 -0.46219426708743333 -1.0632469735287549 0.13712710426600516 -0.025276032972631722 -1.1881898495762855 -0.9359619801876201
-0.6915354455239939 0.4693900470430842 -0.5108061725992658 -1.138601066718921 0.0550262960227339 -0.08538530867776623 -1.128820109594813 -0.9296066098726781
-0.6948487780911087 0.4795169550241379 -0.5266022399604451 -1.150772165649528 0.04003816171777455 -0.09638443955623341 -1.118141846764571 -0.9293842655498182
-0.6971535612731142 0.48827264164226564 -0.5471943890828898 -1.1604492015294996 0.026255875089994947 -0.1061673643460658 -1.1091361270525995 -0.9276172317586685
00000000: f38d e35b f590 e7bf d051 9501 4fe5 d7bf
00000010: c880 237e d2a9 c13f ad70 087c 7ba6 e9bf
00000020: 17e3 89c6 f16f d53f 6e52 0cdb d35b c33f
00000030: 82a5 d828 40f0 f7bf 42ec a3c5 de72 f4bf
00000040: 374b aadf 9c29 e7bf 9209 648a 0f90 dabf
00000050: 47db 5fd4 a172 c83f 3ac8 08c8 4c92 e9bf
00000060: a33b d34f d9da d43f be28 1b2c d518 c33f
00000070: ab96 22fe 325c f8bf fc18 f559 f40f f5bf
00000080: b9cb f088 30fb e6bf 2ccf 2ab4 b2e3 dbbf
00000090: c57d 8ca5 97f8 c93f bdcf 3f19 6c45 e9bf
000000a0: 871f 9c51 4ee8 d43f ca49 264b 32fa c23f
000000b0: f242 947e 0784 f8bf 8b11 79db d747 f5bf
000000c0: 865b 0824 99cb e6bf b1d6 65d0 c5e6 debf
000000d0: 3675 a064 e128 c93f 4a62 6a78 c1c8 e8bf
000000e0: 0828 a8db 6e64 d53f 9cd5 fc2e 6b25 c43f
000000f0: 1a18 2dea 6110 f9bf 0150 2617 ade3 f5bf
00000100: 76bb 6396 f5fa e6bf 6679 456f b16c dfbf
00000110: c8cc c124 2d8f c53f 2389 5979 240e e9bf
00000120: f0eb a8ad de22 d63f 8799 b092 c64a c63f
00000130: c0d0 5545 3954 f9bf aaa6 4d85 7546 f6bf
00000140: f126 4198 02f7 e6bf e436 b3c0 c536 ddbf
00000150: c4f7 ca14 3185 a63f da7a 1bf4 025d e9bf
00000160: a59a 1717 133b d73f 16aa e444 d71d d03f
00000170: b0aa 627d 6732 fabf f481 29c5 7361 f6bf
00000180: dd7d c4c7 fae9 e6bf be87 3109 65d8 dabf
00000190: 7ce5 a1c9 9299 a4bf 7e92 b2d2 06a0 e9bf
000001a0: 91fe 0929 5607 d73f a449 5926 ab94 d33f
000001b0: a71c 52fe b5a7 fabf dd86 87bb 175f f6bf
000001c0: 863e d5ff d781 e6bf 68d8 ce92 5335 dabf
000001d0: 8a03 03b4 5eba b5bf bb8a 86ea f0f0 e8bf
000001e0: 7f9f 7bea 35f0 d53f 19df 6d02 2702 d53f
000001f0: 2bb8 f7ce ad61 fbbf 55b9 5b2a c5a0 f6bf
00000200: b1c9 1f97 a940 e6bf e8b9 35d2 425b d8bf
00000210: 516a 81a1 4077 babf f1d8 5532 09a8 e8bf
00000220: 264d e1e5 53c1 d53f 1f22 ef3a d9ea d53f
00000230: 9c51 3059 08b2 fbbf 51a8 dca7 b9a3 f6bf
00000240: 7a90 2dd3 7d32 e6bf f8a5 41e2 5cf3 d5bf
00000250: 49f8 10d6 39f2 bcbf 4230 7146 c64b e8bf
00000260: c9fb 2a80 ce37 d63f 8aca d5f1 665a d63f
00000270: 4142 c2ea 5203 fcbf 1d04 c142 50b6 f6bf
00000280: 0ce8 23e4 da25 e6bf 900d fd02 64fe d2bf
00000290: 8433 79aa c029 c0bf 6e2b 57f6 653e e8bf
000002a0: 0c9e b308 42f1 d63f 02d7 6a77 8cdf d63f
000002b0: d541 f2e3 f020 fcbf 35d7 8298 10ea f6bf
000002c0: 1bf2 7deb 3a0d e6bf 0a1f d17e bfe4 d2bf
000002d0: 3d8b 971e df39 c4bf 1370 03ce 56e1 e6bf
000002e0: 8044 d83b 11a2 d63f c3c1 07d7 d1b3 d63f
000002f0: 7086 3435 f60b fdbf 9e4e c852 a6cb f7bf
00000300: 3492 c2db b129 e6bf 1f5f aa36 0aea d2bf
00000310: a065 559d 4801 c8bf 6ef0 7067 0233 e5bf
00000320: 8037 145a 23e7 d53f 5956 353c b79c d63f
00000330: fa9a 2971 914a febf 7796 dda6 fefb f8bf
00000340: a3c6 055f a858 e6bf abcb 42ce 445a d1bf
00000350: 35ab 0720 7214 cdbf eca0 a266 124c e4bf
00000360: 2c6d 52b6 36e8 d53f dab2 e5c9 c7d7 d63f
00000370: 6e15 1568 1a36 ffbf ba5f 0c8c 7d3b fabf
00000380: e114 607d 60a1 e6bf 9693 6f54 6cbf ccbf
00000390: 1fde af28 96d4 cfbf eaed f370 7c50 e4bf
000003a0: 9653 14ac 2342 d73f bc64 4956 340b d83f
000003b0: 6dfd 2ea8 ce4e ffbf 9ce4 fbdc 1bef fabf
000003c0: c5eb 2978 a8e4 e6bf 6ecb 4d8b b2c6 c1bf
000003d0: f6b4 c28b 25bc cdbf d013 65fd e6a2 e5bf
000003e0: 0f28 4a87 af28 d83f 815c 1e17 ddbf d73f
000003f0: d27b 94ae 34cd fdbf 417a 1a66 c83c fabf
00000400: c194 3771 500d e7bf dc05 e6f5 fe7d b5bf
00000410: 5066 8e2d f475 cdbf 71b8 126a 4dc9 e6bf
00000420: 28b7 530f 9d9a d83f 4703 e67f c5fa d63f
00000430: 09a2 6607 507b fcbf 6f2d a060 a09c f9bf
00000440: 701d 740f 0f5a e7bf 0ad2 22b2 556d a6bf
00000450: 9fc5 1c64 0113 d0bf 1c79 b8a3 e9b7 e7bf
00000460: ac3c 8df0 e32a d93f 746d c08c 28f6 d63f
00000470: 5147 f5d6 169b fbbf 70c8 da7c 9d2c f9bf
00000480: 3110 3aa4 7aa7 e7bf fc75 2c36 937f 8d3f
00000490: fbab c08e 89a1 d0bf 1818 70eb acca e8bf
000004a0: 8686 0022 ae9e d83f 08e1 6be6 9416 d53f
000004b0: 24bd 01d4 7d95 fabf 3ecc 7378 4e68 f8bf
000004c0: c812 20f4 c0e3 e7bf 1261 8832 34af b43f
000004d0: 001c 2386 aea1 d1bf 7e69 fe2b 24e3 e9bf
000004e0: f4a4 2676 e496 d83f ce4a ba1e b8be d33f
000004f0: c283 5f77 9beb f9bf 3f91 6be1 6bd6 f7bf
00000500: 6c68 0267 15e4 e7bf be0d 6640 3998 c33f
00000510: 0304 cf32 f893 d2bf 4b92 e8d6 7b08 ebbf
00000520: dc99 3105 33a2 d73f bd0d ebfa f775 d13f
00000530: fda5 68ff 1404 f9bf 00d8 2ac0 72df f6bf
00000540: 6eec 0010 78d3 e7bf fd69 4420 28a3 ca3f
00000550: 4069 4325 7a88 d4bf 44fe ab8a a7fa ebbf
00000560: 248f fdbb 92f0 d63f d9f2 0e96 c246 cf3f
00000570: 8586 9e3d 7222 f8bf 632d e18e f883 f5bf
00000580: 956c 3034 10f1 e7bf 0404 ce2b 38f6 d13f
00000590: 46bf 3c9c 76c2 d5bf dbe5 d4a4 c689 ecbf
000005a0: b7d0 d1cf 6447 d73f e64f 38dd b7fe cc3f
000005b0: 66c4 c791 5f58 f7bf 3c2a 95f5 f308 f4bf
000005c0: 87b3 9dc1 5a98 e8bf 1f57 fd4d b29f d63f
000005d0: 3e98 3208 9b6d d5bf 8e5a a703 927a edbf
000005e0: 80c1 fea9 592e d63f 48f2 b988 bf18 c73f
000005f0: 3ee0 be1b ff38 f6bf ed30 9e98 64d3 f2bf
00000600: 6c08 ec60 ea77 e8bf df48 c7f4 b7ce d73f
00000610: a2e7 213f 66ce d7bf be1e 6a6d c198 edbf
00000620: e0e8 f99e 231d d53f b6a7 0a80 6ca7 c33f
00000630: f156 10b6 db97 f5bf 41ba 78b7 4997 f1bf
00000640: 8c40 8bf7 9163 e8bf b475 4fc2 def5 d83f
00000650: 81c0 4304 f8af d9bf cb61 33ba 7614 eebf
00000660: e0d2 6061 d612 d33f c9bc 7f03 37de bf3f
00000670: ee97 f2ca f0da f4bf 41b7 d07d ea71 f0bf
00000680: d5e9 5cb2 bd24 e8bf 821d 6412 909e d93f
00000690: 302b 76dd f635 dbbf f5fe e029 b72f eebf
000006a0: 795e 4ceb f6d2 d03f 972e d54b 5f6b b53f
000006b0: ae69 d04d f25f f4bf 783f b289 5230 efbf
000006c0: c61d c533 f2fc e7bf 5dfa 492a 6a4c da3f
000006d0: 3e8a a6aa 660f ddbf a2f6 02c4 741e eebf
000006e0: 8c0a 1a54 c769 cd3f b6da e169 220e a53f
000006f0: dad0 c372 f9d8 f3bf 7ec8 9251 a19b edbf
00000700: c761 9d64 e0df e5bf e692 10e1 1c78 db3f
00000710: 8182 6243 9794 ddbf 1c08 2e42 0f03 f1bf
00000720: c0dc 1b86 618d c13f 26d5 f5db f5e1 99bf
00000730: ade8 155c d302 f3bf 3b91 e689 66f3 edbf
00000740: 6a9c 51f1 0e21 e6bf 768c 478d 7c0a de3f
00000750: b514 bd2f 8658 e0bf c6f9 8bc0 b537 f2bf
00000760: 60e1 ac1b 682c ac3f 6c72 54c4 cfdb b5bf
00000770: 026e dcac a50f f2bf fe8d 715c 56bf edbf
00000780: d323 3281 333c e6bf f931 ede1 67b0 de3f
00000790: b22c d4f0 ecd9 e0bf 01ca 0913 9069 f2bf
000007a0: 24f0 56c6 e17f a43f 6ec0 bc8f a6ac b8bf
000007b0: 3849 82b4 e8e3 f1bf a782 3e12 84bd edbf
000007c0: 97a7 3efc 144f e6bf cda4 d8e4 db3f df3f
000007d0: 814d b5ce 9d82 e1bf f4d0 932e 3391 f2bf
000007e0: e288 5bf3 d1e2 9a3f 9ad4 c4cd c82d bbbf
000007f0: 5a0c 0886 05bf f1bf 4d81 3355 0aaf edbf

poses f8 [604, 156]
-0.04666752497926732 2.173700666896256 2.27608358179543 0.017437320315650512 0.013792656225015545 -0.03124986604076742 0.10688003044342399 -0.05205518240756248
0.031728255582327336 0.16595495543215105 0.026249213608633446 0.03423567345703027 0.18723014572087116 -0.06353217715785729 -0.031166095113461564 -0.008113475204448026
0.046036210805200144 0.06921815579514981 0.0074268933219629515 -0.050016127819186545 0.017327097400198267 -0.3718650222700735 0.21214894849519828 0.1452842929956625
-0.24959936765019428 -0.06281492703399354 0.07415013216617872 0.02037498293986097 -0.014089093641066693 0.011946727393721344 0.0 0.0
0.0 0.0 0.0 0.0 -0.0642166612360867 0.07137711103087606 0.035765034654998064 0.017257957112830364
-0.028436673236253096 -0.5014687824248457 0.04496569659591875 0.11957389272944044 0.47186973943453325 0.1533105393504055 -0.009428037242419557 -0.020414743043822205
0.131534037123068 -0.20681857082265406 -0.9945193113990823 0.18042618050548387 0.2395264490519907 0.9705423875745363 0.25778509677031197 -0.40972581387559975
0.08795692805488217 0.033105323633423306 0.41285965955245896 -0.13223901541608568 -0.024396758806754678 -0.11772643331935055 -0.10293126701441298 -0.10126588695794404
0.05041560846949142 0.11311173649733837 0.1116787156904433 0.04289217484104639 -0.416441836812446 0.10881132513711185 -0.06598567887822672 -0.7562200100001023
-0.09639296514009964 -0.09091565922041477 -0.1884592906970161 -0.11809503934386675 0.05094385260705536 -0.529584499976084 -0.14369840869244882 0.05524170001527844
-0.7048571406917286 -0.019182916839865817 -0.09233684821597642 -0.3379135244947721 -0.4570329833266365 -0.196283945164882 -0.6254575328442732 -0.21465237881086022
-0.06599828649166892 -0.5068942070038754 -0.36972435736649994 -0.06034462636097786 -0.07949022787634757 -0.14186969453172138 -0.08585263331718808 -0.6355282566897771
-0.3033415874850632 -0.05788097522832921 -0.6313892099233043 -0.1761208850183806 -0.13209307627166406 -0.37335457646458126 0.8509642789706306 0.2769227420650918
-0.09154806978240376 -0.49983943762160615 0.026556472160458842 0.05288087673273013 0.5355591477841196 0.04596104095518329 -0.2773580212595622 0.1116787156904433
-0.04289217484104638 0.41644183681244606 0.10881132513711185 0.0659856788782267 0.7562200100001023 -0.09639296514009964 0.09091565922041477 0.18845929069701614
-0.11809503934386674 -0.05094385260705537 0.529584499976084 -0.14369840869244885 -0.05524170001527845 0.7048571406917286 -0.01918291683986582 0.09233684821597642
0.3379135244947721 -0.4570329833266365 0.19628394516488204 0.6254575328442732 -0.21465237881086027 0.06599828649166892 0.5068942070038754 -0.36972435736649994
0.06034462636097784 0.07949022787634759 -0.14186969453172144 0.08585263331718808 0.6355282566897771 -0.3033415874850632 0.05788097522832922 0.6313892099233043
-0.17612088501838064 0.13209307627166406 0.37335457646458126 0.8509642789706306 -0.2769227420650918 0.09154806978240378 -0.49983943762160615 -0.026556472160458842
-0.05288087673273012 0.5355591477841195 -0.0459610409551833 0.2773580212595623 -0.049100910588523845 2.1782743981599646 2.2735323629780457 0.014100095895453236
0.00440277269074838 -0.03286790657726956 0.10487268685666574 -0.048500641396783346 0.031541060040735314 0.15229218595870017 0.02762195631737394 0.034057495887788745
0.18928926020881154 -0.061208455360662835 -0.031579614794155074 -0.009265496847470609 0.04356382280207844 0.06853310702168117 0.011883778397035253 -0.050522391175183944
0.01726431589568369 -0.3737720538510496 0.21729919896881672 0.1485391367955188 -0.25371759353027373 -0.06539864103263113 0.07126734956852387 0.018711245584209772
-0.010644024092250499 0.012085544394158163 0.0 0.0 0.0 0.0 0.0 0.0
-0.04326157295255808 0.0673149538532687 0.036347914162625936 0.027129752680664254 -0.04749721775802387 -0.49797218524614434 0.054863700053586636 0.12837784803929653
0.4633127669445162 0.16131846403971348 -0.01115817031877122 -0.018688499037309042 0.13493395313392365 -0.20959018748633923 -0.9973194668129857 0.17970883723416062
0.2389366502166173 0.9777282241002714 0.2485591200954972 -0.4030104191721308 0.09124003238322351 0.03282629188459141 0.40656319387599366 -0.13504129785840366
-0.03604632335375261 -0.12034381995330357 -0.10281743844930255 -0.1136149916321196 0.04923871752790296 0.11593145482758242 0.1116787156904433 0.04289217484104639
-0.416441836812446 0.10881132513711185 -0.06598567887822672 -0.7562200100001023 -0.09639296514009964 -0.09091565922041477 -0.1884592906970161 -0.11809503934386675
0.05094385260705536 -0.529584499976084 -0.14369840869244882 0.05524170001527844 -0.7048571406917286 -0.019182916839865817 -0.09233684821597642 -0.3379135244947721
-0.4570329833266365 -0.196283945164882 -0.6254575328442732 -0.21465237881086022 -0.06599828649166892 -0.5068942070038754 -0.36972435736649994 -0.06034462636097786
-0.07949022787634757 -0.14186969453172138 -0.08585263331718808 -0.6355282566897771 -0.3033415874850632 -0.05788097522832921 -0.6313892099233043 -0.1761208850183806
00000000: 7476 244b cee4 a7bf 09e7 dc2c bd63 0140
00000010: f930 164f 6b35 0240 e83f f1c1 16db 913f
00000020: ae92 4afb 523f 8c3f 8410 9902 f7ff 9fbf
00000030: f998 595b 7d5c bb3f 333b 0e14 faa6 aabf
00000040: a8a2 2b98 af3e a03f 5659 1811 033e c53f
00000050: 89ac fae7 12e1 9a3f 707e b593 5687 a13f
00000060: 7825 594c 28f7 c73f 27fd 220f a543 b0bf
00000070: bc7e 063d 01ea 9fbf f2b3 4735 cc9d 80bf
00000080: 1f21 aee7 0e92 a73f 5afa 6df3 47b8 b13f
00000090: c600 dc7e a96b 7e3f 740d 83c2 b69b a9bf
000000a0: 4d80 acd2 31be 913f 2148 4bf3 a2cc d7bf
000000b0: 0c76 d55d b227 cb3f 1df9 84fb ac98 c23f
000000c0: 7376 9440 dff2 cfbf e3c6 4f99 a314 b0bf
000000d0: 38d7 a5c8 80fb b23f 8575 88f5 2ddd 943f
000000e0: fe6b 5923 beda 8cbf 2c22 9a9b 8677 883f
000000f0: 0000 0000 0000 0000 0000 0000 0000 0000
00000100: 0000 0000 0000 0000 0000 0000 0000 0000
00000110: 0000 0000 0000 0000 0000 0000 0000 0000
00000120: 9707 decb 8070 b0bf bf81 8f35 c545 b23f
00000130: c5f6 5d6c cb4f a23f b5dd 94e5 11ac 913f
00000140: 801b 3ad6 801e 9dbf 4f59 8f42 080c e0bf
00000150: 4f85 a468 be05 a73f ba75 ba06 659c be3f
00000160: a4f9 b522 1d33 de3f c030 5204 ae9f c33f
00000170: f029 f9bc 014f 83bf 87f7 ea36 9ae7 94bf
00000180: 1091 e079 1bd6 c03f dbc2 f1ea 0779 cabf
00000190: 4b62 b629 1ad3 efbf d87e 4e80 3418 c73f
000001a0: 9b47 9a7c cda8 ce3f e275 c0e8 ae0e ef3f
000001b0: 7194 0110 8d7f d03f 410d bb9e f238 dabf
000001c0: cecc 7361 5884 b63f 1c79 a854 2ef3 a03f
000001d0: 7064 e7eb 4a6c da3f 66d1 3b43 35ed c0bf
000001e0: 0f4b d0c4 76fb 98bf cb38 fbcc 5123 bebf
000001f0: 3510 9019 b459 babf 394f afa8 8fec b9bf
00000200: 4c37 2b1b 13d0 a93f 2dc2 0c09 e4f4 bc3f
00000210: 80bb 8cef f996 bc3f d6a9 6490 f6f5 a53f
00000220: 83eb 72a9 fba6 dabf 2df8 e51a 0fdb bb3f
00000230: b14d c9fc 6fe4 b0bf dbff 704e f432 e8bf
00000240: 9f58 d798 35ad b8bf 2fc4 0ba7 3f46 b7bf
00000250: aee4 151d 6f1f c8bf e63e cdfb 793b bebf
00000260: 0054 c209 5015 aa3f 95b4 7b31 5bf2 e0bf
00000270: ae20 e99e b564 c2bf 17d3 e1dd a348 ac3f
00000280: fcef f38f 308e e6bf ba5e e0c1 afa4 93bf
00000290: 57a7 4d3f 63a3 b7bf 6a31 250c 60a0 d5bf
000002a0: a932 2545 0740 ddbf 6c44 9b12 d51f c9bf
000002b0: c54b 1384 bf03 e4bf e528 80a9 ba79 cbbf
000002c0: b6e1 1282 43e5 b0bf c9a1 3333 7a38 e0bf
000002d0: 751e db59 90a9 d7bf f662 6ba9 7de5 aebf
000002e0: ac9b 14b9 7859 b4bf 1454 2741 c928 c2bf
000002f0: 0170 5f2c 70fa b5bf da53 c55a 3f56 e4bf
00000300: e5f6 70d5 f269 d3bf 0b20 553f 93a2 adbf
00000310: 325f f524 5734 e4bf 67f4 a510 218b c6bf
00000320: c6b2 4e09 6de8 c0bf 368c ee97 0ae5 d7bf
00000330: 4ec7 8770 193b eb3f ae0b 2c2a 1ab9 d13f
00000340: 9c33 babd b16f b7bf 3f7e 758d 5efd dfbf
00000350: 5989 b4ad 9e31 9b3f 9140 4dc8 3313 ab3f
00000360: 3bce 19f0 4c23 e13f 72d3 959f 3488 a73f
00000370: 3af5 a5db 3bc0 d1bf 80bb 8cef f996 bc3f
00000380: d4a9 6490 f6f5 a5bf 84eb 72a9 fba6 da3f
00000390: 2df8 e51a 0fdb bb3f b04d c9fc 6fe4 b03f
000003a0: dbff 704e f432 e83f 9f58 d798 35ad b8bf
000003b0: 2fc4 0ba7 3f46 b73f afe4 151d 6f1f c83f
000003c0: e53e cdfb 793b bebf 0154 c209 5015 aabf
000003d0: 95b4 7b31 5bf2 e03f af20 e99e b564 c2bf
000003e0: 18d3 e1dd a348 acbf fcef f38f 308e e63f
000003f0: bb5e e0c1 afa4 93bf 57a7 4d3f 63a3 b73f
00000400: 6a31 250c 60a0 d53f a932 2545 0740 ddbf
00000410: 6d44 9b12 d51f c93f c54b 1384 bf03 e43f
00000420: e728 80a9 ba79 cbbf b6e1 1282 43e5 b03f
00000430: c9a1 3333 7a38 e03f 751e db59 90a9 d7bf
00000440: f462 6ba9 7de5 ae3f ad9b 14b9 7859 b43f
00000450: 1654 2741 c928 c2bf 0170 5f2c 70fa b53f
00000460: da53 c55a 3f56 e43f e5f6 70d5 f269 d3bf
00000470: 0c20 553f 93a2 ad3f 325f f524 5734 e43f
00000480: 68f4 a510 218b c6bf c6b2 4e09 6de8 c03f
00000490: 368c ee97 0ae5 d73f 4ec7 8770 193b eb3f
000004a0: ae0b 2c2a 1ab9 d1bf 9d33 babd b16f b73f
000004b0: 3f7e 758d 5efd dfbf 5989 b4ad 9e31 9bbf
000004c0: 9040 4dc8 3313 abbf 3ace 19f0 4c23 e13f
000004d0: 74d3 959f 3488 a7bf 3cf5 a5db 3bc0 d13f
000004e0: 81f1 5c2a c123 a9bf 327d ae20 1b6d 0140
000004f0: 411b 4bbc 3130 0240 ba75 eed5 82e0 8c3f
00000500: 66eb 7e4b a408 723f efb9 acef 0fd4 a0bf
00000510: e903 4bb8 efd8 ba3f f1b6 4479 13d5 a8bf
00000520: c056 b65a 2626 a03f 0382 1073 4f7e c33f
00000530: 597e 231c ee48 9c3f 331d 0bee fb6f a13f
00000540: 445a 0a67 a13a c83f 9983 06f4 b656 afbf
00000550: 93b8 8509 342b a0bf 9253 87ef c9f9 82bf
00000560: 5984 7254 ff4d a63f 9af4 59bd 628b b13f
00000570: c2a0 8bbc 8556 883f 1b53 a023 12de a9bf
00000580: e69b a3a0 bcad 913f 90bc dc9e e1eb d7bf
00000590: f24f 82cc 75d0 cb3f cd3d 5b97 5403 c33f
000005a0: 5f78 a8b7 e83c d0bf 6620 7020 f7bd b0bf
000005b0: 705e abb7 933e b23f 3e0b 686f 0a29 933f
000005c0: f70e feba 88cc 85bf 250a 6b4f 4ec0 883f
000005d0: 0000 0000 0000 0000 0000 0000 0000 0000
000005e0: 0000 0000 0000 0000 0000 0000 0000 0000
000005f0: 0000 0000 0000 0000 0000 0000 0000 0000
00000600: 436f 0282 6126 a6bf b1df 5485 8d3b b13f
00000610: 1e6c 369d 319c a23f 504f 0ce2 e6c7 9b3f
00000620: 73e9 d729 8e51 a8bf 3dca 7cba c6de dfbf
00000630: 6e77 ef4a 1817 ac3f 9008 6e71 af6e c03f
00000640: 5224 7697 eaa6 dd3f 9350 a55b 15a6 c43f
00000650: 4c8d d144 18da 86bf b8ce b4f0 1323 93bf
00000660: f443 ea09 8445 c13f ae7d 68ec d9d3 cabf
00000670: a007 b483 0aea efbf 3788 5cfd b200 c73f
00000680: 4282 3fe5 7995 ce3f de60 5cb3 8c49 ef3f
00000690: 9c62 f705 c9d0 cf3f cfa8 9236 ecca d9bf
000006a0: 5603 2cbb 815b b73f 20c1 2f94 9bce a03f
000006b0: cf19 5da1 2105 da3f 77a3 f482 0849 c1bf
000006c0: 950c e4e7 a974 a2bf 80a3 f942 dace bebf
000006d0: be26 995f 3e52 babf 3e30 6541 df15 bdbf
000006e0: 1c6a f532 d135 a93f 3bea 0f0f afad bd3f
000006f0: 80bb 8cef f996 bc3f d6a9 6490 f6f5 a53f
00000700: 83eb 72a9 fba6 dabf 2df8 e51a 0fdb bb3f
00000710: b14d c9fc 6fe4 b0bf dbff 704e f432 e8bf
00000720: 9f58 d798 35ad b8bf 2fc4 0ba7 3f46 b7bf
00000730: aee4 151d 6f1f c8bf e63e cdfb 793b bebf
00000740: 0054 c209 5015 aa3f 95b4 7b31 5bf2 e0bf
00000750: ae20 e99e b564 c2bf 17d3 e1dd a348 ac3f
00000760: fcef f38f 308e e6bf ba5e e0c1 afa4 93bf
00000770: 57a7 4d3f 63a3 b7bf 6a31 250c 60a0 d5bf
00000780: a932 2545 0740 ddbf 6c44 9b12 d51f c9bf
00000790: c54b 1384 bf03 e4bf e528 80a9 ba79 cbbf
000007a0: b6e1 1282 43e5 b0bf c9a1 3333 7a38 e0bf
000007b0: 751e db59 90a9 d7bf f662 6ba9 7de5 aebf
000007c0: ac9b 14b9 7859 b4bf 1454 2741 c928 c2bf
000007d0: 0170 5f2c 70fa b5bf da53 c55a 3f56 e4bf
000007e0: e5f6 70d5 f269 d3bf 0b20 553f 93a2 adbf
000007f0: 325f f524 5734 e4bf 67f4 a510 218b c6bf
