data/amass/ACCAD/Female1Walking_c3d/B1 - stand to walk_poses.npz (npz, 999528 bytes, 5 tensors)

trans f8 [747, 3]
00000000: 8840 a6e4 a002 c3bf 6a4f 0bf6 4578 d93f
00000010: 4d70 4c99 2f26 ee3f fc6b f215 da08 c3bf
00000020: 8347 61e7 6c78 d93f f955 5829 3126 ee3f
00000030: 7bc8 ce95 080b c3bf f768 e97b 4879 d93f
00000040: ff13 86c3 8426 ee3f 3ca7 8c6c a20e c3bf
00000050: 9d82 cab1 4579 d93f 25ea ec3c 8d27 ee3f
00000060: cb52 a1f4 f510 c3bf 0a45 ebf6 927a d93f
00000070: 1a9e e3df 5827 ee3f 3d2e 95ee 0e15 c3bf
00000080: 0cee 5fc3 6f7b d93f 84cd c4b5 1b22 ee3f
00000090: d77f d328 c212 c3bf aed4 0821 787e d93f
000000a0: 0d39 d48d e01f ee3f 9ef8 b869 1e13 c3bf
000000b0: 5194 189e c880 d93f 1d0b 26d4 1a1f ee3f
000000c0: 806f b357 0513 c3bf 1a95 931f d880 d93f
000000d0: 79b0 2139 971e ee3f afee dc16 8e11 c3bf
000000e0: 7b03 3f27 d881 d93f 299f 8ac0 421e ee3f
000000f0: f3a0 89dc 8011 c3bf b160 2c98 6f81 d93f
00000100: a1c3 104d fe1d ee3f 9f0d 4c46 2011 c3bf
00000110: 58c5 cb9b ba81 d93f d9a0 85d2 df1d ee3f
00000120: dff6 700c 2111 c3bf 6d4d dc99 6e82 d93f
00000130: 4021 5c34 e71d ee3f b524 0b32 6f0e c3bf
00000140: 222a 5866 e283 d93f 6c00 a076 ef1d ee3f
00000150: 8622 53c8 490d c3bf bad2 667b 3387 d93f
00000160: 8cf2 a617 011d ee3f 8fb4 7cbe 420f c3bf
00000170: c9c7 d2ea 7789 d93f 51a5 005e 6d1c ee3f
00000180: dbe7 4a11 3012 c3bf f88d e3b6 ee89 d93f
00000190: 6642 773c fb1b ee3f afe0 478a f812 c3bf
000001a0: ac26 bde1 328b d93f d57f b363 341b ee3f
000001b0: 181a 62e4 b011 c3bf 29fc 493a 708d d93f
000001c0: b569 108a 6d1b ee3f 6d6a b543 7410 c3bf
000001d0: f8c1 1ea2 4e8f d93f da78 636e 8a1b ee3f
000001e0: 3b9d e7ca 2a10 c3bf 127f ef61 1491 d93f
000001f0: f9ee 3daf 961a ee3f bd0d 5425 6a12 c3bf
00000200: f746 5539 2f92 d93f 872c 2b09 2b1a ee3f
00000210: 7fa9 cc21 e214 c3bf a64d 48ad f593 d93f
00000220: 726c 42b6 fb19 ee3f 5a98 20e0 1214 c3bf
00000230: 316a fb55 a394 d93f ad01 e1d9 7919 ee3f
00000240: 0486 977a 3e12 c3bf 6818 8b41 1596 d93f
00000250: 1458 5454 041a ee3f 7c38 8c19 bc12 c3bf
00000260: 9313 0571 1e96 d93f b826 54fa 4a1a ee3f
00000270: 7021 43ac fc13 c3bf bc2e d303 a895 d93f
00000280: b552 43f8 0b1a ee3f c68e b64c 1d15 c3bf
00000290: 50af 5d13 e496 d93f 71e0 a07b f619 ee3f
000002a0: d270 1e6b 6915 c3bf 5673 c0ad b895 d93f
000002b0: 1840 ff98 2a1a ee3f e165 a0ea 5114 c3bf
000002c0: 24d2 14b8 e494 d93f 960d 928a 6d1a ee3f
000002d0: e72b b7f1 1013 c3bf d2e1 6981 a294 d93f
000002e0: e606 3830 341a ee3f 46f6 f6cc db11 c3bf
000002f0: 7db5 062d ed97 d93f 8aeb df6f 081a ee3f
00000300: 9f9d eab3 fb0d c3bf 4d63 0273 ca9a d93f
00000310: 3af4 9515 d519 ee3f 6d33 0749 240b c3bf
00000320: eb99 a9ac d99c d93f 7a54 fd9b 3919 ee3f
00000330: 31a1 d9df 4508 c3bf f928 3b13 139e d93f
00000340: 5be7 e9b7 d618 ee3f c878 4fca b105 c3bf
00000350: ec17 e891 1c9f d93f bad3 6d38 7019 ee3f
00000360: 628b f9c4 4900 c3bf 5741 99ef ac9f d93f
00000370: c1e9 1c16 eb19 ee3f 1f3a 4cf1 f9fc c2bf
00000380: e3c6 1e2c 2ba0 d93f 62dc 6cbf 9f19 ee3f
00000390: 6f20 b9e9 53fb c2bf 9853 16fc 61a1 d93f
000003a0: dbb3 4a2a e818 ee3f 4fe7 226d cef6 c2bf
000003b0: af19 9db0 99a2 d93f 42cd b1f8 f418 ee3f
000003c0: c490 8e3e 69f3 c2bf a846 29d6 0ba4 d93f
000003d0: c5f6 7260 0019 ee3f 84ca 57c9 f0ee c2bf
000003e0: d7fa 4dc1 bca4 d93f f6d6 4a71 6e19 ee3f
000003f0: 8a56 acd5 d3ec c2bf 27ee d1bd b2a6 d93f
00000400: 8c50 99be 8119 ee3f 7704 8da0 95eb c2bf
00000410: 99e5 2b8d 0bab d93f 008d e3ac 0219 ee3f
00000420: b84a 6c47 d7e5 c2bf a247 f613 8fac d93f
00000430: a3af 8da6 6b18 ee3f fda6 d593 3de3 c2bf
00000440: ab2d 5e1d 40ac d93f 57aa d311 8e18 ee3f
00000450: be21 0e0f c9dd c2bf 0211 4e5d 2dad d93f
00000460: 55c3 1eaf 8a18 ee3f 1b4a 96b0 40d5 c2bf
00000470: 91bd 0937 51b1 d93f ae79 add8 a018 ee3f
00000480: 8cdf 406c 08c9 c2bf d217 384c 58b2 d93f
00000490: f835 c8c3 3b18 ee3f 4b3a 094e efbd c2bf
000004a0: 3f9a 3b85 8db0 d93f 7384 cf99 8d18 ee3f
000004b0: ac60 c6b1 66b4 c2bf 8b7f 4cd1 06b2 d93f
000004c0: 22ae 1084 0819 ee3f 04c2 528a 52ad c2bf
000004d0: 8e48 5cb6 52b5 d93f 5a20 9a37 e118 ee3f
000004e0: a025 aac0 4aa5 c2bf 5754 ac55 5eb7 d93f
000004f0: 239f 7b05 8218 ee3f 8133 42b1 f39c c2bf
00000500: 8788 4913 34ba d93f 3a53 914d ca18 ee3f
00000510: 10b6 13dd 7896 c2bf bb32 5276 17bd d93f
00000520: 7b49 824e c218 ee3f 6473 c079 a793 c2bf
00000530: 17ec 5272 ecbb d93f b98a 39de 3e18 ee3f
00000540: 05c3 36de f090 c2bf a3f5 4a57 e1ba d93f
00000550: 1fbd 0acd ea17 ee3f ba8d 7b9d ab8c c2bf
00000560: 75ef d69c 91bb d93f a139 3e77 5817 ee3f
00000570: 6ce0 f448 1082 c2bf 3275 7210 e5bf d93f
00000580: 038f 6b4a 1517 ee3f 8fb5 8216 be77 c2bf
00000590: 7842 447c dfc5 d93f 76e7 5171 1617 ee3f
000005a0: 3f50 e4f1 bb74 c2bf 2fa4 4311 56ca d93f
000005b0: 1467 c136 8017 ee3f cd4c 585b 5e6d c2bf
000005c0: 7094 9f16 eecc d93f ed56 6dce 2f18 ee3f
000005d0: 8c53 fb05 7c68 c2bf f64b 1e7b 3ece d93f
000005e0: 2372 af88 8918 ee3f 5bf2 af66 3764 c2bf
000005f0: 87cb 6483 4bcf d93f da3d cbd7 cc17 ee3f
00000600: 6e6a b5dd 185f c2bf e980 f8e5 5fd2 d93f
00000610: 0ac7 b73e 4017 ee3f b37d 79db f358 c2bf
00000620: 1b88 bd27 71d2 d93f 9ca8 fa03 2b17 ee3f
00000630: 12ac cc51 f44f c2bf 479f 8899 b4d3 d93f
00000640: 0961 1f28 5917 ee3f 8494 cb6c 404a c2bf
00000650: 2234 2f27 c7d6 d93f 6a73 77b8 1b17 ee3f
00000660: 0993 c616 ca45 c2bf b9dd 604d 73da d93f
00000670: f9cb 33d3 cb16 ee3f ced2 bb77 3f3e c2bf
00000680: dfa3 5684 dadc d93f 02c0 6a1f 0117 ee3f
00000690: 7797 0233 e335 c2bf fac7 a4bc a5de d93f
000006a0: 97bb b28c 0717 ee3f 9e77 afac 262e c2bf
000006b0: c80a 05a4 cae0 d93f d0dd 7450 a816 ee3f
000006c0: 8230 3e9f 9626 c2bf 8d95 1c2a e4e3 d93f
000006d0: 1c95 c020 9b15 ee3f 1413 07e4 4d1a c2bf
000006e0: a40e 1467 81e8 d93f 96f2 2dc9 6414 ee3f
000006f0: b53b 9b57 580f c2bf f60d 0be8 b6ec d93f
00000700: 2bd9 64fe ce13 ee3f da61 6731 4109 c2bf
00000710: 99c1 c250 53f0 d93f 8793 bf4a d412 ee3f
00000720: ee36 5581 5002 c2bf 5953 fbdb c1f4 d93f
00000730: c013 20a2 c511 ee3f 5a1e bab7 e4f6 c1bf
00000740: 830e 2a50 91f9 d93f d1f8 8241 c311 ee3f
00000750: b648 0e13 b6e8 c1bf bd65 37c6 2000 da3f
00000760: 0d96 f447 8d11 ee3f 55e4 2505 27da c1bf
00000770: dfb6 a7db c504 da3f 582b 55cb 0212 ee3f
00000780: 9a68 6ffa 72cd c1bf 1580 9ad0 cd04 da3f
00000790: a494 422e c711 ee3f b008 efdc 6fc1 c1bf
000007a0: a7ce e2f4 8607 da3f dc05 4d2a 1a11 ee3f
000007b0: 4332 b6be e7b4 c1bf f6dd b81c 650c da3f
000007c0: 2e74 8a23 ce10 ee3f 0f78 034a 92a6 c1bf
000007d0: df93 ae4f 2310 da3f 812a 715d 3a10 ee3f
000007e0: 9d4a 5126 799a c1bf 667e 1ecc 0613 da3f
000007f0: 62ba 0b48 ae0f ee3f 5a8a 434d f893 c1bf
-0.1485177151157624 0.39796589877845767 0.9421613687623079 -0.14870763846997181 0.3979751834459579 0.9421621139069308 -0.14877421679335953 0.3980275354457627
0.9422019785712336 -0.14888410854592304 0.39802687036903156 0.9423280897092964 -0.14895510144073962 0.3981063281363083 0.942303120883426 -0.14908014916942305
0.39815897063792316 0.9416636037989723 -0.14900996201958946 0.39834407068276334 0.941391255388028 -0.14902095949395727 0.3984853309542063 0.9412969726111872
-0.1490179708697461 0.3984890278209875 0.9412342182017844 -0.14897323719366315 0.3985500701201585 0.9411939392639158 -0.14897166031301587 0.39852514134100675
0.9411612992463355 -0.14896014626002071 0.3985430261082761 0.9411467658765346 -0.14896023852809656 0.3985859396500107 0.9411502859739258 -0.1488780016282242
0.39867458338327044 0.9411542240996034 -0.1488430240772411 0.3988770203680293 0.9410405599551992 -0.14890322018746757 0.3990154069134602 0.9409701190935867
-0.14899254650464297 0.39904373035662344 0.940915697190644 -0.14901644470206096 0.3991210178834119 0.940820879677626 -0.1489773860123058 0.39925771419797457
0.9408481308521944 -0.14893964105688742 0.39937177497907284 0.9408619075800531 -0.1489308825250449 0.3994799572374045 0.940745680112257 -0.14899946997330274
0.3995473918813412 0.9406943492007408 -0.14907480860103914 0.3996557419024732 0.9406717834239215 -0.14905010169713045 0.39969714543045415 0.940609860939778
-0.14899426446849884 0.39978534126965437 0.9406758925495091 -0.1490092396492776 0.39978753125279204 0.9407095803482752 -0.1490474549411931 0.39975929616478445
0.9406795357595771 -0.14908186193235035 0.39983465090948744 0.9406692900293036 -0.1490909359971569 0.39976326911874105 0.9406941402648981 -0.14905761677145704
0.39971273400013474 0.9407260614829507 -0.14901935389056506 0.39969694746062345 0.9406987134718434 -0.1489825011066605 0.3998978557309199 0.9406778512051102
-0.14886423382743616 0.4000726817262617 0.9406533643338044 -0.14877751890017113 0.4001983820111536 0.940579228083734 -0.1486899703043121 0.40027310255085485
0.9405320732177914 -0.1486112821430139 0.4003364014500892 0.9406052686814441 -0.14844629400166826 0.4003708209829901 0.9406638557332415 -0.14834522516362456
0.40040091808906036 0.9406279314779449 -0.14829491531623115 0.4004750215329351 0.9405403924953321 -0.14815693215296696 0.40054933783940333 0.9405464989962768
-0.14805331759010276 0.4006375876825623 0.9405519374629071 -0.14791688758085197 0.400679768346817 0.9406044209233346 -0.14785240109693049 0.4007994512282686
0.9406136248239974 -0.14781446780583327 0.401064765799299 0.9405530335174319 -0.14763918864681158 0.4011571593229012 0.9404810193059244 -0.1475598308418781
0.40113833301503615 0.9404974315815008 -0.14739335284344962 0.40119489776431305 0.9404958172145635 -0.14713295576491778 0.40144758581933454 0.9405063850388637
-0.14676003728686415 0.40151030963204193 0.9404581855648635 -0.14642134962419315 0.40140092860238846 0.9404972080339021 -0.14613040619292883 0.4014908832486916
0.9405558185002898 -0.1459143805891615 0.40169208344117 0.9405370794274959 -0.14566931159451446 0.4018169247295353 0.9404916865432579 -0.14541479258732795
0.4019899547912548 0.9405261530870128 -0.14521704478049502 0.4021662383536683 0.940522340142976 -0.1451310486308116 0.4020949474758608 0.940459665329704
-0.1450482449559091 0.402031264540563 0.9404195790029098 -0.14491791905957802 0.4020732909809717 0.9403498009649419 -0.14459422647792353 0.4023373280159205
0.9403177693861554 -0.14427925204419664 0.40270220885671604 0.9403183186798134 -0.144187443839316 0.40297462163886427 0.9403687543337775 -0.1439626642246367
0.40313293656647087 0.9404524833468862 -0.1438136128623707 0.4032131388022998 0.9404952687869507 -0.14368336214092178 0.40327728110713007 0.9404052939152578
-0.14352713418596202 0.4034652467544349 0.9403382515867815 -0.14333961693317362 0.40346936112303106 0.9403281285970198 -0.14306501382938613 0.4035464763023708
0.9403501304286986 -0.1428909808375104 0.4037340052280475 0.9403208353865982 -0.14275480377286723 0.40395815426333176 0.9402827382131128 -0.14252465578433376
0.4041048328750189 0.9403081525433665 -0.14226951590279288 0.40421431944116615 0.9403112171183804 -0.14203341895966742 0.40434518830822386 0.9402658053795054
-0.1418026235154493 0.40453437912432194 0.9401374473278881 -0.1414277423301874 0.4048160082458969 0.9399894646918081 -0.14109329488425507 0.40507290516344996
0.9399180382377258 -0.14090742981240006 0.4052933014563905 0.939798494332181 -0.14069563212472452 0.40556379778472756 0.9396694342145722 -0.14034708949133085
0.40585739925902703 0.9396683005832306 -0.1399142830892452 0.40625781399793565 0.9396425633792106 -0.13946998359077392 0.40654131365486806 0.93969859803597
-0.13908230999260668 0.40654321071088023 0.9396701720730971 -0.13871572768954854 0.40670942225117773 0.9395876718701248 -0.13833329021544402 0.4070065289010637
0.9395514196545542 -0.1378958569902697 0.40723498135986164 0.9394809556045659 -0.13752664919828286 0.4074112885809654 0.9394141585488109 -0.13732818386695805

mocap_framerate f8 []
00000000: 0000 0000 0000 5e40
120.0

betas f8 [16]
00000000: 67df 5b43 0634 e83f 2568 3f29 ddab e1bf
00000010: c4c8 486a 8040 edbf aa14 4ec9 07a4 f7bf
00000020: 776e ea71 458e 89bf 0f82 ae08 6094 e53f
00000030: 6fb3 51c9 e5de e8bf 29f7 f644 7e01 d73f
00000040: df36 cbcf ff00 00c0 d914 4d23 97b1 06c0
00000050: 95f3 2042 d834 03c0 fe19 1731 3b45 05c0
00000060: 5c4d 9d1f e500 f8bf a7f3 c4df 44d5 f1bf
00000070: 718b f635 221d f83f 2147 7231 7767 e0bf
0.7563506427386358 -0.5522294812792593 -0.9141237331262109 -1.4775464881397888 -0.01247839216130518 0.6743621987880618 -0.7772091800703559 0.359466140125607
-2.0004879220858665 -2.8367140539072406 -2.4008031050020215 -2.6588043055701283 -1.5002185091915043 -1.1145676365842776 1.507112704079841 -0.5126300779104193

dmpls f8 [747, 8]
00000000: e2fd d131 cb1d b03f 20be 8a7f 63bf d13f
00000010: 467d 2c7d 8a84 d4bf f214 70ff 3dec e4bf
00000020: 3a15 b3c6 882d d53f 21bd a409 c146 df3f
00000030: ab32 2d88 ecaa f13f 8e6a afb1 18ad d0bf
00000040: f1b9 7304 4b3e b03f 3569 e543 fad9 d13f
00000050: 6ade 121a 0982 d4bf fde9 9442 661d e5bf
00000060: 01ac 150f d51e d53f e976 f252 6a74 df3f
00000070: 9ee3 b2b4 1eb7 f13f 3e8a 6ca0 68cf d0bf
00000080: d4f3 ab6f 13f6 b03f 1769 7c82 d128 d23f
00000090: 9e3e b143 165f d4bf f00f 1493 4dd0 e5bf
000000a0: 7639 869e addb d43f 8100 6dba bc2a e03f
000000b0: 5b81 c693 bbe6 f13f a171 9dae fd82 d1bf
000000c0: 6989 c575 e886 b23f 92b1 adb8 66ca d23f
000000d0: 0dc3 6060 9454 d4bf 80c7 f082 a553 e7bf
000000e0: 7439 d23d 9d2e d43f f34c 0962 a317 e13f
000000f0: f41c 0349 6a42 f23f ecd8 a20b 8867 d3bf
00000100: f3b7 e0e8 1276 b03f d625 a3ca 7789 d33f
00000110: a034 f3db adf4 d4bf f1d2 eed0 4c2c e8bf
00000120: f749 cb72 5a0c d33f 9780 3d05 9ef7 e13f
00000130: 36ad 25cb 4085 f23f 7c8a ccd4 31ff d4bf
00000140: 0881 4848 a15c 913f ba07 2498 48fb d73f
00000150: 664a 67a5 2668 d7bf e3cc f6e8 7fee e6bf
00000160: a04b 7d9b c96d d33f ee18 3d36 403e e23f
00000170: 1a33 3c0a eb6d f23f f7bb 5799 5202 d6bf
00000180: 1838 164c 4afd 91bf 0f70 49a3 65ca d93f
00000190: 5313 3c31 9fdc d9bf 3225 c91a 5e5a e6bf
000001a0: 9803 d821 0e9a d43f ab9d 5f99 c754 e23f
000001b0: 3a22 09ec c48f f23f 8d73 2d67 56ff d6bf
000001c0: 9de3 bcd9 45a9 a4bf 6d77 3242 504a da3f
000001d0: db98 420a 5d8c dbbf 26da 7a0a c03c e6bf
000001e0: a621 df86 55df d53f a412 743c e58c e23f
000001f0: 5efe 4461 b5b6 f23f 944e d715 84ef d7bf
00000200: 7cbf 6a0e a460 acbf 5ed2 c9b4 36a0 da3f
00000210: 923e 2112 b64e dcbf 2f57 10d4 3e59 e6bf
00000220: a3eb 4684 5a07 d73f 29c1 445e 58da e23f
00000230: d42d 2431 d5c5 f23f e552 6e93 e9d6 d8bf
00000240: eead 68c8 9b36 aebf 859c b81f 798b da3f
00000250: 17fc 0111 a973 dcbf 097f 6e0c d568 e6bf
00000260: 43f2 3b2d de53 d73f b73a d2e5 c6ea e23f
00000270: 1cd3 be4c 05c7 f23f 6176 085e c30e d9bf
00000280: 5832 f2a0 4e7a b0bf 2ab8 911c 0cf2 d93f
00000290: dbb1 4ea1 adfa dcbf 3cb4 b629 4bad e6bf
000002a0: eca5 4e09 5c51 d83f 18be 8055 7b16 e33f
000002b0: b5ea 1cf4 eac5 f23f f994 81c5 c6de d9bf
000002c0: 68b7 4222 107f b0bf 66ef bfca fdf0 d93f
000002d0: db53 896c f0f9 dcbf 49b2 252c 71ad e6bf
000002e0: 7195 c225 0157 d83f 9875 67ea 8517 e33f
000002f0: ddbf 7856 c6c5 f23f 07d7 c3d9 76e3 d9bf
00000300: e929 de5b bf91 b0bf 7269 b548 33f4 d93f
00000310: 752d 1d4c 9be9 dcbf db2c e3c0 6bac e6bf
00000320: c561 4823 d16d d83f c3b2 81ff 861a e33f
00000330: 1b28 e401 20c5 f23f 4a2a 5468 48ed d9bf
00000340: 692a de5b bf91 b0bf b669 b548 33f4 d93f
00000350: 2c2d 1d4c 9be9 dcbf d02c e3c0 6bac e6bf
00000360: f761 4823 d16d d83f d0b2 81ff 861a e33f
00000370: 1628 e401 20c5 f23f 5a2a 5468 48ed d9bf
00000380: b7dc e08b d1d6 b2bf b0a7 e3c5 05d7 da3f
00000390: e228 ce12 78ad dbbf 7887 a678 c96e e6bf
000003a0: 3ee6 2da2 db6a d93f ad1a d7d1 6a4a e33f
000003b0: 0845 f894 06c0 f23f c591 a936 7871 dabf
000003c0: f58a bf66 cbd2 b5bf d0e5 3078 bf13 db3f
000003d0: 2904 8df8 d418 dbbf 5715 c9f5 ca5a e6bf
000003e0: cf11 91bb 9e55 da3f a0d2 29c0 8061 e33f
000003f0: 30a1 4c3f 0bdd f23f d90f e588 1a34 dbbf
00000400: 2800 53f3 954c b8bf 6da6 f16f 733d db3f
00000410: 67fe 84c6 c92d dbbf 181f 56ea 5476 e6bf
00000420: e04f b657 1820 db3f 1f28 1982 db4b e33f
00000430: 088d 755f 6c03 f33f 886e 8817 dcfa dbbf
00000440: 94b2 a41b b42d babf 1022 bc63 86d2 db3f
00000450: df32 33b3 0070 dbbf 281e 9bb1 7b67 e6bf
00000460: 86d7 a31b 2fa9 db3f c538 cb95 0269 e33f
00000470: 6352 e2d8 3e12 f33f 3997 bc15 e37a dcbf
00000480: ccc6 1e59 4e4d babf b25e 737f b722 dc3f
00000490: d221 465c 7da3 dbbf 8d17 febb 6799 e6bf
000004a0: ddc7 9d61 b259 dc3f 6c30 e1a1 e87e e33f
000004b0: 9b9f 3609 4f11 f33f 058f 43f3 68f7 dcbf
000004c0: 7b12 75e0 8a58 bbbf 2934 b7ca 9123 dc3f
000004d0: 5330 2711 bf5c dcbf df63 1188 9ecc e6bf
000004e0: 9553 8062 ef1f dd3f 5dd1 b2e5 a488 e33f
000004f0: ef5f aeb7 7e15 f33f e4df d552 e072 ddbf
00000500: cb73 349e 4254 bebf 2971 6594 4893 dc3f
00000510: a743 7f4d a329 ddbf 9720 58fc b90a e7bf
00000520: 7533 e1c0 20dd dd3f 027e 2411 64c1 e33f
00000530: 1639 229d 7508 f33f de27 61b6 a7d1 ddbf
00000540: 8014 8f46 c315 c1bf b3b0 8519 96db dc3f
00000550: bff1 3f9c 5d07 debf 682e 5016 2e78 e7bf
00000560: e1c0 6ce1 a763 de3f dd04 7c85 7315 e43f
00000570: 00df 0659 fff3 f23f 9453 1248 9749 debf
00000580: cd15 8f46 c315 c1bf 14b1 8519 96db dc3f
00000590: c0f2 3f9c 5d07 debf b42e 5016 2e78 e7bf
000005a0: 61c1 6ce1 a763 de3f 2805 7c85 7315 e43f
000005b0: d8de 0659 fff3 f23f b053 1248 9749 debf
000005c0: ad62 142e 3541 c1bf e39e 5024 42d5 dc3f
000005d0: ff21 9c79 b280 debf e888 bc0d 0c7c e7bf
000005e0: 360f b711 435e df3f 7139 be07 9153 e43f
000005f0: 58f0 382a e0cf f23f b02b e02f 3f04 debf
00000600: 0c57 8ee6 44f2 c0bf 19af 3b9e 0c9d dc3f
00000610: 4fe5 c8a9 7e5a debf b564 1109 3390 e7bf
00000620: 4fea 1b22 3439 e03f 021f 50ea 1557 e43f
00000630: 0a4b e5d6 3db8 f23f 9247 9dd9 22e3 ddbf
00000640: 0d57 8ee6 44f2 c0bf 0caf 3b9e 0c9d dc3f
00000650: 50e5 c8a9 7e5a debf b464 1109 3390 e7bf
00000660: 5aea 1b22 3439 e03f 031f 50ea 1557 e43f
00000670: 084b e5d6 3db8 f23f 8c47 9dd9 22e3 ddbf
00000680: 0d57 8ee6 44f2 c0bf 0caf 3b9e 0c9d dc3f
00000690: 50e5 c8a9 7e5a debf b464 1109 3390 e7bf
000006a0: 5aea 1b22 3439 e03f 031f 50ea 1557 e43f
000006b0: 084b e5d6 3db8 f23f 8c47 9dd9 22e3 ddbf
000006c0: 2257 8ee6 44f2 c0bf 00af 3b9e 0c9d dc3f
000006d0: 46e5 c8a9 7e5a debf b864 1109 3390 e7bf
000006e0: 61ea 1b22 3439 e03f 0a1f 50ea 1557 e43f
000006f0: 054b e5d6 3db8 f23f 8747 9dd9 22e3 ddbf
00000700: f257 2ee7 5507 c2bf d955 2c9e c851 dc3f
00000710: 88bf 93fb e0eb ddbf f12c 9d26 60f4 e7bf
00000720: 5484 a217 eb61 e03f 1515 89c6 44b5 e43f
00000730: aaf7 ecbe ea80 f23f c04d bac1 13cb ddbf
00000740: d73e 970e 7926 c2bf 4e60 f450 564c dc3f
00000750: 44d5 6fbc e7ed ddbf 90db 1235 76fd e7bf
00000760: 388c ce75 1960 e03f ce15 766e d5ba e43f
00000770: 632d 3218 1d7d f23f a682 8e26 04c8 ddbf
00000780: 3e3f 970e 7926 c2bf 2960 f450 564c dc3f
00000790: 4cd5 6fbc e7ed ddbf b1db 1235 76fd e7bf
000007a0: 2d8c ce75 1960 e03f dd15 766e d5ba e43f
000007b0: 642d 3218 1d7d f23f 9e82 8e26 04c8 ddbf
000007c0: 8b2d 68f5 f5fb c3bf 1cd0 5c91 ef1a dc3f
000007d0: 9fd6 d0e9 cbfc ddbf 56c9 6189 5a0c e8bf
000007e0: 22ab 21aa 5956 e03f 7239 2a43 f4ee e43f
000007f0: 804f 1983 208a f23f eb20 2569 6093 ddbf
0.06295461622538981 0.27730643706579094 -0.32058965896608915 -0.653838156606666 0.33090419201137744 0.488693484704486 1.1042294806858688 -0.26056496955940467
0.06345051630680822 0.2789292967842301 -0.32043674036274317 -0.6598388004707086 0.33000685189352913 0.49148042774491657 1.1072070177599254 -0.26265922228245475
0.06625482059821702 0.2837413572575697 -0.3183036480959148 -0.6816776154159907 0.3259080932702071 0.5052169457558336 1.118831231353474 -0.2736200528359181
0.07237103343280683 0.29360359225281585 -0.317662328833692 -0.7289607579643729 0.315345106479888 0.5341355242511824 1.1412146427190324 -0.30319405685749135
0.06430166421407062 0.3052653769378514 -0.3274340293836051 -0.7554077225418877 0.29762898645745345 0.56147671721921 1.1575324950634474 -0.32807584553862745
0.016954917942826803 0.3747121320485537 -0.36573187019999975 -0.7166137266234752 0.3035758989764705 0.570098977980505 1.1518354797182782 -0.34389176344751554
-0.01756778802296574 0.4029783339117338 -0.40409068878243665 -0.6985312007101696 0.3219027834421069 0.5728490825248874 1.1600999088424389 -0.35933456493312904
-0.04035394938404766 0.41078573669971413 -0.430442104358361 -0.6949157910046935 0.3417562310319461 0.5796991520624784 1.1696065711584178 -0.3739938939372476
-0.05542481113422945 0.41602866797555815 -0.4423041512536453 -0.6983942167159735 0.3598238269584561 0.589153465383821 1.1732990188200931 -0.3881172122722048
-0.059010379995324644 0.4147627649094335 -0.4445593515483223 -0.700296901970405 0.3644938890209099 0.5911592949576833 1.1735890386455088 -0.3915260713855329
-0.06436625890109704 0.40539839544260536 -0.4528001857059089 -0.7086540045471632 0.37996579083355075 0.596494357107022 1.173319772306667 -0.4042221955081256
-0.06443882786217403 0.4053339462259288 -0.4527550754476672 -0.7086721288920411 0.38031033217915594 0.5966214731412718 1.17328485277175 -0.40450831667054427
-0.06472393029085989 0.4055298051877322 -0.4517582171726738 -0.7085474746067136 0.3817026943738962 0.5969882002223915 1.1731262277485317 -0.40510759533268426
-0.06472393029086167 0.40552980518773596 -0.45175821717266973 -0.7085474746067124 0.381702694373899 0.596988200222393 1.1731262277485306 -0.40510759533268514
-0.07359037079810347 0.4193739349853969 -0.43246270977455314 -0.701023803372876 0.3971470912725613 0.6028341387216948 1.1718812770016616 -0.41317563379405114
-0.08524771936894722 0.42308031785395617 -0.42339061996978217 -0.6985831070420926 0.4114758331018295 0.6056522134009192 1.1789658043508773 -0.42505515450124914
-0.09491860571415656 0.4256256669237704 -0.42466968905134767 -0.7019447876818701 0.42383392873420966 0.6030099431020551 1.188335774314341 -0.4371862630666574
-0.10225988078009102 0.43472442378745857 -0.4287111043930007 -0.7001322239747809 0.4322011728212306 0.6065686154995765 1.1919544670137376 -0.44500043032381914
-0.10274209667002338 0.4396189446101558 -0.4318536187279537 -0.7062262222032004 0.4429746583256227 0.6092417871200388 1.1917257652184847 -0.4526007056831392
-0.10681980113901972 0.43967098995637116 -0.44316078829866007 -0.7124779374672662 0.45507416362061665 0.6104301916407554 1.1927478003544782 -0.46013649072074103
-0.11847320902275198 0.4464894723112303 -0.4556663758094665 -0.7200593880270557 0.46662157855899206 0.6173572859588037 1.1895652902636065 -0.46592133341311903
-0.13347664780863866 0.45090248577504183 -0.46919956454055617 -0.7334204135708662 0.47483250631468193 0.6276185614698552 1.1845696904765077 -0.47324163473359104
-0.1334766478086479 0.4509024857750472 -0.46919956454057044 -0.7334204135708746 0.47483250631468904 0.6276185614698635 1.1845696904764988 -0.4732416347335926
-0.13480248212797133 0.4505162577283796 -0.4766050517651194 -0.7338924663820565 0.49012829523074986 0.63520099174802 1.1757508897126367 -0.4690092055831725
-0.13239346749895053 0.44708552792029504 -0.47427336292783634 -0.7363524605854282 0.5069828668777719 0.6356305672097451 1.1699808496820787 -0.4669882893696179
-0.13239346749895056 0.4470855279202943 -0.4742733629278364 -0.7363524605854281 0.5069828668777732 0.6356305672097452 1.1699808496820783 -0.46698828936961756
-0.13239346749895056 0.4470855279202943 -0.4742733629278364 -0.7363524605854281 0.5069828668777732 0.6356305672097452 1.1699808496820783 -0.46698828936961756
-0.13239346749895115 0.44708552792029366 -0.47427336292783584 -0.7363524605854286 0.5069828668777739 0.635630567209746 1.1699808496820776 -0.4669882893696173
-0.14084886348854259 0.44249167868232814 -0.4675219017799397 -0.7485810045413058 0.5119529210679823 0.6471275212904027 1.1564738710435258 -0.4655198470947788
-0.14179909908715757 0.4421592512676441 -0.4676455822185128 -0.7496901547045685 0.5117308903612701 0.6478068501898464 1.1555453248173186 -0.46533302083302386
-0.14179909908716043 0.44215925126764205 -0.46764558221851327 -0.7496901547045721 0.5117308903612688 0.6478068501898481 1.1555453248173189 -0.4653330208330234
-0.15612673266182883 0.43914403148233006 -0.46855447610446704 -0.7515080149881139 0.5105408022767259 0.6541692077460495 1.158722412209471 -0.4621201540762871

poses f8 [747, 156]
00000000: 34f2 aa0d d020 b03f 6542 5a40 93ef 00c0
00000010: f0a8 726b a857 02c0 fb28 ebc3 2803 ba3f
00000020: d0fa 2b98 9f68 8a3f 8156 ee42 0d91 783f
00000030: cfde e456 3ffd c13f 63a3 6650 7f66 b2bf
00000040: be54 2290 8e16 883f 2d5f 0059 651f c13f
00000050: c55d fd5e dd8d a33f 7969 89c9 4d6e 87bf
00000060: 2ff0 8313 8211 88bf 2863 ce94 ad7b bbbf
00000070: 5eaa 345c 3a54 9f3f e935 735c c346 9cbf
00000080: 2988 3cf6 d9f4 aebf ca31 b03b 3fa4 443f
00000090: 1293 160b 54ed 963f ff85 3e04 e009 aebf
000000a0: 4dec 5b5b 70c4 a13f 971a cbdc 53a6 a0bf
000000b0: 00d4 5f06 0629 b63f 236f e9dc f668 bdbf
000000c0: 6863 cd7e b32f 8d3f c33b 2359 dc69 6abf
000000d0: c5bc 4162 5eb4 c93f cd99 ea3d 7e35 82bf
000000e0: a5a6 d839 f204 88bf f6b4 120d 0c05 a23f
000000f0: 0000 0000 0000 0000 0000 0000 0000 0000
00000100: 0000 0000 0000 0000 0000 0000 0000 0000
00000110: 0000 0000 0000 0000 0000 0000 0000 0000
00000120: 0225 84d0 5bd5 6f3f 3710 9017 9bd9 abbf
00000130: dc28 d437 2fb1 9e3f 01de 6382 bc12 aa3f
00000140: a56f 570b cb53 b13f 39d7 1785 d720 d5bf
00000150: 0ba6 0d44 ae1d 48bf 90cd 556c 2eb6 afbf
00000160: c632 6f87 40c5 d43f 9b55 e5b3 2c7c acbf
00000170: 6e38 0c97 2ea6 babf 11df c389 dc1d b33f
00000180: c8b4 87e1 2104 c33f 2639 a254 17ae cebf
00000190: ef48 a421 06af f0bf 35ea 8436 0172 c63f
000001a0: 2b43 6004 9243 ca3f ae08 35d1 e0a2 f03f
000001b0: 2f3f 68e8 bbbd b63f 4bb2 d0a7 8feb ddbf
000001c0: a9be 9c7e b91c 74bf c9dc 161a b89c 833f
000001d0: 109a 96f3 46e3 e03f 8829 b4ec 1746 b7bf
000001e0: eefb 670f 7fa8 dcbf a621 ead7 4681 d1bf
000001f0: 3f52 15b6 12ec c0bf 2e09 9ac1 460a d5bf
00000200: fb67 f19d b566 c33f 5b28 5e60 0227 c83f
00000210: 80bb 8cef f996 bc3f d6a9 6490 f6f5 a53f
00000220: 83eb 72a9 fba6 dabf 2df8 e51a 0fdb bb3f
00000230: b14d c9fc 6fe4 b0bf dbff 704e f432 e8bf
00000240: 9f58 d798 35ad b8bf 2fc4 0ba7 3f46 b7bf
00000250: aee4 151d 6f1f c8bf e63e cdfb 793b bebf
00000260: 0054 c209 5015 aa3f 95b4 7b31 5bf2 e0bf
00000270: ae20 e99e b564 c2bf 17d3 e1dd a348 ac3f
00000280: fcef f38f 308e e6bf ba5e e0c1 afa4 93bf
00000290: 57a7 4d3f 63a3 b7bf 6a31 250c 60a0 d5bf
000002a0: a932 2545 0740 ddbf 6c44 9b12 d51f c9bf
000002b0: c54b 1384 bf03 e4bf e528 80a9 ba79 cbbf
000002c0: b6e1 1282 43e5 b0bf c9a1 3333 7a38 e0bf
000002d0: 751e db59 90a9 d7bf f662 6ba9 7de5 aebf
000002e0: ac9b 14b9 7859 b4bf 1454 2741 c928 c2bf
000002f0: 0170 5f2c 70fa b5bf da53 c55a 3f56 e4bf
00000300: e5f6 70d5 f269 d3bf 0b20 553f 93a2 adbf
00000310: 325f f524 5734 e4bf 67f4 a510 218b c6bf
00000320: c6b2 4e09 6de8 c0bf 368c ee97 0ae5 d7bf
00000330: 4ec7 8770 193b eb3f ae0b 2c2a 1ab9 d13f
00000340: 9c33 babd b16f b7bf 3f7e 758d 5efd dfbf
00000350: 5989 b4ad 9e31 9b3f 9140 4dc8 3313 ab3f
00000360: 3bce 19f0 4c23 e13f 72d3 959f 3488 a73f
00000370: 3af5 a5db 3bc0 d1bf 80bb 8cef f996 bc3f
00000380: d4a9 6490 f6f5 a5bf 84eb 72a9 fba6 da3f
00000390: 2df8 e51a 0fdb bb3f b04d c9fc 6fe4 b03f
000003a0: dbff 704e f432 e83f 9f58 d798 35ad b8bf
000003b0: 2fc4 0ba7 3f46 b73f afe4 151d 6f1f c83f
000003c0: e53e cdfb 793b bebf 0154 c209 5015 aabf
000003d0: 95b4 7b31 5bf2 e03f af20 e99e b564 c2bf
000003e0: 18d3 e1dd a348 acbf fcef f38f 308e e63f
000003f0: bb5e e0c1 afa4 93bf 57a7 4d3f 63a3 b73f
00000400: 6a31 250c 60a0 d53f a932 2545 0740 ddbf
00000410: 6d44 9b12 d51f c93f c54b 1384 bf03 e43f
00000420: e728 80a9 ba79 cbbf b6e1 1282 43e5 b03f
00000430: c9a1 3333 7a38 e03f 751e db59 90a9 d7bf
00000440: f462 6ba9 7de5 ae3f ad9b 14b9 7859 b43f
00000450: 1654 2741 c928 c2bf 0170 5f2c 70fa b53f
00000460: da53 c55a 3f56 e43f e5f6 70d5 f269 d3bf
00000470: 0c20 553f 93a2 ad3f 325f f524 5734 e43f
00000480: 68f4 a510 218b c6bf c6b2 4e09 6de8 c03f
00000490: 368c ee97 0ae5 d73f 4ec7 8770 193b eb3f
000004a0: ae0b 2c2a 1ab9 d1bf 9d33 babd b16f b73f
000004b0: 3f7e 758d 5efd dfbf 5989 b4ad 9e31 9bbf
000004c0: 9040 4dc8 3313 abbf 3ace 19f0 4c23 e13f
000004d0: 74d3 959f 3488 a7bf 3cf5 a5db 3bc0 d13f
000004e0: 9730 ec25 d613 b03f 09a4 e5f9 d2ed 00c0
000004f0: fe7a 7856 4b5b 02c0 b700 861f 216a ba3f
00000500: 9f5b 67ca a6bd 8b3f 69be d09b cfaf 793f
00000510: 3aeb 23a6 4922 c23f 9b11 7d70 cdf6 b1bf
00000520: 478b cf36 44aa 883f bfd3 c3f6 7570 c13f
00000530: dd43 c751 44e4 a23f 8f11 864a 9a98 82bf
00000540: 2927 50fd 9aca 87bf dd54 6d48 fa5b bbbf
00000550: 80ac fe6a 8b1a 9f3f 9cad 788b 9dd0 9abf
00000560: bfec e01b f950 acbf 0f91 b4ab 5c55 2fbf
00000570: ae15 973e 7b80 943f bd7d 8382 ad05 aebf
00000580: 2c4c 07d2 ee30 a13f 8935 d853 ffa1 a0bf
00000590: 6d4a 821f 2922 b63f 019c cd4c 6812 bdbf
000005a0: dc63 2ecd 0a53 913f 0965 2195 2927 64bf
000005b0: 6009 f369 c994 c93f 8844 3071 350d 80bf
000005c0: bc66 2c2a aca5 87bf 8156 2530 ff7b a13f
000005d0: 0000 0000 0000 0000 0000 0000 0000 0000
000005e0: 0000 0000 0000 0000 0000 0000 0000 0000
000005f0: 0000 0000 0000 0000 0000 0000 0000 0000
00000600: ce1f d05c af2d 5d3f 1260 e33a a936 acbf
00000610: 95fc 1ce7 9d4c 9f3f 7f6c 1ba4 60e5 a93f
00000620: c29f 029c 0e48 b13f d09a 887a 0533 d5bf
00000630: 9eb8 609d 3bf8 55bf 3818 ed69 139d aebf
00000640: 7d34 9728 55bf d43f feee cf2d 51b4 aabf
00000650: a457 4b87 f973 babf adee 5c1f ecde b23f
00000660: d200 1f77 5004 c33f aaa8 f06e 3874 cebf
00000670: ce0c 95ff 8aa7 f0bf a957 4824 5d88 c63f
00000680: 5ab7 f08e cf62 ca3f 6c58 b2a2 d89f f03f
00000690: 5564 3981 9bc8 b63f e734 6ab3 cdfe ddbf
000006a0: 149b 0a1f 6999 74bf e559 c819 a54c 823f
000006b0: 3057 4604 e7d6 e03f fa40 40f8 bb3a b6bf
000006c0: f156 0541 c8b4 dcbf 1efe d3a8 a88e d1bf
000006d0: 6cd6 2da3 0004 c1bf 00c4 3325 2d9f d5bf
000006e0: 875b 6cac 9567 c33f 4c6b 8978 981c c83f
000006f0: 80bb 8cef f996 bc3f d6a9 6490 f6f5 a53f
00000700: 83eb 72a9 fba6 dabf 2df8 e51a 0fdb bb3f
00000710: b14d c9fc 6fe4 b0bf dbff 704e f432 e8bf
00000720: 9f58 d798 35ad b8bf 2fc4 0ba7 3f46 b7bf
00000730: aee4 151d 6f1f c8bf e63e cdfb 793b bebf
00000740: 0054 c209 5015 aa3f 95b4 7b31 5bf2 e0bf
00000750: ae20 e99e b564 c2bf 17d3 e1dd a348 ac3f
00000760: fcef f38f 308e e6bf ba5e e0c1 afa4 93bf
00000770: 57a7 4d3f 63a3 b7bf 6a31 250c 60a0 d5bf
00000780: a932 2545 0740 ddbf 6c44 9b12 d51f c9bf
00000790: c54b 1384 bf03 e4bf e528 80a9 ba79 cbbf
000007a0: b6e1 1282 43e5 b0bf c9a1 3333 7a38 e0bf
000007b0: 751e db59 90a9 d7bf f662 6ba9 7de5 aebf
000007c0: ac9b 14b9 7859 b4bf 1454 2741 c928 c2bf
000007d0: 0170 5f2c 70fa b5bf da53 c55a 3f56 e4bf
000007e0: e5f6 70d5 f269 d3bf 0b20 553f 93a2 adbf
000007f0: 325f f524 5734 e4bf 67f4 a510 218b c6bf
0.06300068219838623 -2.1169800784630746 -2.292801703869479 0.10161070616883087 0.012894865828909557 0.005997707178627133 0.14054099791405014 -0.07187648499406189
0.01176177384722121 0.13377062650465046 0.03819171700041183 -0.011440856659807196 -0.01175214407020783 -0.10735592730487709 0.030594741704741295 -0.02761368991632721
-0.06046181803527901 0.0006299313312197405 0.022389710594910524 -0.05866909076508974 0.03470183482382847 -0.032518978788677426 0.08656346946357019 -0.11488287824016345
0.014251138980101621 -0.0032243064571057813 0.20081691549009953 -0.008891092552698954 -0.011728184118584404 0.03519475612243099 0.0 0.0
0.0 0.0 0.0 0.0 0.0038859170200608037 -0.05439457571631617 0.029972780020252596 0.05092419711757757
0.06768483187573666 -0.33012950894714127 -0.0007359600932492228 -0.06193680832339077 0.32453931070339725 -0.055634877166691875 -0.10409823596657627 0.07467439998060522
0.14856360923969292 -0.23968783981804015 -1.0427304567461382 0.1753541485030198 0.2051870843283948 1.0397651836542923 0.08883261131290675 -0.46750251186566477
-0.004910206402015818 0.009576261802847335 0.5277437932571178 -0.09091329125309333 -0.44778419975767647 -0.27351542554290587 -0.13220437899384938 -0.3287522211686732
0.15157194339809607 0.18869046884020943 0.1116787156904433 0.04289217484104639 -0.416441836812446 0.10881132513711185 -0.06598567887822672 -0.7562200100001023
-0.09639296514009964 -0.09091565922041477 -0.1884592906970161 -0.11809503934386675 0.05094385260705536 -0.529584499976084 -0.14369840869244882 0.05524170001527844
-0.7048571406917286 -0.019182916839865817 -0.09233684821597642 -0.3379135244947721 -0.4570329833266365 -0.196283945164882 -0.6254575328442732 -0.21465237881086022
-0.06599828649166892 -0.5068942070038754 -0.36972435736649994 -0.06034462636097786 -0.07949022787634757 -0.14186969453172138 -0.08585263331718808 -0.6355282566897771
-0.3033415874850632 -0.05788097522832921 -0.6313892099233043 -0.1761208850183806 -0.13209307627166406 -0.37335457646458126 0.8509642789706306 0.2769227420650918
-0.09154806978240376 -0.49983943762160615 0.026556472160458842 0.05288087673273013 0.5355591477841196 0.04596104095518329 -0.2773580212595622 0.1116787156904433
-0.04289217484104638 0.41644183681244606 0.10881132513711185 0.0659856788782267 0.7562200100001023 -0.09639296514009964 0.09091565922041477 0.18845929069701614
-0.11809503934386674 -0.05094385260705537 0.529584499976084 -0.14369840869244885 -0.05524170001527845 0.7048571406917286 -0.01918291683986582 0.09233684821597642
0.3379135244947721 -0.4570329833266365 0.19628394516488204 0.6254575328442732 -0.21465237881086027 0.06599828649166892 0.5068942070038754 -0.36972435736649994
0.06034462636097784 0.07949022787634759 -0.14186969453172144 0.08585263331718808 0.6355282566897771 -0.3033415874850632 0.05788097522832922 0.6313892099233043
-0.17612088501838064 0.13209307627166406 0.37335457646458126 0.8509642789706306 -0.2769227420650918 0.09154806978240378 -0.49983943762160615 -0.026556472160458842
-0.05288087673273012 0.5355591477841195 -0.0459610409551833 0.2773580212595623 0.06280268121571662 -2.116125061340885 -2.2945772891538345 0.10318190593352737
0.013545325328704836 0.0062711820328754464 0.14167137729949691 -0.07017215725233543 0.012043507502260587 0.1362445311457616 0.036897788031303703 -0.009080129050524714
-0.011616907935621494 -0.10687221782912411 0.030374697118230376 -0.026186429631861338 -0.05530527558627218 -0.00023905521616385996 0.0200213677360545 -0.05863706796821642
0.033576453340764395 -0.03248594187253235 0.08645874995480947 -0.11356212496831121 0.016918343327777183 -0.0024600803526878584 0.1998531119662159 -0.007837693707218443
-0.011546464001685457 0.034149145724467374 0.0 0.0 0.0 0.0 0.0 0.0
0.0017809116864118016 -0.05510453075265799 0.030565707427055406 0.050578136475189155 0.06750575360149383 -0.33123909917996475 -0.001340921609436253 -0.05979214351695855
0.3241780182259573 -0.05215696033698512 -0.10333213379939693 0.0737140251703134 0.14856916252575175 -0.23792176644321233 -1.0409040435486534 0.17603649398432467
0.20614046554095006 1.0390249591196392 0.08899852661979087 -0.4686769725893342 -0.005029116277603735 0.008935251092265293 0.5262332042209206 -0.08683371363463613
-0.44853407239621307 -0.27433220374220635 -0.1329346462986679 -0.3378403533270671 0.15159865302186068 0.18837266812883013 0.1116787156904433 0.04289217484104639
-0.416441836812446 0.10881132513711185 -0.06598567887822672 -0.7562200100001023 -0.09639296514009964 -0.09091565922041477 -0.1884592906970161 -0.11809503934386675
0.05094385260705536 -0.529584499976084 -0.14369840869244882 0.05524170001527844 -0.7048571406917286 -0.019182916839865817 -0.09233684821597642 -0.3379135244947721
-0.4570329833266365 -0.196283945164882 -0.6254575328442732 -0.21465237881086022 -0.06599828649166892 -0.5068942070038754 -0.36972435736649994 -0.06034462636097786
-0.07949022787634757 -0.14186969453172138 -0.08585263331718808 -0.6355282566897771 -0.3033415874850632 -0.05788097522832921 -0.6313892099233043 -0.1761208850183806
