data/amass/ACCAD/Female1Walking_c3d/B18 - walk to leap to walk_poses.npz (npz, 914024 bytes, 5 tensors)

trans f8 [683, 3]
000000 89 91 57 b5 34 a0 09 40 25 0c 3c c5 89 51 09 40
       3.203225533232573 3.1648135575246834
000010 e7 69 59 f3 2a d1 ea 3f e7 e0 f4 10 e1 8e 09 40
       0.838033175746486 3.1947652172785754
000020 99 e8 c3 25 59 41 09 40 fe 51 49 2e 41 c0 ea 3f
       3.1569083166514926 0.8359685806304353
000030 85 4e 18 8d 87 7d 09 40 6c 08 9f 39 47 30 09 40
       3.1862936995547124 3.14857335106449
000040 11 64 78 a0 e0 b1 ea 3f ea 4c 9e f4 0c 6c 09 40
       0.8342135557351203 3.1777590857324087
000050 fa df d8 e0 10 1f 09 40 7f c3 c9 6c 1b a6 ea 3f
       3.1401689115700693 0.8327767491119714
000060 8c dc 63 47 51 5a 09 40 d7 f5 6f 19 e1 0c 09 40
       3.1691003396368327 3.1312887179653717
000070 d7 55 38 9b 79 9b ea 3f cb 59 25 a5 7a 48 09 40
       0.831478884853534 3.1603901769660516
000080 50 c0 00 eb 60 fa 08 40 2b 7f 7f 9b db 94 ea 3f
       3.1222551688770537 0.8306711232253056
000090 32 09 dc 8f 45 36 09 40 a9 ab 46 f7 c4 e7 08 40
       3.1514998663925775 3.1131686514322223
0000a0 e6 e1 60 3d 5c 92 ea 3f 6f 08 8a cc 76 23 09 40
       0.8303662489698211 3.142316434824401
0000b0 e8 f0 61 c2 a8 d5 08 40 10 7d dd fb 0d 92 ea 3f
       3.1043257890834077 0.8303289336435302
0000c0 4f e2 d7 c1 c2 10 09 40 2e 37 ef 67 08 c4 08 40
       3.1331839698798727 3.0957191581609527
0000d0 91 c0 93 7a 0c 94 ea 3f 9a 4a 2f 85 1d ff 08 40
       0.8305723566136455 3.124568024163932
0000e0 10 4c 17 09 8c b0 08 40 71 c9 8a e4 cb 8f ea 3f
       3.0862045965418545 0.8300532783235167
0000f0 d3 63 14 d8 4f ec 08 40 9e 6e 1e 51 49 9e 08 40
       3.1153866654608264 3.0772882783329143
000100 2f 8a 06 77 41 8f ea 3f ed 4a 42 00 3d da 08 40
       0.8299872708051391 3.1065616626959724
000110 2f dc af d6 3b 8b 08 40 c4 23 5f fb af 93 ea 3f
       3.067985226861786 0.8305282506563505
000120 54 ab 47 3e bf c7 08 40 28 dd 37 b4 cc 78 08 40
       3.097532736360714 3.0589841918514544
000130 44 ee e5 63 78 9b ea 3f fa c4 82 d0 6b b7 08 40
       0.8314783049713204 3.0895611085803667
000140 01 53 4f bc f8 65 08 40 79 a2 c6 64 e6 a6 ea 3f
       3.049790831728729 0.832873532131159
000150 60 b3 d6 ca b2 a4 08 40 70 1e 0e d5 fe 53 08 40
       3.0804191443225335 3.0410133976873155
000160 fc d5 6c ce bd ae ea 3f 49 7c f4 e1 12 91 08 40
       0.8338307410946864 3.070836797021489
000170 fd eb 30 d6 d4 43 08 40 88 c9 7a 1f 86 b3 ea 3f
       3.0331207975082166 0.8344145407520935
000180 b3 b4 30 29 a5 7e 08 40 fe e9 6d 7f 20 34 08 40
       3.0618384569157455 3.025452609578905
000190 8f 82 fe 9b 5d b9 ea 3f f6 c8 38 64 bb 6d 08 40
       0.835127644230015 3.0535800771550567
0001a0 ee 7a 0c 66 37 24 08 40 e4 97 f0 41 29 c4 ea 3f
       3.017683789497247 0.8364454543959678
0001b0 1d c1 02 a7 86 5c 08 40 75 cd d0 57 e1 15 08 40
       3.0451787040439187 3.0106837139698492
0001c0 85 e5 82 65 28 ca ea 3f 60 7a 45 a4 95 4c 08 40
       0.837177465690886 3.0373947938635837
0001d0 16 10 a6 17 c8 05 08 40 20 1a 22 06 68 d9 ea 3f
       3.002823052172981 0.8390388603009491
0001e0 71 72 5a f2 67 3a 08 40 d5 a0 dc 73 1d f8 07 40
       3.0285185750820394 2.9961499263482474
0001f0 11 62 b2 7c 8f e1 ea 3f b5 bc a3 60 60 2b 08 40
       0.8400342402920292 3.021179919239865
000200 d2 cf 7a 11 21 ea 07 40 fd 96 50 d4 33 f1 ea 3f
       2.9893208852390467 0.841943659474708
000210 7a 18 dd 76 4a 17 08 40 0e 3c f5 ec e0 dc 07 40
       3.0113724981520678 2.9828508865680368
000220 20 b2 b7 0b 3a fd ea 3f c2 e4 99 78 59 09 08 40
       0.8434114674433353 3.0045651838268848
000230 7d ed 21 33 7c cb 07 40 b7 57 24 d1 70 0d eb 3f
       2.974357985947505 0.8453907093814824
000240 dc f2 8d f5 3e fb 07 40 b0 54 0c 4c c8 ba 07 40
       2.9976786788887306 2.9662023488295617
000250 93 f6 cc 38 51 1e eb 3f ae ec 44 69 2e ed 07 40
       0.8474508389842462 2.99081117860404
000260 e4 47 b0 ce 3c ab 07 40 1d 49 83 d5 8d 2e eb 3f
       2.958612074618019 0.8494328661129519
000270 28 76 05 c6 6d df 07 40 5f 7a c1 a4 8f 9c 07 40
       2.9840960951248867 2.9514458533806613
000280 c2 fc 7b 9a 53 3e eb 3f 34 a2 f8 a7 9b d1 07 40
       0.8513582246086104 2.977347671771236
000290 15 c1 df bc ad 8e 07 40 3b 27 21 61 ba 4d eb 3f
       2.944667316034734 0.8532382866917269
0002a0 2e 1a 48 c4 0a c4 07 40 83 ce 8b 4c 28 82 07 40
       2.970723660898577 2.938553426758348
0002b0 48 1c e2 c0 68 5d eb 3f e9 7f db b3 ab b6 07 40
       0.855152489399992 2.9641946841584184
0002c0 68 d7 8f a8 a7 76 07 40 73 f7 bb 23 fc 6d eb 3f
       2.9329369706055566 0.8571758935865844
0002d0 82 88 fe 13 de a9 07 40 89 ea cf ce 52 6b 07 40
       2.957943111615408 2.92740403720865
0002e0 22 7c aa 5e 4b 7f eb 3f 14 fa 84 4d d1 9c 07 40
       0.8592888688034501 2.9515710884291
0002f0 5e 7a 73 e1 45 5f 07 40 89 6d 82 63 8a 91 eb 3f
       2.9215200055471504 0.8615161841911895
000300 1e 62 fe c8 50 8e 07 40 67 1a 5f ef 20 52 07 40
       2.944490022910272 2.915101881112878
000310 82 f8 03 4e 4a a4 eb 3f 73 73 09 38 7f 81 07 40
       0.8638049625149196 2.93823093203394
000320 70 50 c3 83 b0 45 07 40 46 cf 93 94 92 b8 eb 3f
       2.909028081319825 0.8662808324720366
000330 cf 76 e5 0d 30 75 07 40 01 db 37 c3 80 3b 07 40
       2.932220562520207 2.904054188863825
000340 3c 55 42 0b ba c5 eb 3f f8 36 02 31 7a 67 07 40
       0.8678865642456581 2.9255260304261093
000350 af 4d 37 b2 70 2f 07 40 6b 96 56 c3 18 d6 eb 3f
       2.8981641696097635 0.8698848548126085
000360 e2 eb 7f c7 05 5a 07 40 b0 f3 cf 94 ad 23 07 40
       2.918956335631706 2.892420923801602
000370 00 fe 8a a4 46 e6 eb 3f 65 29 66 5a b2 4c 07 40
       0.87185985696118 2.912449556582191
000380 f3 fb e8 dc 71 18 07 40 45 00 ff da 69 f4 eb 3f
       2.886935926303971 0.8735856320636307
000390 f3 23 53 ed 31 40 07 40 9e 2d a2 65 ac 0c 07 40
       2.906345228290314 2.8811881961934906
0003a0 e2 63 c5 91 91 f9 eb 3f 74 1b e0 b6 45 32 07 40
       0.8742149207201886 2.899547032083712
0003b0 5c 57 d9 1a fc ff 06 40 da b8 43 64 b5 0c ec 3f
       2.874992570646027 0.8765513380328926
0003c0 8a 77 f1 8c ec 22 07 40 94 c3 3e 5e 6a f2 06 40
       2.8920527468862405 2.8683669436363264
0003d0 1d 81 e5 5c 37 1d ec 3f b5 7a d1 f2 7a 15 07 40
       0.8785664381394188 2.8854884119203583
0003e0 a2 91 b3 41 8d e4 06 40 4b 4b 64 79 b4 28 ec 3f
       2.8615975506711075 0.8799688692982753
0003f0 d7 92 54 c7 70 07 07 40 da a0 04 a4 88 d5 06 40
       2.8786330769238293 2.8542645276939824
000400 c7 a7 3d 33 33 33 ec 3f 41 ad 04 a4 07 f9 06 40
       0.8812500000760729 2.8715966047217596
000410 b4 2f c3 4b 42 c5 06 40 c4 e3 f3 d3 7b 40 ec 3f
       2.8463178557339806 0.8828715457631167
000420 63 3f 3d 9a 36 eb 06 40 ff 9e 67 ce f3 b6 06 40
       2.8648502397481237 2.8393322110531467
000430 2d 7e 88 66 57 46 ec 3f 10 76 0e 6a a1 de 06 40
       0.8835865976906853 2.858706310812302
000440 25 1b 8d 25 02 a9 06 40 30 19 8e 3a 99 4b ec 3f
       2.832523625725474 0.8842283385900256
000450 43 26 99 f8 71 d1 06 40 88 4f 7b 32 d1 9c 06 40
       2.8522681638467318 2.8265708869821005
000460 9d ce a0 89 43 4f ec 3f 2f e9 53 bd a9 c4 06 40
       0.8846757591295106 2.846026877520806
000470 fa 62 33 7c 4e 8f 06 40 f0 60 b1 77 18 50 ec 3f
       2.819973917310901 0.8847772920371693
000480 10 66 7b 9a 24 b7 06 40 1a c1 01 6f 12 82 06 40
       2.8394252842815675 2.813511721840894
000490 b0 fd c2 fa 2c 46 ec 3f 79 e7 b4 55 5a a9 06 40
       0.8835663697899943 2.8326918311913087
0004a0 e6 ff 93 d5 3d 72 06 40 de 3a d8 42 79 41 ec 3f
       2.805782002047624 0.8829923921165024
0004b0 25 a1 0f 5b af 9b 06 40 77 6f 0c c8 52 63 06 40
       2.826018058218454 2.798497736815928
0004c0 d1 6b ee e7 98 3b ec 3f ca 35 c5 c4 7b 8d 06 40
       0.8822750596913186 2.8190837261852026
0004d0 84 af 0b b9 3a 54 06 40 28 9d 6f 7e 0d 34 ec 3f
       2.7911276299182095 0.8813540906384434
0004e0 91 29 20 a1 44 7f 06 40 b2 1e a0 54 ec 44 06 40
       2.8121426189365555 2.7836538897862164
0004f0 66 53 bf c3 85 29 ec 3f ca 3d f9 31 e2 70 06 40
       0.8800686667624233 2.8051189331233433
000500 b4 0a 0f 79 95 35 06 40 3e 4d 82 07 ac 1b ec 3f
       2.7761640031543156 0.8783779284152968
000510 35 bd f4 d5 2a 62 06 40 10 8b 50 e4 0a 26 06 40
       2.7979332652390903 2.7685754620628202
000520 ff 87 2b 48 9f 0c ec 3f f0 a3 cc 5b 1d 53 06 40
       0.8765407952853365 2.790583340819005
000530 e1 a4 cd 0b 84 16 06 40 86 b6 57 a7 66 f7 eb 3f
       2.7609940454609476 0.8739503162775726
000540 e8 50 f1 43 96 44 06 40 1e 25 5e 77 b4 06 06 40
       2.783489733507043 2.753273899612977
000550 5f f9 c9 a0 52 e3 eb 3f 71 ed 4a 50 b9 34 06 40
       0.8714993610772516 2.7757440827241955
000560 2f 0c 41 2c db f6 05 40 d9 e9 c7 51 aa cc eb 3f
       2.7455352265692663 0.8687335583957135
000570 9a 76 da d9 94 25 06 40 12 82 42 24 61 e6 05 40
       2.7683503169817643 2.7374899704739244
000580 7a 8e c5 34 1e b2 eb 3f ab 2c a8 f7 67 16 06 40
       0.8654929190347069 2.760940489597109
000590 ad 8d 13 bc 8e d5 05 40 4a 91 4f f1 15 97 eb 3f
       2.729276151034091 0.8621930802442332
0005a0 6e aa 80 c1 27 06 06 40 20 37 bf 1b 18 c5 05 40
       2.753005515803401 2.721237389347962
0005b0 9c 30 32 8b 78 7a eb 3f 4b b6 f5 db 4c f5 05 40
       0.8587000578568396 2.7447755035744072
0005c0 af e9 2a 63 e2 b4 05 40 26 d2 8d a0 ae 5c eb 3f
       2.7133224246474223 0.855063737470634
0005d0 d8 c7 72 79 fb e4 05 40 69 66 57 12 94 a3 05 40
       2.7368077743676444 2.704872268001783
0005e0 28 c3 91 33 ab 3f eb 3f 05 a6 e1 91 7e d5 05 40
       0.8515220648970159 2.729245319079157
0005f0 73 91 48 29 a7 91 05 40 fe d9 42 06 b3 21 eb 3f
       2.6961196160574956 0.8478636858260982
000600 0e 1f 3e b6 e1 c4 05 40 8e 17 ec 13 65 7f 05 40
       2.7211336362560195 2.6872045093941272
000610 d4 1a a8 59 50 08 eb 3f 43 d0 b3 70 3f b4 05 40
       0.8447648764711979 2.7130116276621563
000620 28 7d 2e 45 3f 6e 05 40 6a df b4 06 b1 ee ea 3f
       2.678831615906933 0.841637147043895
000630 f4 0b 35 f1 02 a3 05 40 78 41 91 fb 48 5d 05 40
       2.7045954555810514 2.6705493596747907
000640 3c 0a 82 5f 3a d7 ea 3f cc 2b c2 ab 79 91 05 40
       0.8387729516401303 2.6960328501349746
000650 2c 7f 5e a9 ba 4a 05 40 a9 05 68 ff c5 c1 ea 3f
       2.661488841244042 0.8361539829640395
000660 ad 6a b7 12 2d 80 05 40 41 db cb cb ae 37 05 40
       2.687585970137056 2.6521888658129744
000670 90 8c 7e ef df b0 ea 3f 0d 3b d8 fa 6c 6f 05 40
       0.8340911557792356 2.6794070813406337
000680 11 e3 96 fa 20 25 05 40 36 25 9c 94 ed 9c ea 3f
       2.6431293084427883 0.8316562559640832
000690 dd a2 03 0e d7 5d 05 40 aa a6 82 8a 2e 12 05 40
       2.67082034062001 2.633877832519677
0006a0 d2 54 a0 44 59 8d ea 3f cd 05 15 38 ec 4a 05 40
       0.8297544803960142 2.661583364621697
0006b0 7a b0 58 c9 2d ff 04 40 1b d4 3f 6a 53 81 ea 3f
       2.6245990495863767 0.8282868457014304
0006c0 d4 6c 98 bf b9 37 05 40 b3 63 e4 30 6d eb 04 40
       2.652209755744119 2.614954359025853
0006d0 e0 9f 81 ce 7a 7b ea 3f 46 f3 7d 95 52 24 05 40
       0.827573207218844 2.6427356413900354
0006e0 b8 21 22 c0 d7 d6 04 40 34 5c bc a5 0a 7b ea 3f
       2.604903698960893 0.8275197255160323
0006f0 41 ed 1a 2c 01 11 05 40 73 99 52 ab 8a c2 04 40
       2.6333030172078513 2.5949910530645695
000700 10 2b 81 c9 e6 7b ea 3f dc 41 96 35 98 fd 04 40
       0.8276246963153842 2.623825472496021
000710 50 fa 57 af ce ad 04 40 60 b1 98 f1 e4 80 ea 3f
       2.5848668764804543 0.8282341688805381
000720 28 ca 2f 2b 6a eb 04 40 66 8c c7 28 6f 99 04 40
       2.6149485944709063 2.57491905077909
000730 f8 36 b9 de c5 82 ea 3f 1b fa ba 47 44 d8 04 40
       0.8284634924000036 2.60559898414
000740 5d 47 33 8e 63 85 04 40 d1 42 a7 28 6d 89 ea 3f
       2.5651312932395016 0.8292756837855341
000750 07 5d 9b 1c 20 c5 04 40 48 d8 f0 4b 64 70 04 40
       2.5962526545441764 2.5548788006663337
000760 69 45 57 37 71 93 ea 3f 23 97 29 df 94 b0 04 40
       0.8304983216168412 2.5862214502875687
000770 a2 0f d2 61 bf 5c 04 40 cf 99 84 a1 be a4 ea 3f
       2.5452869074087667 0.8326104311607255
000780 3d 7f 20 e4 d9 9d 04 40 6b 67 e5 39 b4 48 04 40
       2.5770757505814843 2.5355000041135347
000790 cd f5 da d5 18 b3 ea 3f 92 9e 37 e0 eb 8a 04 40
       0.8343624283658585 2.5678327099775027
0007a0 28 6c 69 85 ee 34 04 40 04 a2 1c d3 ef bf ea 3f
       2.525845567970027 0.8359297869947686
0007b0 82 21 26 af 7c 78 04 40 8d be 8a 13 c6 20 04 40
       2.558831566191828 2.51600280062832
0007c0 9c b8 3f ff 74 ce ea 3f a2 9b d0 a5 46 66 04 40
       0.8377022729234969 2.5499394373213855
0007d0 cf a2 26 c6 e8 0c 04 40 30 30 5e 53 c1 dc ea 3f
       2.5063033562222254 0.8394476536063902
0007e0 be d2 6d ba 89 54 04 40 42 b3 f1 cd 99 f9 03 40
       2.5412783207669625 2.496875389994245
0007f0 85 b7 4e a0 35 e8 ea 3f 60 15 c5 f0 a5 44 04 40
       0.8408458834653493 2.533519631399642

mocap_framerate f8 []
000000 00 00 00 00 00 00 5e 40
       120.0

betas f8 [16]
000000 67 df 5b 43 06 34 e8 3f 25 68 3f 29 dd ab e1 bf
       0.7563506427386358 -0.5522294812792593
000010 c4 c8 48 6a 80 40 ed bf aa 14 4e c9 07 a4 f7 bf
       -0.9141237331262109 -1.4775464881397888
000020 77 6e ea 71 45 8e 89 bf 0f 82 ae 08 60 94 e5 3f
       -0.01247839216130518 0.6743621987880618
000030 6f b3 51 c9 e5 de e8 bf 29 f7 f6 44 7e 01 d7 3f
       -0.7772091800703559 0.359466140125607
000040 df 36 cb cf ff 00 00 c0 d9 14 4d 23 97 b1 06 c0
       -2.0004879220858665 -2.8367140539072406
000050 95 f3 20 42 d8 34 03 c0 fe 19 17 31 3b 45 05 c0
       -2.4008031050020215 -2.6588043055701283
000060 5c 4d 9d 1f e5 00 f8 bf a7 f3 c4 df 44 d5 f1 bf
       -1.5002185091915043 -1.1145676365842776
000070 71 8b f6 35 22 1d f8 3f 21 47 72 31 77 67 e0 bf
       1.507112704079841 -0.5126300779104193

dmpls f8 [683, 8]
000000 f4 90 31 73 cc ad df bf 5c 72 62 05 99 3d d8 bf
       -0.49498282670380367 -0.3787596275886125
000010 ee 38 ab ca a5 93 d9 bf 6a c2 f8 1c de 30 f4 bf
       -0.3996366957843652 -1.2619305736262967
000020 7c 6f fe ee c0 e1 db 3f 54 7b 0d 51 fd dc c5 3f
       0.43565390910384116 0.17080656488084378
000030 13 85 0e a3 dd b2 dd 3f 58 56 d7 c1 78 15 07 40
       0.4640421001768839 2.8854842323151324
000040 a5 6b 14 a5 c0 ec de bf fa ee fb 77 f9 14 d6 bf
       -0.4832002269847016 -0.3450301810951114
000050 44 b1 72 3b 35 58 d4 bf 2d 09 02 c5 06 1e f4 bf
       -0.31788378529997297 -1.2573306747077126
000060 cf bc 4a f0 3b 79 dd 3f 02 cd 00 ed f1 c4 c9 3f
       0.46052454439172846 0.2013227851144635
000070 db 4a 56 f0 ae e6 da 3f 27 a3 3c 5e 73 45 07 40
       0.4203297946016115 2.9089114534621276
000080 07 45 b7 51 6d 39 dd bf 85 31 f4 8e 5e 9c d2 bf
       -0.4566300676352317 -0.2907940288576117
000090 86 a0 17 d6 79 85 c8 bf cb e4 59 ce 25 e7 f3 bf
       -0.19157336190915347 -1.2439325390426343
0000a0 51 e7 c3 14 e7 7d df 3f 8a b9 ef 27 5a cd d1 3f
       0.492059488562167 0.27815870189706315
0000b0 2f a0 0b 96 37 38 d6 3f 55 d1 0c 01 50 53 07 40
       0.3471812215125309 2.91567993946425
0000c0 40 31 f4 8d 47 22 db bf 68 b4 ed 62 e7 a5 cc bf
       -0.42396725523646595 -0.22381298380369974
0000d0 94 50 89 8d 12 cc a0 bf 85 c2 87 62 27 93 f3 bf
       -0.03280694940318188 -1.2234262322273548
0000e0 d5 e0 a1 4b 7e b4 e0 3f 10 43 b0 7a 61 1b d9 3f
       0.5220328786081391 0.39229619008351424
0000f0 2b 48 ff 0f df 82 cf 3f 9a 7d 84 2b 41 2d 07 40
       0.24618137627709422 2.8970969581420833
000100 f2 ec b8 a7 71 73 d8 bf 2d 85 93 ac 32 18 c6 bf
       -0.38204614047181373 -0.17261346270155667
000110 a0 d3 aa 79 09 4b c0 3f 97 0c 90 1c f2 4b f3 bf
       0.1272899478987286 -1.2060414424638901
000120 e9 c3 35 cc 8c b6 e1 3f 8a 01 e6 85 f1 77 e0 3f
       0.5535339344479527 0.5146415343479458
000130 a0 6e 01 49 5a e3 c2 3f 47 31 89 79 56 fb 06 40
       0.14756325306631357 2.872723531245501
000140 22 df b3 a5 e9 60 d4 bf bb db 34 b1 7e cf c0 bf
       -0.3184150808515246 -0.13133224156055498
000150 9a ef 32 6d b7 1d d2 3f ea 27 63 fe b9 27 f3 bf
       0.2830637518306901 -1.1971988617901794
000160 c2 bc 59 e6 a9 b4 e2 3f 08 7f 2c a4 37 d1 e4 3f
       0.5845536707910457 0.6505392271537582
000170 94 4c e1 94 c2 60 a6 3f 22 7a 83 66 37 d0 06 40
       0.04370697085746503 2.8516681679605123
000180 60 3f f1 98 94 9c cf bf 4c 1d 40 2a 4a 0d b9 bf
       -0.24696595638169594 -0.09785903483872466
000190 d6 19 c2 c9 f6 17 db 3f 8e ed 27 bf c4 1e f3 bf
       0.4233376474661815 -1.1950118510274907
0001a0 64 96 f9 ab cd 00 e4 3f 58 06 e6 cd 65 69 e9 3f
       0.62509807194574 0.7941159268813847
0001b0 31 aa a8 62 75 6e b0 bf 6f 33 8d a7 3d 94 06 40
       -0.06418546351111655 2.8223832216230487
0001c0 7f 64 bf a2 25 80 c5 bf ae fc 4c 0e fe 81 b7 bf
       -0.16797323652898297 -0.09182727669848376
0001d0 b5 f3 09 a5 d1 af e0 3f 60 9e 27 f7 f3 c8 f2 bf
       0.5214622710624243 -1.1740607885821177
0001e0 80 8e 16 35 fd 71 e5 3f 51 63 c5 65 cc 70 ed 3f
       0.6701646839978395 0.9200193393436199
0001f0 58 1d 91 e7 bd 11 c6 bf ed 24 7d 5e 2f 51 06 40
       -0.17241643721556943 2.789641130632495
000200 d9 d7 da 74 4b 32 b9 bf 56 4a 93 f4 b0 5f b9 bf
       -0.09842368700887451 -0.09911638232305484
000210 ff d6 e0 e9 b9 e2 e3 3f 22 36 7d 8d f0 eb f1 bf
       0.6214265411315124 -1.120102455798936
000220 2c 18 72 b0 83 16 e7 3f a7 8f c6 8f 24 c6 f0 3f
       0.721498341198417 1.0483747116313482
000230 a8 f9 bf 59 bd f5 d2 bf a4 1d 45 db 4b 12 06 40
       -0.2962487579788111 2.7589337473361457
000240 70 f9 90 31 da 45 b2 bf 93 75 18 59 93 18 a9 bf
       -0.07137836179842849 -0.049015621782227424
000250 45 71 60 00 b8 8c e4 3f bf 55 22 57 32 3e f0 bf
       0.6421775824888206 -1.0151847270657155
000260 67 48 18 dc 77 49 e8 3f 72 63 f9 71 fa 35 f2 3f
       0.7589682863929398 1.138178296290985
000270 a6 16 48 1e 4d a5 db bf f0 01 e1 cf 77 cd 05 40
       -0.4319641872137744 2.7253261795560704
000280 a4 f5 b4 c4 14 c5 a5 bf 9d 1a 52 5e 77 1a a3 bf
       -0.04251923466879795 -0.037311296714553445
000290 19 cc dc 67 7f 0f e5 3f 0b 3c e9 fc 3b ee ed bf
       0.6581418064655536 -0.9353313388509162
0002a0 85 6b 8c 0a 47 ef e9 3f f7 e6 50 9b 8d 60 f3 3f
       0.8104586797738739 1.2110725466758916
0002b0 56 24 d6 c8 10 07 e1 bf 1e ff b3 d5 d4 6b 05 40
       -0.5321124956691488 2.6776520438724125
0002c0 57 bc fe 3d e6 19 97 bf 3e 60 43 c1 a4 83 a1 bf
       -0.02255973580730272 -0.03420748576326148
0002d0 a0 a4 f1 cf 12 4c e4 3f 4f da 9f 39 24 79 eb bf
       0.6342863141445783 -0.8585377812840508
0002e0 a7 89 80 7c 4a c4 eb 3f 4a 21 d8 7d 6d f2 f3 3f
       0.8677112991029404 1.2466864505568815
0002f0 da 4c 24 2d d0 96 e3 bf 80 bc 7e 6c 31 fa 04 40
       -0.6121598130870567 2.622164580934225
000300 aa b3 c5 e5 a7 d1 92 bf 31 23 6d ce 17 82 ad bf
       -0.018377898596941535 -0.05763315577366369
000310 65 53 d4 8f 15 fa e3 3f 19 d4 12 52 12 31 ea bf
       0.6242778596084518 -0.8184901812552453
000320 c2 e0 0b 3e 23 25 ee 3f a7 fa b1 3b 50 7a f4 3f
       0.9420334064334599 1.279861672577377
000330 f1 6a de 6e 25 04 e6 bf 01 66 14 be dd 98 04 40
       -0.688006130734122 2.574641690251838
000340 bd 2f ca 9e 1e f6 98 bf 27 b0 01 6b e8 a5 b5 bf
       -0.024376371804961872 -0.08456280338731458
000350 01 e6 90 08 22 74 e3 3f 4a 07 2c 42 c6 d3 ea bf
       0.6079263846688151 -0.8383513729497534
000360 89 d1 7a e6 3a d9 ef 3f 16 d4 1c b3 24 fb f4 3f
       0.9952673436696823 1.3113142963968634
000370 ab d3 c3 b9 6b 2d e8 bf 56 2b ca c4 ea fa 03 40
       -0.755544531652608 2.4975180982777756
000380 40 3c 0d 9a 25 a9 87 bf b3 ff 71 e3 b1 f1 b9 bf
       -0.011553090823921974 -0.10134422114242518
000390 b0 5f ed 91 79 25 e3 3f 06 a7 47 cf 3c 96 ea bf
       0.5983245706693108 -0.8308395431933782
0003a0 14 91 9f 55 77 88 f0 3f 02 e2 3a f5 9c 4e f5 3f
       1.033316931215329 1.3316926554963406
0003b0 79 50 ac f4 55 ae e9 bf 56 1c b0 71 61 5e 03 40
       -0.8025312212726156 2.421084297358486
0003c0 fe a6 af fd 8d 81 91 bf e2 6e 70 d0 89 be ba bf
       -0.01709577427747088 -0.10446988428924045
0003d0 cc a6 ca 5d db eb e2 3f d9 04 72 8b 63 6a e8 bf
       0.5912911254756295 -0.7629869197409348
0003e0 24 63 1c a2 1a 0a f1 3f 69 ec 8a a7 02 54 f5 3f
       1.064966805692344 1.3330103439937153
0003f0 9d 1e 0a 15 24 10 ea bf ed b9 b8 76 2a e9 02 40
       -0.8144703303268731 2.3638505244373307
000400 e1 6f 2c 95 d1 44 ab bf da 1b ff 3c 24 d4 b5 bf
       -0.0532594198795946 -0.08526827325032063
000410 57 a0 b7 dd 06 3c e2 3f 9f c2 ce e0 6d 2c e6 bf
       0.5698274927535846 -0.6929234877371363
000420 7a b6 9c cd a7 3d f1 3f d8 02 0b a0 9d 37 f5 3f
       1.0775526077008224 1.3260780574493563
000430 c0 37 45 05 e0 89 e9 bf 01 3a 6c 04 2c 6a 02 40
       -0.7980804541527888 2.301841768791974
000440 ae 9d 7e f7 f7 af b2 bf 60 b3 95 7c 12 c9 af bf
       -0.07299756805752253 -0.062080934246160124
000450 98 76 2a 74 44 22 e1 3f 16 b6 70 ee 8d a4 e4 bf
       0.535433031927556 -0.6450872094189346
000460 f9 9b c2 c3 3f ba f0 3f 09 64 29 24 bb bf f4 3f
       1.0454709669954794 1.2968093311849336
000470 c5 d1 1d 7e 2e 58 e9 bf 16 60 26 3b e9 de 01 40
       -0.7920143569195309 2.23384329043257
000480 92 84 1b 82 b6 39 bc bf 80 15 96 b1 d2 e2 6b 3f
       -0.11025562931492264 0.003404056082845386
000490 c6 7b 1e f5 2a 7e df 3f c4 da 9d 8a 92 1a e2 bf
       0.49207567155275134 -0.5657437045436713
0004a0 3f 55 3f 6b 6c b8 ef 3f 3e a9 f0 a0 c4 23 f4 3f
       0.9912626356769251 1.2587324415895433
0004b0 b7 f5 b2 7e 4b 5d e8 bf 39 de 90 d5 08 57 01 40
       -0.7613885378447581 2.167497318728945
0004c0 30 92 f6 99 f9 60 c0 bf a6 40 e7 83 84 8a a1 3f
       -0.12795944230778522 0.03425993070743631
0004d0 67 76 96 46 a7 24 de 3f e1 94 c3 a3 6f e7 e0 bf
       0.4709871472676696 -0.528251476146263
0004e0 96 30 ca a1 9e cf ed 3f 2b 7f f7 5a 97 7a f3 3f
       0.9315941963154895 1.217429499949456
0004f0 3d 5c 2e b1 a8 a1 e7 bf df 53 0b 7e f9 bc 00 40
       -0.7384837589805852 2.0922727439124027
000500 e6 06 d8 3d a0 de c2 bf a0 f6 6b 9d 93 34 b7 3f
       -0.14741900462836738 0.09064600556663516
000510 d3 7d 9e 6a a3 f5 de 3f ce d7 dc 07 f7 ec dc bf
       0.4837425748064252 -0.4519631935867182
000520 8f 91 86 69 b8 3e ec 3f 8a d6 13 13 23 ad f2 3f
       0.8826562939689654 1.1672697777952714
000530 c3 3b 8d cc ce 53 e6 bf 2d eb a6 de 61 2c 00 40
       -0.6977304453993088 2.0216710467042476
000540 de 3f 3f ea ca 80 c4 bf 1e 4a 49 0f 0e b7 bd 3f
       -0.16018043935628062 0.11607444642258044
000550 ba 22 57 2a 82 79 de 3f c7 b8 e0 fa 00 26 d9 bf
       0.476166287754079 -0.39294456958567675
000560 e9 ae 92 d3 7c fd ea 3f b8 26 67 ef ec 52 f1 3f
       0.8434433109555047 1.0827454902341014
000570 70 e1 61 22 18 03 e5 bf 35 20 16 8d d6 f1 fe 3f
       -0.6566277190714072 1.934042502516616
000580 0f 6b 81 4e b4 76 c6 bf 78 b4 c0 10 98 37 c0 3f
       -0.17549756844785988 0.1266965944099956
000590 c7 ef 1d 7c c8 bf e0 3f 27 81 fb 6b 79 8f dc bf
       0.5234110283049568 -0.4462569765583048
0005a0 52 6c 03 33 70 8d ed 3f e1 37 b4 03 ed 80 f1 3f
       0.9235154148440279 1.0939760346113803
0005b0 87 9c 85 a3 7b 3b e3 bf 9d 7c c7 a3 e1 48 fc 3f
       -0.6010111039912694 1.7677933118464246
0005c0 aa c3 33 e9 1e 7d c7 bf 83 ac 71 30 b6 25 be 3f
       -0.1835058821375502 0.1177629345199183
0005d0 99 e7 67 7c 58 94 e3 3f 82 53 a9 62 ad c0 de bf
       0.6118585996439264 -0.480510088299802
0005e0 4a 3c fe ee 47 38 f0 3f f6 0f 75 45 b2 3c f2 3f
       1.0137404761951694 1.1398184502768323
0005f0 6b 04 fc 94 ce e4 e0 bf 06 ce 4e 09 cb ce f9 3f
       -0.5279305372097388 1.6129865993106036
000600 9c df ab 59 9e 67 c5 bf 39 54 88 ad f7 b9 b8 3f
       -0.16722468737111462 0.09658763872751387
000610 26 95 a0 e7 bd 11 e7 3f 01 32 e6 1b d8 bc df bf
       0.7209157489748221 -0.4959011337712412
000620 22 9e 79 d0 6c a1 f1 3f b0 3f 3c 8e af 72 f3 3f
       1.1019104140813245 1.2154994541233286
000630 06 6a 14 00 59 8a dd bf dd df 11 7d d3 9a f7 3f
       -0.4615690708903063 1.4752993474521567
000640 2d 85 ab fc ed 4e c2 bf c6 df 68 2c 55 06 b0 3f
       -0.1430337413540114 0.06259662946911168
000650 ca 8d bf 5d c8 42 ea 3f 94 aa 66 88 3f a1 df bf
       0.8206521826763773 -0.49421680756010145
000660 b9 b4 aa 41 b0 ee f2 3f de 22 86 f6 20 09 f5 3f
       1.1832735600576554 1.314728701576477
000670 d7 e8 f6 13 c0 34 da bf 86 02 f1 0b f4 7b f5 3f
       -0.40946962308556806 1.3427620378935514
000680 85 98 26 f2 a4 9d c1 bf 40 12 2a 9a 0e 35 9e 3f
       -0.13762342284934817 0.029499271544880523
000690 8c 1b 9d f6 e4 44 ec 3f 8d d6 b0 ba da c1 de bf
       0.8834099594758853 -0.48058193427582624
0006a0 6f 3a a5 34 f7 02 f4 3f e0 50 01 ff 76 bd f6 3f
       1.2507240349256354 1.4212560616625112
0006b0 d6 c4 be 67 09 01 d8 bf 28 97 08 c9 94 54 f3 3f
       -0.3750632775437003 1.2081497052071857
0006c0 80 4c 11 cc 59 35 c0 bf 80 03 9d 52 60 7a 29 bf
       -0.12662813629376402 -0.0001943819600516393
0006d0 3d fd e0 09 31 3a ed 3f 2e f6 ee bd 1c 69 dd bf
       0.9133534615465703 -0.4595405440157688
0006e0 8c b2 26 17 e9 47 f4 3f a0 e3 f6 10 e1 9d f8 3f
       1.2675562767355215 1.5385447180435463
0006f0 73 f9 10 77 ff 76 d7 bf 21 8b 91 e8 92 9c f0 3f
       -0.3666380560643098 1.0382260403354808
000700 85 30 10 36 72 58 bd bf f0 02 e0 ea e1 8b a4 bf
       -0.11463083095458344 -0.040129718705434914
000710 b1 8d 79 aa 6d 60 ed 3f 83 14 fa 6a b2 dc dc bf
       0.9180210427843375 -0.4509702725120592
000720 b3 44 a2 5a 64 46 f4 3f 50 28 a8 56 c2 7e fa 3f
       1.2671855488190829 1.6559470543893617
000730 a7 ca e0 80 66 f3 d7 bf fc 5a 7d 5e 2b 39 eb 3f
       -0.374230981690895 0.8507286878110274
000740 94 10 58 c1 8c 21 bc bf 74 c2 99 50 14 92 b4 bf
       -0.10988692970573971 -0.08035399406231553
000750 b1 0a f2 76 6a 78 ec 3f 11 85 63 d4 16 df dc bf
       0.8896992037919828 -0.45111628285492694
000760 73 e0 9d fd bb 15 f4 3f d6 5f 1e a5 ee 38 fc 3f
       1.2553062350180226 1.763899464602209
000770 01 78 16 bf d9 4c d8 bf 2b 33 99 9d 0f 44 e5 3f
       -0.3796905866710177 0.6645582273573373
000780 b2 da 97 56 50 95 bd bf c5 cf dc ec 7d 2b c2 bf
       -0.11555959810344055 -0.1419522673182866
000790 ea 7c 26 c4 12 3a ea 3f df 43 a9 98 c7 b1 dd bf
       0.8195890265523336 -0.4639758101303055
0007a0 1b d9 aa 69 13 d4 f3 3f bd 65 e8 0a de a1 fd 3f
       1.2392763259536597 1.8520183969579727
0007b0 3c ed 25 34 5c ac d8 bf 82 55 09 23 5e af de 3f
       -0.38552002995102774 0.4794535963204326
0007c0 6e 79 bf f9 ce b7 c0 bf 88 48 7c 50 7c d8 c9 bf
       -0.1306093902084728 -0.20191911630587733
0007d0 02 b6 45 a9 f3 02 e7 3f e4 1f 37 1c 5e b1 df bf
       0.7191103273486876 -0.49520066028025966
0007e0 40 61 16 0f d0 6d f3 3f 86 4a 15 92 22 d7 fe 3f
       1.2143097485878371 1.9275232035039678
0007f0 ca 33 65 a7 2f d4 da bf a3 74 44 71 82 7a d3 3f
       -0.41920081469725956 0.3043523889662742

poses f8 [683, 156]
000000 3f 90 ca 1c c4 46 f8 3f ac 06 69 2a 04 62 de bf
       1.5172768711718303 -0.47473243848444713
000010 09 06 45 16 58 c4 e2 bf 99 ff 03 df 74 d9 de 3f
       -0.5864677844003278 0.4820224931609061
000020 67 c6 74 6f c3 ec 95 3f 76 ea 9d 3c 79 0a 7b 3f
       0.021410993268722225 0.006601785260381568
000030 17 a8 35 c1 9d 2d e0 bf 29 0a 97 26 70 c3 9d 3f
       -0.5055683873772548 0.02906584964308415
000040 de 57 7c ea 93 8f af 3f e3 31 86 70 74 79 b7 3f
       0.061642286657089804 0.09169700381443806
000050 d7 9d 6b 60 d4 7c c1 bf 4f c1 42 bc 0b af aa bf
       -0.13662199695612173 -0.05211674378495223
000060 da e3 5e c9 10 60 c1 bf 78 84 e7 f0 3b 76 d5 bf
       -0.13574418861915555 -0.3353414394933405
000070 b7 fe 58 a5 bc 2f b0 3f 86 0b b2 57 03 f4 a0 3f
       0.06322840725715194 0.03311167188169066
000080 13 64 82 cc 56 a5 a4 bf b9 f5 29 5d dc 9e b1 3f
       -0.04032393690540217 0.06883027338513771
000090 42 49 e5 61 a3 5e c3 3f 6e 23 5a ec 4c eb ad bf
       0.15132562904416075 -0.05843582520635136
0000a0 b9 85 cd c5 b1 d4 c1 3f 85 1d d8 3b c0 f1 d0 bf
       0.13930341871586707 -0.2647553047576923
0000b0 c8 9d 21 18 ad c0 ca 3f e3 c5 a7 bf 68 52 ae bf
       0.20900500944411093 -0.059222482104711614
0000c0 29 95 69 7b 95 08 a8 3f 6e 64 b8 11 c7 59 c1 bf
       0.046940490069383785 -0.13555229535339514
0000d0 22 a9 14 02 e7 20 bd 3f cb 33 81 a0 a8 62 a5 bf
       0.11378330040739518 -0.041768331139429536
0000e0 ba a3 12 15 63 ef b6 bf 98 eb 9d be 49 1d b2 3f
       -0.08959025635216636 0.07075940040333106
0000f0 00 00 00 00 00 00 00 00 00 00 00 00 00 00 00 00
       0.0 0.0
000100 00 00 00 00 00 00 00 00 00 00 00 00 00 00 00 00
       0.0 0.0
000110 00 00 00 00 00 00 00 00 00 00 00 00 00 00 00 00
       0.0 0.0
000120 a5 26 d0 85 40 fe af bf 30 75 62 a8 a4 14 90 bf
       -0.06248666413746421 -0.015703747537022028
000130 c2 ff 81 6b 35 d2 ad 3f fb 33 57 18 1f 05 a4 bf
       0.05824438989020521 -0.03910157367827335
000140 28 66 93 bb 2c 83 96 bf 96 58 c0 58 8e 2d d8 bf
       -0.02198476691123666 -0.3777805201256198
000150 e1 34 53 69 86 55 8b bf 7f 8b 19 37 6e 39 bd bf
       -0.013346719826950739 -0.11415757031640615
000160 d9 97 fd e9 e2 35 d5 3f 0c 55 b3 cc 40 ae b2 bf
       0.33141396380085336 -0.07297139165469363
000170 99 f8 c9 98 e9 95 97 bf 68 a3 72 4b b2 23 c9 3f
       -0.023032808256623658 0.19640186962103745
000180 f5 e4 6b 93 19 93 82 3f e1 4c 5f 5d 85 c1 e1 bf
       0.009069633304067607 -0.5548731635739409
000190 15 c7 91 ab 45 b1 ec bf 73 63 a0 95 6d 9f c1 3f
       -0.8966396666494086 0.13767785840971278
0001a0 6a ef 4b 94 e6 d1 ab bf a2 60 43 2a b8 7d ee 3f
       -0.054335790255179386 0.9528466058209413
0001b0 e0 05 99 b5 e6 58 da bf ec 50 a5 b8 6b c8 e7 bf
       -0.4116760991492736 -0.7432154280054681
0001c0 07 a1 c6 7d b9 ad c3 3f c0 f3 6d c9 05 56 c0 bf
       0.15373915330315688 -0.1276252015631183
0001d0 06 c9 ea 92 5f 55 df 3f ed 51 96 a2 98 c7 be bf
       0.4895857748735043 -0.1202330967847229
0001e0 38 cc 48 33 e3 d4 c2 bf 7d 3b 35 d7 75 dd d6 bf
       -0.14712181095237198 -0.3572668649330167
0001f0 8f 7f 92 11 9f c0 c3 bf ae 3c c2 79 01 dd c8 bf
       -0.15431583745975927 -0.19424456067324541
000200 99 ee bf 02 64 56 c6 3f a7 65 dd 8c 63 fb ce 3f
       0.17451143392814997 0.2420467794243397
000210 80 bb 8c ef f9 96 bc 3f d6 a9 64 90 f6 f5 a5 3f
       0.1116787156904433 0.04289217484104639
000220 83 eb 72 a9 fb a6 da bf 2d f8 e5 1a 0f db bb 3f
       -0.416441836812446 0.10881132513711185
000230 b1 4d c9 fc 6f e4 b0 bf db ff 70 4e f4 32 e8 bf
       -0.06598567887822672 -0.7562200100001023
000240 9f 58 d7 98 35 ad b8 bf 2f c4 0b a7 3f 46 b7 bf
       -0.09639296514009964 -0.09091565922041477
000250 ae e4 15 1d 6f 1f c8 bf e6 3e cd fb 79 3b be bf
       -0.1884592906970161 -0.11809503934386675
000260 00 54 c2 09 50 15 aa 3f 95 b4 7b 31 5b f2 e0 bf
       0.05094385260705536 -0.529584499976084
000270 ae 20 e9 9e b5 64 c2 bf 17 d3 e1 dd a3 48 ac 3f
       -0.14369840869244882 0.05524170001527844
000280 fc ef f3 8f 30 8e e6 bf ba 5e e0 c1 af a4 93 bf
       -0.7048571406917286 -0.019182916839865817
000290 57 a7 4d 3f 63 a3 b7 bf 6a 31 25 0c 60 a0 d5 bf
       -0.09233684821597642 -0.3379135244947721
0002a0 a9 32 25 45 07 40 dd bf 6c 44 9b 12 d5 1f c9 bf
       -0.4570329833266365 -0.196283945164882
0002b0 c5 4b 13 84 bf 03 e4 bf e5 28 80 a9 ba 79 cb bf
       -0.6254575328442732 -0.21465237881086022
0002c0 b6 e1 12 82 43 e5 b0 bf c9 a1 33 33 7a 38 e0 bf
       -0.06599828649166892 -0.5068942070038754
0002d0 75 1e db 59 90 a9 d7 bf f6 62 6b a9 7d e5 ae bf
       -0.36972435736649994 -0.06034462636097786
0002e0 ac 9b 14 b9 78 59 b4 bf 14 54 27 41 c9 28 c2 bf
       -0.07949022787634757 -0.14186969453172138
0002f0 01 70 5f 2c 70 fa b5 bf da 53 c5 5a 3f 56 e4 bf
       -0.08585263331718808 -0.6355282566897771
000300 e5 f6 70 d5 f2 69 d3 bf 0b 20 55 3f 93 a2 ad bf
       -0.3033415874850632 -0.05788097522832921
000310 32 5f f5 24 57 34 e4 bf 67 f4 a5 10 21 8b c6 bf
       -0.6313892099233043 -0.1761208850183806
000320 c6 b2 4e 09 6d e8 c0 bf 36 8c ee 97 0a e5 d7 bf
       -0.13209307627166406 -0.37335457646458126
000330 4e c7 87 70 19 3b eb 3f ae 0b 2c 2a 1a b9 d1 3f
       0.8509642789706306 0.2769227420650918
000340 9c 33 ba bd b1 6f b7 bf 3f 7e 75 8d 5e fd df bf
       -0.09154806978240376 -0.49983943762160615
000350 59 89 b4 ad 9e 31 9b 3f 91 40 4d c8 33 13 ab 3f
       0.026556472160458842 0.05288087673273013
000360 3b ce 19 f0 4c 23 e1 3f 72 d3 95 9f 34 88 a7 3f
       0.5355591477841196 0.04596104095518329
000370 3a f5 a5 db 3b c0 d1 bf 80 bb 8c ef f9 96 bc 3f
       -0.2773580212595622 0.1116787156904433
000380 d4 a9 64 90 f6 f5 a5 bf 84 eb 72 a9 fb a6 da 3f
       -0.04289217484104638 0.41644183681244606
000390 2d f8 e5 1a 0f db bb 3f b0 4d c9 fc 6f e4 b0 3f
       0.10881132513711185 0.0659856788782267
0003a0 db ff 70 4e f4 32 e8 3f 9f 58 d7 98 35 ad b8 bf
       0.7562200100001023 -0.09639296514009964
0003b0 2f c4 0b a7 3f 46 b7 3f af e4 15 1d 6f 1f c8 3f
       0.09091565922041477 0.18845929069701614
0003c0 e5 3e cd fb 79 3b be bf 01 54 c2 09 50 15 aa bf
       -0.11809503934386674 -0.05094385260705537
0003d0 95 b4 7b 31 5b f2 e0 3f af 20 e9 9e b5 64 c2 bf
       0.529584499976084 -0.14369840869244885
0003e0 18 d3 e1 dd a3 48 ac bf fc ef f3 8f 30 8e e6 3f
       -0.05524170001527845 0.7048571406917286
0003f0 bb 5e e0 c1 af a4 93 bf 57 a7 4d 3f 63 a3 b7 3f
       -0.01918291683986582 0.09233684821597642
000400 6a 31 25 0c 60 a0 d5 3f a9 32 25 45 07 40 dd bf
       0.3379135244947721 -0.4570329833266365
000410 6d 44 9b 12 d5 1f c9 3f c5 4b 13 84 bf 03 e4 3f
       0.19628394516488204 0.6254575328442732
000420 e7 28 80 a9 ba 79 cb bf b6 e1 12 82 43 e5 b0 3f
       -0.21465237881086027 0.06599828649166892
000430 c9 a1 33 33 7a 38 e0 3f 75 1e db 59 90 a9 d7 bf
       0.5068942070038754 -0.36972435736649994
000440 f4 62 6b a9 7d e5 ae 3f ad 9b 14 b9 78 59 b4 3f
       0.06034462636097784 0.07949022787634759
000450 16 54 27 41 c9 28 c2 bf 01 70 5f 2c 70 fa b5 3f
       -0.14186969453172144 0.08585263331718808
000460 da 53 c5 5a 3f 56 e4 3f e5 f6 70 d5 f2 69 d3 bf
       0.6355282566897771 -0.3033415874850632
000470 0c 20 55 3f 93 a2 ad 3f 32 5f f5 24 57 34 e4 3f
       0.05788097522832922 0.6313892099233043
000480 68 f4 a5 10 21 8b c6 bf c6 b2 4e 09 6d e8 c0 3f
       -0.17612088501838064 0.13209307627166406
000490 36 8c ee 97 0a e5 d7 3f 4e c7 87 70 19 3b eb 3f
       0.37335457646458126 0.8509642789706306
0004a0 ae 0b 2c 2a 1a b9 d1 bf 9d 33 ba bd b1 6f b7 3f
       -0.2769227420650918 0.09154806978240378
0004b0 3f 7e 75 8d 5e fd df bf 59 89 b4 ad 9e 31 9b bf
       -0.49983943762160615 -0.026556472160458842
0004c0 90 40 4d c8 33 13 ab bf 3a ce 19 f0 4c 23 e1 3f
       -0.05288087673273012 0.5355591477841195
0004d0 74 d3 95 9f 34 88 a7 bf 3c f5 a5 db 3b c0 d1 3f
       -0.0459610409551833 0.2773580212595623
0004e0 ef bb 80 51 33 5b f8 3f a0 5e fd 1c e6 ef dd bf
       1.5222657378869788 -0.4677672656157288
0004f0 c8 41 ac 73 d6 cb e2 bf 85 f4 10 f2 f8 65 df 3f
       -0.587382532046882 0.49059890403061274
000500 2e e0 e6 91 b7 3b 8a 3f 34 4c 9f b6 8f 12 8a 3f
       0.01280921377188812 0.012730715523423176
000510 d0 1a d3 19 53 87 e0 bf d0 25 e7 3d 57 06 a2 3f
       -0.5165191177737487 0.03520462637568367
000520 74 90 ea cb 79 46 b0 3f d3 54 84 6e 92 80 b5 3f
       0.06357537487434844 0.08399310300986267
000530 dc 58 ce 3d 7c da c1 bf 03 77 47 52 9e cb a6 bf
       -0.13948014276383602 -0.044522235435335865
000540 59 ed a1 b3 b6 9d c0 bf 5b 36 8d bc 5c 57 d5 bf
       -0.12981303950423742 -0.3334571687053988
000550 f5 1f ee 42 53 d3 b0 3f 68 0e ec 32 4a 11 af 3f
       0.06572456726109961 0.060678786006999996
000560 51 d5 14 9c 2e 6f ab bf 0d f5 9e f1 1e 29 b3 3f
       -0.05358262687006266 0.07484620474766164
000570 35 fa 07 e3 40 71 c4 3f 8d 8f 55 16 06 2a ae bf
       0.15970622144227922 -0.05891436598429243
000580 4f d3 cb b7 38 50 c2 3f 5c 7f 5f e8 95 fb d0 bf
       0.1430731675569867 -0.2653555650012913
000590 f9 f7 ce 03 38 78 cb 3f 34 49 d9 d5 9a 0b ad bf
       0.21460628686867247 -0.056729162792765214
0005a0 30 c7 73 dd a5 7b b2 3f 74 35 20 9b b1 d3 c0 bf
       0.07219921738194723 -0.1314603812647125
0005b0 24 6c 16 30 ea 5d bd 3f 27 94 2c 7d a7 f6 a7 bf
       0.11471427606595391 -0.04680369761471353
0005c0 5d 2a 3b f5 b5 b4 b6 bf 22 3c 3a 31 e6 f9 b0 3f
       -0.08869492756927273 0.0663131590065267
0005d0 00 00 00 00 00 00 00 00 00 00 00 00 00 00 00 00
       0.0 0.0
0005e0 00 00 00 00 00 00 00 00 00 00 00 00 00 00 00 00
       0.0 0.0
0005f0 00 00 00 00 00 00 00 00 00 00 00 00 00 00 00 00
       0.0 0.0
000600 26 dc 07 63 fd e8 ae bf e6 97 c4 76 23 20 8a bf
       -0.06037132104750524 -0.012756611883172963
000610 2c c6 bd cc 97 e2 ae 3f 71 84 fd bb da 58 a3 bf
       0.06032251714976797 -0.03778728050998204
000620 19 fc 2f 2c 16 2d 8c bf 0d bb f6 5c fc 2e d8 bf
       -0.01375787088727347 -0.3778677852487114
000630 74 d2 15 d5 67 cb 8a bf 76 2e 52 54 74 d0 be bf
       -0.013083277883859191 -0.12036826189631164
000640 16 ec 07 cf 3a 1f d5 3f fc 9c c0 fb 62 f9 b3 bf
       0.33003111093393167 -0.07802408834742275
000650 c4 c9 17 00 01 4d 9e bf b8 92 ac 95 95 b1 c8 3f
       -0.029590621596023117 0.19291944320970855
000660 46 c7 0e 94 0b af 89 3f 18 f6 da 6c f3 1c e2 bf
       0.012540903526175772 -0.5660340429382726
000670 81 63 98 61 6b e5 ec bf ed e6 73 d7 6d 21 c2 3f
       -0.9030053049237808 0.14164517421868741
000680 f6 e4 27 19 6f ac ac bf 22 1b 35 ad d0 ae ee 3f
       -0.05600306684568494 0.958839739127914
000690 37 e2 b0 e0 46 02 da bf 46 48 62 38 2c a9 e7 bf
       -0.4063889688727928 -0.7394009686706873
0006a0 05 33 df 5f b3 b5 c3 3f 68 b0 07 b9 f5 9f c0 bf
       0.15398256474727404 -0.12988158735913946
0006b0 dc 1d 61 60 59 6d de 3f ff 77 bd e5 9d 14 c1 bf
       0.4754241410450655 -0.1334416744020359
0006c0 c2 f6 39 cf 3b de c3 bf b7 c8 88 81 e2 cc d6 bf
       -0.15521953218915568 -0.3562551751121065
0006d0 e5 17 80 ed 7c 73 c3 bf e0 f5 6d 23 f6 99 c8 bf
       -0.1519619140310048 -0.19219853143651644
0006e0 86 65 6d b4 d7 98 c4 3f 50 26 fd 7c cc 3a cb 3f
       0.16091438589027635 0.21273189642879453
0006f0 80 bb 8c ef f9 96 bc 3f d6 a9 64 90 f6 f5 a5 3f
       0.1116787156904433 0.04289217484104639
000700 83 eb 72 a9 fb a6 da bf 2d f8 e5 1a 0f db bb 3f
       -0.416441836812446 0.10881132513711185
000710 b1 4d c9 fc 6f e4 b0 bf db ff 70 4e f4 32 e8 bf
       -0.06598567887822672 -0.7562200100001023
000720 9f 58 d7 98 35 ad b8 bf 2f c4 0b a7 3f 46 b7 bf
       -0.09639296514009964 -0.09091565922041477
000730 ae e4 15 1d 6f 1f c8 bf e6 3e cd fb 79 3b be bf
       -0.1884592906970161 -0.11809503934386675
000740 00 54 c2 09 50 15 aa 3f 95 b4 7b 31 5b f2 e0 bf
       0.05094385260705536 -0.529584499976084
000750 ae 20 e9 9e b5 64 c2 bf 17 d3 e1 dd a3 48 ac 3f
       -0.14369840869244882 0.05524170001527844
000760 fc ef f3 8f 30 8e e6 bf ba 5e e0 c1 af a4 93 bf
       -0.7048571406917286 -0.019182916839865817
000770 57 a7 4d 3f 63 a3 b7 bf 6a 31 25 0c 60 a0 d5 bf
       -0.09233684821597642 -0.3379135244947721
000780 a9 32 25 45 07 40 dd bf 6c 44 9b 12 d5 1f c9 bf
       -0.4570329833266365 -0.196283945164882
000790 c5 4b 13 84 bf 03 e4 bf e5 28 80 a9 ba 79 cb bf
       -0.6254575328442732 -0.21465237881086022
0007a0 b6 e1 12 82 43 e5 b0 bf c9 a1 33 33 7a 38 e0 bf
       -0.06599828649166892 -0.5068942070038754
0007b0 75 1e db 59 90 a9 d7 bf f6 62 6b a9 7d e5 ae bf
       -0.36972435736649994 -0.06034462636097786
0007c0 ac 9b 14 b9 78 59 b4 bf 14 54 27 41 c9 28 c2 bf
       -0.07949022787634757 -0.14186969453172138
0007d0 01 70 5f 2c 70 fa b5 bf da 53 c5 5a 3f 56 e4 bf
       -0.08585263331718808 -0.6355282566897771
0007e0 e5 f6 70 d5 f2 69 d3 bf 0b 20 55 3f 93 a2 ad bf
       -0.3033415874850632 -0.05788097522832921
0007f0 32 5f f5 24 57 34 e4 bf 67 f4 a5 10 21 8b c6 bf
       -0.6313892099233043 -0.1761208850183806
