data/amass/ACCAD/Female1Walking_c3d/B2 - walk to stand_poses.npz (npz, 912688 bytes, 5 tensors)

trans f8 [682, 3]
000000 48 d8 a5 6e 0c 83 a1 bf ac 7b 91 41 7a 04 09 c0
       -0.03420294619256531 -3.127186310055057
000010 78 34 c4 6f 24 be ed 3f 36 b6 f9 69 e4 69 a1 bf
       0.9294607336938858 -0.0340110186924502
000020 3b 2a 79 23 7c fd 08 c0 8d d2 83 8d f1 b7 ed 3f
       -3.123771931777154 0.9287040485347277
000030 b8 86 bf dc 1f 53 a1 bf 30 7b 20 f2 95 f7 08 c0
       -0.03383731431655462 -3.120891467682121
000040 b4 8e 58 ae ee b0 ed 3f 86 ad 9e a1 cd 58 a1 bf
       0.9278481869882484 -0.03388064000986461
000050 c1 54 fe 86 0c f0 08 c0 f1 bb 2d 57 bd a5 ed 3f
       -3.117211393963402 0.9264818861682881
000060 04 20 23 b4 fd fb a0 bf 63 72 52 a4 19 ea 08 c0
       -0.033172538985638794 -3.1143067205105566
000070 2f 32 db a0 a4 9a ed 3f 79 5a 5f c7 3e 4f a1 bf
       0.9251273290370302 -0.03380771812196754
000080 c1 f5 dc f9 33 e2 08 c0 02 b2 e4 af 42 97 ed 3f
       -3.1104506989056238 0.9247144160668201
000090 7e 19 e9 01 4a 96 a1 bf 8d f2 82 c0 85 da 08 c0
       -0.03434973977396093 -3.1067004241907115
0000a0 45 32 3d ab 31 91 ed 3f 92 2d a9 85 e4 67 a1 bf
       0.9239738792908346 -0.0339957631263942
0000b0 18 03 95 52 d3 cb 08 c0 c7 7c 3b 1f 69 8d ed 3f
       -3.099524159595955 0.9235120401389388
0000c0 71 77 cf 4c 72 49 a1 bf 72 9e ac 36 ed c0 08 c0
       -0.03376347720744278 -3.094202448981201
0000d0 92 24 77 4e cc 8a ed 3f d8 0f 64 cc 65 76 a1 bf
       0.9231931240584734 -0.03410642738347719
0000e0 43 a0 c3 23 78 ba 08 c0 f2 87 b6 eb 0e 89 ed 3f
       -3.091049460799725 0.922980747582413
0000f0 36 6c 8b 35 83 a0 a1 bf 3d 29 cb 18 a3 b7 08 c0
       -0.03442773846264695 -3.0896665513038486
000100 95 c1 f8 5c 65 88 ed 3f ec 5c a7 a8 0c 62 a2 bf
       0.9228998962262717 -0.03590430792581309
000110 dd 4e fa d4 b4 b9 08 c0 b0 36 36 33 9c 8b ed 3f
       -3.090676940811916 0.9232922554235383
000120 8e 47 7d e7 64 a1 a3 bf bf 7f bf 4c fd c3 08 c0
       -0.03834071470067989 -3.0956979747715816
000130 d4 12 71 50 17 9c ed 3f 3e 7b ba db 94 d8 a4 bf
       0.925304085838969 -0.04071488554222079
000140 24 dc bf 17 02 cb 08 c0 a7 56 9c de 18 9c ed 3f
       -3.099125085394478 0.9253048274865322
000150 07 ed cc d1 25 4a a6 bf e9 f8 b3 5f f4 d2 08 c0
       -0.04353445230523261 -3.1030051686094464
000160 4d 28 04 ef a3 9a ed 3f cb 88 2c 57 4b bc a7 bf
       0.925126997784227 -0.04635844649443895
000170 b7 b7 a1 5d f2 da 08 c0 52 a5 06 65 8a 97 ed 3f
       -3.106907588479739 0.9247486088908465
000180 88 e9 40 91 62 fb a8 bf ec 7f ae 9c 29 e1 08 c0
       -0.048792915564678074 -3.109942649913128
000190 f3 40 f5 67 99 91 ed 3f d5 af 12 df ae 0f aa bf
       0.924023345034611 -0.05090090249117877
0001a0 94 1c 78 b1 f0 e3 08 c0 ae 65 62 fc a1 89 ed 3f
       -3.1112989296703493 0.9230508736974821
0001b0 a8 c7 8e dc 39 03 ab bf 50 f5 4f 63 2a e2 08 c0
       -0.052758987592269435 -3.1104324110771486
0001c0 f0 fa dd 9a 84 7e ed 3f 5a 69 a0 74 a7 7f ab bf
       0.9216940903423545 -0.053708298670431545
0001d0 54 d0 59 ac fb d9 08 c0 f4 6f 9d b2 f4 70 ed 3f
       -3.1064370598706237 0.9200385559629454
0001e0 4a 39 dc 44 23 d1 ab bf 59 d5 f3 b8 f4 cc 08 c0
       -0.05432996955470289 -3.1000761460697217
0001f0 ad d1 ca 04 db 60 ed 3f 8e 0b 83 32 29 15 ac bf
       0.9180731862639299 -0.054848945060732665
000200 a8 14 3a 03 ff bf 08 c0 6b 98 50 82 5e 52 ed 3f
       -3.0937481166934795 0.9163048310481491
000210 5d 8c 21 66 55 30 ac bf 01 80 fb 41 06 b3 08 c0
       -0.05505625602452178 -3.0874142794491495
000220 53 07 9a 13 c4 44 ed 3f 4a 31 23 fe 38 48 ac bf
       0.9146442778439713 -0.05523851492179917
000230 22 3e 25 00 84 a5 08 c0 d0 ea e8 5d f0 37 ed 3f
       -3.0808181773534367 0.9130784830261636
000240 2c 5d 3e e7 0b 8e ac bf 3c 81 ef 13 dd 97 08 c0
       -0.05577122876928295 -3.0741521413293906
000250 50 a5 26 7c 85 2c ed 3f 63 23 4b 0b 31 be ac bf
       0.9116847443412244 -0.05613854658947195
000260 6e 2a c4 e9 3a 89 08 c0 e6 e5 cd f5 48 24 ed 3f
       -3.0670068991651567 0.9106793213715576
000270 31 ae cd e1 c7 d4 ac bf cb 4c 38 50 70 79 08 c0
       -0.056310888589760195 -3.0592962519818676
000280 37 e2 29 5c 6e 1e ed 3f 7c 7f 5c 25 0c de ac bf
       0.9099647331304997 -0.056381587563236274
000290 3d 63 63 5d ff 6b 08 c0 3b 4f f4 a3 a3 1c ed 3f
       -3.052733163447924 0.909745998595532
0002a0 2b a6 35 b3 e1 fe ac bf e1 f0 ab c2 8e 5e 08 c0
       -0.05663209259621412 -3.046170731422635
0002b0 73 9c 8e f2 b1 18 ed 3f 73 6c f2 23 b0 d0 ac bf
       0.9092645394747606 -0.056279663456018
0002c0 ee 2e be 4f b2 4e 08 c0 18 9c 55 50 8d 1a ed 3f
       -3.038426039687571 0.9094912117988114
0002d0 90 7e cb 65 fc 87 ac bf 63 da 0d 78 a8 3e 08 c0
       -0.055724990297446486 -3.0305947665431616
0002e0 ff 58 43 cb 79 1e ed 3f df 78 da 9e 77 43 ac bf
       0.9099701852781265 -0.05520223440292837
0002f0 85 95 94 9b c2 2d 08 c0 23 65 f3 38 c1 23 ed 3f
       -3.0223438410491235 0.9106145965880937
000300 a5 f7 a7 5f 5f 84 ac bf 34 ee 7d 39 24 1e 08 c0
       -0.05569742243459012 -3.0147175303989346
000310 f5 48 2c 00 b0 2b ed 3f bc ff 6d ba 33 1f ac bf
       0.9115829470995594 -0.05492555285218212
000320 e9 d5 bf ff 15 0d 08 c0 64 65 b2 29 53 34 ed 3f
       -3.0063896160524917 0.9126373114005841
000330 4c a0 af e1 9a 0c ac bf e7 64 2b 90 73 fd 07 c0
       -0.05478366856533565 -2.9987555754893154
000340 ec 45 d2 67 4d 3d ed 3f 28 7c 14 8e 2f 12 ac bf
       0.9137331989060704 -0.054826246351005914
000350 cf 43 08 cf 2d ee 07 c0 39 02 60 d0 21 49 ed 3f
       -2.9912983106991997 0.9151772565674668
000360 0d 6c c6 02 52 12 ac bf 38 bc 23 c9 ba de 07 c0
       -0.05482727321506085 -2.983754702952435
000370 50 24 9c d0 2f 55 ed 3f 4a 64 96 90 cf e1 ab bf
       0.916648776475208 -0.0544571746824621
000380 d0 07 e2 41 de cd 07 c0 9c 75 0d 51 71 62 ed 3f
       -2.975521578512577 0.9182669241960641
000390 84 30 7d 89 8a 94 ab bf 30 15 8b ea a8 bf 07 c0
       -0.05386765411694319 -2.9685839008040134
0003a0 13 90 d4 07 9c 6c ed 3f a1 5c eb bc 12 31 ab bf
       0.9195079949317936 -0.0531087737669449
0003b0 32 33 b8 c1 be af 07 c0 18 60 ff ec 8e 74 ed 3f
       -2.9608130583132146 0.9204783085688204
0003c0 4f 04 0a a7 c8 1f ab bf 3e 39 7d aa 09 a0 07 c0
       -0.05297686614086016 -2.9531434363808833
0003d0 18 c9 4f 22 01 7c ed 3f 74 79 a8 78 bd 02 ab bf
       0.9213872594976094 -0.05275528047444569
0003e0 f4 85 02 9f 05 91 07 c0 94 42 31 fb 35 83 ed 3f
       -2.9458115027089153 0.9222669511892314
0003f0 1f 37 bc 48 3d e0 aa bf da d4 d1 ef bd 83 07 c0
       -0.05249206078415924 -2.939327119437263
000400 8f 4d 48 aa f5 88 ed 3f 1e 18 6d 95 5c a1 aa bf
       0.9229687047795084 -0.05201234172868417
000410 61 d2 d7 5e 62 77 07 c0 2a cc b1 21 4c 8e ed 3f
       -2.9332930955518326 0.9236202867599606
000420 6d b9 42 ed 1a 76 aa bf 92 e4 90 60 77 6a 07 c0
       -0.05168232103584356 -2.926985506459979
000430 c0 d3 9b 23 8f 95 ed 3f 73 1f 9b 3c ea 84 aa bf
       0.924506730602495 -0.051795310877024735
000440 f1 58 f3 ef 33 5e 07 c0 77 bf 24 41 6d 9d ed 3f
       -2.9209975000513784 0.9254671356520551
000450 3b f9 41 44 bf d5 aa bf a9 43 53 99 71 53 07 c0
       -0.052412011224975484 -2.915744016507649
000460 d7 2f 06 10 d2 a1 ed 3f 2a 66 c5 b3 99 7c aa bf
       0.9260034859630605 -0.05173187560530963
000470 ba 6a e0 57 23 48 07 c0 2e a6 a6 d9 18 a7 ed 3f
       -2.910223661934052 0.9266475916858263
000480 58 b2 8e 5a 85 40 aa bf c9 74 7a a5 83 3d 07 c0
       -0.051273505501147454 -2.905036251830641
000490 b6 46 cc 59 fa a7 ed 3f 01 d4 75 f5 0d f0 a9 bf
       0.9267551187387741 -0.05065959569302692
0004a0 b4 5f ee 10 04 32 07 c0 8f 70 89 32 e4 aa ed 3f
       -2.8994218180414126 0.9271107661293331
0004b0 59 24 7e 80 ba 9b a9 bf 45 b0 b3 8b 8a 26 07 c0
       -0.05001623934283179 -2.8938189424716563
0004c0 13 4e 09 d5 be ad ed 3f 08 8d 87 3c df 54 a9 bf
       0.927459159933678 -0.04947564710507818
0004d0 73 be ab 04 60 1b 07 c0 f7 4d ea 91 44 b0 ed 3f
       -2.888366734019479 0.9277670717150944
0004e0 4f ce 6f 36 dd 1a a9 bf 1e 42 3d a6 66 10 07 c0
       -0.04903308190833099 -2.8830082881397763
0004f0 fe 9a b7 74 71 b2 ed 3f e0 bf ee 96 71 04 a8 bf
       0.9280326156266197 -0.04690890281142379
000500 ae cb 3c 62 66 03 07 c0 f2 d7 45 00 da bf ed 3f
       -2.876660125236831 0.9296693806961669
000510 44 94 7a ee 59 64 a7 bf 50 e4 70 20 ba f7 06 c0
       -0.04568749462240665 -2.8709604772998674
000520 d5 4b 17 08 95 bf ed 3f f1 5a be 99 e9 de a6 bf
       0.9296364934947358 -0.044669437425161614
000530 43 30 5d c0 8e ec 06 c0 4d 99 23 42 0f c0 ed 3f
       -2.865506651729477 0.9296947757509685
000540 14 69 ee 9f 8e 95 a6 bf b4 4f ea 5f 1c e2 06 c0
       -0.044109780333388 -2.860405682886233
000550 59 3c 6f 79 49 c2 ed 3f b3 b8 ef 12 63 79 a6 bf
       0.9299666759269584 -0.04389485937268613
000560 54 0e ff fd 61 d7 06 c0 cd 7d c6 2a d3 c5 ed 3f
       -2.8551673739873795 0.9303985438781922
000570 60 f4 38 7a 0f b8 a7 bf af 1d cb 30 17 ce 06 c0
       -0.04632614485715503 -2.8506301700578756
000580 1b 49 69 cf 97 bd ed 3f 35 f5 76 2e 22 d3 a6 bf
       0.9293936778069879 -0.0445795709342555
000590 03 22 f1 14 ba c2 06 c0 55 37 b1 de 7b c6 ed 3f
       -2.845081485375205 0.9304789876420992
0005a0 fd 39 2b 26 fa 20 a6 bf 3c 8a ef 52 a2 b7 06 c0
       -0.0432203456490363 -2.8396650771476555
0005b0 c7 a4 12 12 8b ce ed 3f 5e f1 d0 c1 bc 96 a5 bf
       0.9314627984032534 -0.0421656595794697
0005c0 84 60 58 0b 7d ac 06 c0 56 80 09 7b ea d5 ed 3f
       -2.8342228781075978 0.932362785632004
0005d0 97 e9 5e 80 05 10 a5 bf c7 e4 4a fd 09 a1 06 c0
       -0.04113785926843432 -2.8286323345642788
0005e0 12 97 41 7d ef dd ed 3f a2 9a f6 ad 1a b3 a4 bf
       0.9333417364511851 -0.04042895673346904
0005f0 c4 f6 fb f4 c5 95 06 c0 91 4c 46 93 ca e7 ed 3f
       -2.823131479205445 0.9345448376137871
000600 27 39 26 93 79 5c a4 bf 0d ff 98 24 1d 8c 06 c0
       -0.03976802750831814 -2.818414960784031
000610 51 18 67 46 d6 f2 ed 3f 59 50 cc 76 78 f3 a3 bf
       0.9358931899121307 -0.038966907979699435
000620 f2 12 14 f7 4c 83 06 c0 23 34 ff 9e 17 fc ed 3f
       -2.8141116431237316 0.9370229821594233
000630 1e 2d 95 44 76 73 a3 bf 61 4d 7d ec 28 79 06 c0
       -0.03799028002921488 -2.809160087179109
000640 84 0b 06 8e 79 04 ee 3f 03 03 5b 76 e2 ef a2 bf
       0.9380462430857368 -0.036986424396223704
000650 d4 3f 89 25 1d 6e 06 c0 45 78 a1 9d cf 0f ee 3f
       -2.803766530276315 0.9394300535893839
000660 85 16 cd f0 ac 69 a2 bf 69 f2 ef c3 b2 63 06 c0
       -0.03596249045817238 -2.7986808116532313
000670 b4 24 af af 17 17 ee 3f 15 63 30 99 47 ca a1 bf
       0.9403189116793755 -0.034746396493750144
000680 c0 2f 81 9a 59 59 06 c0 a5 20 27 a6 57 1e ee 3f
       -2.793627936427555 0.9412039036915486
000690 16 ce 31 13 ae 44 a1 bf 4a f2 97 ee 3b 4f 06 c0
       -0.033727111666760276 -2.7886885299797415
0006a0 18 24 12 1b e5 25 ee 3f 4d b0 78 06 8a c5 a0 bf
       0.9421258476951406 -0.03275710419652054
0006b0 e6 72 ea 88 d3 44 06 c0 06 65 40 db 60 2e ee 3f
       -2.7836065956638434 0.9431614191300077
0006c0 3d d8 9f 7e b8 2a a0 bf 5c e0 2b 09 2b 3a 06 c0
       -0.03157593293865133 -2.7784023968234077
0006d0 ac c0 8f 00 27 35 ee 3f d5 9a fe 39 95 3a 9f bf
       0.9439883242576079 -0.030496913590151237
0006e0 0e b2 b5 8d 6d 2f 06 c0 e6 42 03 12 ab 39 ee 3f
       -2.7731581755708765 0.9445395805178947
0006f0 4f d9 bf e2 e3 fc 9d bf e7 c1 8f 1c b2 24 06 c0
       -0.02928501197308125 -2.7679178458567892
000700 32 2f 5c fc a3 3d ee 3f 3e d9 a9 79 ea 9a 9c bf
       0.9450244835765942 -0.027934707332371682
000710 be b8 91 21 af 19 06 c0 07 c7 09 df 52 41 ee 3f
       -2.76254106737096 0.9454740864004813
000720 35 16 b8 83 48 87 9b bf 92 78 46 6e 69 0f 06 c0
       -0.026883252181525392 -2.7575253119712864
000730 44 ee 2c 41 4f 44 ee 3f a2 4a f0 1c a0 8c 9a bf
       0.9458385727843468 -0.02592706848742899
000740 cd f8 6a 7d c4 05 06 c0 b8 d1 5e 1b 02 47 ee 3f
       -2.7528161810178973 0.946167996843136
000750 c2 9e f8 3f 7d 74 99 bf 6f 02 52 e3 37 fb 05 c0
       -0.024858433751574045 -2.747665191593391
000760 3e 90 c4 a3 59 47 ee 3f 3d ab 7b 0b 4f ff 97 bf
       0.9462097357359267 -0.02343486316287201
000770 4d 4a 90 fe 3c ec 05 c0 4d 8b 73 40 92 47 ee 3f
       -2.740350712564839 0.9462367304625815
000780 5c ff 63 09 93 18 97 bf 08 a0 54 79 c7 e4 05 c0
       -0.022554681251676242 -2.736708591361097
000790 54 b5 f7 a5 46 47 ee 3f 73 55 69 93 c9 12 96 bf
       0.946200679927339 -0.021556043264657498
0007a0 4a 85 f5 37 1f d8 05 c0 e8 2c 28 2d dd 46 ee 3f
       -2.7305282947351417 0.9461503869983092
0007b0 55 01 5f ca f4 72 95 bf 5b d0 fb 45 58 cc 05 c0
       -0.020946335651161736 -2.7247777430984974
0007c0 e5 5b e3 39 4a 45 ee 3f f9 b3 91 e2 81 3e 95 bf
       0.9459582453372347 -0.020746259168323154
0007d0 d1 c6 5c 9d b9 c3 05 c0 a0 90 51 9c 97 41 ee 3f
       -2.7205688756883792 0.945506863889495
0007e0 a9 1a 28 88 a5 ca 94 bf a0 45 38 55 67 b6 05 c0
       -0.020304285464613745 -2.7140642793462604
0007f0 c5 5b 2e bd 16 3c ee 3f a0 e2 f6 88 f8 d7 92 bf
       0.944835061544716 -0.01840198837246254

mocap_framerate f8 []
000000 00 00 00 00 00 00 5e 40
       120.0

betas f8 [16]
000000 67 df 5b 43 06 34 e8 3f 25 68 3f 29 dd ab e1 bf
       0.7563506427386358 -0.5522294812792593
000010 c4 c8 48 6a 80 40 ed bf aa 14 4e c9 07 a4 f7 bf
       -0.9141237331262109 -1.4775464881397888
000020 77 6e ea 71 45 8e 89 bf 0f 82 ae 08 60 94 e5 3f
       -0.01247839216130518 0.6743621987880618
000030 6f b3 51 c9 e5 de e8 bf 29 f7 f6 44 7e 01 d7 3f
       -0.7772091800703559 0.359466140125607
000040 df 36 cb cf ff 00 00 c0 d9 14 4d 23 97 b1 06 c0
       -2.0004879220858665 -2.8367140539072406
000050 95 f3 20 42 d8 34 03 c0 fe 19 17 31 3b 45 05 c0
       -2.4008031050020215 -2.6588043055701283
000060 5c 4d 9d 1f e5 00 f8 bf a7 f3 c4 df 44 d5 f1 bf
       -1.5002185091915043 -1.1145676365842776
000070 71 8b f6 35 22 1d f8 3f 21 47 72 31 77 67 e0 bf
       1.507112704079841 -0.5126300779104193

dmpls f8 [682, 8]
000000 8f 32 3f 67 7e 9c f6 bf a9 ea 39 06 fc 95 f8 bf
       -1.4132064850884125 -1.5366173022472742
000010 d0 29 5e 19 21 01 17 c0 14 1e a9 9e ff 1e 09 c0
       -5.751102825519823 -3.1401359935150683
000020 03 a4 8c bb 63 d1 13 c0 3e 62 0b ee f2 0c f6 3f
       -4.954482012232805 1.3781613634693168
000030 d7 13 a7 e4 2e a6 00 40 b1 2d 19 c1 6d 1a ff 3f
       2.0811441291320807 1.943952326097911
000040 64 f8 1b 81 8f 9e f6 bf a9 de a2 3a 07 a8 f8 bf
       -1.4137110751467157 -1.5410225191571192
000050 62 7c 48 78 1f 06 17 c0 cb 88 44 d6 45 1f 09 c0
       -5.755979422973811 -3.140269922224524
000060 9a 15 da c0 19 cf 13 c0 21 b5 06 6f cf 0b f6 3f
       -4.9522466786487715 1.3778833710633267
000070 d7 87 bb 70 70 ac 00 40 ba 8e 5c ba a5 1c ff 3f
       2.0841988379697614 1.9444939880130918
000080 25 a2 21 82 8f 9e f6 bf 4d 35 98 4a 07 a8 f8 bf
       -1.413711078954415 -1.5410225786066178
000090 69 37 c4 7a 1f 06 17 c0 c4 92 c2 d6 45 1f 09 c0
       -5.7559794599782 -3.1402699258927402
0000a0 46 58 61 bc 19 cf 13 c0 35 f8 ef 65 cf 0b f6 3f
       -4.952246612016159 1.377883337204833
0000b0 27 90 4a 73 70 ac 00 40 0c 12 11 bc a5 1c ff 3f
       2.0841988570337153 1.9444939943651915
0000c0 25 a2 21 82 8f 9e f6 bf 4d 35 98 4a 07 a8 f8 bf
       -1.413711078954415 -1.5410225786066178
0000d0 69 37 c4 7a 1f 06 17 c0 c4 92 c2 d6 45 1f 09 c0
       -5.7559794599782 -3.1402699258927402
0000e0 46 58 61 bc 19 cf 13 c0 35 f8 ef 65 cf 0b f6 3f
       -4.952246612016159 1.377883337204833
0000f0 27 90 4a 73 70 ac 00 40 0c 12 11 bc a5 1c ff 3f
       2.0841988570337153 1.9444939943651915
000100 c5 d0 a5 98 8f 9e f6 bf 63 02 ee 46 07 a8 f8 bf
       -1.4137111628343046 -1.5410225649540272
000110 13 c5 26 7f 1f 06 17 c0 6b 48 88 be 45 1f 09 c0
       -5.755979525319407 -3.1402697453823314
000120 f6 17 b3 b6 19 cf 13 c0 97 d3 60 58 cf 0b f6 3f
       -4.952246527367597 1.3778832866930537
000130 dd 69 4c 81 70 ac 00 40 3d 73 56 b0 a5 1c ff 3f
       2.0841989613956984 1.9444939506713148
000140 7f a0 61 ce 73 a2 f6 bf 03 68 2d b1 cc 92 fb bf
       -1.4146612226268471 -1.7233397408476783
000150 c3 88 cc e3 0e da 16 c0 b6 e8 84 74 34 f5 06 c0
       -5.712947425230769 -2.8697289565144173
000160 a5 28 76 02 0c 5b 13 c0 08 85 e2 35 2b d0 f4 3f
       -4.838913000547255 1.300822458732286
000170 87 43 44 e8 a2 c2 00 40 e2 c0 b7 ae ee b0 ff 3f
       2.0950372834999516 1.9806963753617812
000180 e2 e1 76 f3 e2 96 f6 bf 4e 14 1d 4d b3 86 fd bf
       -1.4118375311210163 -1.8453858387231494
000190 13 ea a4 8d ca 99 16 c0 d6 00 38 00 fc 5f 05 c0
       -5.650186742010663 -2.6718673722353783
0001a0 3c 8d de 41 8c f8 12 c0 05 f7 33 4b 6e 63 f3 3f
       -4.742722539146879 1.2117751062027662
0001b0 29 ef 33 30 d6 c3 00 40 8c 15 75 0e 8a c5 ff 3f
       2.0956233754967752 1.9857273640385271
0001c0 96 d1 4a aa 3a 07 f6 bf e6 88 74 29 0b 12 00 c0
       -1.3767649318734576 -2.0088103522003733
0001d0 31 ba b3 96 60 c7 16 c0 ba 2c 99 97 f0 aa 04 c0
       -5.694704394073185 -2.583466705667516
0001e0 d0 40 6e dc 30 bc 12 c0 a7 83 a9 bf b0 a8 f1 3f
       -4.683780140141792 1.1036841856768917
0001f0 c2 3c d1 ab 24 bf 00 40 54 2f 09 da b9 91 ff 3f
       2.0933316634396713 1.9730776326204778
000200 d4 9c 75 08 16 68 f5 bf ca 04 84 a5 80 3b 01 c0
       -1.337911637348772 -2.1540539675630486
000210 d0 9d ce dd 95 00 17 c0 9f 56 fa 95 22 3d 04 c0
       -5.7505716950758625 -2.52985112352583
000220 38 59 6a 27 69 70 12 c0 fa a5 e8 69 d7 9a ef 3f
       -4.609776130548475 0.9876515453844938
000230 fc a2 31 f7 f2 bf 00 40 8e f3 ce c2 81 15 ff 3f
       2.093725138857165 1.9427507028296733
000240 2f e9 dd 27 ba eb f4 bf 60 8d 19 db c3 fd 01 c0
       -1.3075505788134014 -2.2489087216542174
000250 0c d9 7b 91 f3 ee 16 c0 6b 2a ce dd 01 d0 03 c0
       -5.733351014312813 -2.476566059927156
000260 2f 6d b5 fc 28 ee 11 c0 9d 0e d2 64 61 ae eb 3f
       -4.482578228543658 0.8650366753722271
000270 d3 68 75 3a 8d d5 00 40 4a 66 1a 1b a9 36 fe 3f
       2.1042732779579665 1.888344865676475
000280 88 52 15 68 9c cc f4 bf d8 8e f9 94 45 03 02 c0
       -1.299953848433832 -2.2515975607546856
000290 fe e9 21 d4 33 ae 16 c0 60 10 0d 11 6a 94 03 c0
       -5.6701195855807764 -2.4474679309951597
0002a0 63 ef b5 c2 1f 9b 11 c0 4f 85 24 ee 2c 0c ea 3f
       -4.401488344530523 0.8139862681602298
0002b0 fe 8b ad ee 2b dd 00 40 88 56 b4 b5 8b 9a fd 3f
       2.107993950530271 1.850230893881788
0002c0 65 83 f7 46 e1 99 f4 bf 7c f0 5d 9d ed 3f 01 c0
       -1.2875683567183043 -2.1562149328511264
0002d0 21 29 df 54 e5 57 15 c0 d1 a2 47 c3 c7 c5 02 c0
       -5.335835767861028 -2.346572423576028
0002e0 30 fc b4 68 e2 7d 10 c0 e4 12 52 9b b3 75 e6 3f
       -4.122933994337515 0.7018678697209819
0002f0 3f 43 30 4b 53 c6 00 40 00 60 0d 2a 06 87 fb 3f
       2.096838557634697 1.7204648630777228
000300 2c 74 b1 98 83 02 f5 bf e9 a9 d7 a3 32 9f 00 c0
       -1.3131137814118672 -2.077733306902918
000310 da 54 f4 0b 6e ea 13 c0 cb 67 51 9e 9c 2c 02 c0
       -4.978935419833954 -2.2717831009476632
000320 ce 2c 33 bb e9 c0 0e c0 52 44 1a ea 06 16 e3 3f
       -3.844195806979406 0.5964388439480308
000330 4e da 62 f3 ae 68 00 40 f0 05 69 cf 8e 59 f9 3f
       2.051114942030188 1.58436471004131
000340 13 9d 23 63 32 67 f5 bf e8 ae 97 a5 d9 c6 fd bf
       -1.3376945374128055 -1.8610474079568409
000350 bf 39 a7 a0 fc 73 11 c0 bd 71 18 80 f1 2d 01 c0
       -4.363268385130538 -2.1474332816562467
000360 6d ce f6 bc a9 14 0b c0 bf 9c 15 b9 05 73 de 3f
       -3.3850893748111077 0.47577040743494686
000370 72 b5 1e 7d 72 6f ff 3f 97 31 04 b7 8b be f5 3f
       1.964708794355229 1.3590199612691316
000380 a4 5a fb 5a b0 1d f5 bf b1 f6 c6 7b 9d 86 f9 bf
       -1.3197482637384974 -1.5953650317236845
000390 4e 51 a7 cb c6 b3 0d c0 80 de 0e 8f 1e 2f 00 c0
       -3.712781516116741 -2.0230075050747587
0003a0 ce 3e fb 42 9e f4 06 c0 00 ec bc 5b 39 a8 d7 3f
       -2.8694424851345053 0.36964258154665686
0003b0 a8 c6 d5 3c fe ab fd 3f 23 a8 1a 3a 5b bf f1 3f
       1.8544905067796353 1.1092178601925375
0003c0 68 fb 26 0f 25 1b f4 bf e3 6c 77 22 97 17 f5 bf
       -1.256627139271325 -1.318259367594515
0003d0 c2 e9 05 5e 88 b4 08 c0 4e c5 f6 9c 8b 4f fe bf
       -3.088150724940733 -1.8944202548412536
0003e0 ab 9d 79 72 7b 60 02 c0 a6 a2 94 6c e5 27 d2 3f
       -2.2971104567875122 0.28368507007193455
0003f0 fa b7 24 0a 09 6b fb 3f 9d ae 21 a9 d4 6e eb 3f
       1.7136316677310774 0.8572791388846387
000400 ae 37 d9 6a 2f c9 f2 bf 26 64 a1 3f c7 fa f0 bf
       -1.1741174863595734 -1.0612251744808048
000410 54 f0 91 75 4b 49 04 c0 c3 dc 84 70 4f 11 fc bf
       -2.5357884583627683 -1.7542261500619112
000420 0d a6 5d 59 bc e2 fa bf 04 9e 12 9e f5 66 cb 3f
       -1.680355404935088 0.2140795728530379
000430 88 68 db 44 35 da f8 3f 92 44 42 14 87 fd e3 3f
       1.5532734575013212 0.6246981998139225
000440 e7 9b 8a 46 11 6c f1 bf 6a ba 0a 6a 34 57 ea bf
       -1.0888836627507261 -0.8231451102381702
000450 9a 11 5c 7f f5 9a 00 c0 d2 59 0b f6 bb 9e f9 bf
       -2.0756635618183283 -1.6012534724337582
000460 ca 58 7b 3d 21 30 f1 bf e8 17 7c f9 07 32 c3 3f
       -1.0742504502900823 0.14996432954666195
000470 61 81 2e 86 89 5c f6 3f 30 01 66 cf 2c 6a da 3f
       1.39759209074699 0.41273041013484413
000480 4f 10 39 c7 8e ee ef bf d0 9f 85 3e b7 54 e3 bf
       -0.9978708163330426 -0.6040912839061949
000490 c8 82 cb d6 31 61 fb bf 91 d1 49 ea b8 25 f7 bf
       -1.7112291708401006 -1.4467095519913509
0004a0 37 98 d8 a3 4d 55 e0 bf 9c 16 49 dd ab 60 b4 3f
       -0.510412998210774 0.07960008766630228
0004b0 84 72 8b 84 36 13 f4 3f 77 81 ae ae 85 43 cb 3f
       1.254690664055631 0.2129981139123733
0004c0 b5 72 5b 8b a3 e6 ed bf c3 0b 76 39 f2 33 dd bf
       -0.9344041559048352 -0.456295543779728
0004d0 9e 79 f5 20 b5 ea f7 bf e4 21 3d 5b ff 85 f5 bf
       -1.4948016440826914 -1.345214229966694
0004e0 e6 8d 89 f2 5c 91 bb bf 94 ac 50 98 2b b6 80 3f
       -0.1076868145115025 0.00815996225909136
0004f0 3e e9 7f f5 33 a8 f2 3f f6 4a 92 a6 54 5f af 3f
       1.1660651769476114 0.06127419026701901
000500 1c 04 94 00 a2 a9 eb bf 9b 19 5d 4e 58 5b d3 bf
       -0.8644571315090874 -0.30245025303556766
000510 bf 38 3a 6f 15 e7 f4 bf 17 6f cc eb 4f 19 f4 bf
       -1.3064169258901044 -1.2561797343141217
000520 f7 56 c2 28 08 9a d0 3f da 86 19 d2 f4 5c b6 bf
       0.25940135937103953 -0.08735590104472682
000530 a8 93 b9 fb 26 bd f1 3f a1 a9 bc 38 ee bb bc bf
       1.108679755497386 -0.11224259267024773
000540 5e 45 ec c6 f8 d6 e9 bf 6d 9c 73 4e e3 4d c1 bf
       -0.8074916730130715 -0.1351894505562287
000550 a5 b3 6b b0 31 60 f2 bf 85 e8 40 97 07 d8 f2 bf
       -1.148484887259863 -1.1777416141835897
000560 a6 51 54 11 8a 43 e3 3f db 56 8f b8 af e4 ca bf
       0.6019945467438006 -0.21010395538058088
000570 b7 54 df 41 14 53 f1 3f be 83 5f 1d 95 59 d3 bf
       1.08278299075509 -0.30234268063037095
000580 fd 97 bd 65 2b 8b e8 bf 20 40 7a 04 88 99 8f 3f
       -0.7669884669419386 0.015429556500095087
000590 3c 99 6f 6f 7c d0 f0 bf aa 48 36 41 4d 77 f1 bf
       -1.0508999207464305 -1.0916264102311666
0005a0 8c 7b 5e 7e 4a 4f ec 3f 97 7c f9 61 fa e0 d5 bf
       0.8846790760179473 -0.3418565708906924
0005b0 d6 53 4b 29 47 61 f1 3f 87 63 24 82 96 0b df bf
       1.0862495053345262 -0.48508227070993154
0005c0 3b 43 14 e9 87 78 e7 bf b8 6a c5 a9 2b a8 c6 3f
       -0.7334632446601071 0.17700715818030743
0005d0 9c 3c 1f d1 0b e9 ee bf d3 eb c0 d9 af fc ef bf
       -0.9659480175413537 -0.9995955708503693
0005e0 3b 42 b8 f7 9e 2e f2 3f 9c b6 5d 2c 4b d3 dd bf
       1.136382072120013 -0.46602134068130296
0005f0 88 d0 30 e9 99 65 f1 3f 77 9d 87 c6 3d 23 e5 bf
       1.0873049839983953 -0.6605519177946196
000600 fa c0 ab 59 8d 5a e6 bf b1 7d 8c 8e 62 96 d4 3f
       -0.6985537291893984 0.32167877121716076
000610 12 b7 3d 1f 55 dd ed bf f2 60 97 4c 36 65 ed bf
       -0.9332681284119835 -0.9186049934314993
000620 0c d3 3f 93 fa a8 f5 3f 58 53 fd 0e 5e 3b e3 bf
       1.3537545921255427 -0.6009969990505892
000630 58 78 76 ce b3 b6 f1 3f 7f c4 11 ff a4 15 ea bf
       1.107105070586405 -0.8151421529602344
000640 a3 1d c5 f4 3c 18 e6 bf 37 f6 5a ae 80 93 dc 3f
       -0.6904587536491146 0.44650284792792
000650 fa bf 41 0c 0b bd ed bf 3d 15 4a 1e 7d 8b eb bf
       -0.9293265571013756 -0.8607774345006544
000660 00 32 cb 96 d6 90 f8 3f a4 f7 ff a0 84 a6 e7 bf
       1.5353608980541367 -0.7390769142655143
000670 39 ad 77 f7 e3 33 f2 3f 5e d6 31 05 9c c7 ee bf
       1.1376685778330524 -0.96186638846002
000680 2d bb 3e 27 d3 0c e6 bf fb 47 bc 5f 79 ea e2 3f
       -0.6890655294899709 0.5911223287423576
000690 f0 0e 73 dd 4c 90 ee bf 8f 21 10 07 e1 33 ea bf
       -0.9551147771057611 -0.8188328874539809
0006a0 d4 89 63 9a e1 b2 fa 3f 04 04 e6 2c 4a ae eb bf
       1.6686721831143716 -0.865025603954678
0006b0 f4 81 93 6e e4 0d f3 3f c2 44 1d 2f 87 88 f1 bf
       1.190891677797592 -1.0958320465472728
0006c0 d2 38 d5 b0 46 10 e6 bf a0 57 f6 18 df 6d e9 3f
       -0.6894868329780144 0.7946620452446389
0006d0 e6 15 fa 92 86 8c ee bf 5f 7c 88 64 cc 35 e8 bf
       -0.9546540136950028 -0.7565671886003534
0006e0 17 5c e6 ee e0 7f fc 3f 6f 5d f0 38 ae 10 ef bf
       1.7812203723931412 -0.9707862007225411
0006f0 f4 82 86 12 e4 d5 f3 3f 1c 59 83 f8 26 ba f3 bf
       1.2397194598817665 -1.2329473216573836
000700 88 43 f1 79 0c f3 e6 bf 12 19 dd d8 5f 7d f0 3f
       -0.7171690351188866 1.0306089850651614
000710 2f 4b 5c eb 66 05 ee bf e6 51 ac dd ee b8 e7 bf
       -0.9381594273457717 -0.7413248376420227
000720 ad b0 b1 28 f9 a8 fd 3f e0 34 ca a5 08 a1 f1 bf
       1.853753241502129 -1.101814887634923
000730 30 31 8b 2f 7e fe f3 3f ce df 31 a2 6d 1a f6 bf
       1.2496320588280234 -1.3814522109732823
000740 e8 c1 f2 d8 1a 74 e5 bf 3b 66 4b d0 92 63 f2 3f
       -0.6704229581137584 1.1493099342827822
000750 5f 8f a0 6e b5 b0 ed bf 44 d7 6e d7 7d 9a e7 bf
       -0.9278208885848293 -0.737608834044956
000760 9f 87 2e af 80 6f fe 3f 68 df 87 5b 71 07 f3 bf
       1.9022223322903995 -1.1893170905513788
000770 3d e6 52 4b 59 f3 f4 3f 8f eb b9 96 d8 c2 f8 bf
       1.3094113294922771 -1.5475698364013828
000780 e4 2a b5 eb f1 da e3 bf 50 20 69 6d 28 12 f4 3f
       -0.6204766849199044 1.2544330858090866
000790 1d ce 9b d5 cd bb ed bf a1 b5 c8 8e 0c 54 e6 bf
       -0.92917529793198 -0.6977598942518634
0007a0 49 dd 00 06 2d b3 fe 3f b0 cf 5e 0f 39 6a f4 bf
       1.9187441095835587 -1.2759333229450753
0007b0 e4 62 6e fa 3c f7 f5 3f 60 40 4f 4b ec 4d fb bf
       1.372860887762891 -1.7065241758137049
0007c0 72 d8 8a e7 8f 0f e2 bf 2d b8 1f 8f 03 46 f5 3f
       -0.5643996736823864 1.3295932379510405
0007d0 cf 60 f1 ec 54 cd ed bf 4e fe ac e5 75 1c e5 bf
       -0.9313149097243015 -0.6597241865019414
0007e0 2c 45 61 e2 15 f9 fe 3f c6 23 07 72 56 d4 f5 bf
       1.9358118861167197 -1.3643402532782019
0007f0 f0 48 e4 30 4c df f6 3f 8d 2c c6 1f 01 58 fd bf
       1.429516020758964 -1.8339854470421273

poses f8 [682, 156]
000000 11 fb ba 93 cf da d7 3f b3 7c 19 cf 1d 4c ff bf
       0.3727301542930244 -1.9560831155611538
000010 48 c1 c5 2b 2f ab fc bf 77 d4 0d 1e b2 97 dd bf
       -1.791793032633068 -0.46238377509082035
000020 e8 c8 1d 63 c4 71 db bf 65 b7 99 ea 0d 4c d1 bf
       -0.42881879500704523 -0.27026698980522773
000030 42 a1 62 69 8e c8 dc 3f 55 2e 6b 04 39 87 d2 bf
       0.4497409848359163 -0.28950334006797124
000040 56 9e 30 c9 67 04 cd 3f 87 09 78 3a 87 c3 d7 bf
       0.22669694255567902 -0.3713090964303309
000050 a0 ad 8b 2e c6 5c c8 3f d6 fb 3d 92 48 b1 cc bf
       0.19033124230132348 -0.22416026249626836
000060 8a 19 dc b6 41 8c cb 3f 8d 35 f5 83 04 40 be bf
       0.21521779469203423 -0.11816433164240987
000070 07 68 67 3b 7b 21 af bf e6 42 b8 40 85 05 e2 bf
       -0.06080231762071269 -0.5631738914545081
000080 10 b5 f6 76 16 d7 ba bf 58 86 8f 83 12 81 bd bf
       -0.10484447864901747 -0.1152507373040178
000090 b6 f1 ea a7 cb 6c d0 3f 11 27 4b 34 ff 6e ce bf
       0.25664035223214954 -0.23776235631367418
0000a0 f7 62 b5 d8 57 cd 9e 3f 2a 79 b6 d5 25 19 7b 3f
       0.03008019695457428 0.006615779678581549
0000b0 aa 39 c8 98 47 11 85 3f 75 59 14 8e 51 99 b1 bf
       0.010286864614525399 -0.06874570578324841
0000c0 4a ce de 44 f0 3b 83 bf 85 c3 5a f4 f5 ac d0 bf
       -0.009391667463069759 -0.2605566869997847
0000d0 dc 8e 94 1f 22 34 c1 3f 59 e5 48 da 62 fe c6 3f
       0.13440348188407014 0.17963824900088346
0000e0 ed b1 90 6f 0c 4f c0 bf 2a 4a a0 96 5f 02 9d bf
       -0.1274123711349512 -0.02832936627243946
0000f0 00 00 00 00 00 00 00 00 00 00 00 00 00 00 00 00
       0.0 0.0
000100 00 00 00 00 00 00 00 00 00 00 00 00 00 00 00 00
       0.0 0.0
000110 00 00 00 00 00 00 00 00 00 00 00 00 00 00 00 00
       0.0 0.0
000120 c0 d2 c0 a0 24 07 b0 bf fe 0f c3 66 e0 95 b3 bf
       -0.06260899471892412 -0.07650568493687612
000130 2c 7d 87 30 5d aa a9 3f 51 36 60 c8 65 59 c7 3f
       0.050127899335843246 0.18241569789863601
000140 64 d3 5e a8 0f d9 c6 3f 57 42 ec 67 3a 19 d1 bf
       0.17849918099605155 -0.2671648039695688
000150 15 13 fb 83 3d 52 8e bf 13 32 95 d8 e3 0a cc bf
       -0.014805298414452698 -0.2190823371442013
000160 8a b8 10 58 86 03 d3 3f 4d 06 bf 1d c8 74 b1 3f
       0.2970901355755663 0.06818819738602962
000170 f2 98 f2 01 33 5e c4 bf 57 6e 89 22 4b e2 b1 3f
       -0.15912473292446055 0.06985921471771782
000180 28 f9 12 17 6e 3f c1 3f 5a 72 7c a7 14 08 cc bf
       0.13474823118844736 -0.2189966028025932
000190 13 f2 a0 95 63 92 f0 bf dd a7 7b 7c 8d 30 d4 3f
       -1.0357395024176455 0.31546342045350945
0001a0 a4 4e ab fa ab f3 d3 3f 5a 18 cc 6c 72 61 f2 3f
       0.31174754599963195 1.1487907647983975
0001b0 c2 cd fb 7b df 87 99 bf d3 d8 92 13 82 8a dc bf
       -0.024932376806601438 -0.4459538642071383
0001c0 92 6f c0 f2 bc 3e a7 3f 72 41 c3 59 9d 8d a2 3f
       0.04540052855756395 0.03623668404327675
0001d0 49 e7 95 ab 07 96 e3 3f d0 e8 bb 60 0b 99 b5 bf
       0.6120642043381191 -0.08436652290029945
0001e0 7d 15 6f dd d3 5d de bf 6a c0 66 c6 cf e7 d1 bf
       -0.47447678207785043 -0.279773658515302
0001f0 47 29 ae 41 53 37 ab bf 15 44 2c c7 3c 0a dd bf
       -0.05315647293817221 -0.453749842171477
000200 9d 73 3b 4a e5 f6 c0 3f 9d 18 5f 8d d8 12 ce 3f
       0.13253465771313425 0.23495013144401336
000210 80 bb 8c ef f9 96 bc 3f d6 a9 64 90 f6 f5 a5 3f
       0.1116787156904433 0.04289217484104639
000220 83 eb 72 a9 fb a6 da bf 2d f8 e5 1a 0f db bb 3f
       -0.416441836812446 0.10881132513711185
000230 b1 4d c9 fc 6f e4 b0 bf db ff 70 4e f4 32 e8 bf
       -0.06598567887822672 -0.7562200100001023
000240 9f 58 d7 98 35 ad b8 bf 2f c4 0b a7 3f 46 b7 bf
       -0.09639296514009964 -0.09091565922041477
000250 ae e4 15 1d 6f 1f c8 bf e6 3e cd fb 79 3b be bf
       -0.1884592906970161 -0.11809503934386675
000260 00 54 c2 09 50 15 aa 3f 95 b4 7b 31 5b f2 e0 bf
       0.05094385260705536 -0.529584499976084
000270 ae 20 e9 9e b5 64 c2 bf 17 d3 e1 dd a3 48 ac 3f
       -0.14369840869244882 0.05524170001527844
000280 fc ef f3 8f 30 8e e6 bf ba 5e e0 c1 af a4 93 bf
       -0.7048571406917286 -0.019182916839865817
000290 57 a7 4d 3f 63 a3 b7 bf 6a 31 25 0c 60 a0 d5 bf
       -0.09233684821597642 -0.3379135244947721
0002a0 a9 32 25 45 07 40 dd bf 6c 44 9b 12 d5 1f c9 bf
       -0.4570329833266365 -0.196283945164882
0002b0 c5 4b 13 84 bf 03 e4 bf e5 28 80 a9 ba 79 cb bf
       -0.6254575328442732 -0.21465237881086022
0002c0 b6 e1 12 82 43 e5 b0 bf c9 a1 33 33 7a 38 e0 bf
       -0.06599828649166892 -0.5068942070038754
0002d0 75 1e db 59 90 a9 d7 bf f6 62 6b a9 7d e5 ae bf
       -0.36972435736649994 -0.06034462636097786
0002e0 ac 9b 14 b9 78 59 b4 bf 14 54 27 41 c9 28 c2 bf
       -0.07949022787634757 -0.14186969453172138
0002f0 01 70 5f 2c 70 fa b5 bf da 53 c5 5a 3f 56 e4 bf
       -0.08585263331718808 -0.6355282566897771
000300 e5 f6 70 d5 f2 69 d3 bf 0b 20 55 3f 93 a2 ad bf
       -0.3033415874850632 -0.05788097522832921
000310 32 5f f5 24 57 34 e4 bf 67 f4 a5 10 21 8b c6 bf
       -0.6313892099233043 -0.1761208850183806
000320 c6 b2 4e 09 6d e8 c0 bf 36 8c ee 97 0a e5 d7 bf
       -0.13209307627166406 -0.37335457646458126
000330 4e c7 87 70 19 3b eb 3f ae 0b 2c 2a 1a b9 d1 3f
       0.8509642789706306 0.2769227420650918
000340 9c 33 ba bd b1 6f b7 bf 3f 7e 75 8d 5e fd df bf
       -0.09154806978240376 -0.49983943762160615
000350 59 89 b4 ad 9e 31 9b 3f 91 40 4d c8 33 13 ab 3f
       0.026556472160458842 0.05288087673273013
000360 3b ce 19 f0 4c 23 e1 3f 72 d3 95 9f 34 88 a7 3f
       0.5355591477841196 0.04596104095518329
000370 3a f5 a5 db 3b c0 d1 bf 80 bb 8c ef f9 96 bc 3f
       -0.2773580212595622 0.1116787156904433
000380 d4 a9 64 90 f6 f5 a5 bf 84 eb 72 a9 fb a6 da 3f
       -0.04289217484104638 0.41644183681244606
000390 2d f8 e5 1a 0f db bb 3f b0 4d c9 fc 6f e4 b0 3f
       0.10881132513711185 0.0659856788782267
0003a0 db ff 70 4e f4 32 e8 3f 9f 58 d7 98 35 ad b8 bf
       0.7562200100001023 -0.09639296514009964
0003b0 2f c4 0b a7 3f 46 b7 3f af e4 15 1d 6f 1f c8 3f
       0.09091565922041477 0.18845929069701614
0003c0 e5 3e cd fb 79 3b be bf 01 54 c2 09 50 15 aa bf
       -0.11809503934386674 -0.05094385260705537
0003d0 95 b4 7b 31 5b f2 e0 3f af 20 e9 9e b5 64 c2 bf
       0.529584499976084 -0.14369840869244885
0003e0 18 d3 e1 dd a3 48 ac bf fc ef f3 8f 30 8e e6 3f
       -0.05524170001527845 0.7048571406917286
0003f0 bb 5e e0 c1 af a4 93 bf 57 a7 4d 3f 63 a3 b7 3f
       -0.01918291683986582 0.09233684821597642
000400 6a 31 25 0c 60 a0 d5 3f a9 32 25 45 07 40 dd bf
       0.3379135244947721 -0.4570329833266365
000410 6d 44 9b 12 d5 1f c9 3f c5 4b 13 84 bf 03 e4 3f
       0.19628394516488204 0.6254575328442732
000420 e7 28 80 a9 ba 79 cb bf b6 e1 12 82 43 e5 b0 3f
       -0.21465237881086027 0.06599828649166892
000430 c9 a1 33 33 7a 38 e0 3f 75 1e db 59 90 a9 d7 bf
       0.5068942070038754 -0.36972435736649994
000440 f4 62 6b a9 7d e5 ae 3f ad 9b 14 b9 78 59 b4 3f
       0.06034462636097784 0.07949022787634759
000450 16 54 27 41 c9 28 c2 bf 01 70 5f 2c 70 fa b5 3f
       -0.14186969453172144 0.08585263331718808
000460 da 53 c5 5a 3f 56 e4 3f e5 f6 70 d5 f2 69 d3 bf
       0.6355282566897771 -0.3033415874850632
000470 0c 20 55 3f 93 a2 ad 3f 32 5f f5 24 57 34 e4 3f
       0.05788097522832922 0.6313892099233043
000480 68 f4 a5 10 21 8b c6 bf c6 b2 4e 09 6d e8 c0 3f
       -0.17612088501838064 0.13209307627166406
000490 36 8c ee 97 0a e5 d7 3f 4e c7 87 70 19 3b eb 3f
       0.37335457646458126 0.8509642789706306
0004a0 ae 0b 2c 2a 1a b9 d1 bf 9d 33 ba bd b1 6f b7 3f
       -0.2769227420650918 0.09154806978240378
0004b0 3f 7e 75 8d 5e fd df bf 59 89 b4 ad 9e 31 9b bf
       -0.49983943762160615 -0.026556472160458842
0004c0 90 40 4d c8 33 13 ab bf 3a ce 19 f0 4c 23 e1 3f
       -0.05288087673273012 0.5355591477841195
0004d0 74 d3 95 9f 34 88 a7 bf 3c f5 a5 db 3b c0 d1 3f
       -0.0459610409551833 0.2773580212595623
0004e0 b6 e5 66 91 01 d7 d7 3f cf 66 14 49 00 76 ff bf
       0.37249793242844065 -1.966308865993074
0004f0 0b cf 57 54 8d ae fc bf e8 2c 29 3c f7 e9 dd bf
       -1.792615251030784 -0.46740513682443785
000500 bf 66 ed db a4 2c db bf 16 74 15 53 2e 1f d1 bf
       -0.4245998523452776 -0.2675281344762096
000510 ce 94 1f 47 d5 a7 dc 3f 52 1c fb 14 25 24 d2 bf
       0.4477437204898934 -0.2834561066524134
000520 40 20 20 00 0f da cd 3f 07 d3 40 28 27 4d d8 bf
       0.23321712022903007 -0.37970904284456747
000530 06 72 ce 22 2c 8f c8 3f 05 09 60 9d 1d 9d cb bf
       0.191869275088621 -0.21573229011853115
000540 dc c7 50 a0 92 71 c9 3f 7b 90 0c 0f ff af bc bf
       0.19877846553714462 -0.11206049077424211
000550 8e 3a fd 3c 12 0a b0 bf ff 20 64 36 7c fa e1 bf
       -0.06265367497437976 -0.5618268072439888
000560 62 bf fc 10 41 a7 b9 bf e3 fe 98 da 71 40 be bf
       -0.10020834603051079 -0.11817084872108867
000570 b3 82 a3 c9 d5 c8 d0 3f cc 94 f5 4b 19 0b ce bf
       0.262258002198034 -0.23471370896292
000580 5b af c2 c5 a0 e3 9f 3f d5 62 9e 50 45 de 82 3f
       0.03114176947626333 0.00921301033285841
000590 59 9c e0 cf 52 7c 78 3f 8c f9 fe 7a 6c af b1 bf
       0.005977939114052943 -0.06908300402480999
0005a0 8b da 77 0f 62 25 7b bf 77 ef 99 8f 46 c4 d0 bf
       -0.006627448128247902 -0.26197971366467904
0005b0 0e e7 a3 09 61 f3 c0 3f 0d 82 ba 24 55 c3 c5 3f
       0.13242733927455003 0.17002357762704925
0005c0 86 3e 9d af a2 27 c0 bf 0b 37 b3 68 d2 64 9e bf
       -0.1262095792285331 -0.02968148006475872
0005d0 00 00 00 00 00 00 00 00 00 00 00 00 00 00 00 00
       0.0 0.0
0005e0 00 00 00 00 00 00 00 00 00 00 00 00 00 00 00 00
       0.0 0.0
0005f0 00 00 00 00 00 00 00 00 00 00 00 00 00 00 00 00
       0.0 0.0
000600 42 38 2e 93 dd bb aa bf 75 9c a3 62 2b d1 b4 bf
       -0.05221455022466205 -0.0813166728799944
000610 4f a8 da 3a cb 2e a7 3f 44 ee f4 c3 ab 05 c8 3f
       0.04527888387140477 0.1876730639286156
000620 3f 82 f8 c5 e3 65 c6 3f 9b d9 03 90 b6 89 d1 bf
       0.17498442808666145 -0.2740303427121035
000630 c8 09 b2 d8 d7 98 86 bf 59 46 1e d8 46 f0 cb bf
       -0.011033712673683818 -0.21827016403817615
000640 96 7f 7d f9 c0 c6 d2 3f 07 0e a0 3f 71 6d b0 3f
       0.29338096966056904 0.06416995814657166
000650 45 6a d9 ae f2 ef c3 bf 3e 6f 02 3a a3 62 b1 3f
       -0.15576013124048607 0.06791134039161492
000660 13 10 ed 91 b4 0d c1 3f 8d 81 13 60 e8 e2 ca bf
       0.1332307541398455 -0.21004967395039068
000670 8d a0 a5 f7 99 87 f0 bf 3c c3 cc 4a b9 dd d3 3f
       -1.0331058191023061 0.31040794663117643
000680 8a da 43 66 e6 fe d3 3f 06 0a 46 5a a3 62 f2 3f
       0.3124328612024462 1.149081566458905
000690 a2 6f 66 2b 64 2a 9d bf 1b b4 9a 2e e3 8f dc bf
       -0.02848202242749632 -0.4462821917648527
0006a0 60 52 eb ff f9 77 a6 3f 82 ce ae 77 b6 74 a4 3f
       0.04388409852041231 0.03995294772121573
0006b0 8d 50 20 96 2b 9d e3 3f 07 de 30 61 ce 51 b5 bf
       0.6129358226921952 -0.08327951309990321
0006c0 98 3b ee 47 eb cc dd bf f0 e1 6a fd 6c e1 d1 bf
       -0.4656322672316775 -0.27938389537624087
0006d0 38 4f 14 3b 01 be af bf 55 2a 32 2a 0f ea dc bf
       -0.06199649664099954 -0.45178584213923517
0006e0 61 b7 92 f2 76 1d c1 3f 73 75 67 81 06 a2 ce 3f
       0.13371168941869896 0.2393196231704838
0006f0 80 bb 8c ef f9 96 bc 3f d6 a9 64 90 f6 f5 a5 3f
       0.1116787156904433 0.04289217484104639
000700 83 eb 72 a9 fb a6 da bf 2d f8 e5 1a 0f db bb 3f
       -0.416441836812446 0.10881132513711185
000710 b1 4d c9 fc 6f e4 b0 bf db ff 70 4e f4 32 e8 bf
       -0.06598567887822672 -0.7562200100001023
000720 9f 58 d7 98 35 ad b8 bf 2f c4 0b a7 3f 46 b7 bf
       -0.09639296514009964 -0.09091565922041477
000730 ae e4 15 1d 6f 1f c8 bf e6 3e cd fb 79 3b be bf
       -0.1884592906970161 -0.11809503934386675
000740 00 54 c2 09 50 15 aa 3f 95 b4 7b 31 5b f2 e0 bf
       0.05094385260705536 -0.529584499976084
000750 ae 20 e9 9e b5 64 c2 bf 17 d3 e1 dd a3 48 ac 3f
       -0.14369840869244882 0.05524170001527844
000760 fc ef f3 8f 30 8e e6 bf ba 5e e0 c1 af a4 93 bf
       -0.7048571406917286 -0.019182916839865817
000770 57 a7 4d 3f 63 a3 b7 bf 6a 31 25 0c 60 a0 d5 bf
       -0.09233684821597642 -0.3379135244947721
000780 a9 32 25 45 07 40 dd bf 6c 44 9b 12 d5 1f c9 bf
       -0.4570329833266365 -0.196283945164882
000790 c5 4b 13 84 bf 03 e4 bf e5 28 80 a9 ba 79 cb bf
       -0.6254575328442732 -0.21465237881086022
0007a0 b6 e1 12 82 43 e5 b0 bf c9 a1 33 33 7a 38 e0 bf
       -0.06599828649166892 -0.5068942070038754
0007b0 75 1e db 59 90 a9 d7 bf f6 62 6b a9 7d e5 ae bf
       -0.36972435736649994 -0.06034462636097786
0007c0 ac 9b 14 b9 78 59 b4 bf 14 54 27 41 c9 28 c2 bf
       -0.07949022787634757 -0.14186969453172138
0007d0 01 70 5f 2c 70 fa b5 bf da 53 c5 5a 3f 56 e4 bf
       -0.08585263331718808 -0.6355282566897771
0007e0 e5 f6 70 d5 f2 69 d3 bf 0b 20 55 3f 93 a2 ad bf
       -0.3033415874850632 -0.05788097522832921
0007f0 32 5f f5 24 57 34 e4 bf 67 f4 a5 10 21 8b c6 bf
       -0.6313892099233043 -0.1761208850183806
