data/amass/ACCAD/Female1Walking_c3d/B2 - walk to stand t2_poses.npz (npz, 787104 bytes, 5 tensors)

trans f8 [588, 3]
-0.0727184167774725 -3.06023428737223 0.9144583858899596 -0.07262058724127743 -3.051920446570251 0.9146196266873556 -0.07240833945932985 -3.0438942986412085
0.9149305108207765 -0.07214588681216483 -3.0361556776657954 0.915378306040221 -0.07164280861266598 -3.0281777402962473 0.9159126990494021 -0.07197975314529867
-3.0201613195620207 0.9166411607779019 -0.07184390235697881 -3.011400826601523 0.9172446402285237 -0.07143955159197235 -3.0020288059036946 0.9181817936107187
-0.07197209428360536 -2.9931955666486565 0.9194596404627055 -0.07156441961630215 -2.9847981542406874 0.9202904123789486 -0.07153364572382685 -2.9770643262056526
0.9212620191263627 -0.07226921740397428 -2.9704566757783137 0.9224188201572048 -0.07210594190635787 -2.9625942196489543 0.9234170553665559 -0.07045636300889375
-2.9545160061219344 0.9246816639469407 -0.07043680270395732 -2.9467861615295767 0.9256400533432853 -0.07525383309830322 -2.9408019947724258 0.9246520991105045
-0.07435298155418446 -2.9332296501322985 0.9249233540372815 -0.073903298820556 -2.925264748261771 0.9253084256394074 -0.07423583246286225 -2.919483514287996
0.9259670268026309 -0.07403947291273581 -2.912859633943162 0.9265147523715654 -0.07377886234743361 -2.9061951304875198 0.9270257390937037 -0.07430336587719065
-2.899567592934946 0.927910731275154 -0.07351849366770628 -2.8927163682292356 0.9283800859211088 -0.07283487623576482 -2.886267879287921 0.9287972012852023
-0.07242929854307555 -2.8800662992310535 0.9292448344553011 -0.0718555795288463 -2.873866062367975 0.9298867916912316 -0.07075603221819252 -2.867827131534683
0.9307129911019572 -0.06971315297557588 -2.862140143272255 0.9315639199802085 -0.06908881964235537 -2.856672140184927 0.9323661965712705 -0.06814262618905614
-2.850803687262303 0.9332832379195799 -0.06745197515733323 -2.8464573291850384 0.9334352914380721 -0.06659619275266598 -2.840776167434855 0.9341432833441645
-0.06590670006803016 -2.8342037228022896 0.9352905659380835 -0.06548404402841425 -2.8274999481345002 0.9365647573598906 -0.06507299411873735 -2.821020596484048
0.9376274584051364 -0.0635360408042561 -2.815462553102113 0.938651880886137 -0.06024676359457718 -2.8109500642015215 0.9402402152717584 -0.06011897912313431
-2.8055090958374147 0.9418449602863801 -0.058994751210402076 -2.8001930749759394 0.9432386783801929 -0.05805816352164521 -2.794790927086395 0.9445261196612283
-0.05704429852010088 -2.78933535071885 0.9454676706323347 -0.05570695574111702 -2.7840707334940538 0.9461791820654875 -0.05438696530161767 -2.7787490614199553
0.9469921337710849 -0.05293467439029552 -2.7732074771053656 0.9477187853110651 -0.051509939876564534 -2.767888133769278 0.9481525856270372 -0.0501994544954242
-2.7625852125537826 0.948542653899939 -0.048978488842473154 -2.7569572345481785 0.9488934273499117 -0.047700997436395366 -2.751473886637042 0.9493217800438973
-0.04628664488479226 -2.7461503766510855 0.949666020124416 -0.044636460852042474 -2.7409046782767557 0.9499028226427613 -0.042599557450471996 -2.735207870931125
0.9496196689279113 -0.04134909055900361 -2.7293349924872006 0.9488398174089352 -0.03964469129028659 -2.7248170549810404 0.9487181670726238 -0.038404911892977615
-2.718924656534247 0.9485101272191155 -0.03665533183454288 -2.713259230866589 0.9482555830558936 -0.03536798140321865 -2.707611867765474 0.9477143661646081
-0.034473715158552846 -2.70157198888635 0.9468263375827334 -0.03324824707857077 -2.6953715810993524 0.945919912844629 -0.03139787502573587 -2.6892811870711157
0.9452179085997766 -0.030012341533206664 -2.6834349570533544 0.9443064340268083 -0.02848222391641916 -2.6772190118561148 0.9430912907800395 -0.02679021728652236
-2.6704342867899484 0.9414585714936519 -0.02525504023188724 -2.6640021230710134 0.9401175134765527 -0.02348286515619328 -2.6572526286175786 0.9389049606756852
-0.021704353720280522 -2.6504802841205177 0.9371964826254642 -0.020071688801734367 -2.6438505104022063 0.9352411823089595 -0.01834935160204093 -2.6369383207356627
0.9333248890003377 -0.016774681366174566 -2.6298033316577687 0.9313703785685027 -0.015178583223387002 -2.622737625280829 0.9292427624114843 -0.013549781458735725
-2.615624337796967 0.9272243144651265 -0.012217139172741105 -2.608240403332885 0.9253296587950053 -0.010504746412673 -2.6006593624340075 0.9232846664151115
-0.008704557301777304 -2.592967931836545 0.9211816726179756 -0.006850845679543706 -2.5851166056313217 0.9190426629708005 -0.005145358395357658 -2.5770191798569586
0.9170548704709571 -0.003529644396118085 -2.569193839211903 0.9151886514657073 -0.0019119197375269538 -2.561088323507468 0.9134437624990251 -0.00031146921332710656
-2.552734515935106 0.9117007981866547 0.0013650109075350832 -2.544272726987366 0.9100043936736074 0.002722750015208007 -2.5357455670098648 0.9084485016716995
0.0045904254674210805 -2.5265938528039062 0.9071271755627955 0.0063925471188555055 -2.5174044599496246 0.9058359820322097 0.007987345714402688 -2.5082722201013645
0.9048788885290897 0.009936096986808802 -2.4989295058866414 0.9042915990067302 0.012364808760860116 -2.4894481228720418 0.9038494957761178 0.013693343945950277
00000000: d94a e095 ac9d b2bf 8be4 321d 5c7b 08c0
00000010: 0f69 9e3b 3e43 ed3f bab4 3747 4397 b2bf
00000020: 821a 6044 556a 08c0 8adc 1c61 9044 ed3f
00000030: 257c ef59 5a89 b2bf a628 0941 e559 08c0
00000040: 55cf c259 1c47 ed3f b82f 6620 2778 b2bf
00000050: 4e1d e9fc 0b4a 08c0 de23 fd71 c74a ed3f
00000060: 2428 fcdf 2e57 b2bf 6961 4840 b539 08c0
00000070: 9110 0d26 284f ed3f b6b3 bbdd 436d b2bf
00000080: ff4d 8156 4a29 08c0 94ac f6d7 1f55 ed3f
00000090: 414d 0aab 5c64 b2bf 0f35 0b51 5917 08c0
000000a0: 38cf 866e 115a ed3f 207a bac9 dc49 b2bf
000000b0: e70c b8ad 2704 08c0 ade6 eac8 be61 ed3f
000000c0: f536 2c5f c36c b2bf 2b4e 6a84 10f2 07c0
000000d0: 85ef b89f 366c ed3f 432a cfb9 0b52 b2bf
000000e0: d4ff ccda dde0 07c0 92ad ffe0 0473 ed3f
000000f0: 7b8e f26c 0750 b2bf e721 f919 07d1 07c0
00000100: 9c3a 667c fa7a ed3f fff0 4145 3c80 b2bf
00000110: cc38 25ca 7ec3 07c0 8048 3979 7484 ed3f
00000120: ffc7 55f6 8875 b2bf ecaf 2599 64b3 07c0
00000130: 7cc6 abec a18c ed3f e515 eb9e 6d09 b2bf
00000140: ff6a ae49 d9a2 07c0 799d 3b00 fe96 ed3f
00000150: 755d 0c74 2508 b2bf 6899 809f 0493 07c0
00000160: 7344 9fe3 d79e ed3f 7e4c 0ed0 d543 b3bf
00000170: 1a79 3c32 c386 07c0 8e6f bbff bf96 ed3f
00000180: e8a3 2208 cc08 b3bf 53ce 571b 4177 07c0
00000190: 35b2 9cdc f898 ed3f a734 809b 53eb b2bf
000001a0: 6868 4f34 f166 07c0 3fb4 5a6a 209c ed3f
000001b0: 508c 9e98 1e01 b3bf ee9f 382c 1a5b 07c0
000001c0: 3d55 299a 85a1 ed3f 8ff5 c53a 40f4 b2bf
000001d0: ccfe 0c5a 894d 07c0 3351 1644 02a6 ed3f
000001e0: 9216 ebe8 2be3 b2bf 24e8 893b e33f 07c0
000001f0: 5da5 fee1 31aa ed3f 97dd 6c9e 8b05 b3bf
00000200: 8693 817e 5032 07c0 38e5 8dd8 71b1 ed3f
00000210: 2338 f4a5 1bd2 b2bf 0c30 b17a 4824 07c0
00000220: 1d3e 6927 4ab5 ed3f 6ad9 7073 4ea5 b2bf
00000230: 904b 289d 1317 07c0 595c 84e8 b4b8 ed3f
00000240: 57c5 83fc b98a b2bf b012 2c33 600a 07c0
00000250: 69cc bea9 5fbc ed3f b48c 1c94 2065 b2bf
00000260: 53a3 777d adfd 06c0 817a e9f1 a1c1 ed3f
00000270: 2a32 5f3c 111d b2bf 022f e459 4ff1 06c0
00000280: 0cd9 579c 66c8 ed3f 9f92 21a0 b8d8 b1bf
00000290: 7d62 3fbb a9e5 06c0 935a 4e23 5fcf ed3f
000002a0: b116 e20c ceaf b1bf a1e8 4bec 76da 06c0
000002b0: a96c 45a2 f1d5 ed3f 840f f28e cb71 b1bf
000002c0: c8dc e029 72ce 06c0 6ca0 18cf 74dd ed3f
000002d0: 1ef2 595b 8844 b1bf 5679 926b 8bc5 06c0
000002e0: 7814 35b0 b3de ed3f 042b e9b5 720c b1bf
000002f0: 831c f3da e8b9 06c0 4eb8 7774 80e4 ed3f
00000300: fb24 61f1 42df b0bf 2819 5d00 73ac 06c0
00000310: cac3 1e7b e6ed ed3f 7909 83f3 8fc3 b0bf
00000320: 5c6f f54a b89e 06c0 0d4d 6ea7 56f8 ed3f
00000330: 40c0 97ad 9fa8 b0bf 62ee 193f 7391 06c0
00000340: 2bd0 b54c 0b01 ee3f 4621 5fe1 e543 b0bf
00000350: 6b7d 253b 1186 06c0 dc83 57ab 6f09 ee3f
00000360: 0538 a8ee a9d8 aebf 227a 2363 d37c 06c0
00000370: 0c3d dfa5 7216 ee3f 4ad1 6732 eac7 aebf
00000380: 8f04 bac0 ae71 06c0 32a3 ca0a 9823 ee3f
00000390: bd2d 2b5e 8f34 aebf 060f 7ca0 cb66 06c0
000003a0: d8e2 7ee1 022f ee3f 16bd 2eb3 ccb9 adbf
000003b0: def2 7758 bb5b 06c0 5135 45d7 8e39 ee3f
000003c0: 355a 2209 e934 adbf 2e50 670d 8f50 06c0
000003d0: 5351 996a 4541 ee3f eab8 2242 9f85 acbf
000003e0: 8edc 70e0 c645 06c0 d412 6490 1947 ee3f
000003f0: 2e28 99ba 9bd8 abbf 19b7 b4c9 e03a 06c0
00000400: d2b6 8372 c24d ee3f 2e55 a9ee 401a abbf
00000410: 8f85 d966 872f 06c0 68e8 9658 b653 ee3f
00000420: 96a6 60c6 825f aabf 4534 ac88 a224 06c0
00000430: d259 5c17 4457 ee3f 5376 ab2e beb3 a9bf
00000440: 55a7 a246 c619 06c0 a58f ab1f 765a ee3f
00000450: 8364 925f b513 a9bf 19d7 3698 3f0e 06c0
00000460: 5e6e bbbf 555d ee3f e5a8 f3df 436c a8bf
00000470: 9c3b b7bd 0403 06c0 d068 d511 d860 ee3f
00000480: 9d22 0b14 e2b2 a7bf 7cea 4cb0 1df8 05c0
00000490: acd1 51fe a963 ee3f 872d 2317 97da a6bf
000004a0: 6f37 956e 5fed 05c0 b41e b49a 9a65 ee3f
000004b0: b7cf 25f4 9bcf a5bf ab49 0baa b4e1 05c0
000004c0: 16e1 b5c9 4863 ee3f b22c 573f b52b a5bf
000004d0: ca7c a495 add5 05c0 643f 1d52 e55c ee3f
000004e0: 2185 1a19 4f4c a4bf 15d0 55e2 6ccc 05c0
000004f0: e155 9633 e65b ee3f 5715 2c01 cfa9 a3bf
00000500: 2cd2 0092 5bc0 05c0 bd96 0ae9 315a ee3f
00000510: a622 e8d6 7cc4 a2bf 0c23 7141 c1b4 05c0
00000520: e62e af17 1c58 ee3f c59b e786 c01b a2bf
00000530: 7583 3269 30a9 05c0 260b 1414 ad53 ee3f
00000540: e7ee 5aee 89a6 a1bf d073 60c6 d19c 05c0
00000550: f318 5dbf 664c ee3f b01d b40b ea05 a1bf
00000560: c21d bbf9 1e90 05c0 f6b0 49d6 f944 ee3f
00000570: 2f82 ccdc 6113 a0bf 7dbf e1da a583 05c0
00000580: 23f2 a0a0 393f ee3f 662e 7225 8ebb 9ebf
00000590: 09e6 2bbf ac77 05c0 4f85 7120 c237 ee3f
000005a0: 1717 f4b0 712a 9dbf 2b36 21cd f16a 05c0
000005b0: c45d 61c9 cd2d ee3f 2eb5 640c e56e 9bbf
000005c0: 100a bfa6 0c5d 05c0 e454 e3b9 6d20 ee3f
000005d0: 91a4 6b0f 75dc 99bf 3d84 5858 e04f 05c0
000005e0: 90ea d852 7115 ee3f eaeb 7267 e40b 98bf
000005f0: f3fa 88aa 0d42 05c0 7cef 846a 820b ee3f
00000600: 333f a385 aa39 96bf 5dec d701 2f34 05c0
00000610: e8ae 597a 83fd ed3f dd6e ea3b ac8d 94bf
00000620: e885 ad18 9b26 05c0 9875 7cea 7eed ed3f
00000630: 7060 2224 2cca 92bf d807 491e 7318 05c0
00000640: b593 5928 ccdd ed3f a562 79cf 612d 91bf
00000650: 400e 4354 d609 05c0 8546 8d40 c9cd ed3f
00000660: e23c 5af4 f215 8fbf 158f 34dd 5dfb 04c0
00000670: c643 5351 5bbc ed3f efa0 dde1 fcbf 8bbf
00000680: 52ad eb73 ccec 04c0 2fe1 5553 d2ab ed3f
00000690: 2ab1 94a9 4c05 89bf 5f5d 0325 addd 04c0
000006a0: 6c63 d1f1 4c9c ed3f d793 5c32 8383 85bf
000006b0: ae85 ed7e 26ce 04c0 6ad6 e448 8c8b ed3f
000006c0: b392 7fe7 b1d3 81bf 8b84 96f8 65be 04c0
000006d0: 7a33 b2fc 517a ed3f cf1d 4ce2 a10f 7cbf
000006e0: b343 6c9d 51ae 04c0 abd3 a228 cc68 ed3f
000006f0: 6754 8ca0 4c13 75bf fa33 553b bc9d 04c0
00000700: caed a974 8358 ed3f 8947 ee67 33ea 6cbf
00000710: 9aff e37f b58d 04c0 d4e5 f6b5 3949 ed3f
00000720: be42 b22f 2c53 5fbf 6d0e fddf 1b7d 04c0
00000730: 6364 d569 ee3a ed3f 6b55 bf15 9669 34bf
00000740: 4d7e ea12 006c 04c0 645c fe26 a72c ed3f
00000750: a70e 384d 455d 563f b11f d4a8 ab5a 04c0
00000760: 296c c188 c11e ed3f 96f3 a748 054e 663f
00000770: 5746 caf8 3449 04c0 fff6 9897 0212 ed3f
00000780: 9de5 1df4 68cd 723f 118a 80d6 7636 04c0
00000790: a15c 0b92 2f07 ed3f fe99 044d 122f 7a3f
000007a0: 314e 12f3 a423 04c0 cec9 cbbd 9bfc ec3f
000007b0: a36b 0065 ab5b 803f c867 9606 f110 04c0
000007c0: 3a58 2292 c4f4 ec3f 9da6 dd5c 6059 843f
000007d0: 2c57 b6c0 cefd 03c0 a801 79ef f4ef ec3f
000007e0: 8856 fe89 b852 893f 9297 06c7 63ea 03c0
000007f0: 1eaa 1bc7 55ec ec3f daaa 5d83 410b 8c3f

mocap_framerate f8 []
120.0
00000000: 0000 0000 0000 5e40

betas f8 [16]
0.7563506427386358 -0.5522294812792593 -0.9141237331262109 -1.4775464881397888 -0.01247839216130518 0.6743621987880618 -0.7772091800703559 0.359466140125607
-2.0004879220858665 -2.8367140539072406 -2.4008031050020215 -2.6588043055701283 -1.5002185091915043 -1.1145676365842776 1.507112704079841 -0.5126300779104193
00000000: 67df 5b43 0634 e83f 2568 3f29 ddab e1bf
00000010: c4c8 486a 8040 edbf aa14 4ec9 07a4 f7bf
00000020: 776e ea71 458e 89bf 0f82 ae08 6094 e53f
00000030: 6fb3 51c9 e5de e8bf 29f7 f644 7e01 d73f
00000040: df36 cbcf ff00 00c0 d914 4d23 97b1 06c0
00000050: 95f3 2042 d834 03c0 fe19 1731 3b45 05c0
00000060: 5c4d 9d1f e500 f8bf a7f3 c4df 44d5 f1bf
00000070: 718b f635 221d f83f 2147 7231 7767 e0bf

dmpls f8 [588, 8]
-0.13196122969633098 1.0006348011925679 -1.122195865294609 -0.48240141602512854 3.1000949194122933 -2.4185460442665763 1.5909413976244493 -2.7174539992266893
-0.15492649054534294 1.029600432228389 -1.1476820256285778 -0.47757661741579543 3.085207438021265 -2.4425076688122673 1.5917003590520205 -2.7221277527707897
-0.17182899290555478 1.0731687630563558 -1.1583951062768316 -0.47555807712949144 3.066436346304777 -2.4657386037320492 1.5814653186795178 -2.729276325285682
-0.16805991336966508 1.1156514087730907 -1.1468327669519423 -0.46881608592637997 3.0493469291470574 -2.4842803308151016 1.571198537042945 -2.740209457202456
-0.1612296409108873 1.141685329919331 -1.1415824722214818 -0.4808749985191225 3.026277715546082 -2.499183683596931 1.5655205740020346 -2.754250530226189
-0.14607021624572233 1.1712976208972012 -1.145930056348227 -0.49281327604305986 2.9797778038240534 -2.5098218276402715 1.5749664925192441 -2.779556690658806
-0.09967399998760401 1.20567952603269 -1.1618978655430459 -0.48008247933673054 2.890300267664644 -2.5053977877628424 1.6170877960723178 -2.8196807283826133
-0.04319850472176734 1.1925470929862743 -1.2172385002951296 -0.4577230523265682 2.780590036977811 -2.4899634407988804 1.650862372203738 -2.8314192311004494
-0.059464745950383965 1.1503482760370383 -1.2194567559106446 -0.4224675591090774 2.7165363922040666 -2.516548797143661 1.6170876554920532 -2.810033067110929
-0.07410422653753622 1.117744095009096 -1.2146360006857992 -0.40598882085922633 2.647950938527835 -2.549569173474543 1.5718681260425067 -2.801945827722625
-0.07418247807628262 1.1177021318695965 -1.214257865209485 -0.40590009643609315 2.6466343342118206 -2.5500599176509424 1.5706069499570805 -2.8017152991113163
-0.04787516554839853 1.1070705934188476 -1.1949614164680025 -0.42309051051815144 2.609165699574307 -2.572118111545536 1.488908133176948 -2.7900862235860666
-0.013135548721977724 1.0837435391824617 -1.168081778975036 -0.45587325550878266 2.576193719800692 -2.5843433550330595 1.4229295324458802 -2.768329596047617
0.025905065200327086 1.0943877176568337 -1.0904649460825333 -0.4683283343913534 2.55898107829177 -2.5504379236498735 1.3584109788041623 -2.723034065774292
0.05805042642356257 1.1052148704962073 -0.9986117450831493 -0.4837866111411128 2.5371633990533855 -2.516863555812666 1.2854514686472285 -2.6479710904185088
0.07034031811613696 1.1008302734875695 -0.9384311176758764 -0.494321367574039 2.4405957126499467 -2.276275614176155 1.0939194361586695 -2.562692320721596
0.08388677451204415 1.076458714771901 -0.8960720706679273 -0.4989818917499999 2.3558918688053434 -2.0873239628632474 0.9278761003497019 -2.464784214324087
0.08780450386700672 1.0594266419999205 -0.8848172998851974 -0.5152812141400898 2.2295946605506565 -1.9154222869618296 0.7782022206120665 -2.3656973246237385
0.1205465256001026 1.020479347735442 -0.8407227241153191 -0.5571549136660234 2.15298237953594 -1.7587711509665944 0.6533964991856386 -2.2644861644595102
0.1409560559109591 1.0025459984081717 -0.7799663659722961 -0.5604599590634821 2.0903700058587638 -1.6023095863877563 0.5507450151721577 -2.1537004928313648
0.15604258735778478 0.9835850091242565 -0.7202233100554928 -0.5388860020917422 2.0388823203389297 -1.4549137615499546 0.46388969514614636 -2.0483948521488666
0.1693939893230522 0.9414058756644997 -0.7041103438910433 -0.5581129083309955 1.9860598930718476 -1.3227959328033176 0.3891447594883282 -1.9473312673812988
0.15688334207236662 0.9196646648279514 -0.6938980872556446 -0.5825405700797593 1.9159620697017117 -1.1991609028849266 0.31999123171283084 -1.8441577794764321
0.13591378747439542 0.9066722682643157 -0.686286686297805 -0.6099690461096441 1.8306517273665444 -1.0971700836988147 0.2664509457897195 -1.7432178979398714
0.11243917807016626 0.899776392765899 -0.6812972912601665 -0.6256250011930891 1.7527769412520933 -1.0285955564909381 0.22415227719825487 -1.6349160747581608
0.08097717403514723 0.8837200152172767 -0.6905251921803007 -0.6302170577397548 1.672971989675583 -0.9946108436637103 0.20058262855728698 -1.5189564499983519
0.05483203851422967 0.8567086409210648 -0.6923958854871758 -0.6435108934338523 1.6076937685292643 -0.981862035435943 0.19149257318423085 -1.397519805847754
0.015372929020360172 0.8242757564861672 -0.7037419201342959 -0.667631341444753 1.5729319712946095 -0.9857913771773872 0.19577621755090807 -1.2719634836578266
-0.04242113695287446 0.7946619429535269 -0.7351855881332607 -0.6794407490840911 1.553056262307733 -1.0032959104111983 0.21070645649808498 -1.1495524656237448
-0.09772622795837674 0.7803344142367382 -0.7648694775609427 -0.6855291150646027 1.5241516104281008 -1.0120761806737533 0.2160715549628314 -1.0423403325825065
-0.16563631546785024 0.7587852379849334 -0.8492263481845672 -0.7297876436126858 1.4171424727139155 -0.9845763728867173 0.16396970093514834 -0.9656894522684542
-0.21781998048708168 0.7109029161043899 -0.8981283808420246 -0.7917777242854711 1.2935056184610627 -0.9515417442688111 0.12862728076275798 -0.9018235480493719
00000000: 255e f106 1be4 c0bf dfc8 25a3 9902 f03f
00000010: 2859 d2a6 83f4 f1bf 22cf 5730 aadf debf
00000020: f2f8 aa90 fecc 0840 fef5 1fab 2e59 03c0
00000030: 8664 8af7 7e74 f93f 1b81 b885 58bd 05c0
00000040: 0991 1699 a1d4 c3bf f2e4 854d 3e79 f03f
00000050: 2782 e4d3 e75c f2bf 39a6 4884 9d90 debf
00000060: 126b bd3c 81ae 0840 1d39 ee75 418a 03c0
00000070: e48e b2cb 9a77 f93f e379 4dea eac6 05c0
00000080: 4159 8410 7efe c5bf 34a7 4602 b32b f13f
00000090: 11e3 944e c988 f2bf fdaa 2725 8b6f debf
000000a0: 7128 75c7 0f88 0840 601c 3c29 d5b9 03c0
000000b0: b7c9 f793 ae4d f93f e1ca 76d3 8ed5 05c0
000000c0: ac7c d8bb fc82 c5bf 04ab a64a b5d9 f13f
000000d0: f2a2 c050 6d59 f2bf 2d1f 392f 1501 debf
000000e0: d3c1 b600 1065 0840 4c93 b75d cedf 03c0
000000f0: bcf5 c113 a123 f93f e5fe 96ef f2eb 05c0
00000100: b7d5 6d41 2ca3 c4bf 5539 25d6 5744 f23f
00000110: ab0c 7efb eb43 f2bf b0a2 06ee a7c6 debf
00000120: 7512 4717 d135 0840 0df7 dd03 54fe 03c0
00000130: b8dc 284d 5f0c f93f 447f 8280 b408 06c0
00000140: 97f6 d8c8 6db2 c2bf 682d fa92 a2bd f23f
00000150: 1f4e 38c1 ba55 f2bf 97ee e8b1 408a dfbf
00000160: 092b c6be 95d6 0740 ec03 6477 1d14 04c0
00000170: dda7 9a10 1033 f93f 7c0f de37 883c 06c0
00000180: c450 353a 3c84 b9bf 6346 5c9d 764a f33f
00000190: 1ccb 5c37 2297 f2bf 0e91 08dd abb9 debf
000001a0: e4ea 29bf 551f 0740 194c cffe 0d0b 04c0
000001b0: db42 ee73 97df f93f ad84 0cc5 b48e 06c0
000001c0: 403d 084a 1d1e a6bf 010e b542 ac14 f33f
000001d0: d731 e313 cf79 f3bf ca8b 17a1 554b ddbf
000001e0: 9c39 43fd a53e 0640 0ebc d3f3 71eb 03c0
000001f0: 18fe aca9 ee69 fa3f 34bc 3620 bfa6 06c0
00000200: ce62 3ec6 2972 aebf ca6c 0998 d367 f23f
00000210: 0d5c 5816 e582 f3bf d0a4 7f5f b509 dbbf
00000220: 4948 976e 77bb 0540 4b29 f455 e421 04c0
00000230: b0a8 314e 97df f93f 305c df9d f27a 06c0
00000240: 2f5e 799d 7ef8 b2bf 69c7 d5a1 47e2 f13f
00000250: fbd5 b728 266f f3bf 5b72 0889 b8fb d9bf
00000260: d01d d3e6 002f 0540 0cb4 d785 8465 04c0
00000270: 51a3 2f31 5f26 f93f cddb f992 626a 06c0
00000280: 661c 4675 9ffd b2bf 54ca 70a1 1be2 f13f
00000290: abc4 bfa7 996d f3bf 96b8 e865 44fa d9bf
000002a0: b648 2f9f 4e2c 0540 c335 69d0 8566 04c0
000002b0: bbf9 cec0 3421 f93f 7316 f3b5 e969 06c0
000002c0: 8e54 a4fc 1783 a8bf 648e 91a7 8fb6 f13f
000002d0: f863 bbdc 8f1e f3bf 0f19 7b38 ea13 dbbf
000002e0: 0422 2c44 92df 0440 824c 14a9 b293 04c0
000002f0: fce4 ab55 91d2 f73f 1294 dab9 1852 06c0
00000300: f042 6881 cfe6 8abf b5a3 2077 0357 f13f
00000310: 3e05 fc84 76b0 f2bf 6200 e204 072d ddbf
00000320: f0a2 f573 0b9c 0440 e803 7c35 bcac 04c0
00000330: cce1 e5c1 51c4 f63f 5696 bcfc 8925 06c0
00000340: 5e38 587f db86 9a3f d4ae 07b2 9c82 f13f
00000350: fdbd 0d5f 8b72 f1bf a110 0068 17f9 ddbf
00000360: 8bc4 5212 cb78 0440 506f 84ff 4b67 04c0
00000370: 10dc 8726 0dbc f53f ee27 9315 c6c8 05c0
00000380: d91f 0416 c9b8 ad3f 6a58 bdc9 f5ae f13f
00000390: 6013 519e a0f4 efbf fbff 451e 5cf6 debf
000003a0: 0457 fc52 1c4c 0440 68ad 255c 8922 04c0
000003b0: d3f5 268f 3591 f43f c1ce 9077 0b2f 05c0
000003c0: c927 e6b5 d201 b23f ab36 7134 009d f13f
000003d0: 86ee feb1 a007 eebf 9072 dc16 f6a2 dfbf
000003e0: f5b6 840b 5786 0340 1b8d 3cfd cf35 02c0
000003f0: f729 acaa b180 f13f 42ad d9d4 6480 04c0
00000400: ae9d 1889 9a79 b53f 3808 f7c5 2c39 f13f
00000410: 8416 cc55 9fac ecbf 9332 97be 51ef dfbf
00000420: 3f73 0bd6 ddd8 0240 f63c e5e7 d6b2 00c0
00000430: 55be 3738 29b1 ed3f 87c0 41c9 e0b7 03c0
00000440: 6ce0 8c20 5b7a b63f 8269 be59 69f3 f03f
00000450: 6f24 be5e 6c50 ecbf 0a32 5f07 2f7d e0bf
00000460: d835 b3b9 35d6 0140 477d 08d7 91a5 febf
00000470: 4682 e657 08e7 e83f 00f3 0bb8 f2ec 02c0
00000480: 604f 1919 23dc be3f 2f46 0c27 e253 f03f
00000490: d789 a257 33e7 eabf 700a a08a 36d4 e1bf
000004a0: dcc4 67d3 4e39 0140 fdcb e837 ed23 fcbf
000004b0: b957 6ac6 9fe8 e43f dbc8 14ec aa1d 02c0
000004c0: 92c5 2719 d90a c23f 5861 3eac 6d0a f03f
000004d0: 6197 3a06 7cf5 e8bf 1ba5 5cb9 49ef e1bf
000004e0: 2b9f dde8 13b9 0040 a9a4 7960 0fa3 f9bf
000004f0: 9f2e 9302 b49f e13f e6b7 f052 c73a 01c0
00000500: 7d11 be18 34f9 c33f 0fc9 e044 8779 ef3f
00000510: ad2a 50c1 110c e7bf f532 68db 8d3e e1bf
00000520: 84fc b188 a14f 0040 e6b7 05a7 5347 f7bf
00000530: b7a9 6667 5eb0 dd3f 6f31 1ad7 1c63 00c0
00000540: 9d07 24c6 b3ae c53f 79b8 0737 ff1f ee3f
00000550: ed31 796a 1288 e6bf ee39 189a 0fdc e1bf
00000560: e440 0abd e6c6 ff3f c5c0 6a11 2c2a f5bf
00000570: c160 da6b bfe7 d83f 3518 bed4 4428 ffbf
00000580: a376 bedb c014 c43f 9c21 5797 e46d ed3f
00000590: 6aa3 f0c2 6934 e6bf 91be 221f 2ca4 e2bf
000005a0: d9ec dbd7 c7a7 fe3f 7f85 c857 c32f f3bf
000005b0: cca7 cd80 bc7a d43f 7d3e 7896 ab81 fdbf
000005c0: 4096 237c 9f65 c13f fd54 8c8f 7503 ed3f
000005d0: 7e89 2a7f 0ff6 e5bf a49f 13ce dd84 e3bf
000005e0: c47b 3677 594a fd3f 062d ba37 028e f1bf
000005f0: 64ed 8944 880d d13f 0042 5773 38e4 fbbf
00000600: 5ab9 9960 d0c8 bc3f 708e 94dc f7ca ec3f
00000610: 0c1b 1afa 2fcd e5bf 9ce5 f5b8 1e05 e4bf
00000620: 3dc5 7dd5 5f0b fc3f 3108 3f9d 2075 f0bf
00000630: a6f9 f195 05b1 cc3f e7a7 0cc2 9d28 fabf
00000640: ce15 348a ebba b43f f1b8 8532 6f47 ec3f
00000650: ed4f af49 c818 e6bf 74f4 8bf6 bc2a e4bf
00000660: a97d ec46 7ec4 fa3f 190b b91e dad3 efbf
00000670: 424e e60a b1ac c93f ada8 4c47 a54d f8bf
00000680: 2e1d 62e8 f112 ac3f 4f9c 5e3d 286a eb3f
00000690: 1bad 816a 1b28 e6bf 6061 3d28 a497 e4bf
000006a0: 170f dd19 1db9 f93f 2b34 6cee 696b efbf
000006b0: 7c67 a021 d482 c83f d10d 5aba 3d5c f6bf
000006c0: 94e3 169b d77b 8f3f c9cc 1f8d 7760 ea3f
000006d0: 29a2 79c6 0d85 e6bf 3c46 2967 3c5d e5bf
000006e0: c7b0 f8b6 ba2a f93f 52fb b45b 9a8b efbf
000006f0: 169d dbf1 310f c93f fa43 c061 f659 f4bf
00000700: c653 be27 39b8 a5bf 148f 0be2 de6d e93f
00000710: 70bb 30ed a386 e7bf 6759 9c86 fabd e5bf
00000720: fa5a f785 51d9 f83f 87d3 3603 800d f0bf
00000730: a98f dbdd 6df8 ca3f 0c3e 4e20 9164 f2bf
00000740: 5aec 0a09 9604 b9bf 29e2 a2e0 7ff8 e83f
00000750: bfa6 fa8d cf79 e8bf b510 35c1 daef e5bf
00000760: 68f3 8ecc ec62 f83f a6de 10cb 7631 f0bf
00000770: 19a3 1493 3ba8 cb3f e7e5 7b0e 6dad f0bf
00000780: 0270 fb1e 9233 c5bf d6a6 bafa f747 e83f
00000790: d055 0bbc dc2c ebbf a8ec ca9d 6b5a e7bf
000007a0: ed42 e195 9dac f63f ddce 3e4f a681 efbf
000007b0: 0e93 868b f5fc c43f a9b9 f290 ede6 eebf
000007c0: 6ebe 4d6e 86e1 cbbf 9394 e978 b7bf e63f
000007d0: 026e eaba 77bd ecbf a63c f03c 3e56 e9bf
000007e0: 65b8 87f2 32b2 f43f 133a 0dac 0773 eebf
000007f0: 28ee 1fd6 db76 c03f c44f b40e bddb ecbf

poses f8 [588, 156]
-0.2381951314063364 -2.1780962235627275 -2.3658482886787406 -0.3370687049950409 -0.07334782486991594 -0.04810474223311286 0.514320720574047 -0.144308977442529
0.0031929863618223794 0.13824113000660848 0.19761224152993445 0.0037802273657936286 0.21208586425424542 0.11005569576441226 -0.04410873989292634 -0.1155504676129772
0.05881326422331215 -0.0413135273831469 0.04415453287777439 -0.0014078116136278683 -0.03801711433269133 0.11434618343661611 0.09177375625127666 -0.135339734877689
-0.11380057827604899 0.06234415688852686 0.19329329372048576 -0.0012803860533529532 0.08718452815124494 -0.017924596339872128 0.0 0.0
0.0 0.0 0.0 0.0 0.06378110494863466 -0.024841274254016298 -0.059436768076418955 0.050550797343554575
0.22573954084163098 -0.36354588616121064 0.022742171001557288 -0.02797447077379553 0.32370743885807934 -0.03406168527774119 -0.07461406512986618 0.05555172482353779
0.17974559386412084 -0.01730860408270625 -1.132645547926816 0.1555139600547316 0.3438065962329345 1.0837273848271927 -0.07707202551040884 -0.45894782334198825
0.08959207513271963 0.08517660372167284 0.5568582724309978 -0.026880478608380463 -0.6132097083777353 -0.19480793674041577 0.014544260601692857 -0.3320115831616257
0.13481607324307868 0.07545554441938575 0.1116787156904433 0.04289217484104639 -0.416441836812446 0.10881132513711185 -0.06598567887822672 -0.7562200100001023
-0.09639296514009964 -0.09091565922041477 -0.1884592906970161 -0.11809503934386675 0.05094385260705536 -0.529584499976084 -0.14369840869244882 0.05524170001527844
-0.7048571406917286 -0.019182916839865817 -0.09233684821597642 -0.3379135244947721 -0.4570329833266365 -0.196283945164882 -0.6254575328442732 -0.21465237881086022
-0.06599828649166892 -0.5068942070038754 -0.36972435736649994 -0.06034462636097786 -0.07949022787634757 -0.14186969453172138 -0.08585263331718808 -0.6355282566897771
-0.3033415874850632 -0.05788097522832921 -0.6313892099233043 -0.1761208850183806 -0.13209307627166406 -0.37335457646458126 0.8509642789706306 0.2769227420650918
-0.09154806978240376 -0.49983943762160615 0.026556472160458842 0.05288087673273013 0.5355591477841196 0.04596104095518329 -0.2773580212595622 0.1116787156904433
-0.04289217484104638 0.41644183681244606 0.10881132513711185 0.0659856788782267 0.7562200100001023 -0.09639296514009964 0.09091565922041477 0.18845929069701614
-0.11809503934386674 -0.05094385260705537 0.529584499976084 -0.14369840869244885 -0.05524170001527845 0.7048571406917286 -0.01918291683986582 0.09233684821597642
0.3379135244947721 -0.4570329833266365 0.19628394516488204 0.6254575328442732 -0.21465237881086027 0.06599828649166892 0.5068942070038754 -0.36972435736649994
0.06034462636097784 0.07949022787634759 -0.14186969453172144 0.08585263331718808 0.6355282566897771 -0.3033415874850632 0.05788097522832922 0.6313892099233043
-0.17612088501838064 0.13209307627166406 0.37335457646458126 0.8509642789706306 -0.2769227420650918 0.09154806978240378 -0.49983943762160615 -0.026556472160458842
-0.05288087673273012 0.5355591477841195 -0.0459610409551833 0.2773580212595623 -0.24061918923548642 -2.173678947817453 -2.3656630317224745 -0.33035218953157913
-0.07641379244680095 -0.05708013131751373 0.5171624913790294 -0.1442788512117647 -0.0015177012350846425 0.13621363644840814 0.19526351182384907 0.0007540876396328101
0.22058295025241081 0.10345944606474335 -0.04513126668601018 -0.10491098861701817 0.059599529563123296 -0.04337897974187022 0.04186061715475184 -0.0032101773214542446
-0.038497215008609406 0.10243652616567255 0.09265909841444964 -0.12346212720891683 -0.10726710516897794 0.05812563047940841 0.19700398463915378 0.0008071749411485218
0.0873241138159373 -0.018866090357142363 0.0 0.0 0.0 0.0 0.0 0.0
0.0687690741723884 -0.028137337661871042 -0.05784745776375794 0.05034771567444822 0.22549924576586686 -0.36226943126996347 0.02137568632019277 -0.03021074830709574
0.32425479351716335 -0.03725347293606604 -0.07173616546858043 0.05633038118473846 0.18096419074112047 -0.019463270910345914 -1.1283259745418648 0.16250462758162312
0.33914553364869765 1.082186720773993 -0.07398189530022481 -0.455007071351533 0.08659507027301733 0.08920365365678382 0.5596543611564544 -0.020076206625465987
-0.6225456478347573 -0.2004257265170757 0.03137956162394794 -0.34062891658230937 0.136039095231428 0.06549474158189028 0.1116787156904433 0.04289217484104639
-0.416441836812446 0.10881132513711185 -0.06598567887822672 -0.7562200100001023 -0.09639296514009964 -0.09091565922041477 -0.1884592906970161 -0.11809503934386675
0.05094385260705536 -0.529584499976084 -0.14369840869244882 0.05524170001527844 -0.7048571406917286 -0.019182916839865817 -0.09233684821597642 -0.3379135244947721
-0.4570329833266365 -0.196283945164882 -0.6254575328442732 -0.21465237881086022 -0.06599828649166892 -0.5068942070038754 -0.36972435736649994 -0.06034462636097786
-0.07949022787634757 -0.14186969453172138 -0.08585263331718808 -0.6355282566897771 -0.3033415874850632 -0.05788097522832921 -0.6313892099233043 -0.1761208850183806
00000000: 1873 ba95 2d7d cebf b4f1 7db6 bd6c 01c0
00000010: cf61 19de 41ed 02c0 875c 1d9e 8892 d5bf
00000020: dd8c 0c4d ecc6 b2bf 1bf3 584d 2fa1 a8bf
00000030: 76a9 50ba 5075 e03f 3743 5171 b778 c2bf
00000040: b0ec 0480 2d28 6a3f 7294 2ba6 e2b1 c13f
00000050: 6a85 54a1 5b4b c93f e077 0a1d b6f7 6e3f
00000060: 8a3b 752d a125 cb3f fcf2 0b2e 9c2c bc3f
00000070: a6a3 9db6 6b95 a6bf 2b6c 6f27 b794 bdbf
00000080: e4fc d1ac c51c ae3f a56c fcf1 0b27 a5bf
00000090: e242 5c45 6c9b a63f 4cb9 b935 ca10 57bf
000000a0: 4791 7ead fa76 a3bf eb5d 489e ca45 bd3f
000000b0: 85f5 ba21 7c7e b73f ef11 93fb cf52 c1bf
000000c0: 1326 f6e1 0822 bdbf 2aa7 ddc5 92eb af3f
000000d0: dc65 88ab d5bd c83f f60a 6d0e 54fa 54bf
000000e0: 3475 20a9 b951 b63f ab85 4b4c d35a 92bf
000000f0: 0000 0000 0000 0000 0000 0000 0000 0000
00000100: 0000 0000 0000 0000 0000 0000 0000 0000
00000110: 0000 0000 0000 0000 0000 0000 0000 0000
00000120: d96c db5f f553 b03f 0641 0cb2 fd6f 99bf
00000130: 60e5 22fe 7e6e aebf 3b2c c14a cbe1 a93f
00000140: 2118 aa84 08e5 cc3f 6418 eaf6 5544 d7bf
00000150: 6054 c442 b949 973f 18ac 62f4 56a5 9cbf
00000160: ff82 d767 9fb7 d43f cb0b a180 8870 a1bf
00000170: 74ec 8d49 e819 b3bf 24fc b492 4671 ac3f
00000180: 398d 9f53 e701 c73f d406 e6c1 58b9 91bf
00000190: 0ce4 24f0 501f f2bf bbd5 40a6 e1e7 c33f
000001a0: ca0c be61 ed00 d63f 63cc b986 f256 f13f
000001b0: 6af1 0005 feba b3bf 1ac0 f4b0 665f ddbf
000001c0: 9a01 ad98 81ef b63f a372 5e47 22ce b53f
000001d0: 6824 9370 c8d1 e13f b664 1862 8e86 9bbf
000001e0: 664e 62f7 699f e3bf bd91 a66a 77ef c8bf
000001f0: abb9 079d 61c9 8d3f a8a1 e482 ad3f d5bf
00000200: d5ee c630 a741 c13f 7948 95f7 0d51 b33f
00000210: 80bb 8cef f996 bc3f d6a9 6490 f6f5 a53f
00000220: 83eb 72a9 fba6 dabf 2df8 e51a 0fdb bb3f
00000230: b14d c9fc 6fe4 b0bf dbff 704e f432 e8bf
00000240: 9f58 d798 35ad b8bf 2fc4 0ba7 3f46 b7bf
00000250: aee4 151d 6f1f c8bf e63e cdfb 793b bebf
00000260: 0054 c209 5015 aa3f 95b4 7b31 5bf2 e0bf
00000270: ae20 e99e b564 c2bf 17d3 e1dd a348 ac3f
00000280: fcef f38f 308e e6bf ba5e e0c1 afa4 93bf
00000290: 57a7 4d3f 63a3 b7bf 6a31 250c 60a0 d5bf
000002a0: a932 2545 0740 ddbf 6c44 9b12 d51f c9bf
000002b0: c54b 1384 bf03 e4bf e528 80a9 ba79 cbbf
000002c0: b6e1 1282 43e5 b0bf c9a1 3333 7a38 e0bf
000002d0: 751e db59 90a9 d7bf f662 6ba9 7de5 aebf
000002e0: ac9b 14b9 7859 b4bf 1454 2741 c928 c2bf
000002f0: 0170 5f2c 70fa b5bf da53 c55a 3f56 e4bf
00000300: e5f6 70d5 f269 d3bf 0b20 553f 93a2 adbf
00000310: 325f f524 5734 e4bf 67f4 a510 218b c6bf
00000320: c6b2 4e09 6de8 c0bf 368c ee97 0ae5 d7bf
00000330: 4ec7 8770 193b eb3f ae0b 2c2a 1ab9 d13f
00000340: 9c33 babd b16f b7bf 3f7e 758d 5efd dfbf
00000350: 5989 b4ad 9e31 9b3f 9140 4dc8 3313 ab3f
00000360: 3bce 19f0 4c23 e13f 72d3 959f 3488 a73f
00000370: 3af5 a5db 3bc0 d1bf 80bb 8cef f996 bc3f
00000380: d4a9 6490 f6f5 a5bf 84eb 72a9 fba6 da3f
00000390: 2df8 e51a 0fdb bb3f b04d c9fc 6fe4 b03f
000003a0: dbff 704e f432 e83f 9f58 d798 35ad b8bf
000003b0: 2fc4 0ba7 3f46 b73f afe4 151d 6f1f c83f
000003c0: e53e cdfb 793b bebf 0154 c209 5015 aabf
000003d0: 95b4 7b31 5bf2 e03f af20 e99e b564 c2bf
000003e0: 18d3 e1dd a348 acbf fcef f38f 308e e63f
000003f0: bb5e e0c1 afa4 93bf 57a7 4d3f 63a3 b73f
00000400: 6a31 250c 60a0 d53f a932 2545 0740 ddbf
00000410: 6d44 9b12 d51f c93f c54b 1384 bf03 e43f
00000420: e728 80a9 ba79 cbbf b6e1 1282 43e5 b03f
00000430: c9a1 3333 7a38 e03f 751e db59 90a9 d7bf
00000440: f462 6ba9 7de5 ae3f ad9b 14b9 7859 b43f
00000450: 1654 2741 c928 c2bf 0170 5f2c 70fa b53f
00000460: da53 c55a 3f56 e43f e5f6 70d5 f269 d3bf
00000470: 0c20 553f 93a2 ad3f 325f f524 5734 e43f
00000480: 68f4 a510 218b c6bf c6b2 4e09 6de8 c03f
00000490: 368c ee97 0ae5 d73f 4ec7 8770 193b eb3f
000004a0: ae0b 2c2a 1ab9 d1bf 9d33 babd b16f b73f
000004b0: 3f7e 758d 5efd dfbf 5989 b4ad 9e31 9bbf
000004c0: 9040 4dc8 3313 abbf 3ace 19f0 4c23 e13f
000004d0: 74d3 959f 3488 a7bf 3cf5 a5db 3bc0 d13f
000004e0: bc39 470e 9ccc cebf 8709 c7c9 b163 01c0
000004f0: 7bd5 54bd e0ec 02c0 ddce 8c82 7d24 d5bf
00000500: 33b8 85b3 da8f b3bf ba2c 8562 9b39 adbf
00000510: 241b 665a 988c e03f d6bf bab9 ba77 c2bf
00000520: c0cb dd4a b3dd 58bf b956 e8cc 726f c13f
00000530: 6959 b10e 65fe c83f 2ab8 11e0 beb5 483f
00000540: 90d4 b1e6 0f3c cc3f 0173 4f79 517c ba3f
00000550: 3e0e e304 721b a7bf 16e3 1951 72db babf
00000560: 5e44 a95c d483 ae3f e17d a606 c535 a6bf
00000570: ec0e 573b c16e a53f 1b2d 85d3 3a4c 6abf
00000580: e6ea e52e e8b5 a3bf 2f23 ccb9 4739 ba3f
00000590: 98ed 5db5 81b8 b73f ea29 a8c6 369b bfbf
000005a0: 8e29 a364 db75 bbbf 5cd7 ef83 a4c2 ad3f
000005b0: 1f7a 9a33 6d37 c93f 479a b8fc 1273 4a3f
000005c0: a0db fd84 df5a b63f 1d67 59e4 a151 93bf
000005d0: 0000 0000 0000 0000 0000 0000 0000 0000
000005e0: 0000 0000 0000 0000 0000 0000 0000 0000
000005f0: 0000 0000 0000 0000 0000 0000 0000 0000
00000600: 66ee 8b9c d99a b13f 108c 37c4 08d0 9cbf
00000610: d810 8196 2e9e adbf 1608 8000 2dc7 a93f
00000620: ef24 ebc6 28dd cc3f e447 e91f 6c2f d7bf
00000630: 31fa b206 82e3 953f 0edd ddff 90ef 9ebf
00000640: 888e 6e2d 97c0 d43f 7c7c d81f e312 a3bf
00000650: 71c4 a024 4d5d b2bf 4459 ebf1 55d7 ac3f
00000660: cc77 7da8 d529 c73f 38eb 2100 2eee 93bf
00000670: 7a27 7e89 9f0d f2bf 99b3 749e f3cc c43f
00000680: 8bc2 e677 8fb4 d53f 8e3c de05 a350 f13f
00000690: f880 cf3c 7af0 b2bf 23d4 b9fa d51e ddbf
000006a0: 2c43 d132 182b b63f a6bc 23f7 0cd6 b63f
000006b0: 4262 4743 b0e8 e13f 6d55 896b db8e 94bf
000006c0: 12f5 b6d9 e4eb e3bf 187d 55da 8ca7 c9bf
000006d0: af16 e05d fb10 a03f 61bf 323a ddcc d5bf
000006e0: 748a 7fa4 ba69 c13f 0079 276d 43c4 b03f
000006f0: 80bb 8cef f996 bc3f d6a9 6490 f6f5 a53f
00000700: 83eb 72a9 fba6 dabf 2df8 e51a 0fdb bb3f
00000710: b14d c9fc 6fe4 b0bf dbff 704e f432 e8bf
00000720: 9f58 d798 35ad b8bf 2fc4 0ba7 3f46 b7bf
00000730: aee4 151d 6f1f c8bf e63e cdfb 793b bebf
00000740: 0054 c209 5015 aa3f 95b4 7b31 5bf2 e0bf
00000750: ae20 e99e b564 c2bf 17d3 e1dd a348 ac3f
00000760: fcef f38f 308e e6bf ba5e e0c1 afa4 93bf
00000770: 57a7 4d3f 63a3 b7bf 6a31 250c 60a0 d5bf
00000780: a932 2545 0740 ddbf 6c44 9b12 d51f c9bf
00000790: c54b 1384 bf03 e4bf e528 80a9 ba79 cbbf
000007a0: b6e1 1282 43e5 b0bf c9a1 3333 7a38 e0bf
000007b0: 751e db59 90a9 d7bf f662 6ba9 7de5 aebf
000007c0: ac9b 14b9 7859 b4bf 1454 2741 c928 c2bf
000007d0: 0170 5f2c 70fa b5bf da53 c55a 3f56 e4bf
000007e0: e5f6 70d5 f269 d3bf 0b20 553f 93a2 adbf
000007f0: 325f f524 5734 e4bf 67f4 a510 218b c6bf
