data/amass/ACCAD/Female1Walking_c3d/B20 - walk with box_poses.npz (npz, 688240 bytes, 5 tensors)

trans f8 [514, 3]
000000 09 3d c0 50 ee 56 ca 3f 61 07 89 fb 7a 7d e9 3f
       0.20577792113224572 0.7965674317167492
000010 11 c8 3f 95 53 dc ed 3f 64 f1 ee e4 61 59 ca 3f
       0.9331453242323297 0.2058527343596196
000020 06 87 e0 c8 b5 7a e9 3f 14 4d d5 2c 41 d7 ed 3f
       0.7962292598133167 0.9325261951111394
000030 08 c3 50 65 d7 5b ca 3f 45 e7 41 a4 ea 76 e9 3f
       0.20592777678532337 0.7957661827233343
000040 c9 70 88 77 d3 d4 ed 3f 91 21 7f 3b 99 5f ca 3f
       0.9322297415378894 0.20604243664844238
000050 97 5e 45 a8 dd 73 e9 3f 2e 47 d7 d6 f0 d2 ed 3f
       0.7953937803785774 0.9319996067153846
000060 57 0d 5d 42 c3 61 ca 3f 0d be 3d 53 f2 71 e9 3f
       0.20610848179249316 0.7951594949535675
000070 48 a7 8d 28 82 d1 ed 3f b4 90 d3 1e e3 63 ca 3f
       0.9318247596795368 0.2061733150977766
000080 b0 bf 47 5f 1c 70 e9 3f dd 05 45 8b 86 d0 ed 3f
       0.7949354039137599 0.9317047805890827
000090 4c d8 0a bd 68 64 ca 3f 83 79 3c 54 58 6e e9 3f
       0.20618924360832336 0.7947198529471254
0000a0 f3 6e 0a b8 3b d0 ed 3f d5 9f c2 11 e2 64 ca 3f
       0.9316691011949544 0.20620370738219998
0000b0 f0 89 64 10 0b 6e e9 3f 91 f3 11 17 17 d1 ed 3f
       0.7946830101175788 0.931773705538591
0000c0 5f 38 7b 49 12 63 ca 3f 39 53 cc 8d 52 6d e9 3f
       0.20614842021899712 0.7945950288290994
0000d0 f4 18 7c 5e db d0 ed 3f 7c 03 7d fe 08 68 ca 3f
       0.9317452283292185 0.20629990030468182
0000e0 e9 75 5f 70 ed 6a e9 3f a1 75 2a 67 30 d0 ed 3f
       0.794302672842318 0.9316637053449776
0000f0 1e 0c 5b 54 1b 6e ca 3f 65 a3 89 75 1e 68 e9 3f
       0.20648519152573014 0.7939598365456787
000100 a7 e8 a7 0f 1b d1 ed 3f 5a 6e f0 00 d7 78 ca 3f
       0.931775599077146 0.20681273980959497
000110 b2 95 81 3d 18 66 e9 3f 85 ca 05 c0 00 d1 ed 3f
       0.7937127305310041 0.9317630529825044
000120 46 69 59 9c bb 7f ca 3f f4 76 c3 02 85 62 e9 3f
       0.20702309736481989 0.7932763151145239
000130 ec 1b c1 f2 97 d0 ed 3f f3 38 fc 8f d0 81 ca 3f
       0.9317130795760682 0.20708663015870563
000140 cc ce fa 3f c9 5e e9 3f c3 a9 22 bd 41 d0 ed 3f
       0.7928205728153102 0.9316719717074239
000150 b1 66 52 b8 5e 83 ca 3f 3b bd 07 ed 51 5c e9 3f
       0.20713409423915644 0.7925195340630248
000160 ba de bb 59 e8 cf ed 3f a5 96 2d f9 d0 84 ca 3f
       0.9316293480505558 0.20717823187731202
000170 ea 32 da a0 67 5a e9 3f b2 50 2f 4b f9 cf ed 3f
       0.7922857419631246 0.9316374271825423
000180 6e b7 38 ba 1d 83 ca 3f fa 86 5c a5 31 56 e9 3f
       0.20712634651993816 0.7917717199054259
000190 97 1c 76 f1 5f cf ed 3f 7c b8 89 23 dc 84 ca 3f
       0.9315643039743858 0.20717956290485862
0001a0 c3 ad ab ae 7d 51 e9 3f 15 8e 11 c7 c5 cd ed 3f
       0.7911976253066587 0.9313687217767802
0001b0 8a c7 62 b6 48 86 ca 3f a3 cc a5 0d d4 4c e9 3f
       0.20722302346763072 0.7906284586482751
0001c0 43 31 c8 90 1d cd ed 3f 68 35 b4 7e 3e 86 ca 3f
       0.931288512017581 0.20722180544582192
0001d0 d0 11 58 c0 de 48 e9 3f 58 fe 7b f6 0f cc ed 3f
       0.7901452786177803 0.9311599554202514
0001e0 9c c7 80 42 0e 83 ca 3f f7 07 e7 a2 c4 45 e9 3f
       0.20712450263232263 0.7897666150749946
0001f0 58 ed f4 71 dc cb ed 3f 66 9a ea a9 60 80 ca 3f
       0.9311353898732859 0.20704277321529502
000200 46 e3 21 81 4a 41 e9 3f f3 da 8d eb 1f cc ed 3f
       0.7892200967899974 0.9311675644556473
000210 89 31 ff 5e db 7e ca 3f 6a c5 58 db 50 3b e9 3f
       0.2069963659145169 0.788490703975339
000220 e6 80 0d 5d 62 cd ed 3f 2c 08 4d df 4d 7f ca 3f
       0.9313213174282537 0.20701001551975773
000230 dc 3a 1e 75 7d 35 e9 3f 6b cf 54 d3 9d cf ed 3f
       0.7877795493567095 0.93159381175654
000240 a8 1f 29 14 8f 7e ca 3f a8 2e 04 f9 49 30 e9 3f
       0.206987271160185 0.7871446479416209
000250 b7 62 08 51 dc cf ed 3f 46 b0 2a bb 71 7c ca 3f
       0.9316236097975751 0.20692273749353002
000260 ac 14 61 98 29 29 e9 3f 04 da d9 e1 43 cf ed 3f
       0.7862747169644044 0.9315509234573374
000270 1f a4 8a 1f 94 7e ca 3f cb f9 a1 e1 8f 22 e9 3f
       0.2069878725062901 0.7854689986123103
000280 ff f8 ac 10 16 ce ed 3f 00 eb cd 7d f1 7b ca 3f
       0.9314070058533445 0.20690745013038025
000290 d2 cd b4 ff 8c 1c e9 3f f7 28 87 e6 60 ce ed 3f
       0.7847352022421836 0.9314426901339904
0002a0 91 0b fe fd 71 79 ca 3f b3 8d e5 fa d2 15 e9 3f
       0.20683121587725542 0.7839140796972316
0002b0 0c 47 b0 29 92 ce ed 3f 1b 1e 06 7b 9a 77 ca 3f
       0.9314661802511366 0.206775007314932
0002c0 4f c5 90 74 87 0c e9 3f 91 c8 f4 3a 95 cd ed 3f
       0.7827794338865405 0.931345572613525
0002d0 4d c5 44 51 93 78 ca 3f 8b 3c 9d d4 63 04 e9 3f
       0.20680467098422142 0.7817858841534798
0002e0 4b 95 18 d8 6c cd ed 3f ff c9 c8 eb e4 7d ca 3f
       0.9313263149858043 0.20696698677927824
0002f0 e0 4f 76 57 2f fd e8 3f eb 64 83 ba 76 ce ed 3f
       0.7809063633198967 0.9314530985676844
000300 a4 73 f5 4c 6f 82 ca 3f 38 be 77 ff ad f4 e8 3f
       0.20710555322412205 0.7798681249241275
000310 48 c3 c7 4b a0 ce ed 3f 67 7a 20 b1 84 7a ca 3f
       0.9314729194721645 0.20686396263859594
000320 c3 39 38 46 b6 eb e8 3f 23 7c d5 b1 38 ce ed 3f
       0.7787734385945487 0.9314235184973579
000330 48 66 0a b7 41 6d ca 3f c9 a3 a7 0a a9 e3 e8 3f
       0.20645924985437802 0.7777905662634278
000340 cf cf c2 5f 94 cd ed 3f 12 61 cc ef 75 62 ca 3f
       0.9313451643306453 0.20612978180793867
000350 23 aa c2 32 c9 da e8 3f cf 15 e3 2f 5b cc ed 3f
       0.7767072669424276 0.9311958251279807
000360 75 2c b0 3d 22 5a ca 3f 1a 8e b7 95 ff d0 e8 3f
       0.20587566387289127 0.775512497345008
000370 03 8a bc 44 e6 ca ed 3f 1a 55 f5 69 e3 51 ca 3f
       0.9310180037030594 0.20562403367754528
000380 a1 48 12 57 76 c6 e8 3f 6f f1 58 3f 8e c8 ed 3f
       0.7742263508428274 0.9307318913702555
000390 c2 0f f7 03 22 4a ca 3f 79 e0 7f 0f e7 ba e8 3f
       0.20538735574348094 0.7728152563786487
0003a0 35 41 3f 3a f4 c5 ed 3f 4c a2 7e 26 8d 42 ca 3f
       0.9304143083227588 0.20515598659155143
0003b0 32 8b d8 65 90 b0 e8 3f f9 09 f1 74 ba c5 ed 3f
       0.7715532292535043 0.9303867610945523
0003c0 9f 77 00 91 4e 40 ca 3f 44 9b f4 6c bf a6 e8 3f
       0.20508749084632158 0.7703549507176395
0003d0 69 52 ed 41 4f c6 ed 3f 9b cb fa 43 98 40 ca 3f
       0.9304577148091769 0.20509627646751202
0003e0 ce 50 4d 03 39 9a e8 3f 02 e9 6b d1 5e c6 ed 3f
       0.7688260139934984 0.9304651346458572
0003f0 b7 a1 db 2c 70 3c ca 3f 9c 14 89 24 d1 8d e8 3f
       0.20496942701653406 0.7673116410811818
000400 9c c6 1b b8 da c5 ed 3f 32 90 dd 39 82 35 ca 3f
       0.9304021449917914 0.2047579557939812
000410 c8 0d 52 f0 da 81 e8 3f c9 ff 1a 75 e8 c4 ed 3f
       0.7658514684448443 0.9302866255966303
000420 2a c2 e6 59 21 2d ca 3f 61 68 9c 50 5e 75 e8 3f
       0.20450226678578193 0.764327199404999
000430 9c 46 75 b3 d9 c3 ed 3f 77 4e f5 64 ba 1e ca 3f
       0.9301575188676057 0.2040627472839451
000440 92 64 1f b0 20 6b e8 3f ba 00 f8 9e 20 c3 ed 3f
       0.7630771102805218 0.9300692658289542
000450 91 a6 d1 21 2a 12 ca 3f 4a 94 94 ed 05 62 e8 3f
       0.20367933894458592 0.7619657173387477
000460 e5 76 7e 0e 97 c2 ed 3f 2b 3b a5 5a e4 06 ca 3f
       0.9300036700330706 0.2033353273968371
000470 09 72 dc a0 72 57 e8 3f 18 0a 50 04 f9 c1 ed 3f
       0.7606747762507108 0.9299283107978367
000480 e2 12 3f 01 67 fe c9 3f b6 a3 86 53 b0 4b e8 3f
       0.20307624398096552 0.7592393523565224
000490 0d 80 f3 44 89 c1 ed 3f c7 fe fb 19 db f7 c9 3f
       0.9298750254347411 0.20287646073119545
0004a0 a2 3c e8 e6 b8 40 e8 3f 5b 1e 3d 26 d4 c0 ed 3f
       0.7579006681352392 0.9297886607027509
0004b0 02 eb 32 22 79 f2 c9 3f f3 8a ab 3e ae 31 e8 3f
       0.20271219415538871 0.7560645317101645
0004c0 f5 40 1e 20 6c c0 ed 3f 49 15 33 3d 6a f1 c9 3f
       0.9297390582378556 0.2026799010110756
0004d0 4f 53 3b c1 46 21 e8 3f 3b f2 c9 24 4c bf ed 3f
       0.7540620588357373 0.9296017378361009
0004e0 20 4d 7d 67 a4 e8 c9 3f 8e 74 39 4a 34 13 e8 3f
       0.2024121766395206 0.7523442697235099
0004f0 e2 b9 58 cf 07 bf ed 3f 12 47 6d 54 43 e0 c9 3f
       0.9295691537607207 0.20215646383672287
000500 75 f1 e8 00 84 07 e8 3f 53 81 6b 67 45 c0 ed 3f
       0.7509174363872676 0.9297205943985695
000510 c4 86 1a db 26 d7 c9 3f 09 06 b9 0c 27 fa e7 3f
       0.20187841127795114 0.7492861984721354
000520 42 43 30 e6 50 c0 ed 3f 41 63 e1 2c d3 cc c9 3f
       0.9297260757321981 0.2015632599966697
000530 bb 96 82 29 94 ed e7 3f ef 44 4c ef 5a bf ed 3f
       0.7477513132805237 0.9296087907588609
000540 e2 5d f7 60 29 bf c9 3f e7 47 a2 6b 1d e1 e7 3f
       0.20114629015618762 0.7462298490738676
000550 cb f8 15 61 a0 be ed 3f bd f0 8f 8e 87 b3 c9 3f
       0.9295198341567582 0.2007913061241932
000560 7a df 27 66 57 d2 e7 3f e9 f1 11 33 9a be ed 3f
       0.7444264407376828 0.9295168874228327
000570 73 ea 08 d4 65 a9 c9 3f 5b cf 3b af dd c5 e7 3f
       0.20048210957778032 0.7429035589725389
000580 e4 4b 1a af f9 bd ed 3f ed 07 15 78 2a 98 c9 3f
       0.9294403476691255 0.1999562345827707
000590 cd 8b 66 70 51 b9 e7 3f ce da 27 39 e0 bc ed 3f
       0.7413718409846922 0.9293061367341922
0005a0 eb ba 46 ae 18 87 c9 3f ac 6e ab 50 eb ab e7 3f
       0.1994353152235456 0.7397362304286239
0005b0 3c fd 1a 51 35 bc ed 3f cd 6b 28 5e 30 7a c9 3f
       0.9292246421900141 0.199041410422835
0005c0 26 ef db e9 74 9f e7 3f 77 38 cc db 56 bb ed 3f
       0.7382149283944031 0.9291185658382933
0005d0 35 71 fc 41 81 77 c9 3f f1 80 69 28 2f 92 e7 3f
       0.19895950052240044 0.7365947522448818
0005e0 ab 08 ed 76 c7 b9 ed 3f d6 77 67 dc ee 76 c9 3f
       0.9289281199237583 0.1989420486633537
0005f0 cd ee 61 2f ff 84 e7 3f c9 f2 e9 d8 38 b8 ed 3f
       0.7349849629822188 0.9287380444144101
000600 c9 03 1c 3f 30 6f c9 3f 20 60 07 6f a1 79 e7 3f
       0.19870570260539314 0.733597485402246
000610 cd fe cc d8 d9 b7 ed 3f 83 cb 0e 4e 81 60 c9 3f
       0.9286927446737195 0.19825760184684435
000620 3f 3a 42 7a b9 6f e7 3f 7c 28 bc c7 aa b6 ed 3f
       0.7323882472863444 0.9285482312273099
000630 9b 93 31 32 02 50 c9 3f d3 4f 0b 3d c7 65 e7 3f
       0.19775416804182275 0.7311741058606408
000640 2a a1 8d 7b 19 b4 ed 3f d5 d8 6c 41 02 3e c9 3f
       0.928234807314799 0.19720485872830432
000650 a6 f6 83 25 af 5b e7 3f 3d ba 81 b7 ae b1 ed 3f
       0.7299419148182167 0.9279397567859814
000660 25 a1 22 2c 7f 27 c9 3f ee b9 98 70 fb 51 e7 3f
       0.19651784567873523 0.7287575911666957
000670 f2 e0 6b ce 59 ad ed 3f ef ab fa 2b 5c 0e c9 3f
       0.9274109870594016 0.19575073382779304
000680 38 ed fb af ce 47 e7 3f 67 23 48 b7 3f ab ed 3f
       0.7275155484379985 0.9271544055674042
000690 09 c5 af 47 a7 fb c8 3f 1b d2 ec 84 38 3e e7 3f
       0.19517985344240454 0.7263453098481166
0006a0 71 e9 89 30 93 aa ed 3f 77 9e 6d 4b 4a ec c8 3f
       0.927072138597664 0.1947110050489191
0006b0 8b 42 c5 e7 94 34 e7 3f a7 16 b9 f8 9e aa ed 3f
       0.7251686598556984 0.9270777566786891
0006c0 71 8a b7 f5 1e e2 c8 3f 5d 71 99 1e 6d 29 e7 3f
       0.19440066335581066 0.7238069150585421
0006d0 17 14 dd bc 40 a5 ed 3f e2 05 48 3a 45 c5 c8 3f
       0.9264224709264707 0.1935202154709677
0006e0 11 ce 52 4b b9 1c e7 3f 4d 98 ad 77 b4 a4 ed 3f
       0.722256323925139 0.9263555848563186
0006f0 18 c7 9c b9 93 9d c8 3f 16 c0 16 0f 84 11 e7 3f
       0.1923088699637041 0.7208881659225905
000700 b6 b5 12 74 99 a4 ed 3f 00 8f 04 b1 f4 70 c8 3f
       0.9263427035381742 0.19094713824699028
000710 5d cc f1 3c dd 06 e7 3f ea 4a f3 18 c7 a5 ed 3f
       0.719587916404986 0.9264865386306529
000720 47 06 2c df 17 45 c8 3f e9 4e 74 67 1f fc e6 3f
       0.18960855862683187 0.7182766934006085
000730 8c 1b 1b 4c 2c a7 ed 3f 2f e6 87 de 17 20 c8 3f
       0.9266568647807261 0.18847940793766457
000740 4c d2 61 79 87 f3 e6 3f 09 bc d5 c9 95 a8 ed 3f
       0.7172276850456654 0.9268292371833705
000750 23 55 65 e1 70 fe c7 3f 9c 31 16 52 44 e9 e6 3f
       0.1874524212422922 0.7159749606376411
000760 5f 73 69 b5 6d aa ed 3f b3 f6 ae 09 f3 de c7 3f
       0.9270542662812707 0.18649137471031949
000770 59 0e 9a 77 3d db e6 3f 07 6f ae 0b 1a ac ed 3f
       0.7142627082798284 0.9272585132743821
000780 90 48 64 38 5c a9 c7 3f f1 b5 42 0d 0a ce e6 3f
       0.1848559642172103 0.7126512774463533
000790 6b a2 88 ea 55 ae ed 3f 9f 25 b0 13 03 6c c7 3f
       0.9275312023865586 0.18298376523334256
0007a0 14 6a ca 32 49 c2 e6 3f ae a5 62 6a 27 b0 ed 3f
       0.7112165443425646 0.9277531698073085
0007b0 d1 c2 f9 58 6d 27 c7 3f 32 35 bf 29 1b b7 e6 3f
       0.18089072079194193 0.7098518195504424
0007c0 bf 58 0e 97 71 b1 ed 3f 82 18 5c a1 29 f0 c6 3f
       0.9279106092751802 0.17920418146986
0007d0 da 1d b2 07 db ab e6 3f 2f b0 32 8d 72 b3 ed 3f
       0.7084784651096314 0.9281552083753065
0007e0 3f 0a e6 a2 b8 d9 c6 3f 39 49 81 52 ff 9b e6 3f
       0.17851932481797125 0.7065426455904237
0007f0 dc 73 15 8b fe b5 ed 3f 1b 4a aa 2a 06 a7 c6 3f
       0.9284661022644474 0.17697217067014112

mocap_framerate f8 []
000000 00 00 00 00 00 00 5e 40
       120.0

betas f8 [16]
000000 67 df 5b 43 06 34 e8 3f 25 68 3f 29 dd ab e1 bf
       0.7563506427386358 -0.5522294812792593
000010 c4 c8 48 6a 80 40 ed bf aa 14 4e c9 07 a4 f7 bf
       -0.9141237331262109 -1.4775464881397888
000020 77 6e ea 71 45 8e 89 bf 0f 82 ae 08 60 94 e5 3f
       -0.01247839216130518 0.6743621987880618
000030 6f b3 51 c9 e5 de e8 bf 29 f7 f6 44 7e 01 d7 3f
       -0.7772091800703559 0.359466140125607
000040 df 36 cb cf ff 00 00 c0 d9 14 4d 23 97 b1 06 c0
       -2.0004879220858665 -2.8367140539072406
000050 95 f3 20 42 d8 34 03 c0 fe 19 17 31 3b 45 05 c0
       -2.4008031050020215 -2.6588043055701283
000060 5c 4d 9d 1f e5 00 f8 bf a7 f3 c4 df 44 d5 f1 bf
       -1.5002185091915043 -1.1145676365842776
000070 71 8b f6 35 22 1d f8 3f 21 47 72 31 77 67 e0 bf
       1.507112704079841 -0.5126300779104193

dmpls f8 [514, 8]
000000 45 e3 a3 5d 35 05 f3 bf 26 33 6c 7c 1e 95 d8 3f
       -1.1887715967006482 0.3841015067162509
000010 4f c3 08 76 1a 2d da bf b5 6c 48 29 34 d1 e2 bf
       -0.4090028908422498 -0.5880375677401363
000020 48 69 bb 07 fb 75 f2 3f 9c bb e4 06 fa 45 e2 3f
       1.1538038541826428 0.5710420736921722
000030 68 67 c2 00 fe 1a de 3f 5a 8f 6c 6b 1b 5d ab bf
       0.4703974730888292 -0.05344472585991751
000040 09 41 f8 0c 2e 72 f5 bf a0 de c2 86 93 6f df 3f
       -1.34037594858461 0.4911850753810345
000050 2e 35 b6 4b 5c 1a da bf 91 cd 1f a2 ec 9e e4 bf
       -0.4078589190838383 -0.6443999449242473
000060 37 e1 56 ca 45 c0 f3 3f 6d 98 0e 9b 0f 60 e3 3f
       1.234441557300739 0.6054761913735668
000070 75 b0 55 43 84 74 e0 3f da a9 83 a4 83 b5 b0 bf
       0.5142232241755794 -0.06526968733275088
000080 de 64 00 50 26 48 f7 bf 73 0c e4 d3 c8 72 e1 3f
       -1.455114662652981 0.5452617777340393
000090 d5 51 b5 35 68 a4 da bf 71 4e ae b3 f6 63 e6 bf
       -0.4162846111769601 -0.6997025975601457
0000a0 63 70 05 a0 9d 2e f5 3f aa 96 ad 18 ca 6f e4 3f
       1.3238807917432716 0.6386461717599634
0000b0 5f a7 8a 83 6c b7 e1 3f 25 70 86 86 7c b3 b1 bf
       0.5536406106159396 -0.0691449955397166
0000c0 aa 3f d9 6e 38 d8 f8 bf 60 a9 d8 b5 9a 8a e2 3f
       -1.552788193705036 0.5794194747625561
0000d0 f1 32 1a 0a 70 ff da bf 60 27 c7 c8 4d c9 e7 bf
       -0.4218406771331465 -0.7433232232517462
0000e0 a0 41 29 54 cc 75 f6 3f 1d cf 87 c0 ba 77 e5 3f
       1.4037593162102908 0.6708654175149352
0000f0 f1 3e 4d dc b7 b1 e2 3f b1 4f 0f 63 47 1e b4 bf
       0.5841941168564216 -0.07858701866581332
000100 99 68 1c 25 48 3e fa bf 33 15 7d 88 d1 ed e2 3f
       -1.6402055215499216 0.591530577258402
000110 25 cb 8d 15 dd 66 db bf 89 98 57 a3 eb d1 e8 bf
       -0.4281532965170974 -0.7756250562931807
000120 52 6e 45 fe 0a 9c f7 3f af c6 47 ab 03 84 e6 3f
       1.475596421477253 0.703615030796035
000130 9b e7 0f ce 00 ab e3 3f d2 cb 0d cc fc 8c b7 bf
       0.6146244072581227 -0.09199504834923225
000140 a7 63 68 13 54 98 fb bf 50 51 60 e9 5d a1 e2 3f
       -1.7246895559421576 0.5821981008653356
000150 ed 52 fe a2 1c 9b dc bf 60 fe d8 be e2 49 e9 bf
       -0.446967276738447 -0.7902692534916689
000160 a1 fe 99 69 5c 95 f8 3f bc f2 e2 54 b0 7c e7 3f
       1.5364650845585077 0.7339708002033016
000170 f0 6f f1 7c 12 5a e4 3f d8 93 31 bc c6 56 bb bf
       0.6359951439185334 -0.10679285139629202
000180 c8 1e a9 75 42 cd fc bf c2 f4 6d d6 ff 59 e2 3f
       -1.8001122089498711 0.5734862506939395
000190 8e e7 6f 55 60 ec dd bf e9 02 99 01 db 9c e9 bf
       -0.46755226462811883 -0.8003973990635959
0001a0 32 e4 93 25 83 56 f9 3f 0e 63 fc 39 b5 ff e7 3f
       1.5836211650732932 0.7499643452202649
0001b0 60 e3 8a 87 b2 a9 e4 3f f7 40 20 5c 6d 31 c0 bf
       0.6457150122942998 -0.12650839804019373
0001c0 1e 3f b7 e4 c9 33 fd bf 77 67 09 e5 fd 32 e2 3f
       -1.825143712445374 0.5687245820401888
0001d0 35 24 36 c5 1e 5a de bf fe b0 cb dc 81 b2 e9 bf
       -0.47425050028738563 -0.8030404388823909
0001e0 3d 85 cb d0 4c 93 f9 3f 33 96 b6 dc bd 00 e8 3f
       1.5984619289450415 0.7500905333333264
0001f0 1f 23 63 ad a9 c3 e4 3f e8 30 cb 57 cc fa c0 bf
       0.6488846193761652 -0.1326537541084527
000200 5a b5 ee c5 06 93 fd bf 25 d3 26 7e 6a f5 e1 3f
       -1.8483951312767517 0.5612080062770458
000210 d8 39 42 eb fb e9 de bf 4b b1 08 28 e4 b0 e9 bf
       -0.48303125357133814 -0.8028431684411229
000220 0c 5f 0f 66 7a d4 f9 3f 89 86 4b ed e5 f2 e7 3f
       1.6143745409698935 0.7484006533306494
000230 f6 53 ad ff 48 ef e4 3f 1a d3 d4 58 ad 69 c1 bf
       0.6542096131985307 -0.1360375102755363
000240 5d 86 58 f2 56 ec fd bf 95 19 55 8f 5c 9d e1 3f
       -1.8702001062996694 0.5504591750584945
000250 7f 78 75 80 52 6f df bf 3f 28 41 20 be a2 e9 bf
       -0.49116957230388175 -0.8011160497637845
000260 3e 21 f8 f0 28 17 fa 3f 9b 87 27 62 4e d9 e7 3f
       1.6306542790280925 0.745276633937681
000270 c0 b3 e5 32 b9 14 e5 3f a7 cc cb 2b 1c e4 c1 bf
       0.6587797159278281 -0.13977386606675177
000280 8e 0e 38 a0 67 bf fe bf 9a 58 9a 13 9f 98 e0 3f
       -1.9217296846917722 0.5186305411214278
000290 40 65 f7 ea 15 74 e0 bf 51 ab 22 53 f4 c3 e9 bf
       -0.5141706074893264 -0.8051702140559006
0002a0 9d fa f8 c6 56 a9 fa 3f ef fc ff 5d a3 5f e7 3f
       1.6663425228468107 0.730424579232844
0002b0 6e 58 a7 aa 26 68 e5 3f 7f 41 3a d7 57 cc c3 bf
       0.6689637501792853 -0.15467355736883445
0002c0 a8 7d 8a 42 da 86 ff bf 7a 12 8f b8 48 25 e0 3f
       -1.9704229926354433 0.5045512776055852
0002d0 b1 37 db 49 12 47 e1 bf cf 3d 40 83 fa bc e9 bf
       -0.5399257128244611 -0.8043186725134833
0002e0 e4 06 6f 06 f0 47 fb 3f dc b8 4e 56 1b bd e6 3f
       1.7050628901783336 0.710584324426033
0002f0 67 fc 17 4f 7a 95 e5 3f 3f b4 81 01 81 87 c5 bf
       0.6744967980192883 -0.1681977517468187
000300 36 31 e7 db 49 e0 ff bf 9f b9 a2 d5 2f 06 e0 3f
       -1.9922579374279628 0.5007552311488331
000310 3b 32 d6 0d 71 9e e1 bf 33 38 3f 97 11 d9 e9 bf
       -0.5505910177467465 -0.8077476457635896
000320 f6 e6 31 49 b4 87 fb 3f bd 31 9f 13 99 84 e6 3f
       1.7206309184243174 0.7036862738837538
000330 6e da 8f dc 93 89 e5 3f 2b 96 ed 99 9d 85 c6 bf
       0.6730441387033588 -0.17595262542742893
000340 3a 31 e7 db 49 e0 ff bf 9c b9 a2 d5 2f 06 e0 3f
       -1.9922579374279636 0.5007552311488328
000350 3f 32 d6 0d 71 9e e1 bf 36 38 3f 97 11 d9 e9 bf
       -0.5505910177467469 -0.8077476457635899
000360 f8 e6 31 49 b4 87 fb 3f bc 31 9f 13 99 84 e6 3f
       1.7206309184243178 0.7036862738837537
000370 6d da 8f dc 93 89 e5 3f 38 96 ed 99 9d 85 c6 bf
       0.6730441387033587 -0.1759526254274293
000380 70 57 59 ee 1e 4c 00 c0 7b ee 85 e8 22 31 df 3f
       -2.037168371297348 0.48737404544201696
000390 8b 81 00 16 1e 7e e2 bf 3f 33 40 06 50 1a ea bf
       -0.5778952054716212 -0.8157119867406449
0003a0 69 e5 27 ec 65 f0 fb 3f 3f ae 12 49 f0 56 e6 3f
       1.7461909508550326 0.6981126239019843
0003b0 70 7a 67 fc ce 8a e5 3f 29 42 80 d3 4f c2 c7 bf
       0.673194401719071 -0.18561742617795687
0003c0 72 57 59 ee 1e 4c 00 c0 73 ee 85 e8 22 31 df 3f
       -2.0371683712973487 0.4873740454420165
0003d0 93 81 00 16 1e 7e e2 bf 42 33 40 06 50 1a ea bf
       -0.5778952054716221 -0.8157119867406453
0003e0 6a e5 27 ec 65 f0 fb 3f 3d ae 12 49 f0 56 e6 3f
       1.7461909508550328 0.698112623901984
0003f0 71 7a 67 fc ce 8a e5 3f 32 42 80 d3 4f c2 c7 bf
       0.6731944017190711 -0.18561742617795712
000400 48 b9 80 3c 31 58 00 c0 65 16 23 ac b5 20 df 3f
       -2.043062660864198 0.4863714390779477
000410 7d e0 cf 2d d3 a0 e2 bf 6a cc 20 06 a1 21 ea bf
       -0.5821319479719161 -0.816605102509482
000420 a9 28 0d c1 7b f9 fb 3f 4e f4 84 dd 9d 58 e6 3f
       1.7484090367384317 0.6983174635457858
000430 c7 72 62 ca 56 8c e5 3f 0a 9f 99 7d 51 e5 c7 bf
       0.6733812287162316 -0.18668573983017495
000440 b1 ea 61 d9 3d ab 00 c0 f0 1f 5a 84 11 cc de 3f
       -2.083614061642344 0.4812053482532965
000450 7d 48 94 40 39 c3 e3 bf 9e bd 5f fc 56 e8 e9 bf
       -0.6175810109437091 -0.8096117905787883
000460 56 ec 9d e6 38 3a fc 3f 06 d7 4c be 12 79 e6 3f
       1.7642144211265722 0.7022794453430101
000470 60 5d c7 a2 63 95 e5 3f 9a 87 a9 90 2c 2f c8 bf
       0.6744859866402457 -0.18893963874421332
000480 35 c9 a3 c1 6a d3 00 c0 2a a0 49 ff 3a 77 de 3f
       -2.1032309654339323 0.47602724962644294
000490 e0 14 10 23 19 5c e4 bf 27 7c 0f 2a 87 b5 e9 bf
       -0.6362424549885439 -0.8034091779226217
0004a0 b4 68 f0 68 dc 6d fc 3f 4a 7d 3d b0 98 7a e6 3f
       1.7768215274032118 0.7024653856459875
0004b0 dd 64 99 28 c9 76 e5 3f 1e cc f0 6c ee 28 c8 bf
       0.670750216765693 -0.1887491256653399
0004c0 ba 92 83 83 a6 0e 01 c0 e7 02 77 ad 61 f5 dd 3f
       -2.1321535372283877 0.468101901435189
0004d0 b2 6e 84 7a 66 de e4 bf f6 01 4a af 7d 42 e9 bf
       -0.6521484749714175 -0.7893665717711531
0004e0 da 6d 59 2f f5 e3 fc 3f 6f cf 23 48 68 99 e6 3f
       1.8056537484725284 0.706226483247958
0004f0 ba 64 c8 35 44 47 e5 3f aa 4d d8 80 b1 76 c7 bf
       0.6649495172925051 -0.1833097342610988
000500 43 b4 12 4e 8d 4b 01 c0 b7 f9 a4 28 52 2f dd 3f
       -2.1618906115968755 0.4560132405203165
000510 8e 3c c3 dd 02 d1 e4 bf b9 e4 f7 85 93 f6 e8 bf
       -0.6505140620519272 -0.7800996414727229
000520 dc 27 3f 55 02 75 fd 3f fc bc c8 c7 c6 c9 e6 3f
       1.8410666780423446 0.7121309186967717
000530 6f 9f 86 bc 5a 68 e5 3f 20 fd e9 6d bd 4b c6 bf
       0.668988579001036 -0.1741864000978035
000540 47 05 5e c9 95 4b 01 c0 b8 76 4d ab 4a 2f dd 3f
       -2.161906788999349 0.45601145485657524
000550 c9 86 90 b1 ed d0 e4 bf a1 91 3f d7 a0 f6 e8 bf
       -0.6505039661462543 -0.7801059917515439
000560 bb 87 ce 1f 17 75 fd 3f 97 61 ab 2d ca c9 e6 3f
       1.8410865061236865 0.7121325389844512
000570 43 36 96 e0 5e 68 e5 3f 45 ad 0a 69 a8 4b c6 bf
       0.6689905535183204 -0.17418389443387575
000580 ed ca df 17 51 66 01 c0 c1 63 69 02 66 71 dc 3f
       -2.1749593606158357 0.44442129359736887
000590 5f 18 39 df c6 bf e4 bf a0 e7 8e 8f 80 64 e9 bf
       -0.6484102592301147 -0.7935183338042755
0005a0 57 52 24 0c 3f c8 fd 3f 46 bb e6 8f a8 87 e6 3f
       1.8613882517139666 0.7040598688671273
0005b0 51 0a 72 78 13 78 e5 3f c5 be 6d c3 72 29 c6 bf
       0.6709077217531761 -0.17313990156571016
0005c0 3a 03 5a 60 3c 7f 01 c0 50 af 83 05 da 25 db 3f
       -2.1871268775434176 0.4241852811671736
0005d0 91 67 f4 cf d7 26 e5 bf a8 cf 40 45 55 f8 e9 bf
       -0.6609915792098368 -0.8115640976525258
0005e0 30 54 f4 5d 93 26 fe 3f 80 ab d0 7e 63 f0 e5 3f
       1.8844178838819623 0.6855943180902244
0005f0 ab 59 f0 e9 32 63 e5 3f 08 7b e1 24 7a 5e c6 bf
       0.6683592385405083 -0.17475821305102834
000600 3a 03 5a 60 3c 7f 01 c0 50 af 83 05 da 25 db 3f
       -2.1871268775434176 0.4241852811671736
000610 91 67 f4 cf d7 26 e5 bf a8 cf 40 45 55 f8 e9 bf
       -0.6609915792098368 -0.8115640976525258
000620 30 54 f4 5d 93 26 fe 3f 80 ab d0 7e 63 f0 e5 3f
       1.8844178838819623 0.6855943180902244
000630 ab 59 f0 e9 32 63 e5 3f 08 7b e1 24 7a 5e c6 bf
       0.6683592385405083 -0.17475821305102834
000640 a0 38 ca 43 25 88 01 c0 13 ed 99 f5 3b b0 da 3f
       -2.1914773269737253 0.41700648293017756
000650 ab 75 36 2b 25 87 e5 bf d0 9e f1 2e 6b e9 e9 bf
       -0.672747215652341 -0.8097434918281241
000660 04 ff bb 9e ee 79 fe 3f 06 e0 40 87 81 68 e5 3f
       1.904768581443876 0.6690070764225318
000670 21 c6 3d 58 e7 83 e5 3f 14 bf 33 6b 15 73 c5 bf
       0.6723515246832826 -0.16757457479933946
000680 d3 f5 00 a9 8a 92 01 c0 96 71 67 90 20 9e da 3f
       -2.196553535787396 0.41590131856880797
000690 88 df 30 b4 1c 6e e5 bf 93 47 1f 33 e9 de e9 bf
       -0.6696914214471557 -0.8084608076553529
0006a0 c4 62 0c e0 21 be fe 3f d2 20 f2 23 13 1e e5 3f
       1.9214190246477054 0.6599212362353006
0006b0 63 e2 01 bd a0 cc e5 3f e3 b2 5b dc 88 d7 c4 bf
       0.681228989748956 -0.16282759437253622
0006c0 9a 49 51 de d6 9c 01 c0 50 cd 7c ab 89 63 da 3f
       -2.201581704002092 0.4123253035242742
0006d0 db db 9f 54 d1 2f e5 bf 2b e7 da 5e e4 db e9 bf
       -0.6620871212788829 -0.8080922939909433
0006e0 fa f7 a0 7c e3 f6 fe 3f 2a 56 cb c9 00 c3 e4 3f
       1.9352755420982235 0.6488040868086433
0006f0 a2 97 9b e8 32 2d e6 3f 77 d3 1d 31 f8 23 c5 bf
       0.6930174391861679 -0.1651602020098399
000700 9a 49 51 de d6 9c 01 c0 50 cd 7c ab 89 63 da 3f
       -2.201581704002092 0.4123253035242742
000710 db db 9f 54 d1 2f e5 bf 2b e7 da 5e e4 db e9 bf
       -0.6620871212788829 -0.8080922939909433
000720 fa f7 a0 7c e3 f6 fe 3f 2a 56 cb c9 00 c3 e4 3f
       1.9352755420982235 0.6488040868086433
000730 a2 97 9b e8 32 2d e6 3f 77 d3 1d 31 f8 23 c5 bf
       0.6930174391861679 -0.1651602020098399
000740 16 d0 70 df b3 b0 01 c0 f3 bc 1a 2e e7 ce da 3f
       -2.211280580168032 0.41887835981738347
000750 b6 8a e2 b6 1e 71 e4 bf dd 65 a2 6b fc 2f e9 bf
       -0.6388085910769721 -0.7871076681359984
000760 42 54 76 77 80 41 ff 3f b1 2a 02 42 97 b1 e4 3f
       1.953491655968961 0.6466785706737338
000770 04 30 6a 0b 8b 64 e6 3f 3d 3b 33 d0 f8 cd c5 bf
       0.6997733328767031 -0.17034826437017073
000780 e8 9a e2 7a e7 bc 01 c0 77 94 36 d8 87 c6 da 3f
       -2.217238388100089 0.4183673488099155
000790 74 e0 8e 06 a4 e9 e3 bf 6c 6b 95 f2 e6 b5 e8 bf
       -0.6222705963218815 -0.7722048509561836
0007a0 74 fc 18 b0 d0 9b ff 3f b1 36 56 9f dc 74 e4 3f
       1.9755408171475013 0.6392653572126702
0007b0 b3 d1 8e 4c a9 a7 e6 3f 45 0a f8 e5 4c 43 c6 bf
       0.7079664702674137 -0.173928844727998
0007c0 f2 8e 03 ed 13 c1 01 c0 71 40 e6 6c ea b0 d9 3f
       -2.2192762867651874 0.4014230788679987
0007d0 e3 56 69 e9 4c 37 e4 bf 37 29 15 6f ca a9 e8 bf
       -0.6317505415742882 -0.7707264108260351
0007e0 f8 e9 2a b4 ec ce ff 3f cf 73 fa 1b 46 f9 e3 3f
       1.9880187070654056 0.6241789385272741
0007f0 5d 12 9f c6 fd 91 e6 3f 6a 68 bb 60 b6 b2 c7 bf
       0.7053212050746641 -0.18514137004132475

poses f8 [514, 156]
000000 2a cf 9f 47 1f 32 f5 3f c1 33 3d 18 de 1c e8 bf
       1.3247368619749502 -0.753523871747909
000010 45 3d f5 47 6c 3d ec bf 9a e1 67 f4 39 9b c2 3f
       -0.8824979215077425 0.1453621333491924
000020 2f 5e 57 10 aa af a1 3f e7 6d f3 da f0 0a a1 bf
       0.03454333734015013 -0.03328659699192454
000030 35 44 d8 4d 0c 0e ba 3f f0 a7 cc 97 6b 33 97 bf
       0.10177685642726504 -0.022657090320684803
000040 80 d1 70 f4 08 81 3a 3f 2d b9 a5 91 50 80 9c 3f
       0.0004044195997636932 0.027833231820687466
000050 05 98 84 d9 23 1c 8d 3f 79 47 38 b1 3a fb 9d bf
       0.014213829112645024 -0.029278676096573506
000060 59 fc bc 43 b4 3c b6 bf 26 d5 6a 19 1b f8 a0 3f
       -0.08686377195134422 0.03314289746541936
000070 b7 2d c1 ad ea 31 9d 3f bd 90 d6 9c c7 ae 65 bf
       0.028510729651584046 -0.0026468180355597435
000080 fb f2 71 4f ef 09 9f 3f a4 22 3a 61 34 5e 9a 3f
       0.030311335777230202 0.02574998706271238
000090 df 0b 5e 7c b5 fa c1 3f 2f 5e b5 44 f5 0b 95 bf
       0.14046352932572767 -0.020553428953773597
0000a0 de e5 99 4a 2c 14 a6 3f e3 31 ed 55 c3 3b 8d bf
       0.043122657877528545 -0.014274145183343861
0000b0 ca 3d 92 1a ee 85 c3 3f 01 85 0d 9a ce cd af bf
       0.15252472207474305 -0.062117058091425655
0000c0 c0 74 db e1 99 9f a9 3f 44 6d 75 32 4e ee 8b 3f
       0.05004578477903854 0.013638125338437342
0000d0 d7 c0 b3 70 c0 18 c3 3f ab 9c 2e 4c f1 78 99 bf
       0.14919286253962724 -0.024875421786103285
0000e0 6d 09 90 66 17 b5 a1 bf c6 f9 8d ab 1f f6 a0 3f
       -0.034584742803434355 0.033127774898264614
0000f0 00 00 00 00 00 00 00 00 00 00 00 00 00 00 00 00
       0.0 0.0
000100 00 00 00 00 00 00 00 00 00 00 00 00 00 00 00 00
       0.0 0.0
000110 00 00 00 00 00 00 00 00 00 00 00 00 00 00 00 00
       0.0 0.0
000120 83 1e 36 a1 47 6d bc 3f 33 79 8d 30 4c 7e c5 bf
       0.1110424774725463 -0.16791679735883633
000130 b4 23 69 43 27 43 b2 3f 45 ca e3 3e cc 1d a5 3f
       0.07133717914361065 0.041242964436510245
000140 39 90 a1 34 ea 41 b2 3f 72 b5 14 7d 76 52 d8 bf
       0.07131828103007444 -0.3800331326954939
000150 7d bf 2c e9 31 6c a8 bf 2a 67 9c 42 a0 9e af 3f
       -0.04770046206829102 0.061757095462054615
000160 00 b1 c0 71 5b 11 d7 3f 3a 68 61 0f 08 51 91 3f
       0.3604343996874064 0.016910673083067908
000170 61 9f 22 cb 05 93 c2 bf 96 ae b4 84 0f 5d af 3f
       -0.14511177462304217 0.0612568711752292
000180 a4 9f f0 a3 69 fb b6 3f d8 11 80 9a 37 35 da bf
       0.08977375271262972 -0.40949812019269194
000190 cc c3 ce 6c a4 f9 ee bf 2e 5e c9 ef 91 22 b7 3f
       -0.9679739117765336 0.0903712473312843
0001a0 ce f2 0e 8d 3a 82 e4 3f 41 3e f4 72 59 6a eb 3f
       0.6408970599219062 0.8567321057507301
0001b0 55 0a 03 15 aa 4c e0 bf 05 55 90 57 51 e8 f2 bf
       -0.5093584452045642 -1.1817181988201935
0001c0 88 36 73 70 23 81 9e bf bb 9b 38 3a 10 27 d7 bf
       -0.029789499033361838 -0.36175924001366483
0001d0 18 e9 11 6d 34 39 ee 3f f6 97 4d 66 43 58 b5 3f
       0.944483006503364 0.08337804076799657
0001e0 44 51 c5 fd f8 79 f0 bf 53 52 01 a4 20 d6 ce bf
       -1.029778472225261 -0.24090965278687068
0001f0 60 7a 27 be f9 79 ba 3f 9c 15 86 65 a8 5b eb bf
       0.10342369930683892 -0.8549386961828307
000200 73 d9 09 ef 15 2b c4 3f d9 b3 c4 40 2d d6 af 3f
       0.1575648705654192 0.0621809140742255
000210 80 bb 8c ef f9 96 bc 3f d6 a9 64 90 f6 f5 a5 3f
       0.1116787156904433 0.04289217484104639
000220 83 eb 72 a9 fb a6 da bf 2d f8 e5 1a 0f db bb 3f
       -0.416441836812446 0.10881132513711185
000230 b1 4d c9 fc 6f e4 b0 bf db ff 70 4e f4 32 e8 bf
       -0.06598567887822672 -0.7562200100001023
000240 9f 58 d7 98 35 ad b8 bf 2f c4 0b a7 3f 46 b7 bf
       -0.09639296514009964 -0.09091565922041477
000250 ae e4 15 1d 6f 1f c8 bf e6 3e cd fb 79 3b be bf
       -0.1884592906970161 -0.11809503934386675
000260 00 54 c2 09 50 15 aa 3f 95 b4 7b 31 5b f2 e0 bf
       0.05094385260705536 -0.529584499976084
000270 ae 20 e9 9e b5 64 c2 bf 17 d3 e1 dd a3 48 ac 3f
       -0.14369840869244882 0.05524170001527844
000280 fc ef f3 8f 30 8e e6 bf ba 5e e0 c1 af a4 93 bf
       -0.7048571406917286 -0.019182916839865817
000290 57 a7 4d 3f 63 a3 b7 bf 6a 31 25 0c 60 a0 d5 bf
       -0.09233684821597642 -0.3379135244947721
0002a0 a9 32 25 45 07 40 dd bf 6c 44 9b 12 d5 1f c9 bf
       -0.4570329833266365 -0.196283945164882
0002b0 c5 4b 13 84 bf 03 e4 bf e5 28 80 a9 ba 79 cb bf
       -0.6254575328442732 -0.21465237881086022
0002c0 b6 e1 12 82 43 e5 b0 bf c9 a1 33 33 7a 38 e0 bf
       -0.06599828649166892 -0.5068942070038754
0002d0 75 1e db 59 90 a9 d7 bf f6 62 6b a9 7d e5 ae bf
       -0.36972435736649994 -0.06034462636097786
0002e0 ac 9b 14 b9 78 59 b4 bf 14 54 27 41 c9 28 c2 bf
       -0.07949022787634757 -0.14186969453172138
0002f0 01 70 5f 2c 70 fa b5 bf da 53 c5 5a 3f 56 e4 bf
       -0.08585263331718808 -0.6355282566897771
000300 e5 f6 70 d5 f2 69 d3 bf 0b 20 55 3f 93 a2 ad bf
       -0.3033415874850632 -0.05788097522832921
000310 32 5f f5 24 57 34 e4 bf 67 f4 a5 10 21 8b c6 bf
       -0.6313892099233043 -0.1761208850183806
000320 c6 b2 4e 09 6d e8 c0 bf 36 8c ee 97 0a e5 d7 bf
       -0.13209307627166406 -0.37335457646458126
000330 4e c7 87 70 19 3b eb 3f ae 0b 2c 2a 1a b9 d1 3f
       0.8509642789706306 0.2769227420650918
000340 9c 33 ba bd b1 6f b7 bf 3f 7e 75 8d 5e fd df bf
       -0.09154806978240376 -0.49983943762160615
000350 59 89 b4 ad 9e 31 9b 3f 91 40 4d c8 33 13 ab 3f
       0.026556472160458842 0.05288087673273013
000360 3b ce 19 f0 4c 23 e1 3f 72 d3 95 9f 34 88 a7 3f
       0.5355591477841196 0.04596104095518329
000370 3a f5 a5 db 3b c0 d1 bf 80 bb 8c ef f9 96 bc 3f
       -0.2773580212595622 0.1116787156904433
000380 d4 a9 64 90 f6 f5 a5 bf 84 eb 72 a9 fb a6 da 3f
       -0.04289217484104638 0.41644183681244606
000390 2d f8 e5 1a 0f db bb 3f b0 4d c9 fc 6f e4 b0 3f
       0.10881132513711185 0.0659856788782267
0003a0 db ff 70 4e f4 32 e8 3f 9f 58 d7 98 35 ad b8 bf
       0.7562200100001023 -0.09639296514009964
0003b0 2f c4 0b a7 3f 46 b7 3f af e4 15 1d 6f 1f c8 3f
       0.09091565922041477 0.18845929069701614
0003c0 e5 3e cd fb 79 3b be bf 01 54 c2 09 50 15 aa bf
       -0.11809503934386674 -0.05094385260705537
0003d0 95 b4 7b 31 5b f2 e0 3f af 20 e9 9e b5 64 c2 bf
       0.529584499976084 -0.14369840869244885
0003e0 18 d3 e1 dd a3 48 ac bf fc ef f3 8f 30 8e e6 3f
       -0.05524170001527845 0.7048571406917286
0003f0 bb 5e e0 c1 af a4 93 bf 57 a7 4d 3f 63 a3 b7 3f
       -0.01918291683986582 0.09233684821597642
000400 6a 31 25 0c 60 a0 d5 3f a9 32 25 45 07 40 dd bf
       0.3379135244947721 -0.4570329833266365
000410 6d 44 9b 12 d5 1f c9 3f c5 4b 13 84 bf 03 e4 3f
       0.19628394516488204 0.6254575328442732
000420 e7 28 80 a9 ba 79 cb bf b6 e1 12 82 43 e5 b0 3f
       -0.21465237881086027 0.06599828649166892
000430 c9 a1 33 33 7a 38 e0 3f 75 1e db 59 90 a9 d7 bf
       0.5068942070038754 -0.36972435736649994
000440 f4 62 6b a9 7d e5 ae 3f ad 9b 14 b9 78 59 b4 3f
       0.06034462636097784 0.07949022787634759
000450 16 54 27 41 c9 28 c2 bf 01 70 5f 2c 70 fa b5 3f
       -0.14186969453172144 0.08585263331718808
000460 da 53 c5 5a 3f 56 e4 3f e5 f6 70 d5 f2 69 d3 bf
       0.6355282566897771 -0.3033415874850632
000470 0c 20 55 3f 93 a2 ad 3f 32 5f f5 24 57 34 e4 3f
       0.05788097522832922 0.6313892099233043
000480 68 f4 a5 10 21 8b c6 bf c6 b2 4e 09 6d e8 c0 3f
       -0.17612088501838064 0.13209307627166406
000490 36 8c ee 97 0a e5 d7 3f 4e c7 87 70 19 3b eb 3f
       0.37335457646458126 0.8509642789706306
0004a0 ae 0b 2c 2a 1a b9 d1 bf 9d 33 ba bd b1 6f b7 3f
       -0.2769227420650918 0.09154806978240378
0004b0 3f 7e 75 8d 5e fd df bf 59 89 b4 ad 9e 31 9b bf
       -0.49983943762160615 -0.026556472160458842
0004c0 90 40 4d c8 33 13 ab bf 3a ce 19 f0 4c 23 e1 3f
       -0.05288087673273012 0.5355591477841195
0004d0 74 d3 95 9f 34 88 a7 bf 3c f5 a5 db 3b c0 d1 3f
       -0.0459610409551833 0.2773580212595623
0004e0 17 da 61 5b fb 39 f5 3f 14 8a 17 b8 2e 0f e8 bf
       1.3266557283037679 -0.7518533320947562
0004f0 d7 e6 75 83 ed 34 ec bf c6 e6 e8 e9 aa 65 c2 3f
       -0.8814609115208566 0.14372764989257386
000500 a8 30 43 6f 4b d4 a1 3f 0a b0 7a fd 15 5f a0 bf
       0.0348228047674593 -0.0319754478381072
000510 48 fe 1d b0 1f a4 b9 3f fd ed b6 92 fa e6 97 bf
       0.10016058015571006 -0.02334205170130409
000520 f4 62 09 81 6e d9 59 3f 90 d9 60 27 27 7f a0 3f
       0.0015777186528309036 0.032220099980281636
000530 d9 da e9 c5 ba 80 8b 3f 0b 3b bb 2d 18 26 9a bf
       0.013429125943031849 -0.02553594378587846
000540 23 4a ab 7b 9f 3a b6 bf c7 6c 56 e8 eb fd a0 3f
       -0.08683201569810044 0.03318726740982352
000550 a9 9c 0b c2 a0 01 9e 3f fe bd 4b 10 2f 61 60 bf
       0.02930308517798311 -0.0019994658672357604
000560 97 a8 06 66 2f ab 9b 3f 6b 19 70 db d0 27 99 3f
       0.02702020702569338 0.024565947907853863
000570 3b 9a c3 af bd 9e c0 3f 89 28 c6 b4 45 0f 95 bf
       0.12984438974599918 -0.020566071661541705
000580 a4 39 fe 0f 37 67 a4 3f 3e 55 fb 5f bd 1e 86 bf
       0.03984996862628812 -0.010800818912154338
000590 d9 3f cd 18 89 0c c3 3f 22 98 98 c2 43 c5 b0 bf
       0.14882005415938585 -0.065510020264441
0005a0 d1 41 cc 08 f6 eb aa 3f 0e fd 58 0f ef 1f 90 3f
       0.05258149011035907 0.01574681788610826
0005b0 07 cf 75 bc fb 73 c3 3f d1 fa 66 c1 b7 03 92 bf
       0.15197703077466704 -0.01759230726178879
0005c0 ed ff 06 fc e0 80 a1 bf ab 93 b7 a1 52 d7 a0 3f
       -0.034186392560059044 0.03289278244100243
0005d0 00 00 00 00 00 00 00 00 00 00 00 00 00 00 00 00
       0.0 0.0
0005e0 00 00 00 00 00 00 00 00 00 00 00 00 00 00 00 00
       0.0 0.0
0005f0 00 00 00 00 00 00 00 00 00 00 00 00 00 00 00 00
       0.0 0.0
000600 91 c5 fb af 33 3b bc 3f df d1 ca 08 57 80 c3 bf
       0.11027834936591875 -0.1523541253024083
000610 11 c0 71 86 c5 15 b3 3f 7d f6 50 e5 65 fc a4 3f
       0.07455095798809476 0.040988144152362495
000620 3a 05 40 32 1b df b1 3f c5 1d 3d 9f 04 e8 d7 bf
       0.06981058098610485 -0.37353625822694553
000630 a1 fb 6f 41 07 bc a8 bf dd e3 ed 9b 57 e2 ae 3f
       -0.04830954240605157 0.060320604118665
000640 43 40 72 27 03 7d d6 3f 20 dc f1 6b f3 55 90 3f
       0.3513801465242105 0.015952876532960514
000650 af 37 cb 20 68 67 c0 bf a4 07 b3 5a 02 c5 ad 3f
       -0.12815572358379998 0.05814368588609334
000660 b0 f1 ff 04 56 a7 b7 3f c7 26 fd 0d 91 4f da bf
       0.09239709493699055 -0.4111063610658729
000670 d8 d8 fb 3c b6 24 ef bf 6b 48 47 48 8f 9a b7 3f
       -0.9732314292039304 0.09220214380846563
000680 d0 8c c0 0d 87 92 e4 3f 2f 6e 52 aa e8 b5 eb 3f
       0.6428866642567304 0.8659556700326386
000690 78 b0 93 88 64 a0 df bf af 27 a6 00 9a dd f2 bf
       -0.49416459405507096 -1.1791019463876002
0006a0 6c bd fe bc d5 16 91 bf 22 bf 24 00 07 70 d6 bf
       -0.016688670788139445 -0.3505876065637371
0006b0 e5 29 70 5b cc 5d ee 3f ab b2 d9 20 62 3f b2 3f
       0.94894998415958 0.07127965261470119
0006c0 4b 7a 2e b9 97 92 f0 bf 30 57 17 fd a4 df cf bf
       -1.0357892259268222 -0.24901258810012328
0006d0 d8 99 ec 29 81 bd b8 3f 43 b0 4b 54 d2 ce eb bf
       0.09664160989323223 -0.8689967771911217
0006e0 fe 13 fe ef 3b ee c3 3f 18 cf ea e0 8c 39 ad 3f
       0.15570782869704652 0.05707969899722637
0006f0 80 bb 8c ef f9 96 bc 3f d6 a9 64 90 f6 f5 a5 3f
       0.1116787156904433 0.04289217484104639
000700 83 eb 72 a9 fb a6 da bf 2d f8 e5 1a 0f db bb 3f
       -0.416441836812446 0.10881132513711185
000710 b1 4d c9 fc 6f e4 b0 bf db ff 70 4e f4 32 e8 bf
       -0.06598567887822672 -0.7562200100001023
000720 9f 58 d7 98 35 ad b8 bf 2f c4 0b a7 3f 46 b7 bf
       -0.09639296514009964 -0.09091565922041477
000730 ae e4 15 1d 6f 1f c8 bf e6 3e cd fb 79 3b be bf
       -0.1884592906970161 -0.11809503934386675
000740 00 54 c2 09 50 15 aa 3f 95 b4 7b 31 5b f2 e0 bf
       0.05094385260705536 -0.529584499976084
000750 ae 20 e9 9e b5 64 c2 bf 17 d3 e1 dd a3 48 ac 3f
       -0.14369840869244882 0.05524170001527844
000760 fc ef f3 8f 30 8e e6 bf ba 5e e0 c1 af a4 93 bf
       -0.7048571406917286 -0.019182916839865817
000770 57 a7 4d 3f 63 a3 b7 bf 6a 31 25 0c 60 a0 d5 bf
       -0.09233684821597642 -0.3379135244947721
000780 a9 32 25 45 07 40 dd bf 6c 44 9b 12 d5 1f c9 bf
       -0.4570329833266365 -0.196283945164882
000790 c5 4b 13 84 bf 03 e4 bf e5 28 80 a9 ba 79 cb bf
       -0.6254575328442732 -0.21465237881086022
0007a0 b6 e1 12 82 43 e5 b0 bf c9 a1 33 33 7a 38 e0 bf
       -0.06599828649166892 -0.5068942070038754
0007b0 75 1e db 59 90 a9 d7 bf f6 62 6b a9 7d e5 ae bf
       -0.36972435736649994 -0.06034462636097786
0007c0 ac 9b 14 b9 78 59 b4 bf 14 54 27 41 c9 28 c2 bf
       -0.07949022787634757 -0.14186969453172138
0007d0 01 70 5f 2c 70 fa b5 bf da 53 c5 5a 3f 56 e4 bf
       -0.08585263331718808 -0.6355282566897771
0007e0 e5 f6 70 d5 f2 69 d3 bf 0b 20 55 3f 93 a2 ad bf
       -0.3033415874850632 -0.05788097522832921
0007f0 32 5f f5 24 57 34 e4 bf 67 f4 a5 10 21 8b c6 bf
       -0.6313892099233043 -0.1761208850183806
