data/amass/ACCAD/Female1Walking_c3d/B25 - crouch to walk1_poses.npz (npz, 950096 bytes, 5 tensors)

trans f8 [710, 3]
000000 4e 44 c2 55 59 5b d4 bf 15 ac b6 c8 79 7e d8 3f
       -0.31807549834144744 0.3827194652646438
000010 09 97 63 5d db 24 db 3f e5 07 f7 5f 81 5c d4 bf
       0.4241245662691289 -0.31814607974604164
000020 8f 27 3b 61 74 79 d8 3f 3a 2f 26 ad 5f 26 db 3f
       0.38241300101491843 0.4242171469602344
000030 9b 1e 9b 4c ae 5c d4 bf 81 1a 3b 96 91 74 d8 3f
       -0.318156790552601 0.3821147887323733
000040 75 69 72 57 e3 2b db 3f e5 bd 2f 0c 2c 5f d4 bf
       0.42455371417749826 -0.31830884161078493
000050 5d 8c 57 d7 f2 72 d8 3f 99 a5 18 52 9e 2e db 3f
       0.38201590566149496 0.42472036378111394
000060 70 8b 91 96 4a 5b d4 bf c1 3e b4 fe 97 70 d8 3f
       -0.31807198242147816 0.38187217591710626
000070 5d 16 05 47 f8 2c db 3f 7a 5d 5c 35 4d 52 d4 bf
       0.4246197408250277 -0.3175232907392097
000080 66 d8 cb d7 e3 6c d8 3f 1f 27 59 21 32 2a db 3f
       0.3816461188683945 0.4244504285494361
000090 93 20 9c 87 ae 4e d4 bf 61 19 5f 7e c9 69 d8 3f
       -0.31730235331679885 0.38145673123326246
0000a0 eb 63 89 0f 80 2b db 3f be 6d 62 48 56 4f d4 bf
       0.42453004376653664 -0.31734234875485956
0000b0 4a a6 8d 10 9b 6a d8 3f 8b 96 02 bb 37 33 db 3f
       0.38150669685874006 0.42500108015733734
0000c0 9d 3c 84 ac b2 4e d4 bf 6f be 04 95 aa 68 d8 3f
       -0.3173033413631375 0.381388326192769
0000d0 94 1e 7f 7d 04 2b db 3f 72 fe 48 72 bc 51 d4 bf
       0.4245005822708461 -0.31748877678544496
0000e0 27 c1 b1 27 3e 60 d8 3f 31 5c ed 6c 31 2b db 3f
       0.3808741939201518 0.42451129567547513
0000f0 21 eb 70 8a a2 54 d4 bf 98 5a 34 75 36 5b d8 3f
       -0.31766570586812476 0.380567182977225
000100 3e 9f 7f 4b 66 2e db 3f 74 ea 97 d4 81 52 d4 bf
       0.42470700619604773 -0.3175358368022565
000110 7d 51 82 9f a6 5a d8 3f 13 16 2e b5 ce 30 db 3f
       0.3805328901010155 0.42485397046434165
000120 24 01 24 71 84 52 d4 bf 10 cd d8 8a 9c 5a d8 3f
       -0.3175364594353758 0.3805304866720727
000130 0b 6f f1 8e f5 31 db 3f b7 32 36 d8 4a 55 d4 bf
       0.4249242683342664 -0.3177058326189512
000140 03 a8 d4 3c c5 59 d8 3f 14 3c 10 f0 74 34 db 3f
       0.3804791540193266 0.4250767082566551
000150 9d fd 83 43 f2 56 d4 bf 5c 94 22 67 79 59 d8 3f
       -0.31780678361243436 0.38046107360634607
000160 3f 89 bc b2 e4 36 db 3f 2f 93 cc 74 33 5a d4 bf
       0.42522542433484384 -0.3180054321876921
000170 73 a9 70 db a0 59 d8 3f 09 d9 9e 7f f0 36 db 3f
       0.38047048024841174 0.42522823775233626
000180 21 19 d6 ff b3 5f d4 bf 79 62 49 6f cd 57 d8 3f
       -0.3183412550355503 0.38035903804624344
000190 44 31 de 4e 91 39 db 3f 85 94 f6 0b 51 63 d4 bf
       0.42538864805171195 -0.3185618035152589
0001a0 ac 5f 08 b1 98 53 d8 3f 76 e2 46 e7 cb 3c db 3f
       0.38010232246733255 0.4255857237399491
0001b0 c9 7c 96 a9 11 60 d4 bf de f5 5b a8 85 51 d8 3f
       -0.31836358605682996 0.3799757141240131
0001c0 ef b4 84 da 14 3d db 3f fa fc e1 83 39 5e d4 bf
       0.4256031164139377 -0.3182510173719063
0001d0 8f 1c db 6d 21 50 d8 3f 96 48 48 5f d7 39 db 3f
       0.3798907826243942 0.4254053526393674
0001e0 c2 bb 47 7d 8a 5d d4 bf 1e 00 5f 9d 47 50 d8 3f
       -0.31820928797145254 0.3798998867823701
0001f0 36 e0 30 9b f7 37 db 3f a3 15 9e ac d4 5d d4 bf
       0.42529096751559636 -0.3182269750326105
000200 69 6a 77 9e 18 50 d8 3f 2f b5 4a ad 4b 37 db 3f
       0.3798886821292969 0.42524997637777323
000210 15 b9 84 85 01 60 d4 bf aa f1 2a 76 21 50 d8 3f
       -0.3183597377673249 0.3798907903654035
000220 2a 51 b9 3c 9c 36 db 3f 2f e2 83 d7 bf 61 d4 bf
       0.4252081482893738 -0.3184661488190014
000230 0b b3 f6 e5 59 50 d8 3f f7 69 23 07 47 38 db 3f
       0.37990424592389677 0.42530990311720934
000240 24 a9 8f 64 f2 61 d4 bf 02 54 cb 27 3d 51 d8 3f
       -0.31847820110728464 0.3799584282508591
000250 6d ee d1 9d ec 37 db 3f 07 b1 43 14 cf 63 d4 bf
       0.425288347359788 -0.3185918519873358
000260 5f fc 91 44 c6 51 d8 3f d3 23 30 38 b2 35 db 3f
       0.3799911183959405 0.42515235411752633
000270 ab 6e 2a 8b 73 65 d4 bf c0 2b 3a 55 e7 50 d8 3f
       -0.31869209852605235 0.3799379665658158
000280 52 58 0c 03 a2 33 db 3f cf 4b 4e a6 58 66 d4 bf
       0.42502641961744303 -0.318746721656848
000290 69 db 2f e0 82 50 d8 3f 32 f8 5b ae 61 33 db 3f
       0.3799140157056429 0.425011081955634
0002a0 82 77 93 a2 1a 65 d4 bf 77 c9 46 db 47 50 d8 3f
       -0.3186709010750449 0.37989994443628156
0002b0 3f d4 e6 03 8b 2f db 3f 51 2d 53 a1 a3 62 d4 bf
       0.42477679615996417 -0.3185204577864243
0002c0 91 34 65 2e c5 51 d8 3f 6c 6f 7e ea 8d 2b db 3f
       0.3799908593253543 0.4245333471278545
0002d0 5a 4e 48 4c af 60 d4 bf 54 39 86 7d 2d 52 d8 3f
       -0.31840116929490636 0.38001572855218524
0002e0 55 07 89 d9 e3 28 db 3f 49 66 d6 d0 15 61 d4 bf
       0.42437072986296204 -0.3184256114414877
0002f0 50 d8 de 21 09 52 d8 3f 43 aa 58 67 92 27 db 3f
       0.38000706012406216 0.4242902764550857
000300 f7 f7 f5 62 30 63 d4 bf 10 90 85 41 61 53 d8 3f
       -0.3185540167249878 0.38008910559278863
000310 72 16 cc 3b 22 25 db 3f 63 77 64 4c eb 64 d4 bf
       0.424141462703438 -0.318659615137099
000320 0c 38 83 33 b8 55 d8 3f cf 15 56 14 84 22 db 3f
       0.3802319052746277 0.423981685504569
000330 47 ed d6 86 ae 65 d4 bf e3 8c 73 b3 fd 56 d8 3f
       -0.31870616119313805 0.38030951046512323
000340 86 94 ca 70 80 1f db 3f 82 19 52 98 30 65 d4 bf
       0.4237977124669857 -0.31867613673275497
000350 0c 7f 0a 96 5d 58 d8 3f 0f 2c ab 1b 8a 1c db 3f
       0.38039340641442787 0.423616911907346
000360 a5 f8 58 a2 5c 62 d4 bf 92 a8 d8 d1 57 56 d8 3f
       -0.31850353101971 0.3802699612884989
000370 d0 68 3f ce 96 1a db 3f 9d 8c 8c a8 05 61 d4 bf
       0.42349786893249775 -0.3184217592226533
000380 45 26 35 ae 25 55 d8 3f 49 ab 00 39 c1 16 db 3f
       0.38019697201216146 0.42326384131108746
000390 6d b4 f4 50 79 60 d4 bf d9 4e 44 8c b6 55 d8 3f
       -0.3183882990441081 0.38023151109631
0003a0 79 0d 38 81 e8 14 db 3f ef 1b 6f 30 74 62 d4 bf
       0.42315113657988196 -0.31850914697537197
0003b0 b4 7a fd e4 c2 56 d8 3f 4a e0 e8 dc 64 11 db 3f
       0.38029548990554507 0.422936645252325
0003c0 1c 33 4b cf bd 63 d4 bf 11 ce d2 14 9b 58 d8 3f
       -0.31858773463754786 0.38040806802311616
0003d0 45 42 6a 2b f9 0f db 3f a1 81 40 7d 7c 63 d4 bf
       0.4228499340033845 -0.3185721610225532
0003e0 75 a6 70 51 08 5a d8 3f fb 9b 1a cc e0 0f db 3f
       0.3804951472580805 0.42284412319207804
0003f0 c9 a6 af 01 2d 61 d4 bf b3 37 22 97 50 58 d8 3f
       -0.3184311405626486 0.3803903079905197
000400 1d 00 33 50 2c 10 db 3f c7 c6 db 47 87 60 d4 bf
       0.42286212760882497 -0.31839162843162366
000410 89 e7 d5 f1 0e 58 d8 3f fa ba d5 76 c4 0e db 3f
       0.3803746568370277 0.4227763329026143
000420 81 9f 1f ac 3a 5f d4 bf 51 1c a8 e2 58 58 d8 3f
       -0.31831232842386475 0.38039228567544564
000430 9b ca 5f e0 89 0e db 3f f6 8a c8 1b 34 60 d4 bf
       0.4227623644975808 -0.3183717986413933
000440 8e e5 66 64 b8 59 d8 3f e7 34 63 37 0b 0f db 3f
       0.38047609143139816 0.4227932015317734
000450 01 34 cb d7 b6 63 d4 bf 52 99 96 87 7f 5a d8 3f
       -0.31858607362374874 0.3805235694984691
000460 a0 93 c7 42 4a 11 db 3f 7f be 72 2c c9 67 d4 bf
       0.4229303028244491 -0.3188345846237794
000470 88 0b 96 ca a8 5a d8 3f a8 9d a1 59 71 12 db 3f
       0.3805334070568098 0.42300065758760264
000480 ae ea 0e c0 cf 69 d4 bf ef 3a 3d 1b ee 58 d8 3f
       -0.31895822292032505 0.3804278627402899
000490 53 86 9d 57 eb 13 db 3f 52 b8 62 43 cd 64 d4 bf
       0.4230907779329744 -0.3186524541914696
0004a0 38 cd 30 3d 82 57 d8 3f af 63 44 f8 9a 11 db 3f
       0.38034110999724957 0.4229495453342293
0004b0 79 d1 fe cb 4c 61 d4 bf 2b 23 da 3e 5d 56 d8 3f
       -0.31843871995376777 0.3802712549009352
0004c0 0a bf f1 3e be 0d db 3f f3 d0 fb c4 b0 62 d4 bf
       0.42271381518274664 -0.3185235904377485
0004d0 00 43 19 16 ce 55 d8 3f 7e fb 4c e2 fe 0a db 3f
       0.38023712308954316 0.42254612064055397
0004e0 78 c0 0e c6 3a 63 d4 bf 79 56 41 b6 b2 55 d8 3f
       -0.3185564932018745 0.38023059652673613
0004f0 fd c6 44 bb 5c 0a db 3f 29 68 f2 54 df 63 d4 bf
       0.42250746047930915 -0.318595726924857
000500 f3 4a 56 d6 9b 54 d8 3f b6 01 f4 db 7f 0c db 3f
       0.380164107621723 0.4226379058818809
000510 d7 6f 81 c5 26 62 d4 bf 2e 89 ab 9a 98 55 d8 3f
       -0.31849068915994166 0.38022437195299374
000520 92 f6 17 8d 5f 0e db 3f a4 05 d2 f7 e8 61 d4 bf
       0.42275227335617516 -0.3184759540673332
000530 b8 6e be 57 ee 56 d8 3f 0a 71 24 81 f9 0d db 3f
       0.38030584877717954 0.42272794353063203
000540 a1 60 4f e4 2b 64 d4 bf 67 66 64 b0 95 55 d8 3f
       -0.3186139802542219 0.38022367692756237
000550 fa cf ca 5d 18 0d db 3f 35 eb 32 48 d2 64 d4 bf
       0.4226742664279751 -0.31865365076707813
000560 89 6d 42 f0 24 54 d8 3f 5e 41 03 f1 44 0c db 3f
       0.38013575995292875 0.42262385879896225
000570 b4 2c cc fb 8d 66 d4 bf de 15 a8 76 62 55 d8 3f
       -0.3187594374619025 0.38021146380955695
000580 0f b8 a9 c3 a0 0b db 3f 23 c0 e2 6a 4b 67 d4 bf
       0.42258471591674235 -0.31880460203228916
000590 6c 85 c5 ce d7 55 d8 3f 91 63 d4 38 da 0d db 3f
       0.38023944084678507 0.42272048520822475
0005a0 aa 02 1e 3e 07 65 d4 bf be a6 cc 7a 21 54 d8 3f
       -0.31866627756248056 0.3801349353039817
0005b0 6b a8 02 8f 28 0e db 3f c5 4f c8 af 2a 61 d4 bf
       0.42273916211946155 -0.3184305874467522
0005c0 01 9e 2a b1 eb 52 d8 3f 4b 3b e0 81 e1 0d db 3f
       0.38006107617772505 0.42272222216790983
0005d0 4b a6 41 33 38 61 d4 bf 55 f5 bc 96 5d 52 d8 3f
       -0.3184338093329628 0.38002719612616903
0005e0 16 a1 2f c4 4e 0c db 3f 1d 31 53 7f 63 61 d4 bf
       0.4226262012366687 -0.3184441321761982
0005f0 53 58 54 ef a6 4f d8 3f 87 d5 86 04 8a 0b db 3f
       0.3798615777208216 0.4225792926984799
000600 69 e5 d9 d1 9b 5f d4 bf b4 a7 de cc fa 4e d8 3f
       -0.31833549016263035 0.3798205376320951
000610 5b 54 26 a7 a2 0b db 3f c8 1c 96 6c 02 5f d4 bf
       0.42258516619887637 -0.3182989178098521
000620 01 ed 41 71 21 51 d8 3f 0f f4 4f a5 d9 0a db 3f
       0.37995182094864793 0.42253724235325846
000630 ed 8e 72 67 8f 60 d4 bf e6 4e 5a 77 b0 54 d8 3f
       -0.3183935651997974 0.38016902595084756
000640 11 70 9a 22 14 09 db 3f d5 68 c0 ba ce 61 d4 bf
       0.42242911700464086 -0.3184696983095255
000650 e5 b1 06 a0 3c 55 d8 3f 63 f5 30 75 0c 07 db 3f
       0.38020244243196394 0.4223052162595506
000660 03 52 65 3b 37 62 d4 bf d8 a2 72 06 64 54 d8 3f
       -0.3184946136509838 0.38015080098788934
000670 8b af 09 28 92 04 db 3f 7f 75 31 31 e2 62 d4 bf
       0.42215398702568824 -0.3185353737261138
000680 90 d8 20 e1 ff 52 d8 3f 10 eb 5f 02 a4 01 db 3f
       0.38006588921724305 0.42197513801481623
000690 f6 93 42 09 9b 64 d4 bf 5f bd 57 0a b4 53 d8 3f
       -0.31864047912887317 0.3801088429454093
0006a0 84 29 bb 6a d3 ff da 3f 57 85 04 a7 c2 64 d4 bf
       0.42186437056502535 -0.31864992437666245
0006b0 08 41 b9 f3 e0 56 d8 3f 09 27 5e 64 3b fd da 3f
       0.3803026561845546 0.4217060547021992
0006c0 f5 81 a1 fa e1 60 d4 bf 60 7c 15 c3 36 59 d8 3f
       -0.3184132525985029 0.38044518519558856
0006d0 3a 82 b0 f1 fe f9 da 3f 21 2c 0f 57 7a 5d d4 bf
       0.4215085373162172 -0.3182054376781612
0006e0 15 1f 76 35 79 59 d8 3f 8e 99 80 41 0f f7 da 3f
       0.38046102734414095 0.4213293208762473
0006f0 2e da ad d9 bb 5c d4 bf e8 67 f2 87 c5 59 d8 3f
       -0.31816002137876154 0.38047922397674805
000700 46 e8 16 5b 9f f5 da 3f 87 23 11 fc 93 5c d4 bf
       0.4212416066690178 -0.31815051666176725
000710 c8 f4 09 08 f5 5a d8 3f ab 74 42 d9 7b f4 da 3f
       0.38055158410118084 0.42117210594899274
000720 55 8e a3 59 a3 5e d4 bf 3f d7 89 04 a2 5b d8 3f
       -0.3182762503986159 0.3805928272553167
000730 53 a0 4c 71 b7 f3 da 3f bb 79 01 ff cc 60 d4 bf
       0.42112527908694125 -0.3184082498827611
000740 9c ec 45 30 6b 5d d8 3f cd 74 0a f8 fe f5 da 3f
       0.3807018252770804 0.42126440260637993
000750 de 0d fe a5 c7 61 d4 bf fa f1 a7 eb c9 5c d8 3f
       -0.3184680100459597 0.3806633759811856
000760 ff e1 ba 0e 94 f7 da 3f 0c dc ed cb 36 63 d4 bf
       0.42136098326184873 -0.31855554499583216
000770 08 5c 31 e9 26 5b d8 3f 1e 77 93 13 f1 f7 da 3f
       0.38056347630248455 0.42138316070291804
000780 00 28 84 4c a8 63 d4 bf d7 b5 17 a3 2b 5b d8 3f
       -0.31858260605133637 0.38056460310948864
000790 2a 13 18 9d c3 f7 da 3f d2 56 bc 9e fa 63 d4 bf
       0.42137232152190285 -0.318602232947666
0007a0 80 79 8e fd 2c 5b d8 3f 67 d9 5f 29 3f f7 da 3f
       0.38056492577916146 0.4213407424971564
0007b0 76 b8 07 ea dc 62 d4 bf 64 b7 b5 7b 71 5b d8 3f
       -0.318534115357472 0.38058125573194546
0007c0 4f fb ab 81 bf f5 da 3f c2 bf 49 d5 8e 5f d4 bf
       0.4212492719961362 -0.3183323939219883
0007d0 5d 24 2b e3 43 5b d8 3f 83 a5 fc a5 a8 f6 da 3f
       0.3805703848307241 0.4213048573461366
0007e0 4e df 55 02 96 5b d4 bf ee 9c 60 ea fd 59 d8 3f
       -0.31808996418066193 0.3804926670877212
0007f0 82 5b 93 84 27 f5 da 3f ba 1a 1f f0 c9 59 d4 bf
       0.4212130350764981 -0.31798027467122447

mocap_framerate f8 []
000000 00 00 00 00 00 00 5e 40
       120.0

betas f8 [16]
000000 67 df 5b 43 06 34 e8 3f 25 68 3f 29 dd ab e1 bf
       0.7563506427386358 -0.5522294812792593
000010 c4 c8 48 6a 80 40 ed bf aa 14 4e c9 07 a4 f7 bf
       -0.9141237331262109 -1.4775464881397888
000020 77 6e ea 71 45 8e 89 bf 0f 82 ae 08 60 94 e5 3f
       -0.01247839216130518 0.6743621987880618
000030 6f b3 51 c9 e5 de e8 bf 29 f7 f6 44 7e 01 d7 3f
       -0.7772091800703559 0.359466140125607
000040 df 36 cb cf ff 00 00 c0 d9 14 4d 23 97 b1 06 c0
       -2.0004879220858665 -2.8367140539072406
000050 95 f3 20 42 d8 34 03 c0 fe 19 17 31 3b 45 05 c0
       -2.4008031050020215 -2.6588043055701283
000060 5c 4d 9d 1f e5 00 f8 bf a7 f3 c4 df 44 d5 f1 bf
       -1.5002185091915043 -1.1145676365842776
000070 71 8b f6 35 22 1d f8 3f 21 47 72 31 77 67 e0 bf
       1.507112704079841 -0.5126300779104193

dmpls f8 [710, 8]
000000 ff 0b 6e a3 42 b2 01 40 41 13 91 89 ba cc 00 c0
       2.212041165157188 -2.0999651667974892
000010 fe d0 62 21 65 cb 03 40 12 63 15 f1 79 bc f1 3f
       2.474313984707009 1.1085147301984688
000020 27 54 dc 53 1f 55 fd bf 3f af e0 4f 1d 03 09 c0
       -1.8332818294341082 -3.1265207519954
000030 c6 87 63 05 17 02 02 40 22 d0 06 26 2a ab e4 3f
       2.2510204716681725 0.6458941214282314
000040 71 22 eb e6 a1 f0 01 40 8a c0 7a 63 01 94 00 c0
       2.242496303606736 -2.0722682735286684
000050 19 58 f9 b6 1f 18 04 40 d1 c9 be 04 53 87 ee 3f
       2.511779241070155 0.9540190785103794
000060 b2 94 42 28 f7 be fd bf 7a c8 2b f7 5e 51 09 c0
       -1.859122426286643 -3.164731913589148
000070 39 9b 2d dd d5 01 02 40 db 45 93 d8 34 4c e3 3f
       2.25089619441442 0.60305254268513
000080 62 7a 91 df 55 fa 01 40 9d 7b 51 e5 d0 8d 00 c0
       2.247234102847231 -2.069246093320045
000090 a5 9f 2d ca 50 23 04 40 94 0e fd 38 1d b1 ed 3f
       2.5172439379857274 0.9278703797394479
0000a0 c6 eb c4 f2 14 ca fd bf 66 25 63 de ac 66 09 c0
       -1.861836384122158 -3.175134408379267
0000b0 79 41 6b 51 74 05 02 40 c8 a5 0d fa 9b f7 e2 3f
       2.252663265309988 0.592725742707608
0000c0 82 2f 35 ed 55 fa 01 40 8a b2 6f dd d0 8d 00 c0
       2.2472342044692946 -2.0692460345947596
0000d0 ec f0 ef cf 50 23 04 40 38 c0 15 a2 1c b1 ed 3f
       2.5172439808940137 0.9278700986597022
0000e0 af 7e a0 fe 14 ca fd bf a6 d5 10 eb ac 66 09 c0
       -1.8618364282955715 -3.1751345028412343
0000f0 2d fa 06 54 74 05 02 40 09 6b db bb 9b f7 e2 3f
       2.252663284743241 0.5927256268581412
000100 3a 85 26 52 24 0b 02 40 e5 d3 8a b3 a2 90 00 c0
       2.255440370369482 -2.0706228281728607
000110 cf 7b a3 f9 4d 3a 04 40 f8 fe 9d fd 7b f4 ec 3f
       2.528469038297295 0.9048442796192537
000120 c6 00 c2 57 68 bc fd bf 75 eb bd 1d fe 7a 09 c0
       -1.8584979465522777 -3.185055000646964
000130 ba f6 aa dc 8c 0d 02 40 f0 52 2d f7 07 9e e2 3f
       2.256616329162026 0.5817909076382346
000140 6f 31 ce 2e aa 0d 02 40 63 78 ca b6 f6 93 00 c0
       2.2566722542452946 -2.0722479134120007
000150 f1 65 db 62 97 41 04 40 da c3 41 41 b2 cc ec 3f
       2.5320270274357815 0.8999873423145985
000160 a9 78 4d e1 bc b2 fd bf c5 41 be 3d 75 80 09 c0
       -1.8561371613391577 -3.1877236198126604
000170 6c 1f 14 e6 fc 0f 02 40 ae a5 94 cb 15 8a e2 3f
       2.257806584824655 0.5793560959038382
000180 0d d6 99 d7 d6 0d 02 40 37 4b 20 e6 ff 96 00 c0
       2.256757435209471 -2.073730275974778
000190 28 e1 8a 30 75 48 04 40 17 86 59 1d 36 a5 ec 3f
       2.5353797714598336 0.8951674054371236
0001a0 fd 07 ca b3 cc a9 fd bf 47 1e b7 2c cf 86 09 c0
       -1.8539549849524513 -3.1908248418219816
0001b0 72 24 8e 5c de 12 02 40 54 5e ac 44 a6 73 e2 3f
       2.2592131834867866 0.5766173688197775
0001c0 03 9e ac 92 fd 0d 02 40 85 1f 07 58 f0 97 00 c0
       2.2568313082626914 -2.0741888882802777
0001d0 2d 78 55 ea f1 49 04 40 c3 5e 68 5c 53 9b ec 3f
       2.5361059481938555 0.8939606480443775
0001e0 75 3c d2 d6 86 a8 fd bf db 47 2b d4 6c 88 09 c0
       -1.853644217629861 -3.191613824435064
0001f0 d8 a6 bc 71 f1 13 02 40 f1 dc a1 db 69 6d e2 3f
       2.2597378621766033 0.5758561410611077
000200 03 9e ac 92 fd 0d 02 40 85 1f 07 58 f0 97 00 c0
       2.2568313082626914 -2.0741888882802777
000210 2d 78 55 ea f1 49 04 40 c3 5e 68 5c 53 9b ec 3f
       2.5361059481938555 0.8939606480443775
000220 75 3c d2 d6 86 a8 fd bf db 47 2b d4 6c 88 09 c0
       -1.853644217629861 -3.191613824435064
000230 d8 a6 bc 71 f1 13 02 40 f1 dc a1 db 69 6d e2 3f
       2.2597378621766033 0.5758561410611077
000240 0b 98 cf 6c 1d 30 02 40 55 5e 3c f9 76 c9 00 c0
       2.273493623814834 -2.0983714553401946
000250 0a f4 73 59 ed 87 04 40 bc f0 9a 6f 59 78 ea 3f
       2.566370676852334 0.8271910838880312
000260 89 66 44 0e df 0a fd bf 34 f8 7a 20 e9 e2 09 c0
       -1.8151541287719815 -3.235796216728909
000270 4d 56 b1 f4 46 43 02 40 59 b1 e2 4c d7 af e0 3f
       2.282850181257152 0.521464967886952
000280 04 96 a9 06 22 2b 02 40 2c ab ec df b1 f4 00 c0
       2.2710609932426014 -2.119479894075445
000290 bd 00 23 49 50 b9 04 40 74 9b 13 e0 4a 35 e9 3f
       2.5904851640517266 0.7877554298873819
0002a0 55 ee 4a 0c 23 ac fc bf 3c 18 16 d9 b5 27 0a c0
       -1.7920256118949471 -3.269389816271568
0002b0 fe 99 19 5c a6 5c 02 40 5c 1d f8 5c fd d5 de 3f
       2.2952391810715644 0.4818108947660755
0002c0 03 96 a9 06 22 2b 02 40 33 ab ec df b1 f4 00 c0
       2.271060993242601 -2.119479894075448
0002d0 c2 00 23 49 50 b9 04 40 59 9b 13 e0 4a 35 e9 3f
       2.590485164051729 0.7877554298873789
0002e0 4f ee 4a 0c 23 ac fc bf 40 18 16 d9 b5 27 0a c0
       -1.7920256118949458 -3.2693898162715698
0002f0 00 9a 19 5c a6 5c 02 40 31 1d f8 5c fd d5 de 3f
       2.2952391810715653 0.48181089476607314
000300 9e cc 59 05 22 2b 02 40 2f 1e f5 e8 b1 f4 00 c0
       2.271060983469922 -2.1194799613765762
000310 68 12 6b 4f 50 b9 04 40 7a 17 e7 ba 4a 35 e9 3f
       2.5904852108526946 0.7877553606456182
000320 28 91 f1 02 23 ac fc bf 55 e4 bb dc b5 27 0a c0
       -1.7920255770669176 -3.269389843448645
000330 c4 cc 73 5f a6 5c 02 40 a0 fb a7 2e fd d5 de 3f
       2.2952392060484232 0.4818108516337194
000340 94 dd af 49 57 22 02 40 72 0d bc 8a 0a 16 01 c0
       2.266768050841799 -2.135762294639499
000350 49 b6 f5 60 0c d6 04 40 dc 78 5b 9c 6b b9 e8 3f
       2.604515798090493 0.7726343206266182
000360 d1 3d 85 bd 51 8a fc bf 82 24 83 89 08 34 0a c0
       -1.783769359888414 -3.2754069083353565
000370 4c 23 fc 3f 7b 68 02 40 35 a9 a9 67 43 20 de 3f
       2.3010163306065916 0.470719195588248
000380 94 35 41 71 d4 21 02 40 90 4a 6e fc 93 18 01 c0
       2.266518482973604 -2.137001011005232
000390 68 b8 25 19 da d7 04 40 44 f1 1e d2 46 b5 e8 3f
       2.6053964581142743 0.7721284965441915
0003a0 aa 31 3c 75 07 87 fc bf c4 e0 bc 49 3f 35 0a c0
       -1.7829660968301178 -3.275999618603324
0003b0 db c2 37 79 f1 68 02 40 68 d4 7b db 70 1b de 3f
       2.301241824163623 0.4704248565097431
0003c0 ab 0a 19 44 61 23 02 40 fe 3f 53 a4 44 24 01 c0
       2.267275363935672 -2.142709049025142
0003d0 89 29 f7 3a 21 db 04 40 32 d1 73 46 7e ab e8 3f
       2.6069969755819256 0.7709342361472749
0003e0 50 ea 29 b1 aa 7a fc bf 47 87 9a e7 7c 3c 0a c0
       -1.7799479408701195 -3.279535111811956
0003f0 ef ad fc 71 12 69 02 40 dc 43 27 81 65 08 de 3f
       2.3013047127949373 0.4692624818099469
000400 89 1d f3 0a 9a 24 02 40 53 1f ee 32 a1 4a 01 c0
       2.2678719382708477 -2.1614402750891855
000410 a6 e8 14 e8 47 e0 04 40 60 fc e7 5a f0 88 e8 3f
       2.609512150896154 0.7667161727439513
000420 04 19 39 5b 39 4f fc bf 3a 00 54 7c ed 60 0a c0
       -1.7693418086433335 -3.297327967942718
000430 87 26 40 12 4c 6c 02 40 00 cb cf 7c 05 3a dd 3f
       2.3028794694735697 0.4566663473953412
000440 9a 60 df c9 d8 13 02 40 28 6e ac 82 cd 76 01 c0
       2.259690835122524 -2.1830091675635863
000450 08 d9 76 39 c2 f4 04 40 86 28 5f 98 88 53 e8 3f
       2.6195110787767852 0.760196969605446
000460 12 94 6e bd bd 09 fc bf 4a 05 0b 64 b2 95 0a c0
       -1.7523782157597947 -3.3230941596854437
000470 b6 0a 73 c2 19 6c 02 40 39 36 a1 cc 11 85 da 3f
       2.3027835074766143 0.4143719194733851
000480 c6 56 a8 4f 51 d6 01 40 37 c4 1a 12 ec 96 01 c0
       2.2296472762344335 -2.198692456666801
000490 a5 ca f1 63 a2 06 05 40 de d0 51 cf e2 60 e8 3f
       2.628239422623056 0.7618269013605887
0004a0 27 48 99 3a 69 ae fb bf 96 dc 10 b7 83 c4 0a c0
       -1.7300808228506044 -3.3459543516178867
0004b0 21 d1 b0 9d eb 5a 02 40 9f a2 76 c6 1a ae d9 3f
       2.294394714315914 0.4012515009040189
0004c0 e6 47 19 7b 8d d5 01 40 be c0 b3 fb 67 9e 01 c0
       2.2292737595644097 -2.2023467697364074
0004d0 e2 34 02 19 21 09 05 40 3d 5f b6 dd 06 58 e8 3f
       2.6294576600836175 0.7607454614944583
0004e0 55 ad a2 79 15 a3 fb bf 08 98 cb 90 9f c9 0a c0
       -1.7273154021630337 -3.3484488784915847
0004f0 4c 12 fe 36 a5 56 02 40 aa 65 f8 83 e6 60 d9 3f
       2.2923073097502193 0.3965393341801141
000500 d2 9a 7c bb a4 d5 01 40 be 66 b4 07 07 9f 01 c0
       2.229318108310829 -2.202650127594864
000510 8e d5 c2 9c 54 09 05 40 90 ab 40 75 84 58 e8 3f
       2.629555916496151 0.7608053484049027
000520 81 21 ee 8c 2d a2 fb bf a7 bf 71 f1 0f ca 0a c0
       -1.7270942216001404 -3.3486632216299372
000530 8d 1f c7 27 8d 56 02 40 be da 22 f4 01 5e d9 3f
       2.292261420025119 0.3963627704755871
000540 33 1b a3 ea 0e d4 01 40 49 69 9a 4c 70 c9 01 c0
       2.2285440760637356 -2.22335872503496
000550 ae 5b ba 17 9e 18 05 40 20 8e cd 73 dd a9 e8 3f
       2.6370202878710733 0.7707354795242658
000560 ce 4e b8 68 be 51 fb bf 04 e0 ae cc fe f1 0a c0
       -1.7074569788573402 -3.3681617728107103
000570 de 45 d9 35 5d 4d 02 40 5a 85 04 3f 59 29 d8 3f
       2.2877754408770974 0.3775237193495592
000580 40 c5 25 c5 ba c4 01 40 8b 2c fb 7d 09 f8 01 c0
       2.221059360709347 -2.2461118547703953
000590 b1 dd 64 a9 88 25 05 40 1b a7 f4 21 c1 d7 e8 3f
       2.64332706774777 0.7763372100064062
0005a0 24 cd 05 aa 99 1a fb bf ad 2f f3 c3 66 21 0b c0
       -1.6939942018041814 -3.391309290751414
0005b0 1b 79 0e ba 20 45 02 40 e0 ad c1 97 bd 81 d6 3f
       2.2837538276354628 0.3516687376020098
0005c0 7b e2 c8 54 24 cd 01 40 f1 2d fd 84 06 2f 02 c0
       2.2251669524960653 -2.2729616536869277
0005d0 91 ad 86 bf eb 37 05 40 a9 7e 28 0d 4e ec e8 3f
       2.6523051226592504 0.778845811557365
0005e0 82 27 fa 60 5d 21 fb bf 40 10 3e 23 dc 3d 0b c0
       -1.695645693604519 -3.4052050355258245
0005f0 72 22 01 7b 5d 22 02 40 78 cb 9d 8d 24 c6 d4 3f
       2.266779862377285 0.3245936758968848
000600 84 0f 9a b6 0e d6 01 40 82 62 53 c7 f2 46 02 c0
       2.229520250870282 -2.2846427509614964
000610 8e d3 5d d7 97 51 05 40 19 05 55 f8 f6 c0 e8 3f
       2.6648403954990902 0.7735552644955163
000620 1d 1c 88 f3 10 2e fb bf de 10 d2 16 3d 4c 0b c0
       -1.6987466347652636 -3.4122258932930967
000630 8a aa db 51 77 09 02 40 4e 20 f0 d9 1f ea d2 3f
       2.25462211562746 0.29553982050902483
000640 ae 5c 5e 26 64 d0 01 40 8f a0 6c 00 a6 52 02 c0
       2.2267535207316405 -2.290355685534514
000650 2f ab 2b a8 30 59 05 40 7e 40 35 56 cb e0 e8 3f
       2.6685498369528413 0.7774407085180568
000660 8f c5 04 ab 04 0a fb bf 65 6b a6 a8 cc 60 0b c0
       -1.6899458580413442 -3.4222653556620792
000670 0a ff 35 ae c1 f0 01 40 72 a9 32 e7 25 18 d2 3f
       2.2425569162586543 0.2827238805572484
000680 4d b1 ee 6a 80 ba 01 40 a3 32 b2 50 75 3a 02 c0
       2.2160652498334117 -2.2785440735227254
000690 8c 25 80 60 d1 50 05 40 4e 0a 83 fd 8d 04 e9 3f
       2.664461854849554 0.7818059874919727
0006a0 21 75 dd dc 6a ee fa bf ae 23 17 21 fb 7c 0b c0
       -1.683207381014036 -3.43602586604944
0006b0 35 e9 b7 c5 80 da 01 40 e8 18 c5 c3 85 dc d1 3f
       2.231690926241891 0.2790846263709583
0006c0 ba 72 4c 53 80 ba 01 40 cd c8 89 13 75 3a 02 c0
       2.2160650737481236 -2.2785436178611236
0006d0 b5 78 9d 5d d1 50 05 40 7d c9 43 87 8d 04 e9 3f
       2.6644618333512775 0.7818057672396176
0006e0 55 83 51 c9 6a ee fa bf 41 bc 37 41 fb 7c 0b c0
       -1.6832073081970595 -3.4360261054166874
0006f0 fb 35 6d c1 80 da 01 40 0e 93 f0 6e 85 dc d1 3f
       2.2316908942655096 0.2790845473667084
000700 60 08 7d f3 f1 af 01 40 67 2d 4f de 8e fc 01 c0
       2.210910703900524 -2.248319374839116
000710 de b2 c4 bd 78 4e 05 40 d0 b9 b1 99 f6 b5 e8 3f
       2.663316233220356 0.7722123147812514
000720 6d 5a 8e d2 b7 c9 fa bf 8a ea 7e 82 6c 8d 0b c0
       -1.674247572407377 -3.444054622171568
000730 ee 8c 03 d0 6e da 01 40 e7 6c 89 54 3f 4d d1 3f
       2.231656670673707 0.27033980613278036
000740 c6 26 ee 48 4a ad 01 40 a3 1f 1b 75 8b d6 01 c0
       2.209614343421751 -2.229758181467291
000750 5a a7 a5 0f d3 52 05 40 51 15 38 de 53 a8 e8 3f
       2.66544162964139 0.7705478038994135
000760 c7 04 47 e4 0a a6 fa bf 34 ff ef a7 dd 90 0b c0
       -1.6655377308928097 -3.44573527527964
000770 c2 74 de 35 98 e1 01 40 fd d7 be a2 4f c9 d0 3f
       2.2351535995972833 0.26228705304254146
000780 54 05 07 7d f7 a8 01 40 04 53 62 a8 3d c7 01 c0
       2.207503296639212 -2.222285571575755
000790 16 b6 95 55 5b 5b 05 40 af 06 9e 2a f4 72 e8 3f
       2.669607800132108 0.7640324432724891
0007a0 24 ec aa ee 2c 8d fa bf e2 8c e2 c1 20 9c 0b c0
       -1.6594666789012615 -3.4512343547117874
0007b0 c5 eb 26 c9 38 f1 01 40 12 66 b9 6c d6 33 d0 3f
       2.242784091472887 0.2531639158019924
0007c0 09 2e 1c 06 65 b0 01 40 82 4b ce fa 0a c1 01 c0
       2.2111301877355385 -2.2192592233854507
0007d0 95 9e 0e db 02 5e 05 40 c7 e7 f8 05 0a 2b e8 3f
       2.6709038842998987 0.7552538029333328
0007e0 a5 08 82 68 30 87 fa bf 3a 13 09 d1 f1 a5 0b c0
       -1.658005150064619 -3.456027634705973
0007f0 67 50 1b d2 7b 01 02 40 92 fb fc f1 f4 01 d0 3f
       2.2507244505487054 0.25011943465863695

poses f8 [710, 156]
000000 f6 f6 db 77 9c aa aa 3f 4c c0 4a 7e fb 80 01 40
       0.05208291018605664 2.1879796854555362
000010 99 31 cc 39 f1 87 01 40 dc 22 95 3c 9c bb f7 bf
       2.191378070396422 -1.4833032957559942
000020 d5 25 8b 1f 84 4f c5 3f a0 4f 05 c5 22 36 ee 3f
       0.16648913898670395 0.9441083763181162
000030 0b 27 78 80 7a 5e f8 bf 55 2f 6e 61 45 72 d2 bf
       -1.523066045602209 -0.28822454943359804
000040 bc 98 16 d9 71 69 ec bf 60 cf c1 16 c2 5c f7 3f
       -0.8878716697697864 1.460146035094077
000050 fd 5e 03 74 00 ca a6 3f b1 5b 53 ef 4e 43 9d 3f
       0.04450990120102281 0.028577073437954407
000060 42 7c 02 cd 10 40 02 40 36 de f3 cb c5 a4 b0 3f
       2.2812820450194815 0.06501423100768808
000070 66 a5 ab f9 10 4c d5 bf 34 3d 56 fe 1f 6e 02 40
       -0.33276771909603153 2.303771960264976
000080 5f a8 29 b3 59 5f a2 bf 93 dd 2e ff 41 b7 cd 3f
       -0.03588371574444759 0.23215508422957196
000090 59 af 79 cf 73 8d cb bf ce f4 4f da 7c e9 a2 bf
       -0.21525428419715345 -0.036937619828657384
0000a0 b0 b8 08 28 7a b7 97 bf d5 58 c4 9b 8c 38 e2 bf
       -0.023160847371564486 -0.569402984840759
0000b0 08 4c 32 c4 15 23 c7 bf db cf 09 5d 86 0f ca bf
       -0.18075820999055758 -0.20359878104102233
0000c0 cf 44 d7 41 a8 ce dc bf f8 3e 16 35 0d 58 dc 3f
       -0.4501133578278997 0.44287424263255515
0000d0 ea 4c 73 59 69 24 cc 3f ac 79 49 4e a4 13 c2 bf
       0.2198611914414877 -0.1412244207630925
0000e0 b6 12 e9 58 64 85 a5 bf 14 04 73 d5 58 75 b5 3f
       -0.04203332505543271 0.08382182322658621
0000f0 00 00 00 00 00 00 00 00 00 00 00 00 00 00 00 00
       0.0 0.0
000100 00 00 00 00 00 00 00 00 00 00 00 00 00 00 00 00
       0.0 0.0
000110 00 00 00 00 00 00 00 00 00 00 00 00 00 00 00 00
       0.0 0.0
000120 fd 3e a9 ca e6 6b dd bf 72 17 2f d5 b0 9e bc 3f
       -0.45971078673481697 0.11179642872511211
000130 6b 51 1d 2e 3b 51 b8 bf 17 f8 1e df 37 01 c5 bf
       -0.09498948932497846 -0.16409967798784983
000140 df 68 cb 44 b5 86 e5 bf f8 20 84 33 f3 61 d2 bf
       -0.6726938575405049 -0.2872283938491047
000150 b0 c8 41 42 92 d3 b1 bf 38 a0 c4 64 20 07 e5 3f
       -0.06963457219697733 0.6571199386717188
000160 00 4e 57 2b db c0 d1 3f 20 c0 a2 ef 7d 1f d7 bf
       0.27739600403330655 -0.36129711534431586
000170 e6 de 26 05 fb 5d c2 bf df 0d ce 08 36 e7 cb 3f
       -0.14349305869631407 0.21799350194861142
000180 74 75 a5 48 78 43 c7 bf 74 95 60 49 da f1 d8 bf
       -0.1817465166777016 -0.3897615162444119
000190 c3 8d 47 ec aa b0 e4 bf 72 ba 21 26 21 ca d2 bf
       -0.6465658774217719 -0.29358700488857103
0001a0 f0 12 a0 0e b6 4d de 3f d9 1d e6 d6 ce f8 e4 3f
       0.47349311283350826 0.6553720662349704
0001b0 64 ed e5 6c ca 83 d4 3f ca 06 d0 6f eb a4 e1 bf
       0.32054386744103724 -0.5513817962493814
0001c0 20 f5 65 a2 a1 5a a5 bf 2a f6 ee 5e 10 78 d4 3f
       -0.04170708758736397 0.3198281218609248
0001d0 f0 6f 01 b5 1f ac e1 3f b6 d6 a7 bc 1e 5f b3 3f
       0.5522612128511337 0.07567016702509019
0001e0 28 b1 d1 c8 ed aa b8 bf d7 52 f5 6f 89 79 c8 bf
       -0.09635816719827928 -0.19120901076043736
0001f0 c3 b1 7f 3d 53 0c d1 3f 5f 3f cf 36 ad 3f c3 3f
       0.26637726789229194 0.15038075615165789
000200 75 3b 46 51 9c 19 ca 3f ce 36 23 86 fd 34 d1 bf
       0.20390657394861092 -0.2688592729508458
000210 80 bb 8c ef f9 96 bc 3f d6 a9 64 90 f6 f5 a5 3f
       0.1116787156904433 0.04289217484104639
000220 83 eb 72 a9 fb a6 da bf 2d f8 e5 1a 0f db bb 3f
       -0.416441836812446 0.10881132513711185
000230 b1 4d c9 fc 6f e4 b0 bf db ff 70 4e f4 32 e8 bf
       -0.06598567887822672 -0.7562200100001023
000240 9f 58 d7 98 35 ad b8 bf 2f c4 0b a7 3f 46 b7 bf
       -0.09639296514009964 -0.09091565922041477
000250 ae e4 15 1d 6f 1f c8 bf e6 3e cd fb 79 3b be bf
       -0.1884592906970161 -0.11809503934386675
000260 00 54 c2 09 50 15 aa 3f 95 b4 7b 31 5b f2 e0 bf
       0.05094385260705536 -0.529584499976084
000270 ae 20 e9 9e b5 64 c2 bf 17 d3 e1 dd a3 48 ac 3f
       -0.14369840869244882 0.05524170001527844
000280 fc ef f3 8f 30 8e e6 bf ba 5e e0 c1 af a4 93 bf
       -0.7048571406917286 -0.019182916839865817
000290 57 a7 4d 3f 63 a3 b7 bf 6a 31 25 0c 60 a0 d5 bf
       -0.09233684821597642 -0.3379135244947721
0002a0 a9 32 25 45 07 40 dd bf 6c 44 9b 12 d5 1f c9 bf
       -0.4570329833266365 -0.196283945164882
0002b0 c5 4b 13 84 bf 03 e4 bf e5 28 80 a9 ba 79 cb bf
       -0.6254575328442732 -0.21465237881086022
0002c0 b6 e1 12 82 43 e5 b0 bf c9 a1 33 33 7a 38 e0 bf
       -0.06599828649166892 -0.5068942070038754
0002d0 75 1e db 59 90 a9 d7 bf f6 62 6b a9 7d e5 ae bf
       -0.36972435736649994 -0.06034462636097786
0002e0 ac 9b 14 b9 78 59 b4 bf 14 54 27 41 c9 28 c2 bf
       -0.07949022787634757 -0.14186969453172138
0002f0 01 70 5f 2c 70 fa b5 bf da 53 c5 5a 3f 56 e4 bf
       -0.08585263331718808 -0.6355282566897771
000300 e5 f6 70 d5 f2 69 d3 bf 0b 20 55 3f 93 a2 ad bf
       -0.3033415874850632 -0.05788097522832921
000310 32 5f f5 24 57 34 e4 bf 67 f4 a5 10 21 8b c6 bf
       -0.6313892099233043 -0.1761208850183806
000320 c6 b2 4e 09 6d e8 c0 bf 36 8c ee 97 0a e5 d7 bf
       -0.13209307627166406 -0.37335457646458126
000330 4e c7 87 70 19 3b eb 3f ae 0b 2c 2a 1a b9 d1 3f
       0.8509642789706306 0.2769227420650918
000340 9c 33 ba bd b1 6f b7 bf 3f 7e 75 8d 5e fd df bf
       -0.09154806978240376 -0.49983943762160615
000350 59 89 b4 ad 9e 31 9b 3f 91 40 4d c8 33 13 ab 3f
       0.026556472160458842 0.05288087673273013
000360 3b ce 19 f0 4c 23 e1 3f 72 d3 95 9f 34 88 a7 3f
       0.5355591477841196 0.04596104095518329
000370 3a f5 a5 db 3b c0 d1 bf 80 bb 8c ef f9 96 bc 3f
       -0.2773580212595622 0.1116787156904433
000380 d4 a9 64 90 f6 f5 a5 bf 84 eb 72 a9 fb a6 da 3f
       -0.04289217484104638 0.41644183681244606
000390 2d f8 e5 1a 0f db bb 3f b0 4d c9 fc 6f e4 b0 3f
       0.10881132513711185 0.0659856788782267
0003a0 db ff 70 4e f4 32 e8 3f 9f 58 d7 98 35 ad b8 bf
       0.7562200100001023 -0.09639296514009964
0003b0 2f c4 0b a7 3f 46 b7 3f af e4 15 1d 6f 1f c8 3f
       0.09091565922041477 0.18845929069701614
0003c0 e5 3e cd fb 79 3b be bf 01 54 c2 09 50 15 aa bf
       -0.11809503934386674 -0.05094385260705537
0003d0 95 b4 7b 31 5b f2 e0 3f af 20 e9 9e b5 64 c2 bf
       0.529584499976084 -0.14369840869244885
0003e0 18 d3 e1 dd a3 48 ac bf fc ef f3 8f 30 8e e6 3f
       -0.05524170001527845 0.7048571406917286
0003f0 bb 5e e0 c1 af a4 93 bf 57 a7 4d 3f 63 a3 b7 3f
       -0.01918291683986582 0.09233684821597642
000400 6a 31 25 0c 60 a0 d5 3f a9 32 25 45 07 40 dd bf
       0.3379135244947721 -0.4570329833266365
000410 6d 44 9b 12 d5 1f c9 3f c5 4b 13 84 bf 03 e4 3f
       0.19628394516488204 0.6254575328442732
000420 e7 28 80 a9 ba 79 cb bf b6 e1 12 82 43 e5 b0 3f
       -0.21465237881086027 0.06599828649166892
000430 c9 a1 33 33 7a 38 e0 3f 75 1e db 59 90 a9 d7 bf
       0.5068942070038754 -0.36972435736649994
000440 f4 62 6b a9 7d e5 ae 3f ad 9b 14 b9 78 59 b4 3f
       0.06034462636097784 0.07949022787634759
000450 16 54 27 41 c9 28 c2 bf 01 70 5f 2c 70 fa b5 3f
       -0.14186969453172144 0.08585263331718808
000460 da 53 c5 5a 3f 56 e4 3f e5 f6 70 d5 f2 69 d3 bf
       0.6355282566897771 -0.3033415874850632
000470 0c 20 55 3f 93 a2 ad 3f 32 5f f5 24 57 34 e4 3f
       0.05788097522832922 0.6313892099233043
000480 68 f4 a5 10 21 8b c6 bf c6 b2 4e 09 6d e8 c0 3f
       -0.17612088501838064 0.13209307627166406
000490 36 8c ee 97 0a e5 d7 3f 4e c7 87 70 19 3b eb 3f
       0.37335457646458126 0.8509642789706306
0004a0 ae 0b 2c 2a 1a b9 d1 bf 9d 33 ba bd b1 6f b7 3f
       -0.2769227420650918 0.09154806978240378
0004b0 3f 7e 75 8d 5e fd df bf 59 89 b4 ad 9e 31 9b bf
       -0.49983943762160615 -0.026556472160458842
0004c0 90 40 4d c8 33 13 ab bf 3a ce 19 f0 4c 23 e1 3f
       -0.05288087673273012 0.5355591477841195
0004d0 74 d3 95 9f 34 88 a7 bf 3c f5 a5 db 3b c0 d1 3f
       -0.0459610409551833 0.2773580212595623
0004e0 2d 65 fb d5 ca 6c ab 3f 54 58 66 55 e4 87 01 40
       0.05356439458928217 2.1913534805162644
0004f0 63 b7 bc 23 41 85 01 40 2b cd 38 7c 72 b7 f7 bf
       2.1900656501738225 -1.482286916009637
000500 83 c9 8f 1d 59 16 c5 3f bd dc b4 e3 20 36 ee 3f
       0.16474451011124466 0.9441074798004575
000510 8f 87 0b 67 dd 65 f8 bf 67 f5 25 26 d1 6b d2 bf
       -1.5248693490216032 -0.28783062673013265
000520 5e 64 9a 56 88 7a ec bf 45 97 98 88 58 71 f7 3f
       -0.8899575892893485 1.4651723228248141
000530 b0 ad e3 cc 7a 19 a5 3f 80 04 f0 13 ac d9 94 3f
       0.04121001959887438 0.020361603466885203
000540 ed 41 ca 17 a8 44 02 40 93 e2 f2 3b f2 5f b2 3f
       2.283523736820135 0.07177652324288379
000550 7f 45 5e 64 6a c9 d4 bf 8f 2e 32 25 45 71 02 40
       -0.32479343225084983 2.3053076654376308
000560 42 45 8b d9 70 4c a3 bf e0 54 62 95 42 c7 cc 3f
       -0.03769257216994017 0.2248309354223812
000570 33 9a e5 da b2 68 cb bf fc c4 e7 cb 58 cc 9a bf
       -0.2141326493103449 -0.026170146413226
000580 90 ed 49 4b b4 2b 98 bf 35 95 c7 99 2d 3c e2 bf
       -0.023604218573820612 -0.5698459628589833
000590 c1 ef fc 98 23 b4 c8 bf 6b d1 7e 72 2f 5e cb bf
       -0.19299740762823883 -0.2138118084964263
0005a0 8d 47 e0 5f 45 da dc bf 77 e1 62 2f 1d ca dc 3f
       -0.45082220423602665 0.4498360598331809
0005b0 c9 ec a5 ce 86 cd cc 3f fe bc 1b d6 ac f5 c1 bf
       0.2250221737884657 -0.1403099103403988
0005c0 69 31 bd a6 dd ea a4 bf a2 07 3b f3 ee 94 b5 3f
       -0.04085438404453862 0.08430379331824026
0005d0 00 00 00 00 00 00 00 00 00 00 00 00 00 00 00 00
       0.0 0.0
0005e0 00 00 00 00 00 00 00 00 00 00 00 00 00 00 00 00
       0.0 0.0
0005f0 00 00 00 00 00 00 00 00 00 00 00 00 00 00 00 00
       0.0 0.0
000600 f4 34 4f 6a 67 d3 df bf 0f 7d 11 f7 61 bd c0 3f
       -0.4972780740907432 0.1307795006168608
000610 67 1d da 3a 2f 88 b4 bf ba 72 0a 3b 55 fc c6 bf
       -0.08020301043335608 -0.17957558997013284
000620 16 9f bf fd d9 b1 e4 bf 52 74 fe 43 2c 28 d1 bf
       -0.6467103916192822 -0.2680769599917926
000630 76 0e 5d e9 ca d9 b5 bf 23 5e 40 95 0d bf e3 3f
       -0.08535450169898148 0.6170719065730207
000640 8e e0 45 c3 6a 0e d1 3f 1e f3 68 5d ff e3 d5 bf
       0.26650494641899847 -0.34204086420122504
000650 37 b9 7f d3 ee e0 c4 bf 61 39 a8 34 7b 41 c9 3f
       -0.1631144077977724 0.1973108298411246
000660 97 15 c0 1d e0 5c c8 bf b7 9e 9c 5e 90 da da bf
       -0.19033433392193608 -0.4195900844519928
000670 d3 c6 f1 71 05 c7 e5 bf 40 28 e9 af 19 c9 d2 bf
       -0.6805445886113496 -0.29352419070039915
000680 76 91 60 33 28 06 e0 3f ba b8 6f da 20 c5 e5 3f
       0.5007515910588569 0.6803135172210866
000690 93 78 28 83 10 b8 d6 3f f7 fd c5 f4 6e 20 e1 bf
       0.3549844055977555 -0.5352091580134005
0006a0 18 3a 61 6d 87 89 9c bf c5 99 4c 27 fe 0a d6 3f
       -0.027868381548893678 0.3444209464818438
0006b0 cf 9f 01 4c 49 7a e1 3f bb ef a1 68 10 d4 b2 3f
       0.5461775288103982 0.07354834131723369
0006c0 22 19 ac 0c 9f c4 b8 bf ed 53 f7 7d ce 0f cb bf
       -0.09675020274525939 -0.21141987944307009
0006d0 53 86 46 7e 25 2d ce 3f 8c 21 34 0a 09 4f be 3f
       0.23575276056094427 0.11839348315345982
0006e0 7d 54 31 00 e9 7f cc 3f ad d3 34 2a 9f 82 d1 bf
       0.22265350827607114 -0.2735975181743083
0006f0 80 bb 8c ef f9 96 bc 3f d6 a9 64 90 f6 f5 a5 3f
       0.1116787156904433 0.04289217484104639
000700 83 eb 72 a9 fb a6 da bf 2d f8 e5 1a 0f db bb 3f
       -0.416441836812446 0.10881132513711185
000710 b1 4d c9 fc 6f e4 b0 bf db ff 70 4e f4 32 e8 bf
       -0.06598567887822672 -0.7562200100001023
000720 9f 58 d7 98 35 ad b8 bf 2f c4 0b a7 3f 46 b7 bf
       -0.09639296514009964 -0.09091565922041477
000730 ae e4 15 1d 6f 1f c8 bf e6 3e cd fb 79 3b be bf
       -0.1884592906970161 -0.11809503934386675
000740 00 54 c2 09 50 15 aa 3f 95 b4 7b 31 5b f2 e0 bf
       0.05094385260705536 -0.529584499976084
000750 ae 20 e9 9e b5 64 c2 bf 17 d3 e1 dd a3 48 ac 3f
       -0.14369840869244882 0.05524170001527844
000760 fc ef f3 8f 30 8e e6 bf ba 5e e0 c1 af a4 93 bf
       -0.7048571406917286 -0.019182916839865817
000770 57 a7 4d 3f 63 a3 b7 bf 6a 31 25 0c 60 a0 d5 bf
       -0.09233684821597642 -0.3379135244947721
000780 a9 32 25 45 07 40 dd bf 6c 44 9b 12 d5 1f c9 bf
       -0.4570329833266365 -0.196283945164882
000790 c5 4b 13 84 bf 03 e4 bf e5 28 80 a9 ba 79 cb bf
       -0.6254575328442732 -0.21465237881086022
0007a0 b6 e1 12 82 43 e5 b0 bf c9 a1 33 33 7a 38 e0 bf
       -0.06599828649166892 -0.5068942070038754
0007b0 75 1e db 59 90 a9 d7 bf f6 62 6b a9 7d e5 ae bf
       -0.36972435736649994 -0.06034462636097786
0007c0 ac 9b 14 b9 78 59 b4 bf 14 54 27 41 c9 28 c2 bf
       -0.07949022787634757 -0.14186969453172138
0007d0 01 70 5f 2c 70 fa b5 bf da 53 c5 5a 3f 56 e4 bf
       -0.08585263331718808 -0.6355282566897771
0007e0 e5 f6 70 d5 f2 69 d3 bf 0b 20 55 3f 93 a2 ad bf
       -0.3033415874850632 -0.05788097522832921
0007f0 32 5f f5 24 57 34 e4 bf 67 f4 a5 10 21 8b c6 bf
       -0.6313892099233043 -0.1761208850183806
